SimpleSpread/Baseline_simpleSpread/agent_2_model.pth (torch, 16007 bytes, 6 tensors)

fc1.weight f4 [64, 18]
0.13658617 -0.42461315 -0.19017823 0.07359299 0.012809183 -0.13377398 -0.024054404 -0.1850124
0.1747662 0.17933802 -0.1616088 0.10683574 0.12594582 0.09012736 0.16151719 -0.0077818483
-0.012301907 -0.14805196 0.04294967 0.068243526 0.12317183 -0.16497098 -0.18921438 -0.18437424
0.024465928 -0.25135663 -0.05586329 0.2022804 0.13504332 -0.032219578 0.102438316 -0.20614201
-0.071096644 -0.1783148 -0.18636653 0.19013469 -0.057657436 -0.18876618 0.039476804 0.0794619
-0.17999485 0.19107698 0.0658887 0.13134526 0.24371372 0.19185367 0.067092314 -0.027744055
-0.1476739 -0.13129014 -0.21090806 0.21775027 -0.20015046 -0.070314795 -0.24463141 0.18792501
0.17824978 -0.20187606 -0.03123223 -0.15926613 -0.20459819 -0.0038167094 0.21706569 0.010405104
-0.06514447 -0.2017048 0.17609592 0.15931706 0.049186185 0.2305253 0.13155277 0.19995634
0.027284846 -0.121840276 -0.06250167 -0.012797505 0.118817285 0.09107266 0.19703 0.17450272
0.062677816 0.16445582 0.083339676 -0.049022257 -0.06081164 0.0073725283 -0.15402845 -0.141745
0.0213878 -0.18210433 -0.016540114 -0.09243723 -0.1743848 -0.25037408 0.25654933 -0.15483148
0.27401963 -0.1493472 0.088971816 0.06823423 -0.14017454 -0.042496298 -0.23920985 -0.13312195
0.05120571 0.19896908 -0.08340055 0.105539665 -0.26703113 0.1914166 0.07997906 0.16780554
-0.08997182 0.13440238 0.20977962 -0.22351773 -0.065649144 -0.08845116 -0.14943469 0.105900906
-0.1488971 -0.23460506 0.015040413 0.028857693 0.13601254 0.16044833 0.24608672 0.2738881
-0.34001544 -0.19404055 0.007795441 0.062484138 -0.11453296 -0.2220015 0.1118924 -0.08340854
0.29863587 -0.029214788 0.009103649 0.106626846 -0.025087714 0.0065769106 -0.095817626 0.224405
0.13618918 0.13757965 0.07661657 -0.17365901 -0.11202591 -0.061362594 -0.1871003 -0.22545512
-0.22071615 0.04404115 0.08282607 0.17856325 -0.14663592 -0.16973463 0.16566543 0.22448574
0.12005098 -0.057801306 -0.014515988 -0.019225467 0.06843399 0.16738799 -0.053113386 0.15348105
0.29139647 0.17848614 0.19995579 0.029527696 -0.12710087 -0.28861365 -0.39369968 -0.18907121
-0.2230425 -0.14205274 0.09574057 0.13061439 0.0064450284 -0.21925688 0.13522014 -0.047509704
-0.03910908 -0.10951067 -0.13451947 -0.117101416 0.116500266 0.17549212 -0.19352931 -0.07347372
0.36940923 -0.0974403 -0.06039773 0.20631327 0.095293984 0.042819038 -0.077110365 -0.13747808
0.07611138 -0.118041314 0.1671926 -0.23557666 0.12452815 -0.12860581 -0.036895167 -0.15211599
-0.23103306 -0.02330221 -0.06577095 -0.26046896 0.039931282 -0.22400308 -0.22986698 0.08313219
0.010996073 -0.025096092 0.20977966 -0.2698069 -0.21185485 0.26957062 0.20253952 0.40981475
-0.15579839 0.36417967 0.0258429 -0.15439178 -0.008680333 -0.14737761 0.03021197 -0.10625027
0.016953722 -0.09414232 -0.2307573 0.050059907 0.010991387 0.19476058 0.052489188 -0.26079312
-0.015428595 0.15400602 0.082358174 -0.10525929 -0.10280801 -0.29084855 -0.13249464 0.43038663
-0.14949144 0.13306923 -0.14786634 -0.16741548 -0.102791056 0.387545 -0.20204745 0.021996358
00000000: 3fdd 0b3e e566 d9be 15be 42be ecb7 963d
00000010: 9cdd 513c 0cfc 08be be0d c5bc e473 3dbe
00000020: e9f5 323e 63a4 373e c77c 25be b2cc da3d
00000030: f1f7 003e b194 b83d c364 253e e0fe febb
00000040: f08d 49bc ef9a 17be feeb 2f3d 43c3 8b3d
00000050: 8341 fc3d 27ee 28be 6ac1 41be 9acc 3cbe
00000060: c56c c83c d1b1 80be e8d0 64bd 9822 4f3e
00000070: cc48 0a3e adf8 03bd 2ecb d13d e416 53be
00000080: 1e9b 91bd 2898 36be ded6 3ebe abb2 423e
00000090: 342a 6cbd ec4b 41be 6eb2 213d ecbc a23d
000000a0: 9250 38be afa9 433e a8f0 863d 5f7f 063e
000000b0: 1790 793e 4a75 443e b267 893d 8047 e3bc
000000c0: d437 17be ec70 06be 48f8 57be edf9 5e3e
000000d0: 3ef4 4cbe 3401 90bd a880 7abe 6a6f 403e
000000e0: 1c87 363e 99b8 4ebe bcda ffbc a916 23be
000000f0: 3082 51be c221 7abb 7846 5e3e 2b7a 2a3c
00000100: 776a 85bd b48b 4ebe 7d52 343e 0324 233e
00000110: 7477 493d d30e 6c3e c5b5 063e 5bc1 4c3e
00000120: 7884 df3c 6587 f9bd e000 80bd a0ac 51bc
00000130: 7a56 f33d 4e84 ba3d 3bc2 493e d7b0 323e
00000140: 3a5d 803d 1b67 283e fead aa3d 90cb 48bd
00000150: a015 79bd 4095 f13b a2b9 1dbe 9a25 11be
00000160: 7835 af3c 8f79 3abe 227f 87bc bb4f bdbd
00000170: ee91 32be 0831 80be 6f5a 833e 258c 1ebe
00000180: 4d4c 8c3e 79ee 18be db36 b63d 63be 8b3d
00000190: ea89 0fbe 9910 2ebd 6df3 74be 1f51 08be
000001a0: 14bd 513d 8dbe 4b3e e8cd aabd 2e25 d83d
000001b0: 4eb8 88be b702 443e 10cc a33d 37d5 2b3e
000001c0: 2543 b8bd c7a0 093e 78d0 563e d5e1 64be
000001d0: 0f73 86bd e225 b5bd 6805 19be 93e2 d83d
000001e0: 7b78 18be 4f3c 70be 106c 763c f866 ec3c
000001f0: df46 0b3e 914c 243e 28fe 7b3e 103b 8c3e
00000200: 8116 aebe 91b2 46be e670 ff3b 5eef 7f3d
00000210: 4290 eabd 5c54 63be d827 e53d 19d2 aabd
00000220: cde6 983e da53 efbc 7927 153c 2d5f da3d
00000230: c084 cdbc 2083 d73b 083c c4bd 6dca 653e
00000240: 2d75 0b3e aee1 0c3e 26e9 9c3d abd3 31be
00000250: d76d e5bd 5857 7bbd 3997 3fbe b5dd 66be
00000260: 6a03 62be 7e64 343d b7a0 a93d 49d9 363e
00000270: ba27 16be eace 2dbe 33a4 293e 97df 653e
00000280: 4add f53d 10c1 6cbd 77d4 6dbc ba7e 9dbc
00000290: 1f27 8c3d c267 2b3e 6c8d 59bd 232a 1d3e
000002a0: eb31 953e 12c5 363e 36c1 4c3e 11e4 f13c
000002b0: bb26 02be 2bc5 93be 0193 c9be e29b 41be
000002c0: 4165 64be 4676 11be a213 c43d c7bf 053e
000002d0: d130 d33b e084 60be 2677 0a3e 8999 42bd
000002e0: d830 20bd 2147 e0bd 79bf 09be ded2 efbd
000002f0: b197 ee3d 35b4 333e 8c2c 46be 6479 96bd
00000300: 3523 bd3e c88e c7bd 9c63 77bd c943 533e
00000310: 7e29 c33d 0463 2f3d 0aec 9dbd 0ec7 0cbe
00000320: 48e0 9b3d a5bf f1bd 8934 2b3e 023b 71be
00000330: 9d08 ff3d 3eb1 03be 631f 17bd 4bc4 1bbe
00000340: ee93 6cbe 47e4 bebc ebb2 86bd 305c 85be
00000350: fc8e 233d 1061 65be 4062 6bbe 3641 aa3d
00000360: df28 343c 5296 cdbc 7bd0 563e 2124 8abe
00000370: 7af0 58be 2905 8a3e 8566 4f3e 3dd3 d13e
00000380: 9d89 1fbe c275 ba3e 7db4 d33c e118 1ebe
00000390: f537 0ebc 28ea 16be 187f f73c be99 d9bd
000003a0: 88e2 8a3c b0cd c0bd a44b 6cbe 9e0b 4d3d
000003b0: 3815 343c 516f 473e e7fe 563d ad86 85be
000003c0: 38c8 7cbc c1b3 1d3e 67ab a83d 2f92 d7bd
000003d0: 028d d2bd 1aea 94be adac 07be a35b dc3e
000003e0: 4914 19be 4d43 083e 466a 17be f76e 2bbe
000003f0: 1e84 d2bd 4c6c c63e 87e5 4ebe b531 b43c

fc1.bias f4 [64]
0.21356304 -0.029586386 -0.2365813 -0.18421087 -0.08050817 0.03668204 0.25484625 0.08682076
0.21566647 0.28439268 -0.043045904 0.2563129 -0.1761295 0.14771844 -0.103779554 0.053410463
-0.03065544 0.11822368 0.017594513 0.0065970793 -0.113623135 -0.14183348 -0.15102892 0.13635595
0.048877943 -0.11188328 0.1564383 0.05635865 -0.08267494 0.05576629 -0.034841254 -0.160126
0.16178128 -0.19231123 0.050386406 -0.2516638 0.050649475 0.22225012 -0.110327795 -0.23600426
0.002324219 0.059785914 -0.15173057 0.30253017 -0.16414675 0.21390244 -0.032084875 0.090611584
0.04620043 -0.16120364 0.16622089 -0.015143737 0.05114647 0.16468994 -0.18674439 0.056690488
-0.052434035 0.20863956 0.19441685 0.050961487 0.17312808 0.15272133 -0.048103154 -0.19282588
00000000: 45b0 5a3e 265f f2bc 5e42 72be c6a1 3cbe
00000010: 78e1 a4bd e83f 163d 357b 823e 15cf b13d
00000020: acd7 5c3e eb9b 913e e750 30bd 723b 833e
00000030: 4b5b 34be 8143 173e 608a d4bd eec4 5a3d
00000040: 1e21 fbbc 421f f23d 5e22 903c 502c d83b
00000050: 3fb3 e8bd cc3c 11be 53a7 1abe e5a0 0b3e
00000060: 3d34 483d 1023 e5bd 5d31 203e 54d8 663d
00000070: 7b51 a9bd 316b 643d b4b5 0ebd 12f8 23be
00000080: fea9 253e 3ced 44be fa61 4e3d 14da 80be
00000090: d375 4f3d 8995 633e 8af3 e1bd 1aab 71be
000000a0: ed51 183b 13e2 743d 425f 1bbe 3ce5 9a3e
000000b0: 1616 28be 3e09 5b3e 6e6b 03bd 9192 b93d
000000c0: a93c 3d3d 9112 25be cf35 2a3e 701d 78bc
000000d0: f67e 513d 7ba4 283e ec39 3fbe 4934 683d
000000e0: 12c5 56bd 9ca5 553e 3615 473e febc 503d
000000f0: 7d48 313e fb62 1c3e d007 45bd 2674 45be

fc2.weight f4 [32, 64]
-0.024205951 -0.13881221 -0.12537903 -0.043877315 -0.017923743 0.047525704 0.014974949 -0.05041064
-0.050993532 0.16733572 -0.03642268 0.0533626 -0.13817401 0.0014377532 0.08069498 -0.065910764
0.12325315 0.005423715 -0.051368326 -0.105936356 0.25787678 0.06856583 0.07174457 -0.09543945
-0.13766879 0.04333345 0.03639351 -0.008602238 0.07499357 0.04717141 0.060083088 -0.036352888
0.078294955 -0.1391059 -0.053985283 -0.110122114 -0.039660893 -0.055135652 0.03453518 -0.1149164
-0.17587471 -0.038845014 0.04961231 -0.028087825 -0.18150987 -0.04128657 -0.08207718 -0.048831996
0.040411923 0.0389961 -0.07773546 -0.038259253 -0.13422786 -0.081583574 0.030023532 -0.05109724
-0.0038678232 -0.13473628 -0.11780005 -0.038314525 -0.012304068 0.11050852 -0.030740919 0.085114196
0.021371184 0.032371648 0.023485625 0.076331735 0.06061855 0.14103484 -0.040993124 0.14184071
0.07511751 0.26389176 0.29896107 0.05640662 0.038174704 0.13886389 -0.089099586 0.09666067
-0.08665779 -0.0058460184 -0.07213949 0.10562414 0.20120786 -0.07228316 -0.2397644 -0.25437695
-0.09461323 0.09861466 0.078902505 0.25851074 0.05995329 -0.04627886 -0.03884152 -0.016522437
-0.14796756 0.010751822 -0.09133478 0.049358748 -0.08405046 0.22061433 0.042763542 0.038561735
0.072296865 -0.079422675 -0.084537044 0.14081569 -0.087428495 0.083355576 0.14820537 0.0021218848
0.059441086 -0.10964718 0.07848441 0.092726365 -0.22287254 0.09314339 0.39001754 -0.23157038
-0.093690366 0.110697806 -0.15290052 -0.08595447 0.10199125 -0.10539967 0.06176787 -0.14465247
0.026100235 -0.1215173 -0.022072807 -0.07541649 -0.123353064 -0.057619303 -0.082639396 0.016007153
-0.031153822 -0.07730808 0.024025295 -0.05307863 0.07798649 -0.053783894 -0.027779326 0.017730296
-0.01136069 0.02875922 0.030864917 0.038791575 -0.05427687 -0.07998568 -0.08414686 0.006312288
0.10367177 0.08037229 0.034065202 -0.04878713 0.033423398 -0.11447075 -0.027594134 -0.03302656
-0.0015396221 -0.09555121 0.050559565 -0.045541376 0.022119854 -0.044969887 -0.08497692 -0.09592467
-0.12779726 -0.115407676 0.0743927 -0.08101046 -0.012022906 0.101671964 -0.10252222 0.07434325
0.0014696608 -0.098406896 -0.06393552 -0.06243357 0.017402211 0.10361545 -0.018362045 0.10363209
0.04218758 -0.0352625 -0.078345075 0.047624648 0.073394164 0.09604596 -0.038328785 0.0026582181
-0.027347779 -0.034476865 0.054731503 -0.014135644 -0.09633191 0.054705735 -0.020850029 -0.14530274
-0.13096894 0.020546883 -0.18984506 0.021962356 -0.08570218 -0.118883215 0.1077758 0.034906484
-0.1167199 -0.05195987 0.11421123 -0.11025374 0.07101645 -0.014357284 0.044334147 0.06900001
0.12738265 -0.036841393 0.036042728 -0.06613975 0.0050112745 0.02491856 -0.12130541 -0.0032885224
0.045640178 0.0882742 -0.07002559 0.059989423 -0.10859581 -0.10637382 0.017214118 0.07471151
0.016136236 -0.04506299 0.0481214 0.07818698 -0.10965049 -0.12288524 -0.069501884 0.012333807
0.011918127 -0.037224635 -0.0164534 0.03443469 -0.07368274 -0.100146845 -0.09679762 -0.051247757
-0.09724545 -0.0046039233 -0.052945297 0.06653137 0.07265012 0.026740147 -0.0413739 0.08757008
00000000: 8f4b c6bc ca24 0ebe 5c63 00be b3b8 33bd
00000010: d0d4 92bc 50aa 423d 7d59 753c 637b 4ebd
00000020: 98de 50bd 0e5a 2b3e f32f 15bd be92 5a3d
00000030: 7d7d 0dbe fe72 bc3a 6943 a53d 39fc 86bd
00000040: 266c fc3d 6bb9 b13b 9867 52bd 29f5 d8bd
00000050: 6d08 843e 3e6c 8c3d d1ee 923d c275 c3bd
00000060: 0cf9 0cbe 6a7e 313d 5c11 153d 67f0 0cbc
00000070: 3b96 993d cf36 413d af19 763d c4e6 14bd
00000080: 1b59 a03d c771 0ebe ac1f 5dbd b487 e1bd
00000090: 7673 22bd ecd5 61bd c374 0d3d 4a59 ebbd
000000a0: 8018 34be f31b 1fbd 4736 4b3d 7018 e6bc
000000b0: b9dd 39be 1b1c 29bd 1518 a8bd 0f04 48bd
000000c0: f986 253d 60ba 1f3d c533 9fbd bcb5 1cbd
000000d0: 0773 09be 4a15 a7bd e9f3 f53c 574b 51bd
000000e0: 4e7b 7dbb 4ff8 09be 2741 f1bd b1ef 1cbd
000000f0: 0097 49bc 4a52 e23d 61d4 fbbc 5a50 ae3d
00000100: 9f12 af3c 2298 043d ed64 c03c d053 9c3d
00000110: 284b 783d 706b 103e 68e8 27bd b13e 113e
00000120: 36d7 993d d21c 873e 6d11 993e a10a 673d
00000130: 145d 1c3d 5632 0e3e d879 b6bd 08f6 c53d
00000140: a479 b1bd f58f bfbb debd 93bd 7851 d83d
00000150: 6f09 4e3e 3209 94bd cd84 75be b23d 82be
00000160: 95c4 c1bd 7cf6 c93d a397 a13d 855b 843e
00000170: 9591 753d e78e 3dbd 4918 1fbd 105a 87bc
00000180: cf84 17be 6928 303c bb0d bbbd 662c 4a3d
00000190: a622 acbd b9e8 613e d328 2f3d e9f2 1d3d
000001a0: 6110 943d 5ba8 a2bd c221 adbd fd31 103e
000001b0: b60d b3bd 54b6 aa3d 26c3 173e 520f 0b3b
000001c0: 7f78 733d b38e e0bd 6fbc a03d 52e7 bd3d
000001d0: b338 64be f6c1 be3d 61b0 c73e c920 6dbe
000001e0: bce0 bfbd 88b5 e23d f491 1cbe e608 b0bd
000001f0: cae0 d03d c8db d7bd 4e00 7d3d c71f 14be
00000200: 29d0 d53c 10de f8bd 08d2 b4bc f673 9abd
00000210: 88a0 fcbd 3802 6cbd d83e a9bd 6f21 833c
00000220: 4d36 ffbc b353 9ebd b2d0 c43c fa68 59bd
00000230: 62b7 9f3d 804c 5cbd 7891 e3bc 203f 913c
00000240: 3022 3abc 7598 eb3c 6cd8 fc3c eae3 1e3d
00000250: 6c51 5ebd 88cf a3bd 3055 acbd 4fd7 ce3b
00000260: dd51 d43d 3a9a a43d f487 0b3d 03d5 47bd
00000270: f9e6 083d a46f eabd 180d e2bc dc46 07bd
00000280: 25cd c9ba 5ab0 c3bd 8c17 4f3d 9889 3abd
00000290: b234 b53c 5832 38bd 6108 aebd 2774 c4bd
000002a0: 49dd 02be dc5a ecbd 335b 983d d0e8 a5bd
000002b0: b9fb 44bc 6439 d03d 2bf7 d1bd 4641 983d
000002c0: a2a1 c03a 8e89 c9bd a0f0 82bd 58ba 7fbd
000002d0: 158f 8e3c 5634 d43d 006c 96bc 103d d43d
000002e0: e2cc 2c3d 696f 10bd 6273 a0bd 1012 433d
000002f0: ae4f 963d bfb3 c43d a5fe 1cbd 8035 2e3b
00000300: 7308 e0bc 9d37 0dbd 242e 603d 3099 67bc
00000310: aa49 c5bd 1f13 603d aecd aabc 3eca 14be
00000320: b91c 06be f051 a83c be66 42be 66ea b33c
00000330: a084 afbd 0b79 f3bd 8fb9 dc3d 1afa 0e3d
00000340: d80a efbd dfd3 54bd 94e7 e93d b6cc e1bd
00000350: 1371 913d d03a 6bbc b997 353d e14f 8d3d
00000360: 9970 023e 00e7 16bd 8aa1 133d 4774 87bd
00000370: 9e35 a43b 0222 cc3c f96e f8bd 4084 57bb
00000380: 32f1 3a3d 1bc9 b43d 9469 8fbd 78b7 753d
00000390: 7b67 debd 84da d9bd 9f04 8d3c 5902 993d
000003a0: 2430 843c f893 38bd f21a 453d 7f20 a03d
000003b0: 7090 e0bd 42ab fbbd 0157 8ebd bc13 4a3c
000003c0: 3f44 433c dc78 18bd 48c9 86bc 640b 0d3d
000003d0: fae6 96bd ca19 cdbd d53d c6bd 2be9 51bd
000003e0: 9f28 c7bd 82dc 96bb 2bdd 58bd 9941 883d
000003f0: 96c9 943d 270e db3c ae77 29bd f157 b33d

fc2.bias f4 [32]
0.027128972 -0.0499922 -0.08439936 0.031369064 0.0068704067 -0.108663015 0.10653449 -0.043826878
0.08011374 0.06046407 0.047072235 0.1336509 0.09512183 -0.0022273178 0.031526398 -0.075080335
0.012297683 -0.075923406 0.092690915 0.04655187 0.077825464 0.035603065 -0.0249213 0.04906136
-0.14104295 0.054806907 -0.09128533 0.059007756 0.07627314 0.09134967 -0.065919966 -0.019940374
00000000: 943d de3c 9fc4 4cbd 92d9 acbd d97c 003d
00000010: 2621 e13b b78a debd c12e da3d d083 33bd
00000020: ac12 a43d 2ca9 773d d1ce 403d c8db 083e
00000030: 3ccf c23d 31f8 11bb d321 013d b8c3 99bd
00000040: 397c 493c bb7d 9bbd bcd4 bd3d 2cad 3e3d
00000050: f562 9f3d 85d4 113d c127 ccbc 91f4 483d
00000060: 906d 10be 357d 603d cef3 babd 1eb2 713d
00000070: 1835 9c3d 8915 bb3d 0c01 87bd ff59 a3bc

fc3.weight f4 [5, 32]
-0.22874026 -0.17301944 0.13180238 -0.040075332 0.070640974 -0.17785704 0.07745722 -0.1833442
-0.19970417 -0.121981524 -0.032897495 -0.18390596 -0.08317055 -0.0861659 -0.046345934 0.04569292
0.14348006 -0.1660051 -0.2090331 -0.047317546 0.01650016 0.010648504 -0.18337196 -0.17472297
-0.12528646 -0.21441756 0.11189647 -0.0925201 -0.15728748 -0.012629614 -0.11477541 -0.11897983
0.019822327 -0.17312652 -0.13357209 0.005569501 0.24807122 0.10486936 0.05276475 0.13389799
-0.033400357 0.17386803 0.08529433 -0.0556358 -0.105919 -0.0055076 0.12497564 -0.21577132
-0.12948294 -0.12348667 -0.1784139 0.12541099 0.1475607 -0.15684743 -0.2089294 -0.1297052
0.08778251 -0.1640042 0.12922658 0.02990255 0.008786826 -0.16338027 -0.16811296 -0.102077276
-0.12953341 -0.175795 -0.05584528 0.09949035 0.15906854 -0.0047162776 -0.03302972 -0.031879734
0.1165565 0.04735885 -0.2167851 0.06933327 -0.14051868 -0.16836733 0.086979575 -0.14265378
0.03540633 -0.3486899 0.06922559 -0.011384431 0.08944059 -0.071030594 -0.19324844 0.053702977
-0.13349047 -0.15243565 -0.13151059 -0.027065499 -0.16250756 0.036135886 0.12666447 0.07705674
0.017733375 -0.0017513793 0.065431096 0.051039033 0.21800815 0.01666173 0.00046652844 0.1377774
0.06782374 -0.28203028 -0.1856535 -0.23338346 0.14063738 -0.19741336 0.087486446 0.0016286614
-0.04125657 -0.17497577 -0.07716754 0.005223882 0.15459327 -0.15224312 -0.13661544 0.14699766
0.13615772 -0.06361923 0.14526393 0.1169217 -0.19272587 -0.030107204 0.027218178 -0.030614132
-0.16428167 -0.08082259 -0.051536225 -0.20088978 0.00086302054 0.033891503 0.04487704 0.13519187
-0.18369879 0.057245404 -0.06573317 -0.1969449 0.019222021 -0.1925638 -0.031266343 0.062996745
0.23747155 -0.28939298 0.062024623 -0.07115209 0.18196827 -0.20581791 -0.22349 0.02687666
-0.116567545 -0.087253116 0.11144738 0.09578779 0.013894757 -0.121079154 -0.008338943 0.14032121
00000000: e33a 6abe 022c 31be 34f7 063e 0826 24bd
00000010: 37ac 903d 2820 36be e4a1 9e3d 95be 3bbe
00000020: 407f 4cbe 73d1 f9bd 86bf 06bd d851 3cbe
00000030: 5255 aabd bf77 b0bd 3cd5 3dbd 8028 3b3d
00000040: 70ec 123e 3efd 29be c60c 56be 0bd0 41bd
00000050: 582b 873c 1077 2e3c dcc5 3bbe 94ea 32be
00000060: 184b 00be 4790 5bbe fa29 e53d 2e7b bdbd
00000070: f80f 21be 71ec 4ebc 5f0f ebbd b2ab f3bd
00000080: 6f62 a23c 1448 31be 1fc7 08be 5c80 b63b
00000090: 6206 7e3e bfc5 d63d da1f 583d 8e1c 093e
000000a0: d0ce 08bd 760a 323e cbae ae3d 5de2 63bd
000000b0: 10ec d8bd 1979 b4bb 3af3 ff3d 28f3 5cbe
000000c0: 2d97 04be 94e6 fcbd 22b2 36be bd6b 003e
000000d0: 271a 173e 9d9c 20be 97f1 55be 71d1 04be
000000e0: 51c7 b33d b8f0 27be f953 043e 31f6 f43c
000000f0: 9ff6 0f3c 284d 27be ce25 2cbe e40d d1bd
00000100: 68a4 04be 9b03 34be 05be 64bd 99c1 cb3d
00000110: dde2 223e 018b 9abb 2c4a 07bd 5394 02bd
00000120: 2db5 ee3d 5afb 413d eafc 5dbe 9afe 8d3d
00000130: 21e4 0fbe 7c68 2cbe 5922 b23d d513 12be
00000140: 3a06 113d 7c87 b2be 25c6 8d3d c485 3abc
00000150: a12c b73d 7d78 91bd ebe2 45be a7f7 5b3d
00000160: bab1 08be 1718 1cbe b6aa 06be 77b8 ddbc
00000170: 6268 26be 3903 143d 55b4 013e edcf 9d3d
00000180: 9545 913c 8a8e e5ba bd00 863d 4e0e 513d
00000190: 873d 5f3e 2e7e 883c 6398 f439 8515 0d3e
000001a0: 2ce7 8a3d 4666 90be f31b 3ebe 13fc 6ebe
000001b0: 3f03 103e ba26 4abe 182c b33d cf78 d53a
000001c0: a6fc 28bd d92c 33be 040a 9ebd 192d ab3b
000001d0: b34d 1e3e 9fe5 1bbe ebe4 0bbe 8e86 163e
000001e0: ee6c 0b3e cd4a 82bd 11c0 143e a574 ef3d
000001f0: ee59 45be 62a3 f6bc a8f8 de3c 7dca fabc
00000200: 7439 28be 5086 a5bd a617 53bd 0db6 4dbe
00000210: 543c 623a d1d1 0a3d fdd0 373d bd6f 0a3e
00000220: 891b 3cbe 287a 6a3d 1d9f 86bd edab 49be
00000230: 8077 9d3c 722f 45be 2311 00bd 7004 813d
00000240: be2b 733e 512b 94be 880d 7e3d 30b8 91bd
00000250: e455 3a3e eec1 52be 90da 64be 712c dc3c
00000260: f7ba eebd c3b1 b2bd 863e e43d 642c c43d
00000270: d6a6 633c 59f8 f7bd 10a0 08bc 5db0 0f3e

fc3.bias f4 [5]
-0.014270036 0.116914965 0.028090544 0.13573971 -0.13592409
00000000: decc 69bc 1d71 ef3d 241e e63c 5aff 0a3e
00000010: af2f 0bbe
