SimpleSpread/Baseline_simpleSpread/agent_0_model.pth (torch, 16007 bytes, 6 tensors)

fc1.weight f4 [64, 18]
-0.111563474 0.026287504 0.14361769 0.031817764 0.024619156 0.21410081 0.20459953 0.054028485
0.39151362 0.017913723 -0.433069 -0.20812982 0.10387037 0.059571993 0.21620919 -0.17794318
0.056579337 0.13574223 0.06144435 0.018020347 -0.15415433 0.14707245 0.031737797 -0.1612506
0.13208005 -0.009168977 0.12134465 0.1153289 -0.23972684 -0.18087886 -0.13852976 0.08565267
-0.22250797 0.07472651 0.21238546 -0.10298288 -0.10860029 -0.16241434 -0.045232736 0.09962342
-0.18326044 0.13052715 0.095699154 0.06294796 0.0020797017 0.15142076 0.023447096 -0.22139044
0.1917001 -0.14356641 0.19654466 -0.011703119 0.09880604 0.027459607 -0.22715573 -0.09750307
-0.16048032 0.018066714 0.068486035 -0.2269917 -0.07213809 -0.12596293 0.06413113 -0.07845994
0.06854054 -0.048623253 -0.1041257 0.08491398 0.15643285 0.033729598 -0.047649622 -0.030912131
-0.12153237 0.19086748 0.39666647 -0.011510677 -0.12380423 0.011397486 -0.22979727 -0.09604467
-0.0110575445 0.0002148757 -0.2995553 -0.021926178 0.11784833 0.14958945 0.15153103 -0.062399417
-0.097798675 0.056769207 0.15313213 -0.15212287 0.0027614168 -0.19077587 0.14683142 -0.20371802
0.17037 -0.15194406 -0.17625132 -0.16784203 0.091506064 -0.25192016 -0.06714493 0.26292697
0.22364698 0.041485325 0.04977356 0.07455231 0.05781925 0.20729864 0.15904872 -0.04855585
0.10825347 0.08836884 0.15464711 -0.14468916 0.1456168 -0.18351163 0.18397884 0.29344037
-0.1511334 0.106245995 0.029277489 0.2166303 -0.13247809 -0.21984097 0.1453083 -0.2857506
-0.13626525 0.14057955 -0.008976445 -0.07825084 0.17763747 0.19830225 -0.15658438 0.24225716
0.23328078 -0.14339666 0.03644981 0.1438158 -0.20134716 -0.1647557 0.079493 -0.1984874
0.22509168 -0.18020074 -0.11011298 -0.16897893 0.09543011 -0.0042532706 0.11754243 -0.027677378
0.10942082 0.1357495 -0.05656449 -0.18722679 -0.100289516 0.11161774 -0.112276815 -0.11426171
-0.10133372 0.0871941 -0.20827848 -0.17379363 0.004125759 -0.16122028 -0.07680358 0.099752694
0.08293733 -0.2086132 0.097965136 -0.100240715 -0.4239231 -0.024796555 -0.055515837 -0.116092704
-0.20634858 -0.0069482774 -0.040821955 0.13068192 -0.23558314 -0.17305198 0.15837914 -0.2063229
0.06732963 -0.13935424 -0.22009131 0.05679253 0.1945843 -0.17472322 -0.06497188 -0.12219704
-0.07711688 -0.19500035 -0.11209938 -0.09046507 0.14043416 -0.0532313 -0.09715694 0.12893102
0.16233526 0.0012168384 0.08537532 -0.10760623 0.09016233 0.17824067 0.14794326 -0.15524985
0.07408125 0.051544085 -0.1205098 -0.18770483 0.042855307 -0.14927916 0.020550355 -0.18990873
0.054551713 -0.013264688 0.21609515 -0.10132826 -0.08155312 0.07406446 0.1149065 0.11296366
-0.14185223 -0.110002 -0.2509343 -0.042464316 -0.08138623 0.22704032 -0.2317596 0.041198447
0.15351911 -0.21199356 0.17546463 -0.18892919 -0.29652375 0.13851042 0.06887074 -0.107458696
0.2504758 0.19423746 -0.04830858 -0.021212071 0.12732244 0.11762564 0.095231034 0.4421459
0.17904289 0.096165076 0.042626634 0.13636075 -0.08283544 -0.20840174 0.16432722 0.17496546
00000000: 647b e4bd e458 d73c 8410 133e 5853 023d
00000010: 1dae c93c 3e3d 5b3e 8a82 513e f94c 5d3d
00000020: 7974 c83e cdbf 923c 38bb ddbe fc1f 55be
00000030: fdb9 d43d c301 743d f165 5d3e bd36 36be
00000040: bcbf 673d 0300 0b3e 12ad 7b3d 689f 933c
00000050: a2da 1dbe 299a 163e 7eff 013d e11e 25be
00000060: fe3f 073e 7a39 16bc 8b83 f83d 8f31 ec3d
00000070: f47a 75be 4f38 39be bfda 0dbe ab6a af3d
00000080: 21d9 63be 360a 993d 937b 593e b0e8 d2bd
00000090: d469 debd f24f 26be f645 39bd 5d07 cc3d
000000a0: a0a8 3bbe e9a8 053e ebfd c33d dcea 803d
000000b0: 9b4b 083b 0b0e 1b3e 2014 c03c 2db4 62be
000000c0: 084d 443e 1303 13be 0143 493e 70be 3fbc
000000d0: d25a ca3d f8f2 e03c 839b 68be b1af c7bd
000000e0: f454 24be a500 943c 6842 8c3d 8370 68be
000000f0: 23bd 93bd 6dfc 00be 2f57 833d 9baf a0bd
00000100: fc5e 8c3d 2d29 47bd db3f d5bd 61e7 ad3d
00000110: ef2f 203e 0c28 0a3d 402c 43bd 703b fdbc
00000120: f7e5 f8bd c472 433e de17 cb3e 4797 3cbc
00000130: 128d fdbd 85bc 3a3c fa4f 6bbe 11b3 c4bd
00000140: b42a 35bc 4250 6139 505f 99be 879e b3bc
00000150: 775a f13d fa2d 193e f32a 1b3e 8896 7fbd
00000160: ac4a c8bd d486 683d abce 1c3e 19c6 1bbe
00000170: e3f8 343b c05a 43be fa5a 163e 759b 50be
00000180: 7975 2e3e 3997 1bbe 3a7b 34be c8de 2bbe
00000190: 8867 bb3d aefb 80be 4883 89bd 5d9e 863e
000001a0: b703 653e 84ec 293d 5cdf 4b3d e2ae 983d
000001b0: e1d3 6c3d 1846 543e abdd 223e 80e2 46bd
000001c0: ffb3 dd3d b9fa b43d d05b 1e3e 6529 14be
000001d0: 921c 153e 79ea 3bbe f364 3c3e d13d 963e
000001e0: b7c2 1abe 8097 d93d 58d7 ef3c 55d4 5d3e
000001f0: 56a8 07be fe1d 61be b3cb 143e e74d 92be
00000200: 1e89 0bbe 16f4 0f3e f011 13bc fa41 a0bd
00000210: 99e6 353e bf0f 4b3e a857 20be 4312 783e
00000220: 28e1 6e3e 93d6 12be 654c 153d 7344 133e
00000230: f32d 4ebe b8b5 28be 3acd a23d 4840 4bbe
00000240: 6f7e 663e 8b86 38be ea82 e1bd d008 2dbe
00000250: dd70 c33d 055f 8bbb 16ba f03d abbb e2bc
00000260: 0618 e03d eb01 0b3e 2bb0 67bd 61b8 3fbe
00000270: 9764 cdbd d797 e43d 63f1 e5bd 0b02 eabd
00000280: 0e88 cfbd d292 b23d f446 55be f5f6 31be
00000290: 6031 873b ee16 25be 324b 9dbd 244b cc3d
000002a0: 0cdb a93d b39e 55be f2a1 c83d 014b cdbd
000002b0: 730c d9be 2522 cbbc 9364 63bd 03c2 edbd
000002c0: 0b4d 53be 60ae e3bb ec34 27bd 7bd1 053e
000002d0: b53c 71be 8a34 31be 242e 223e 4f46 53be
000002e0: 1ee4 893d e1b2 0ebe 9e5f 61be 499f 683d
000002f0: 1b41 473e a5ea 32be fa0f 85bd 7142 fabd
00000300: 74ef 9dbd 2cae 47be 5c94 e5bd c045 b9bd
00000310: f9cd 0f3e 1009 5abd 38fa c6bd 7e06 043e
00000320: 373b 263e 527e 9f3a 41d9 ae3d a860 dcbd
00000330: 07a7 b83d b984 363e 707e 173e d1f9 1ebe
00000340: e9b7 973d e41f 533d d8cd f6bd b235 40be
00000350: 0c89 2f3d a3dc 18be 3859 a83c 6f77 42be
00000360: 9e71 5f3d 2254 59bc 0c48 5d3e 3185 cfbd
00000370: 5205 a7bd 1caf 973d 1954 eb3d 7e59 e73d
00000380: b641 11be bb48 e1bd 767a 80be 10ef 2dbd
00000390: d3ad a6bd 427d 683e 6352 6dbe b4bf 283d
000003a0: 1d34 1d3e d714 59be 00ad 333e a776 41be
000003b0: f6d1 97be add5 0d3e 1a0c 8d3d 4e13 dcbd
000003c0: 5d3e 803e 2fe6 463e 38df 45bd f0c4 adbc
000003d0: d060 023e b6e5 f03d 7d08 c33d f360 e23e
000003e0: 0557 373e 32f2 c43d 4499 2e3d 27a2 0b3e
000003f0: a1a5 a9bd 4467 55be 6545 283e 252a 333e

fc1.bias f4 [64]
0.085937 -0.19426732 0.15410838 0.0049837553 -0.2312202 0.20429538 0.23233904 -0.23951575
0.07342544 -0.059727482 -0.05792543 0.14235374 0.16470647 -0.094649106 0.069967955 -0.0939418
0.29000175 0.19161206 -0.1564847 0.06815063 0.028512578 -0.008738705 0.22457528 0.17440583
-0.13128433 -0.17421505 0.087715834 -0.046910513 0.12710884 -0.24273692 0.0037970475 -0.06572346
0.2156417 -0.13563998 0.1073232 0.04041402 0.25100583 -0.04116342 0.042487316 -0.011384162
0.06508463 0.11128791 0.24381688 0.17795672 0.021007564 0.09842661 -0.08910592 0.1621865
0.10771624 0.13855778 0.029655442 -0.12962249 -0.20478831 0.11941147 0.19992438 0.2302268
0.03133889 -0.20696379 0.2626307 0.010569932 -0.025847986 -0.018928839 0.12361912 0.06554094
00000000: bdff af3d 03ee 46be 96ce 1d3e c54e a33b
00000010: fdc4 6cbe cf32 513e 49ea 6d3e 9e43 75be
00000020: 1460 963d cea4 74bd 3743 6dbd 2ec5 113e
00000030: d0a8 283e 64d7 c1bd 5c4b 8f3d 8f64 c0bd
00000040: 1c7b 943e f435 443e 863d 20be 8f92 8b3d
00000050: 3693 e93c c92c 0fbc 10f7 653e 7197 323e
00000060: 666f 06be 6e65 32be 5ca4 b33d 3d25 40bd
00000070: d228 023e 0790 78be e3d7 783b 059a 86bd
00000080: 2ed1 5c3e 35e5 0abe 44cc db3d 2c89 253d
00000090: d683 803e f99a 28bd 2e07 2e3d a384 3abc
000000a0: 174b 853d eaea e33d 22ab 793e 493a 363e
000000b0: 0e18 ac3c e493 c93d 2a7d b6bd 3814 263e
000000c0: 559a dc3d 17e2 0d3e f8ef f23c c2bb 04be
000000d0: 07b4 51be 008e f43d fab8 4c3e 93c0 6b3e
000000e0: 355d 003d 51ee 53be 8877 863e 822d 2d3c
000000f0: 28bf d3bc a710 9bbc 052c fd3d 543a 863d

fc2.weight f4 [32, 64]
0.16465932 -0.04789209 0.015866935 0.041879885 -0.035226423 0.12329376 0.13267618 -0.08191684
0.05956789 0.14244035 0.07356443 0.06411538 0.07549118 0.100423045 -0.09140474 -0.13214867
-0.3325142 -0.018212404 -0.016540498 0.12982163 0.015332605 -0.06942807 0.05177106 -0.07016254
0.065076396 0.082486115 0.028929496 0.04030256 -0.02205955 0.053250235 0.12754984 0.034873325
0.02937907 0.08862849 0.112215444 0.045799047 0.071792655 0.09014477 -0.005542886 0.15410243
0.018332308 0.09526689 0.11264677 -0.13556977 -0.073864274 -0.0016611086 -0.118677735 -0.026319526
-0.008506455 0.031772695 -0.09171361 0.11490168 0.121236786 0.08709283 0.032751463 0.112926066
0.11481785 0.09515937 0.16199528 0.06851716 -0.100814134 -0.010749322 -0.050912477 0.12240343
0.16160196 0.009124844 0.10008739 -0.10647745 -0.20498045 0.06786296 0.23856257 0.23359886
0.20182589 -0.14723301 -0.037360325 -0.06324007 -0.09448945 0.28203914 0.16726606 0.101028755
-0.06305267 -0.15139553 -0.021527782 0.22763443 0.26897037 -0.0797841 0.20038858 -0.016857127
-0.26447305 0.046415348 0.050543156 -0.23711936 0.12719469 -0.21177869 -0.21192348 -0.0174552
-0.18033867 -0.039081536 0.045169763 0.106975675 0.015371426 -0.15739585 0.031319614 0.034353893
-0.22245814 -0.3093265 -0.027162094 -0.10019503 0.0529096 0.07001348 -0.078011274 -0.19359018
0.06284455 0.059911247 -0.051710606 -0.29149285 -0.06947762 -0.044990413 0.013437392 0.16657992
-0.017172989 0.08184056 0.14187135 0.03595876 -0.07578142 0.30488297 0.035771426 -0.085063316
0.008045819 0.07558247 0.043637984 0.04276786 0.112584144 -0.008807599 -0.0919783 -0.0878124
-0.12294943 -0.098890916 0.0461213 0.11549156 0.009197919 -0.06789525 0.09080477 0.18298014
-0.2548408 0.08625296 0.09194918 0.115846194 -0.13302468 -0.021231078 0.0312854 -0.010840087
0.041817993 -0.018409735 -0.1285595 0.16359474 -0.14827175 -0.04853408 -0.09710568 0.12688535
0.09136791 0.08690249 -0.10414258 0.10767248 0.039163694 -0.11065535 0.095293485 0.162992
-0.006252984 0.010309605 0.05943663 0.0017261567 0.13111632 0.037621472 -0.11471997 -0.05625245
-0.031308852 -0.089926735 -0.007258601 0.04329057 0.09211655 -0.072258264 -0.07650958 -0.100333184
0.12796377 -0.06287642 0.06320202 -0.039365504 0.053077564 0.1629663 -0.049076486 0.105083466
0.2346713 0.07787879 0.0052271523 -0.07266861 0.14810185 -0.00085739803 0.026639612 -0.01678534
0.050350383 -0.054959334 0.09908022 -0.027459823 -0.09566249 0.037384495 -0.028154662 -0.14453647
-0.13462682 0.015530665 -0.0045009702 0.06155243 0.07751799 -0.08305927 -0.060504377 0.093507074
0.0074616866 -0.07205552 0.058005963 0.041704025 -0.013018335 0.07480499 -0.048409503 0.052193813
0.06374824 0.015778473 -0.050224148 -0.11224073 0.0129418075 0.1163551 0.04007493 0.13508631
0.17010108 0.06905618 0.09549851 -0.2349156 0.047270972 -0.06932991 0.065136954 -0.04612633
0.14336243 0.123448044 -0.0515626 0.20395552 -0.019688278 0.017209467 -0.10029383 0.030831367
0.0443196 0.1176922 0.15524152 -0.09072745 0.030791283 -0.13553894 0.15296426 0.107718416
00000000: 749c 283e 7f2a 44bd 60fb 813c 3e8a 2b3d
00000010: 9549 10bd 7081 fc3d 44dc 073e 04c4 a7bd
00000020: 76fd 733d e2db 113e f3a8 963d ed4e 833d
00000030: 1f9b 9a3d 99aa cd3d 6932 bbbd fb51 07be
00000040: 4d3f aabe 2e32 95bc f07f 87bc f6ef 043e
00000050: 9b35 7b3c 4e30 8ebd e40d 543d 61b1 8fbd
00000060: c646 853d 7bee a83d 8dfd ec3c 4c14 253d
00000070: 3bb6 b4bc eb1c 5a3d 6d9c 023e 55d7 0e3d
00000080: 60ac f03c db82 b53d 36d1 e53d c897 3b3d
00000090: 0708 933d d29d b83d 19a1 b5bb 07cd 1d3e
000000a0: a32d 963c 4a1b c33d 5ab3 e63d cdd2 0abe
000000b0: 2746 97bd 8eb9 d9ba 500d f3bd 0c9c d7bc
000000c0: a95e 0bbc 1624 023d 58d4 bbbd 9251 eb3d
000000d0: fe4a f83d ba5d b23d 6626 063d c845 e73d
000000e0: 9f25 eb3d eae2 c23d 17e2 253e ba52 8c3d
000000f0: a477 cebd ed1d 30bc 9a89 50bd a6ae fa3d
00000100: fc7a 253e 5f80 153c 9efa cc3d d910 dabd
00000110: 65e6 51be bcfb 8a3d bf49 743e 8a34 6f3e
00000120: 72ab 4e3e 40c4 16be 2407 19bd 0384 81bd
00000130: af83 c1bd 6f67 903e cb47 2b3e 2ae8 ce3d
00000140: c221 81bd 6e07 1bbe 085b b0bc 0019 693e
00000150: 7cb6 893e d965 a3bd aa32 4d3e f517 8abc
00000160: 0369 87be 051e 3e3d 5706 4f3d 6bcf 72be
00000170: 533f 023e 83dc 58be 7802 59be 35fe 8ebc
00000180: b3aa 38be f613 20bd ee03 393d 1016 db3d
00000190: 6fd8 7b3c 612c 21be ff48 003d abb6 0c3d
000001a0: 11cc 63be 0b60 9ebe 0a83 debc 0d33 cdbd
000001b0: bdb7 583d 3a63 8f3d 60c4 9fbd 813c 46be
000001c0: a5b4 803d 7f65 753d 80ce 53bd 8d3e 95be
000001d0: 484a 8ebd de47 38bd 8228 5c3c ed93 2a3e
000001e0: 5eae 8cbc 069c a73d b946 113e 7e49 133d
000001f0: 4a33 9bbd 9f19 9c3e 0f85 123d ad35 aebd
00000200: 9cd2 033c fbca 9a3d bebd 323d 5a2d 2f3d
00000210: 8492 e63d bf4d 10bc 1e5f bcbd fdd6 b3bd
00000220: e9cc fbbd 5287 cabd b0e9 3c3d d786 ec3d
00000230: deb2 163c aa0c 8bbd daf7 b93d 255f 3b3e
00000240: 7e7a 82be 64a5 b03d da4f bc3d c540 ed3d
00000250: 9f37 08be ccec adbc 1f25 003d 9f9a 31bc
00000260: 5849 2b3d 03d0 96bc 1aa5 03be 6185 273e
00000270: 8dd4 17be accb 46bd 58df c6bd 3cee 013e
00000280: 191f bb3d eff9 b13d b448 d5bd 6483 dc3d
00000290: 1c6a 203d 469f e2bd 3b29 c33d 60e7 263e
000002a0: d5e5 ccbb 9ee9 283c d373 733d 3540 e23a
000002b0: 5b43 063e f918 1a3d 4ef2 eabd f868 66bd
000002c0: b63d 00bd 822b b8bd 8fd9 edbb 7451 313d
000002d0: 9aa7 bc3d 24fc 93bd 0eb1 9cbd 7c7b cdbd
000002e0: ef08 033e 5ac5 80bd 1070 813d b93d 21bd
000002f0: dc67 593d a3e0 263e 6d04 49bd 0036 d73d
00000300: ac4d 703e ea7e 9f3d 8848 ab3b 48d3 94bd
00000310: 03a8 173e 02c3 60ba 513b da3c 6981 89bc
00000320: 343c 4e3d 0a1d 61bd 92ea ca3d 6cf3 e0bc
00000330: b2ea c3bd 7c20 193d 9ba4 e6bc 5e01 14be
00000340: 9ddb 09be 5574 7e3c e07c 93bb 671e 7c3d
00000350: c0c1 9e3d fb1a aabd 70d3 77bd a380 bf3d
00000360: 2a81 f43b d891 93bd a997 6d3d d7d1 2a3d
00000370: db4a 55bc 5c33 993d 0b49 46bd 2ec9 553d
00000380: 708e 823d db41 813c d6b7 4dbd 78de e5bd
00000390: e009 543c 954b ee3d 9c25 243d 1154 0a3e
000003a0: fa2e 2e3e 546d 8d3d b994 c33d b78d 70be
000003b0: 359f 413d d7fc 8dbd 8666 853d f6ee 3cbd
000003c0: 9acd 123e 54d2 fc3d 4e33 53bd b7d9 503e
000003d0: 5049 a1bc defa 8c3c da66 cdbd 1092 fc3c
000003e0: 7888 353d 9c08 f13d a2f7 1e3e 50cf b9bd
000003f0: 003e fc3c b8ca 0abe aaa2 1c3e 799b dc3d

fc2.bias f4 [32]
0.07058165 -0.030314399 0.10199984 0.12329718 0.06694048 -0.03795577 0.0037171608 0.060734503
-0.110514626 0.05729099 -0.12907773 -0.07416396 -0.06753537 -0.01831807 0.04608517 -0.12075653
0.033258285 0.083254024 0.002880713 0.057592764 0.0770948 -0.013508239 -0.0787137 0.07183561
-0.109807536 -0.11039747 0.080919266 0.121853836 -0.10236911 0.11545023 -0.031281307 0.08216366
00000000: 1d8d 903d e755 f8bc 4be5 d03d 3b83 fc3d
00000010: 1718 893d 8277 1bbd 9c9b 733b bec4 783d
00000020: 7e55 e2bd f5a9 6a3d f42c 04be 46e3 97bd
00000030: fc4f 8abd c70f 96bc cec3 3c3d 334f f7bd
00000040: d739 083d 1681 aa3d 58ca 3c3b 64e6 6b3d
00000050: e1e3 9d3d a951 5dbc a634 a1bd 8c1e 933d
00000060: c6e2 e0bd 1218 e2bd 00b9 a53d 818e f93d
00000070: e5a6 d1bd 2c71 ec3d d420 00bd 6c45 a83d

fc3.weight f4 [5, 32]
-0.12971558 -0.33160123 -0.11734303 -0.096860826 -0.21087012 -0.04599646 0.012590387 0.12808366
-0.19476199 -0.19680579 0.1889813 0.028287068 0.09649615 -0.22950068 -0.025495071 -0.013967719
-0.14635432 -0.12329174 0.095579736 0.061192114 0.06456082 -0.15424812 -0.07092966 -0.10900516
0.13445161 -0.095559396 -0.2608332 -0.026590155 0.0161154 -0.11877205 0.06788026 0.11962168
-0.17551225 -0.1275085 -0.123144686 -0.17853998 -0.18267389 -0.01598149 -0.1859974 -0.11802812
0.08461902 -0.06597366 0.11681556 -0.002103746 0.05095963 0.09070514 -0.18012203 0.0029208194
-0.17657301 -0.11778698 -0.0082134865 -0.20084633 -0.040773194 0.01030765 -0.10973424 0.013689877
0.0022204667 0.15401894 -0.1966137 0.019416977 0.11431041 -0.00938121 0.109991506 -0.117403306
-0.049425002 -0.36652008 0.01525048 0.02840303 0.046285275 -0.19081686 -0.17014404 0.023564516
0.1190148 -0.038746085 -0.07648565 0.018082708 -0.06136714 0.074216805 -0.09483039 -0.009121548
-0.19795266 0.034272403 -0.058028698 0.037923973 -0.13173681 0.012276515 -0.06275273 -0.1586098
0.09725879 -0.06120152 -0.3332443 0.22500883 -0.062144525 -0.1633806 -0.120062925 -0.08888043
-0.110569425 -0.054812085 0.086812235 -0.09339629 -0.049557697 -0.04442158 -0.055634987 -0.15565325
0.006749198 -0.19480002 -0.009761737 0.029589117 0.024617791 -0.16861935 -0.18612604 -0.021246035
-0.028615594 0.025633613 0.06185237 -0.21359907 -0.13280949 0.07619648 -0.11461609 -0.16936111
0.17083587 0.14586346 -0.13399452 0.0071188468 0.06915685 -0.18925 0.054973945 0.045239437
-0.14050373 -0.0959532 -0.018276436 -0.06805363 -0.11103115 -0.1362819 -0.08383269 0.054138634
0.15610436 0.07525664 -0.015828598 0.14040966 -0.03916852 -0.17063907 0.02261973 0.10734699
-0.16055743 -0.17265363 0.14491366 -0.03553755 -0.17065224 -0.19259162 -0.18137252 -0.06452666
-0.071197994 0.09716997 -0.31741688 0.21327434 0.121762425 0.011179835 0.064398065 0.047483265
00000000: 29d4 04be a3c7 a9be 8b51 f0bd f85e c6bd
00000010: 56ee 57be c966 3cbd e947 4e3c 5d28 033e
00000020: b06f 47be 7587 49be 5084 413e 48ba e73c
00000030: c69f c53d 3a02 6bbe 0adb d0bc dcd8 64bc
00000040: e8dd 15be 6180 fcbd 4fbf c33d 95a4 7a3d
00000050: 7738 843d 38f3 1dbe 9243 91bd 193e dfbd
00000060: afad 093e a5b4 c3bd ee8b 85be 99d3 d9bc
00000070: 7104 843c c33e f3bd ce04 8b3d 36fc f43d
00000080: 7cb9 33be 9791 02be 4833 fcbd 2fd3 36be
00000090: dd0e 3bbe 9deb 82bc 1a76 3ebe bab8 f1bd
000000a0: bd4c ad3d 331d 87bd ff3c ef3d 00df 09bb
000000b0: 0cbb 503d 9ec3 b93d e971 38be 386b 3f3b
000000c0: 8ecf 34be 4d3a f1bd dc91 06bc a9aa 4dbe
000000d0: cb01 27bd 6be1 283c 58bc e0bd 824b 603c
000000e0: 4085 113b 24b7 1d3e 1a55 49be 5a10 9f3c
000000f0: 941b ea3d a6b3 19bc 3a43 e13d 2571 f0bd
00000100: df71 4abd 85a8 bbbe 26dd 793c 79ad e83c
00000110: a195 3d3d 7f65 43be 3d3a 2ebe 5f0a c13c
00000120: 08be f33d 37b4 1ebd 82a4 9cbd 3022 943c
00000130: 1c5c 7bbd fbfe 973d 6f36 c2bd 8c72 15bc
00000140: 1ab4 4abe 3861 0c3d 80af 6dbd 2b56 1b3d
00000150: 04e6 06be 7023 493c 8184 80bd 9b6a 22be
00000160: 9e2f c73d 72ae 7abd ff9e aabe b768 663e
00000170: 428b 7ebd 3e4d 27be 8de3 f5bd f106 b6bd
00000180: 3972 e2bd a382 60bd 9dca b13d 8e46 bfbd
00000190: 03fd 4abd 67f3 35bd 83e1 63bd 9163 1fbe
000001a0: 6028 dd3b a879 47be b1ef 1fbc e064 f23c
000001b0: 40ab c93c 8daa 2cbe d397 3ebe 2a0c aebc
000001c0: 406b eabc 95fd d13c e958 7d3d b7b9 5abe
000001d0: 36ff 07be e60c 9c3d d7bb eabd 006d 2dbe
000001e0: 99ef 2e3e 3b5d 153e dc35 09be 3745 e93b
000001f0: 1ba2 8d3d c1ca 41be 5c2c 613d fd4c 393d
00000200: 36e0 0fbe 1c83 c4bd 77b8 95bc b45f 8bbd
00000210: 4d64 e3bd 7b8d 0bbe 79b0 abbd 79c0 5d3d
00000220: d2d9 1f3e 2720 9a3d faaa 81bc 8dc7 0f3e
00000230: 2c6f 20bd 02bc 2ebe 034d b93c bdd8 db3d
00000240: 2b69 24be 1dcc 30be 3f64 143e d28f 11bd
00000250: 76bf 2ebe bd36 45be b8b9 39be 8e26 84bd
00000260: 41d0 91bd 0d01 c73d 7784 a2be 9764 5a3e
00000270: 945e f93d a02b 373c 22e3 833d d07d 423d

fc3.bias f4 [5]
-0.05229087 0.10070106 0.023164976 0.11235121 -0.10753775
00000000: f42e 56bd 5b3c ce3d 7ac4 bd3c 6418 e63d
00000010: c03c dcbd
