SimpleSpread/Baseline_simpleSpread/agent_1_model.pth (torch, 16007 bytes, 6 tensors)

fc1.weight f4 [64, 18]
00000000: 03f5 e33d 6c4e 7dbc 30f9 003e aeb4 59be
00000010: 72f6 5ebc 2e61 863e f470 7b3e 47b8 26be
00000020: a723 e73e 8c84 01be ab50 503e c8d3 ea3c
00000030: 0e3b 993d 520d 763c 0bd6 33be 056b 2cbe
00000040: 8a87 19be e381 43be 1135 d03d f016 173e
00000050: e04e 1c3e 719f d2bd 7395 c9bc 3846 0fbe
00000060: 69c3 6c3e c634 04be 60cf 45bc 3928 7dbe
00000070: ef7f 43be 67d9 43be d8b6 25be 8c24 193e
00000080: 801d d4bd 2716 483e a5fc edbd 2cfa 7dbd
00000090: 00be 563c 6d2f 433e e005 f5bd 0e55 8cbd
000000a0: 8797 713d 702a 1e3e 0068 583e ea7f 373e
000000b0: ffee 7ebd 26aa 243d 1307 49be 16db 063d
000000c0: ac1d 75be a7c9 5ebe 9008 9abc ee93 963d
000000d0: 085e c3bc 42de b83d e13c 8cbd 0314 3b3e
000000e0: 3c80 21be 6cab 79be 327e 94bc 4b0f 1fbe
000000f0: c05a bebd d78e 01be 7af5 5e3e b102 383e
00000100: f307 1a3d 45d3 cebd c224 3a3d 6829 a93d
00000110: 7e68 4fbe d118 603e ee6b f83d 982b 4ebe
00000120: ec79 c53c 7659 01be 2cca bf3e bc7f 29be
00000130: 220d 56be dc3f 223d 0bfc 92be 78c9 543e
00000140: 4dfa 68bd 5b24 413e 175a f7bd df0a 8ebc
00000150: 6c7a 10bd 5294 8cbd 52b6 dc3d e07e 6bbc
00000160: 7ee2 1cbe aca8 183d 3d43 6abe f3da 443e
00000170: bea9 293e 9a4d 1b3e 0976 093d 8312 063d
00000180: 1733 973c 1b9d 25be 7f3d 4e3e 20f7 b53d
00000190: 725d 5ebd 6293 bebd 3644 463d c3db abbe
000001a0: afb2 323e 514a 043e db39 103e 7032 6e3c
000001b0: 179a dbbd 28d0 08be b933 edbd 8e49 0cbe
000001c0: 1383 07bd d013 5f3e 68d6 63be 5f2f 053c
000001d0: 3f61 463e 378d 2fbe 2647 86bd 6cfe 44be
000001e0: 74d7 ad3d db80 83bd 8763 023e 6049 62bd
000001f0: 6a5e 26be 680e 8fbc d100 803e 7259 96bd
00000200: 587b 02be 8e66 403e 8722 213e a23e 8bbe
00000210: e1e1 3ebe ddeb 52bc 81b4 49bd d7b6 ff3d
00000220: 91ab 1e3e 2717 623e 6d00 a93d 740d 1b3e
00000230: 2e3b d63d 9c8e 9cbd 26cb b7bd 0ef4 0fbe
00000240: 423b c6bd b43e 3abe 7fe9 0abe ffd2 c1bd
00000250: 3b2a c13c 5ec1 97bd 6358 323e 4593 9fbd
00000260: 683d 1fbe 07f3 28be ad61 51be f98f 233d
00000270: d805 8c3d 80de f73d acb5 a9bd 877f 443e
00000280: 8271 e33d a6bb e23d 8498 0fbd 22b7 963d
00000290: 5de3 7bbe 45e2 743e e062 fa3d b0b5 f43b
000002a0: e9e5 203e cc7f ba3b 97ed 423e 1ec0 8bbe
000002b0: 8f16 bd3d faf5 7e3d ed63 a63d 92a9 02be
000002c0: 0bb0 4fbe 2dcd 5a3e 8d60 103e 3427 0d3d
000002d0: f72b fe3a 359e 18bd c921 2ebe 1b84 7c3e
000002e0: 0d1e 80bd 6847 edbd dfae a8bc 111e 303e
000002f0: 608c 56be 482f fd3c 2f09 ba3b 8aca 08bd
00000300: de28 7ebe b918 bf3d edce 393e b5f9 2f3e
00000310: eeae d83d 4230 d03d 6c60 053e e959 59be
00000320: 0587 263e 5295 b8bd c244 9b3d 97a7 fc3d
00000330: aa4b 8bbd ae05 babd 5400 8c3c bc97 e1bd
00000340: 8b59 b2bb bd4c 52bd 67d9 6abc 8721 263d
00000350: 8c8d 3e3d 3860 ffbd 39fa 2d3e e3bf 5d3e
00000360: c380 ca3d b3c6 b23d 2663 823e e9bd 813e
00000370: 9123 3ebd 81e3 1a3e 3209 203e 5bcf ed3d
00000380: 2d73 cd3d acc5 2b3d 36b5 b6bd dbff 61be
00000390: 7941 0d3e e24e 42be 786a 02be e3f1 4f3e
000003a0: 542a 57be fdc8 f7bd a653 793c 4525 6a3e
000003b0: 39f2 d33d 9d39 b93e 2348 3ebe b6bf 72be
000003c0: 44dc b83d 94d6 62bd a4cf fbbc fcb3 723d
000003d0: 2d10 523e b587 1fbe 32ee ae3d 5925 88bd
000003e0: f987 6dbe 7ecd d33d c4e4 4abd e12f 0fbe
000003f0: 2e49 8d3e 41f2 8e3d 95b2 d33d aa2d aebd
0.11130717 -0.015460592 0.12595057 -0.2126033 -0.013608562 0.26246017 0.24554807 -0.16281234
0.45144388 -0.12648219 0.20343272 0.028665438 0.07481967 0.015017824 -0.1756212 -0.168377
-0.1499311 -0.19092517 0.101663716 0.14754844 0.15264463 -0.10284317 -0.024607396 -0.1399163
0.23121418 -0.12910756 -0.012073368 -0.24722375 -0.19091772 -0.19125901 -0.1618303 0.14955348
-0.10357189 0.195397 -0.11620454 -0.06200616 0.013106823 0.1906106 -0.11964011 -0.068521604
0.0589824 0.15445876 0.21133423 0.17919889 -0.062239643 0.04020133 -0.19631605 0.03292378
-0.239371 -0.21756612 -0.018802911 0.07352434 -0.023848549 0.09026767 -0.06847549 0.18269353
-0.15771574 -0.24381799 -0.01812658 -0.15533178 -0.09294653 -0.12652145 0.2177333 0.17969777
0.037605237 -0.1009889 0.04544521 0.08259851 -0.20254704 0.21884467 0.12129961 -0.20133817
0.024105988 -0.12631783 0.37458932 -0.16552633 -0.20903447 0.039611682 -0.2870792 0.20779979
-0.05687933 0.18861525 -0.1207773 -0.017339168 -0.035273 -0.06864227 0.10776962 -0.014373511
-0.15320775 0.037270233 -0.22877212 0.19224147 0.16568658 0.15166321 0.033559833 0.032732498
0.018456979 -0.16173212 0.20140646 0.08885026 -0.054288335 -0.09305455 0.048404895 -0.33566102
0.17450975 0.12918974 0.1408457 0.014538392 -0.1072275 -0.13360655 -0.11582131 -0.13699934
-0.033083986 0.21784902 -0.22249758 0.00812897 0.19373034 -0.17143713 -0.06556539 -0.19237679
0.0848836 -0.064210616 0.12733279 -0.055245757 -0.16246954 -0.017462924 0.25000623 -0.07341279
-0.12742364 0.18789122 0.15735827 -0.27196223 -0.18640853 -0.012873617 -0.049244408 0.12486046
0.15495135 0.22079144 0.08252034 0.1514185 0.104605064 -0.07644388 -0.08974294 -0.14057943
-0.09679271 -0.18187982 -0.13565634 -0.094640724 0.023579707 -0.07409929 0.1741653 -0.07791761
-0.15550768 -0.16498958 -0.20447417 0.039932225 0.06837052 0.121029854 -0.08286604 0.19189273
0.11105634 0.11070947 -0.03505756 0.073591486 -0.24598451 0.2391444 0.1222589 0.007467948
0.15712704 0.005691504 0.19035946 -0.2729501 0.09232818 0.0622463 0.08124528 -0.12759998
-0.20281999 0.21367331 0.14099331 0.034461215 0.0019391765 -0.037260253 -0.17005076 0.24659769
-0.06255732 -0.11585885 -0.020591198 0.1719897 -0.20951986 0.030906335 0.0056773643 -0.03339628
-0.24820277 0.09330887 0.18145342 0.171851 0.1058024 0.101654544 0.13025063 -0.21225704
0.16262443 -0.090128556 0.07581474 0.12336653 -0.06801541 -0.090831146 0.01709 -0.11015269
-0.0054428033 -0.051342715 -0.014334059 0.040559318 0.04652171 -0.12469524 0.16989984 0.2165523
0.098878406 0.08729305 0.2546627 0.25340202 -0.046420638 0.15125848 0.15628508 0.116118155
0.10031734 0.04193656 -0.08921282 -0.22070257 0.13794507 -0.18975404 -0.12735927 0.20307116
-0.2101224 -0.12098882 0.015217697 0.2286578 0.10348935 0.36176768 -0.18582205 -0.23705944
0.09026387 -0.05538042 -0.03073866 0.059253678 0.20513983 -0.15579112 0.08541526 -0.066477485
-0.231964 0.10341929 -0.049534574 -0.13983108 0.27594894 0.069798 0.10336796 -0.085048035

fc1.bias f4 [64]
00000000: d66c bebd 1bae 31bb a280 413c 0965 073e
00000010: cdba 9ebe 3fb1 09be 14f2 473d 9a23 693e
00000020: b600 2d3e ec5f 203e c4ac 70be 5048 f13d
00000030: b4a3 d2bd 232f 743e 9c5b 6c3e 1bac a43d
00000040: 646f 5e3d 638d f63c 7ee4 dfbc fcd0 7c3e
00000050: 5a9f 33be 8a7f 563e 493f 0d3e d7e9 f43b
00000060: 3724 463e 181b debd 84c7 94bd 0109 173e
00000070: 5083 873e 8d3e 38be 7ed6 7abd f067 65be
00000080: 84c1 41be 6426 a4bd 8d22 40be 2984 02be
00000090: 7c53 3e3d 61ce a13c a490 69be 2005 013e
000000a0: ff04 233e 72d1 d13d 4458 27bd 554b 5e3e
000000b0: 40e4 37be 1e18 87bc 89f5 e23d 988c 4dbe
000000c0: 9dd9 4e3c f651 49be 923b 353c dcdc f23d
000000d0: 96d0 d8bc a55c df3d bd4b 26be 41ad ab3d
000000e0: af28 103e f9b8 223e 407e 70bd 6ba1 05bd
000000f0: fd37 c73d 2f06 20bd 3638 723e 6345 af3d
-0.092981026 -0.0027111832 0.011810454 0.13222136 -0.31001893 -0.1344652 0.048814848 0.22767487
0.16894802 0.15661591 -0.23503405 0.11781371 -0.1028513 0.23846106 0.23081821 0.08040639
0.05430545 0.030096715 -0.027330633 0.24689096 -0.17541257 0.2094709 0.13793673 0.007474165
0.19349752 -0.108450115 -0.07264617 0.14749528 0.2646737 -0.17992611 -0.061239712 -0.2240293
-0.18921477 -0.08015135 -0.1876318 -0.12745728 0.046466336 0.01975173 -0.22809082 0.12599611
0.15919875 0.10245027 -0.04085566 0.21708424 -0.17958164 -0.016490992 0.11081988 -0.20073164
0.012625125 -0.19660172 0.011061566 0.11858532 -0.026466649 0.109063424 -0.1623983 0.08382655
0.1407802 0.15890874 -0.05871415 -0.032624643 0.09727476 -0.039068397 0.23654255 0.08558156

fc2.weight f4 [32, 64]
00000000: 5053 583c 4897 763d c07c 043b ec76 8f3d
00000010: 7a36 d9bd ba64 abbd 6400 b7bd 1c8f e4bc
00000020: 3ff1 663d 7919 50bc 7bd6 78bd 429e ca3d
00000030: e0f2 663c 8629 0e3d 0e24 ecbd 2af0 8abd
00000040: 3422 82bc 5402 71bd 175d 16be 7f31 0e3d
00000050: a421 353d a8d3 cd3d bfd2 ddbd dca5 b0bd
00000060: 5a87 c53d 3439 50bd 4a57 f23d deee d8bd
00000070: e6c5 e0bd 9467 98bd 7531 cdbd 1c81 cb3d
00000080: b6ac 93bd 027e 31bd 8973 10be 13b7 833d
00000090: a93a 99bd 5240 3d3d c224 c53d 101b d7bc
000000a0: 38f9 333d 6870 8b3d ca01 fcbd 2970 f1bd
000000b0: 49be a8bb 974a ca3d ab39 883d 2c92 d63d
000000c0: bcfc 0dbe 48b0 cd3d d435 db3d 9531 67bd
000000d0: 34b7 3abd d3e4 ffbd 4972 0dbe 9ac2 9dbd
000000e0: eebb 81bd 8cde d1bd 0836 cabd 92d0 2b3d
000000f0: c12e 81bc 23ab 983a 3c97 f6bd 3a3f cf3d
00000100: 5c4d d3bd 408f f63d 6b90 2abd a7ae b63d
00000110: e8aa 08be 9288 c03d a4c1 2d3d cafa 01be
00000120: 9b5f cabd 78d7 e53c 421e 8bbd 8d9e fbbd
00000130: 064d d43d 049e 1bbd c05c d6bc d3c0 ebbd
00000140: 54a5 2dbd 7a84 a7bc 7263 b4bd 8f7e ba3b
00000150: 5a4e 933d 4c31 af3c 3381 fabd 8ff9 d93d
00000160: ec36 f3bd 4902 2e3c 901f 143d b38b da3d
00000170: 8d44 a9bd 8088 933d 8bb7 d63c b64a 933d
00000180: c0ed 33bb 5253 e739 c179 ab3d 9191 0bbe
00000190: a47f 163d c0d4 63bd b481 5cbd 80ad b83a
000001a0: bab8 9d3d d685 ea3d 891a 00be 1132 9bbd
000001b0: 7a3a b83d ca8b f43c 1469 3f3d b0d3 5bbc
000001c0: 84b8 9dbd fe24 e03d 7830 fd3c d872 f4bc
000001d0: 7e23 c33d a3cc b13d be90 e3bd 40ab 7a3c
000001e0: 711f 773d f884 e1bd b848 8d3c 00aa 76ba
000001f0: 18f9 293d f456 5c3d 567d e63d 341c 67bd
00000200: ca16 5f3d 7ac9 573d 4a14 3bbc 2362 5dbd
00000210: b208 90bd c042 39bc d02a b6bd aa36 2d3d
00000220: c6ca debc c04c 8b3d 59e7 d6bc e857 dbbd
00000230: 8423 21bd e292 803d 08a1 51bd 4d53 eebd
00000240: 180f a7bd a19d d5bc 819a f1bd a07a a43d
00000250: f84c 863c f980 d53c 2a8c e33b 2ea9 a2bd
00000260: d2ce 933d 888a 9ebc dcc6 053d 3cd9 00bd
00000270: b01a 693c 6a1e b8bd f493 453d 33f3 d2bd
00000280: 903a eabd 5a6a bb3d 76c0 663c 7796 293d
00000290: 6bd2 92bd 0a51 98bc 6a7f ea3d 8c42 d9bd
000002a0: 8a63 cb3d 4a82 b53c e7c3 bcbd 3b58 76bc
000002b0: caee c3bd 684f 343d fe0e 69bd c8e6 f5bd
000002c0: ab69 f23b 182a 46bd c0b3 a23d 9260 b33c
000002d0: e9b6 8d3d 9127 dabc 08d7 d9bb 3b15 983d
000002e0: 7eed 6e3d 5164 893c 8653 d9bd 6637 e5bd
000002f0: bc64 7c3d f94b 0ebe 8e30 da3d 27c5 91bd
00000300: 565a 4a3c 6515 56bd 66bd ba3d 5358 203d
00000310: 2db2 883d 2860 ca3d 4ba3 e03c d970 133d
00000320: efac b73d 64a3 da3d 2f2a 54bd 512d 3fbd
00000330: c2e9 ea3d 5671 b7bd f174 d9bd 41e5 e03b
00000340: ac67 dbbd 29b7 57bd f3c3 febc b5d7 403d
00000350: 7cef 78bd 8c74 e3bd 7a01 febd 53e7 c33c
00000360: 468b 2fbd 1cf3 3f3d 1400 573c 6362 54bb
00000370: f1c2 edbd f479 91bd fc07 7d3d aa7a ff3d
00000380: 00b6 9e3c db3a 2c3d 8d0a f7bd 5a85 3a3c
00000390: d6d6 c73d 9803 0dbe 9489 5fbd b2cc 84bd
000003a0: c020 91bc 2842 0a3d e65e 0fbd 1ede 50bd
000003b0: 177f dfbd 5207 0bbe a575 d13d a0da 733c
000003c0: f59e f3bd d887 f53c 0234 473d 66d8 2dbc
000003d0: 5f1d dbbc 00cc d3bd ab76 6bbd 882e 76bd
000003e0: 82b7 e43d 2b8c f03c 14ed 41bd 292f 933d
000003f0: 37b1 b23d 803d bdbd 0c8e 71ba 0a77 58bc
0.013203457 0.060202867 0.0020215958 0.070051044 -0.10606094 -0.083688214 -0.089356214 -0.027900271
0.056382414 -0.012701386 -0.06075142 0.098934665 0.014095992 0.03470757 -0.115303144 -0.06784089
-0.01588545 -0.05884011 -0.14683948 0.034715172 0.044221535 0.10050136 -0.10831212 -0.08625385
0.09644957 -0.050835803 0.11833055 -0.10592435 -0.10975246 -0.07441631 -0.10019199 0.09936735
-0.07210676 -0.04333306 -0.14106573 0.06431403 -0.07481892 0.04620392 0.096261516 -0.026258022
0.043938845 0.06808549 -0.12305029 -0.11788971 -0.005149637 0.09877508 0.06651624 0.10477099
-0.13865942 0.100433886 0.10703626 -0.05644377 -0.045584872 -0.12494817 -0.13813128 -0.07703133
-0.06334673 -0.102475256 -0.09873587 0.041946955 -0.015769364 0.0011647682 -0.120405644 0.101194814
-0.103174895 0.120390415 -0.041641634 0.08920031 -0.13346446 0.09401049 0.042421 -0.12693325
-0.098815165 0.028056845 -0.067928806 -0.122861005 0.103662536 -0.037992492 -0.026167274 -0.11511388
-0.042393997 -0.020448912 -0.0880803 0.0056913565 0.07192679 0.021385811 -0.12231674 0.10643303
-0.1187571 0.010620662 0.036162913 0.10671177 -0.08265028 0.0720377 0.026210567 0.07191984
-0.0027454942 0.00044121832 0.08372832 -0.13629748 0.03674282 -0.055622816 -0.053834632 0.0014089793
0.077012494 0.114513084 -0.12510122 -0.07577909 0.089955285 0.029851813 0.04673107 -0.013417169
-0.07701209 0.10944556 0.0309069 -0.029839918 0.09528254 0.086816095 -0.11111592 0.015299618
0.06033272 -0.1101169 0.017246589 -0.0009409487 0.04149732 0.053793862 0.11254375 -0.05642338
0.054465093 0.052682377 -0.0114184115 -0.05404867 -0.070329085 -0.011307418 -0.088948846 0.04228846
-0.0271963 0.06801748 -0.026233362 -0.10710126 -0.03934051 0.06278016 -0.051178962 -0.11636982
-0.08157176 -0.02607614 -0.117970474 0.08031201 0.016394123 0.026062476 0.006944199 -0.07942425
0.07217182 -0.019353166 0.03266035 -0.03145717 0.014227554 -0.08990176 0.048236802 -0.10300293
-0.11436951 0.09151144 0.014083972 0.04140326 -0.0716904 -0.01859333 0.114500836 -0.10608396
0.09931095 0.022156853 -0.09217053 -0.015035684 -0.0956703 0.04402104 -0.056899063 -0.12006909
0.0073978505 -0.048379987 0.07944441 0.021896634 0.06919653 -0.026630195 -0.006647948 0.074259244
0.05833196 0.016771467 -0.10611634 -0.11192207 0.061619505 -0.13896169 0.10653792 -0.07117682
0.012350639 -0.052266497 0.09118156 0.039146733 0.06674609 0.098816216 0.027421614 0.03599629
0.08968531 0.106756955 -0.051798042 -0.046674076 0.11470367 -0.08957164 -0.10618008 0.0068632667
-0.10713133 -0.05266491 -0.031099295 0.047080714 -0.060775265 -0.11106214 -0.124026254 0.023914015
-0.04285743 0.046862707 0.013122577 -0.0032407276 -0.11609448 -0.07103339 0.061775193 0.12474568
0.019373894 0.042048316 -0.12062559 0.011384333 0.097577736 -0.13770902 -0.054574564 -0.06484355
-0.017715812 0.033754498 -0.03500261 -0.050993077 -0.10912912 -0.13577011 0.10227517 0.014883667
-0.11895553 0.029972002 0.048633583 -0.010610675 -0.026747404 -0.10341644 -0.057486217 -0.06010297
0.11167814 0.029363712 -0.047345236 0.071867295 0.08725207 -0.09240246 -0.0009214587 -0.013211975

fc2.bias f4 [32]
00000000: f46b d3bd fb44 bcbd dc30 99bd dad5 e73a
00000010: e019 28bd 30bc 56bd 1335 dd3d 4568 183e
00000020: e8b4 bf3d 7e4c 9e3d 6159 063e 3571 863d
00000030: 18ea 51bd 1cce 843b b106 02bd 7307 95bd
00000040: e856 b5bd af5e bcbc d562 1abc 0ee5 5d3d
00000050: 014b b7bd f9c0 35bd 7e18 c93c 1b74 743d
00000060: ed61 093c 24ed e0bb 6236 e13c 8c6e c03d
00000070: 7895 a1bb 35d0 053e d4f1 21bc f578 193d
-0.10323325 -0.091928445 -0.07480022 0.0017687634 -0.0410403 -0.052425563 0.10801139 0.14883526
0.09360677 0.077294335 0.13120033 0.06564561 -0.05124864 0.0040528905 -0.031744663 -0.072768115
-0.08854467 -0.022994367 -0.009422977 0.05417352 -0.08949853 -0.044373486 0.024547812 0.05968104
0.008385164 -0.006864207 0.027491752 0.09396085 -0.004931148 0.13067706 -0.0098843165 0.03746887

fc3.weight f4 [5, 32]
00000000: 2980 10be db4f be3d d9a6 9fbd f97c 103e
00000010: 65f3 93be 9403 8dbd f27e e6bd a20b a03d
00000020: ce11 dd3d b799 ac3d bbb0 1dbe 8aa0 1cbc
00000030: 4356 21be b374 18be 2f05 d6bd 1822 0fbd
00000040: f7a5 dcbd 202c 7d3d b37b 28be dadc 1c3e
00000050: 1d89 2d3b 3f26 0cbe 0fae e9bd 24d8 3bbe
00000060: ce2a 6bbd e4f0 043e 3c32 373e 56af 113e
00000070: d5eb 553c fa23 22be 5b20 b63d dea4 5cbe
00000080: b041 c33d d654 97bd 441f b93c 1ef5 6a3d
00000090: eec9 0ebe 892f 17bc 4faf 02be b18a 96bd
000000a0: 7795 e1bc 183d 273c e05f 01bb bac8 45be
000000b0: 1f74 093e d1fa 76be f652 f43c 6419 9abd
000000c0: eee1 fd3d 18bf 40bd 1b5c a6bd 68c3 223d
000000d0: 3433 61bd 6ac8 37be 4198 c53d 38cb 59be
000000e0: a36e 02be 2475 8bbd d57e 743e 8ded 48bc
000000f0: 7b29 6cbe a70f aebd e7db 053e cc7b c53d
00000100: 1c1f 1dbd 854a 2fbe 55f7 b03c 1c9e 103d
00000110: 15de 0ebe 6c30 58be 0218 a63c eccd 3dbe
00000120: be62 f13d 19bd debd 0235 fcbc e549 20be
00000130: ba5f e63d f97e 08be 3415 40be 51ee c63d
00000140: 6a13 bc3d e228 fd3d d680 f2bc da69 953d
00000150: 2206 cf3a 563e 44be 25d2 e73d 9a7e 69bd
00000160: c554 313c 5ce9 073e b4ec 773e ad0a 903d
00000170: 35b8 39be 3c4c ba3d 82b1 5fbd 9c25 d63c
00000180: 20e2 193c bd5d 0b3e f25a 143e 250b debd
00000190: 2538 8abd c08d 51be 1825 15be 07c2 26bd
000001a0: 9d5b cd3d 47f5 00bd 23d4 63bd f0bb 10be
000001b0: 8aaf 983d fa74 1cbe 34a4 36be 3140 50bd
000001c0: b871 eabc 9356 613d 4d0f 98bc 3d79 a5bc
000001d0: d373 d03d 1f9a 4bbe eca5 5cbd 1888 22be
000001e0: 5ee2 8abd 273e a53d 0a78 553e e6b7 803b
000001f0: d934 35be c18c 543c d2b5 e2bc 4e09 37be
00000200: be84 a9bd bc6b 583c 24a4 29bd aaa4 cdbd
00000210: b8fc b8bd f935 35be e4f1 db3d 8ba2 b3bd
00000220: 7fe5 ec3d a05f 2cbe fe07 06be bba7 d1bd
00000230: bc7c 833d 101c 74be 8ccc 91bc 16ca b0bd
00000240: 4cb6 df3d 8d21 293d e5f2 52be 64ae 00bc
00000250: d680 1f3e 0c87 7d3d 1cbb c3bc 25ba f5bd
00000260: 1436 45bc 90ee 3fbe 0eb6 543e c0d6 b03d
00000270: ad2b d03d 6c20 1bbe 01e8 0f3e f1e1 a6bd
-0.14111389 0.09292575 -0.077954955 0.14110173 -0.28896633 -0.06885448 -0.11254682 0.07814719
0.107944116 0.08427756 -0.15399449 -0.00955976 -0.15755562 -0.14888267 -0.104502074 -0.034944624
-0.10773843 0.06180966 -0.16453438 0.15318623 0.002647943 -0.13686465 -0.11410152 -0.1834417
-0.05741387 0.12982517 0.17890257 0.14227042 0.013056715 -0.15834036 0.0889289 -0.21547267
0.09534013 -0.07389228 0.022597916 0.05736267 -0.13944218 -0.009227642 -0.12762187 -0.07350672
-0.02753709 0.010207437 -0.0019740984 -0.19314852 0.13423203 -0.24119116 0.029824715 -0.07524374
0.12396608 -0.04705724 -0.081230365 0.039737135 -0.05498047 -0.17947546 0.09648181 -0.21268928
-0.12737517 -0.06809452 0.23876508 -0.012263668 -0.23062699 -0.08499079 0.13072167 0.09642753
-0.038359746 -0.1711827 0.021602312 0.035307035 -0.13951905 -0.21112221 0.02027512 -0.18535584
0.11786412 -0.10875911 -0.030786995 -0.15653189 0.11248727 -0.13329686 -0.18758088 0.09713424
0.091833904 0.123613134 -0.02960245 0.0729558 0.0015794674 -0.19164404 0.11319379 -0.057005502
0.010823433 0.13272613 0.24211389 0.07033286 -0.18136676 0.09096572 -0.054612644 0.02614098
0.009392291 0.13609977 0.14487818 -0.108419694 -0.0674899 -0.2046423 -0.14564931 -0.040712383
0.100272395 -0.031483915 -0.05562223 -0.14134192 0.074553564 -0.15278998 -0.17836076 -0.050842468
-0.028618678 0.055014204 -0.018561983 -0.020199412 0.10178342 -0.19883011 -0.053869173 -0.15872228
-0.06781457 0.08068495 0.20846573 0.0039281724 -0.17695941 0.0129730115 -0.02767459 -0.17874643
-0.08277272 0.01320928 -0.041416302 -0.10041173 -0.09032577 -0.1769637 0.10739496 -0.08771237
0.115672104 -0.16833353 -0.13088986 -0.1023707 0.064202756 -0.2383883 -0.01779773 -0.08632295
0.10923442 0.041291762 -0.2060047 -0.007854078 0.15576491 0.06189637 -0.023892932 -0.11998395
-0.012036819 -0.18743348 0.20772573 0.0863471 0.101645805 -0.15149087 0.14053346 -0.08148564

fc3.bias f4 [5]
00000000: 65e8 3abe 3bd4 873d ac0c e3bb 8b84 a03d
00000010: ac23 873b
-0.18252714 0.066322766 -0.006929001 0.078377806 0.0041241255
