MAI2A_TreasureFinder/agent_1_model.pth (torch, 836729 bytes, 28 tensors)

env_model.conv1.weight f4 [32, 7, 3, 3]
00000000: a733 a0be fb62 90be f89d dfbd 333f 97bf
00000010: dc5d 9ebf c282 0ebf 6335 a5bd a811 aa3e
00000020: 9d56 47bf 11d9 f23d eafd 50be 36c4 8abe
00000030: 3d0d 9dbd 546c 60be ad4a 733d 8d2f a93d
00000040: b230 db3e 6a7f 08be 9041 dc3e 9907 3b3e
00000050: bf41 773e ea94 fe3e df36 e53e ed67 0c3e
00000060: 11f1 893d 9be5 f2be e08f a2be a4ea 47bd
00000070: f902 bd3c 83d5 193d 50c2 11bd 901c 33be
00000080: dbef 0b3e a52c d33d d542 bfbd 917e 4dbe
00000090: a171 693e bf5b abbd f3bd 03be fe51 b03d
000000a0: a2a1 45bd 6502 183b 64e7 9d3e e649 8f3e
000000b0: c0ac 11be 920e 37bf c8d7 4abf f8fb 28bf
000000c0: 46be 3abf 52af bdbe 4d5d c8be 0467 4cbf
000000d0: c132 a9be b3c4 cc3d 4b0e 63bd 1078 213e
000000e0: d40a 823e 5fed 003e 1ca0 7cbd 86a7 8a3e
000000f0: a0e8 62be 0875 febe 92d0 11bd 616b acbd
00000100: 22f0 c2be 26fd a2be b2e4 22be 861f 8ebe
00000110: fea6 c73c b7ff fcbd bcee 97be 05ad 3dbe
00000120: 54e9 4c3d 525d b63d c317 3a3e 3db9 96be
00000130: d3eb abbe f588 adbe 54a1 5dbe 44bc bcbd
00000140: 837c 25bf 4578 3f3d 7c09 b93d 31b8 d4bd
00000150: 89a9 653d 2ba6 d3bc 55bc b6bd 5348 20bb
00000160: 8616 47be 82f2 93bd ee77 f1be fb4a dfbe
00000170: cfc7 d2be 4f44 03bf 81a4 f3be e0a4 07bf
00000180: e1a8 d1be dd20 dfbe af50 e0be e7c5 22bd
00000190: 6924 b3bd 2c6b cf3d 14a4 233e 85b2 ec3d
000001a0: ece2 843d 2e2c e63e 8bc3 883e e1e2 3a3e
000001b0: 2b8d 363e 8ef7 a83c e209 8b3e e031 523e
000001c0: 1f7b 203e 4baf 383e f231 3d3e 156b 203e
000001d0: 4e90 673e 6816 f43e 952f 9f3e 3694 d93e
000001e0: 8afe af3e 3143 f43e ddda dc3e a31e 1b3f
000001f0: 7bc0 e13e 7e45 dc3e 1a43 85be b293 4d3b
00000200: 19bb 773e e4a3 023e a131 1f3e 8ca8 213f
00000210: 180f 02bf 814f 89bf 14dc 813e 753b 633e
00000220: 6ea7 403e d6d6 c23e 78c1 163e 7b45 8f3d
00000230: 2d2b 02be e279 06bf 55c6 5fbe 4993 fe3d
00000240: fbd4 8d3e 8dd5 1abe 5d9f 92be a5b6 e13d
00000250: 49c5 f4bd c7b1 9d3e 5b88 90bc 160e b4be
00000260: e7b7 9dbe 7b32 573d 132b 14bd a183 863e
00000270: 5666 59bd 322c 0c3e 9a55 c43e cb38 6cbe
00000280: 1b53 1cbe 35b7 303e 4664 97bd 044e 57be
00000290: 0285 7fbe 8ff2 3dbe 065f 3bbe 6764 88be
000002a0: 0d13 873c 29cb 50be c3a4 3dbe f0bc d9be
000002b0: 5aaf 763d 9cab 7e3e 6dea adbe 3eae 6fbc
000002c0: 6a4c 953e a0cb 41be 14b2 b3bd 8f4c 1abb
000002d0: aa73 873d b65b 09be 9193 e1bd 063e 5a3e
000002e0: 8346 bbbb 223c 18be 69e9 c83b 87d5 bdbd
000002f0: 37b2 a1be 255a 0c3f 3b2c a0be 6a8d 94bf
00000300: b486 513f 1c98 1a3e 6891 c7be 911c c93e
00000310: 1a09 133d f026 363e e7a5 8ebf 8734 a73e
00000320: 11e3 de3e 4e7e a2bf 3be0 953d 1ed3 67bf
00000330: bdd5 babf 6fd9 9bbe 3c2d 2f3e 0871 9b3e
00000340: f751 f8be 87ca 3cbf 5b8d 9f3e d843 823e
00000350: 5f6f 88bc b864 913e b13e 803c 9ca3 9b3d
00000360: b96c 14bf 0793 d8be 5162 1dbe d3fa f6be
00000370: bd34 b4be 33c0 cebe f262 58be bf21 c5be
00000380: 743d 62be 0a28 e4be 7385 2b3e 8ee8 913e
00000390: 3519 bdbe 8f7c dc3d 164e 523e d210 a3be
000003a0: e0b3 5f3e 8520 b73e b948 c2be 390a 973a
000003b0: 1c42 bbbd 1117 1d3c 61bc 79bd 12f4 05be
000003c0: ea1d 6dbe 54d5 39be e7e9 bdbe 03f8 36be
000003d0: 7d63 223e 1b00 643e 029a 26be 4327 a139
000003e0: b10c 3e3d b805 3dbe 59e5 0ebd c080 64bc
000003f0: 4092 fdbe e0a9 eabe f573 6a3d 8961 1fbf
-0.31289408 -0.28200516 -0.10918802 -1.1816162 -1.2372394 -0.5566827 -0.08066823 0.33216596
-0.77866536 0.118578084 -0.2040936 -0.27102822 -0.076685406 -0.21916324 0.05939739 0.08261023
0.4281059 -0.13329855 0.4301877 0.18264617 0.24146174 0.49722987 0.44768426 0.1371152
0.06735433 -0.474408 -0.31750393 -0.048807755 0.023072707 0.037557136 -0.0355857 -0.17491364
0.13665716 0.1031125 -0.09338919 -0.20067813 0.22797252 -0.083671086 -0.12865429 0.08609389
-0.04824985 0.0023194787 0.308406 0.27986068 -0.14226055 -0.7150661 -0.79235506 -0.66009474
-0.72946584 -0.3704782 -0.39133683 -0.7984469 -0.33046535 0.09998455 -0.055433553 0.15768456
0.25398886 0.1259055 -0.06167613 0.27080935 -0.22159052 -0.49698663 -0.0355993 -0.084189184
-0.38073832 -0.31833762 -0.15907553 -0.27758425 0.02437162 -0.12353461 -0.29674327 -0.18523033
0.050027207 0.08904518 0.18173127 -0.294382 -0.33578357 -0.33893552 -0.21643573 -0.09215596
-0.64643115 0.046745557 0.09035012 -0.10386694 0.056069884 -0.025836071 -0.0892264 -0.002445717
-0.19442186 -0.07223989 -0.47161812 -0.43611893 -0.41168067 -0.51276106 -0.47586444 -0.52985954
-0.40949157 -0.4357976 -0.43811557 -0.039739516 -0.08747179 0.10127863 0.1598056 0.115574874
0.064885944 0.4495558 0.26711687 0.1825061 0.17827289 0.020625856 0.27155977 0.20526838
0.15671967 0.18035619 0.18476084 0.15665849 0.22613642 0.47673345 0.3109099 0.42495888
0.34373885 0.47707513 0.4313573 0.6059362 0.44092163 0.43021768 -0.26027757 0.003136855
0.24192466 0.12757832 0.15546276 0.6314781 -0.5080428 -1.0727388 0.2536322 0.2219065
0.1881387 0.38054532 0.1472224 0.06995674 -0.12711783 -0.5252973 -0.21853001 0.12430436
0.27701554 -0.15120526 -0.2863721 0.11021165 -0.11951692 0.30799696 -0.017643144 -0.35166997
-0.3080437 0.052538376 -0.03617389 0.262723 -0.05307611 0.13688734 0.3834656 -0.2306854
-0.15266077 0.17257388 -0.073921725 -0.21025854 -0.24953082 -0.1854956 -0.18297967 -0.266391
0.016488576 -0.2039 -0.18519883 -0.4252696 0.060225822 0.24870151 -0.33967915 -0.014628945
0.29159862 -0.18925333 -0.087742 -0.0023544168 0.06613858 -0.13413891 -0.11014474 0.21312723
-0.0057151928 -0.14866689 0.0061313403 -0.09269243 -0.3158128 0.5482505 -0.31283745 -1.1605656
0.81846166 0.15097088 -0.38978124 0.39279607 0.03589735 0.17788291 -1.1144379 0.32657263
0.43532613 -1.2694795 0.07318159 -0.90556514 -1.4596478 -0.30439326 0.171071 0.30359674
-0.48500034 -0.7374653 0.31162533 0.25442386 -0.016654668 0.28397155 0.015654894 0.075995654
-0.579784 -0.42299673 -0.15369536 -0.4823824 -0.35196486 -0.4038101 -0.21131495 -0.3850231
-0.22093755 -0.44561797 0.16750126 0.28497738 -0.36933294 0.10765945 0.205376 -0.3184877
0.2184596 0.35766998 -0.37946108 0.0011523432 -0.09143469 0.009588019 -0.060970668 -0.13081387
-0.23155943 -0.18147784 -0.37092516 -0.17868046 0.15858264 0.22265665 -0.16269687 0.00030737565
0.046398822 -0.18459213 -0.03488669 -0.013946712 -0.49525642 -0.4583273 0.05723949 -0.622582

env_model.conv1.bias f4 [32]
00000000: da79 aabe de75 adbe c7b5 09bf 86ed b1be
00000010: 5479 bebe 5ddb 9b3d b0dd 2f3e cbc7 e0be
00000020: eddd a1be c999 aebd 3278 80be 2029 27be
00000030: baec 86be f2e0 693a 2373 7d3d 6a3a fdbc
00000040: 0165 3d3e 52e4 4ebd 62de 26be 2462 8bbe
00000050: eeb9 553e 4cbc 4cbe 578f c83d 3524 94be
00000060: c18e 193e e2be dabe 0c4f 8a3d 7e54 aabe
00000070: b726 7abe 1b98 063e cf3f c2be a21e 07bf
-0.3329609 -0.33878988 -0.53792995 -0.34751529 -0.3720194 0.076101996 0.17174411 -0.4390243
-0.31614628 -0.08525426 -0.25091702 -0.16324282 -0.26352483 0.0008921764 0.06187738 -0.030911643
0.18495561 -0.050510712 -0.1629577 -0.27223313 0.20871708 -0.19993705 0.09792965 -0.28933874
0.14995863 -0.42723757 0.06753358 -0.33267587 -0.24428831 0.13143961 -0.37939307 -0.52781117

env_model.conv2.weight f4 [3, 32, 3, 3]
00000000: 2e29 b1bd 10ac 5a3e 7308 083d 9f34 003c
00000010: 266a edbe e2c8 58be 5005 b33e d2ed 23bd
00000020: d5c6 443e 5176 80be fc17 0cbe d701 9ebd
00000030: 2d4e 4c3d 5973 8a3d e359 82bc 7c68 4d3e
00000040: ace1 8a3e e5ab 95bd 64c1 56bf b845 053f
00000050: 80c8 633f 763c 02bf b7bb b2be 5057 84be
00000060: 11dd 31be 798d 4abc a0fc fcbd 57f1 513d
00000070: 7486 823d f306 263e 9882 f1be 02b8 aabe
00000080: 88ce 68bf 3106 32bd e42c 8ebd 6fd1 8bbe
00000090: a4c6 53be 7a3c 81be d41a 153d b52f 23bd
000000a0: f977 a2be 8001 0cbe e324 8ebd a46e c6ba
000000b0: e8b5 00bf dd2c cc3e 5fec a2be c7b8 1ebf
000000c0: bcff 28be 30ea c7be 284a 93bd c11f 8dbe
000000d0: 57b0 1a3e 057c 98be 505b 55be 782e f4be
000000e0: 4838 55bf 61f5 af3d 112c a23c 1266 8abe
000000f0: c435 253b afc9 acbd ecc1 c5be 4236 0d3f
00000100: 3950 cf3e 9d56 413f a488 843d 72e2 efbe
00000110: 3e3d 66bf 5b08 763e 450a a43e 8466 e33e
00000120: 7cf7 533e 483a 7abe 369b 8abd 233d 23bd
00000130: 462c a4be 1102 a7be acd7 ddba 191b cabe
00000140: 4b88 8ebe 7290 80be f953 51be fd39 b9be
00000150: 32d3 8fbe 2a06 94be 4973 c8be 95f0 f8bd
00000160: 2a43 5abe 5c9c cbbe 0a8f 11bf 2608 2ebe
00000170: b5ec 4cbe c5eb 853e 2554 91be 8124 8dbd
00000180: f361 bb3c dd23 763d f190 21be aad4 7fbe
00000190: 8f9c d2be 2660 cbbd cdb0 c03e 6d28 8c3d
000001a0: 6027 71bd 2ae0 9e3d b899 403e 8790 04be
000001b0: b325 64be 14bc a6be 4d63 f23e 7773 a8be
000001c0: 3d52 c5be 92a8 2cbf 46cf 8c3d b48c 1b3d
000001d0: 37b8 94bc 3cb5 57bf d205 4ebe 3fb3 53be
000001e0: 6906 b0be 4bb0 99be b7a9 62bf 59b6 a5be
000001f0: e760 fcbe 6d72 87bf 78c1 edbe 17dd 993e
00000200: 6777 1ebf 0fc3 60be 19a3 5cbe 92a2 77bf
00000210: 0d91 78bf 4276 7dbe a2e7 83bf ff42 e43e
00000220: f61b c73c ef46 93bd 6dd1 7ebe d34d 09be
00000230: a592 b7bd 875f be3d 8453 a0be 9a73 be3e
00000240: 487f 97bf 6092 9ebc b22d dd3e 80a5 28bf
00000250: f2b9 a0be 6497 9cbd 8c2e 5abe 2985 ccbe
00000260: 2595 e0be 99ea a9bd 475d aa3e 67b6 7c3e
00000270: 39e0 38bf 66b3 c2bf 6412 62bf 915f 17bf
00000280: a0cd 33bf fb95 27bf d618 f9bc 4939 023d
00000290: a291 9bbe 1ff4 64be 3bc3 673e 2aac 4f3d
000002a0: bdd1 383d 1269 933b 0d50 35be 4674 af3e
000002b0: 4e56 083f 2801 56bd ae67 e3be 9b2b 80be
000002c0: 0780 c6bd c08a 593c 34e4 8f3e 33cb 01bf
000002d0: 3c25 4dbf 35cf 4ebf 9abc 15bf 5106 88bf
000002e0: 5e54 3dbf 7d76 23bf bc19 29bf 4fbc 3cbf
000002f0: e39a c7bd 4147 fbbc 877e e33c 30bd ffbc
00000300: 5f03 443d c556 a0bd 5f71 6dbd edc5 463d
00000310: a5a6 773a 3546 c03b 4011 15bd 57aa 1e3f
00000320: c77d 9d3e 02f9 f23e 33e5 cf3d 7676 59be
00000330: 45a4 96be 7f75 2abe 320c 2bbf 5bbb 4f3c
00000340: d02f 553d 525f febd bd1d 9cbe 7a60 80be
00000350: d406 97be daf1 93bd 58cf 4abe f8a4 9dbe
00000360: f074 74bf 48bd c6bf 308a 28bf 5c58 e0be
00000370: b984 cdbe 7e57 63be 6df5 7fbf d2b2 37bf
00000380: ae0d 31bf 1fd1 84be 1a86 ad3c f0ee 1dbe
00000390: 07ec 9b3e f357 53be 0ee1 83be 9615 b9bc
000003a0: 619e 9fbe 9369 b1be f517 e2be 55c4 c2be
000003b0: 6248 f23d cfd3 32be 4308 e13c f9fa 9d3d
000003c0: ad99 663e 6fa6 373e 5f97 47be 5370 05bc
000003d0: a86f afbd 0719 19be d8b1 e53c c5a5 60be
000003e0: 6705 36bd 6be9 0fbd 95a5 b7be bdb7 a2be
000003f0: 86c3 5ebf 4cde 7fbf 06e9 df3e e57a 18bf
-0.086504325 0.21354699 0.033211183 0.007825046 -0.46370047 -0.2117038 0.3496499 -0.040021725
0.19216473 -0.25090268 -0.13681024 -0.07715195 0.04987924 0.06760282 -0.015912002 0.20059389
0.271253 -0.07308177 -0.8388884 0.5205951 0.88977814 -0.50873506 -0.3490884 -0.25847864
-0.17369486 -0.012362831 -0.12352872 0.05125555 0.06373301 0.16213588 -0.47169948 -0.33343512
-0.9094014 -0.043462936 -0.06942156 -0.27308223 -0.20681244 -0.25241452 0.03640254 -0.03984042
-0.31732157 -0.13672447 -0.06940629 -0.0015139175 -0.50277567 0.39877978 -0.31820962 -0.620007
-0.16503805 -0.39045858 -0.071918786 -0.2756329 0.15106331 -0.2978212 -0.20835614 -0.47691703
-0.83289003 0.08591724 0.019796403 -0.27030998 0.0025209049 -0.084369056 -0.38624513 0.55160916
0.40490893 0.75522786 0.06471375 -0.46852452 -0.899372 0.24026625 0.32039085 0.4441415
0.20699877 -0.24436295 -0.067678854 -0.039853226 -0.32065028 -0.32618764 -0.0016925237 -0.394738
-0.27838358 -0.25110203 -0.2044219 -0.36177054 -0.28090817 -0.28910953 -0.39150456 -0.121552624
-0.21314684 -0.3976773 -0.56858885 -0.16995296 -0.20012172 0.2615644 -0.2838451 -0.06891728
0.022873854 0.060092796 -0.15777947 -0.24983469 -0.4113507 -0.09930448 0.37634888 0.06843648
-0.05887544 0.077576 0.18808639 -0.12945758 -0.22280006 -0.32565367 0.47341385 -0.32900593
-0.38539305 -0.6744472 0.06875472 0.03797598 -0.018154247 -0.84260917 -0.20119408 -0.20673846
-0.3437989 -0.30017313 -0.88540214 -0.32365683 -0.4929268 -1.0581795 -0.46436667 0.3005149
-0.61900944 -0.21949409 -0.21546592 -0.9673244 -0.9709633 -0.24752143 -1.0305064 0.44582364
0.024305325 -0.07191264 -0.24884577 -0.13408594 -0.08963517 0.09295564 -0.31313717 0.37197572
-1.1835718 -0.019356906 0.43198925 -0.6587753 -0.31391865 -0.07646063 -0.21306819 -0.39945343
-0.43863788 -0.08296699 0.3327429 0.24678956 -0.72217137 -1.5210998 -0.8830931 -0.591302
-0.70235634 -0.6546323 -0.03040735 0.031792913 -0.30384547 -0.2235875 0.22633068 0.050701298
0.045121897 0.0044986093 -0.17706318 0.34268397 0.5325669 -0.052247196 -0.4441504 -0.25033268
-0.09692388 0.0132777095 0.28103793 -0.5070068 -0.8013494 -0.8078492 -0.5849091 -1.0626928
-0.7395686 -0.63852674 -0.6605489 -0.73724836 -0.09746339 -0.030673625 0.027770294 -0.031218141
0.047854777 -0.0782905 -0.057969447 0.0485286 0.0009447134 0.0058677443 -0.036393404 0.6197867
0.30760023 0.47455603 0.10151138 -0.21236596 -0.29422203 -0.16646384 -0.66815484 0.012678946
0.05204755 -0.12420525 -0.30491439 -0.25073606 -0.29497397 -0.07223864 -0.19805658 -0.30789924
-0.9549093 -1.5526514 -0.6583586 -0.43817413 -0.40140322 -0.22201344 -0.99983865 -0.71757233
-0.691615 -0.25940797 0.021182109 -0.15423179 0.30453512 -0.20639019 -0.2575764 -0.0225933
-0.3117552 -0.3465086 -0.44158903 -0.38040414 0.11830212 -0.17463611 0.02746976 0.07713885
0.2251956 0.17934583 -0.19491337 -0.008144456 -0.085662186 -0.14950953 0.028038904 -0.21938236
-0.044438746 -0.035134714 -0.35868517 -0.31780806 -0.87017095 -0.99948573 0.4373247 -0.5956252

env_model.conv2.bias f4 [3]
00000000: 0e60 9dbe 6ea3 06bd bfbc 82bd
-0.30737346 -0.032870702 -0.06383657

imagination.0.weight f4 [256, 3]
00000000: 9451 403e 8a93 023f 10d1 c83e e017 51bd
00000010: 363c 04be 1c93 b3be 601d 243d 70d9 ca3e
00000020: 0c25 9d3e de10 0c3f 70ae 6ebd a0ba 6e3e
00000030: 8291 b0be c65d 0dbe 8061 babb d8cd 8a3e
00000040: 7ada 6cbe 68cf 183e a82d 29be f0ad fa3e
00000050: f42c 443e 5c70 43be 822d 06be 04b0 27be
00000060: e093 7abe 46a6 61be d844 f13d 6c5e 743e
00000070: 45ef c2be 6aca 113f 8c3f 133f d417 513e
00000080: d052 053e 562c 983e ff87 08bf 1c46 133e
00000090: 852d eebe dc68 203e 5df9 febe f0b2 b1bd
000000a0: 708d be3d 435a c5be 6a82 893e 7ef3 ccbe
000000b0: 7698 83be dced 54be e9eb fdbe 42c7 b83e
000000c0: e044 393e faed 013f 3c17 b33e 66af e6be
000000d0: 804d ce3e e0ce aabc 005c a23d 9490 6d3e
000000e0: ac8b 6c3e 5549 13bf 4817 ea3e c094 043f
000000f0: 76ce 34be e484 0c3f 0aad aa3e 6c25 debe
00000100: b468 193e d04d 1e3d 3ecf 23be 9a0c 73be
00000110: 2064 d3bd 901a 863e d8dc 0abf 40d6 febe
00000120: 8454 febd 7479 063f 4abc b73e a9ec 11bf
00000130: 4889 a33d ac72 e7be 1840 10bf 5852 92bd
00000140: e22c 063f 78e4 b43e 90ca fc3d e6eb 073f
00000150: d02c ef3e 501d 143e ae78 40be 5f54 d3be
00000160: 5cb5 0e3f 1ab4 32be 0628 6fbe 6c82 273e
00000170: fed5 e8be 8816 78be cce5 553e 4417 5d3e
00000180: 886e b5be 9cdc 21be 28a5 053f ba67 bdbe
00000190: 8b4e 0dbf 4073 42bc 0ed7 6cbe 908a 983d
000001a0: 3681 41be 8fcf 06bf 2677 96be beb8 8e3e
000001b0: bbf8 a3be 6f9f 0cbf dc64 32be 195f 94be
000001c0: 38af f73e 783b e93e d05f 21bd e122 91be
000001d0: 2e18 133f 3ca6 463e 50c4 1fbd 1acb cabe
000001e0: a0a6 013f d882 153e 2ebd e3be c8a6 bc3e
000001f0: 66d5 063f d494 76be ba7c 97be f829 543e
00000200: 4ca0 75be 3873 373e c48e d0be a849 563e
00000210: 9ada 0a3f 642c ebbe 4421 5e3e 75a4 c0be
00000220: 2a98 a9be c08d 593d 6a7d 863e 70fd 053e
00000230: 1059 2d3d fcbd dd3e 403c ba3e 0430 4a3e
00000240: 8000 4dbc 2e90 90be 08f8 e8bd 6e35 03bf
00000250: 4c08 513e 1009 a63d c073 f63d f05f c8be
00000260: 8030 88bd 7cc7 cf3e b883 f73d c2d4 39be
00000270: b806 2a3e 78b9 b93d 1e82 76be b018 e53e
00000280: e818 0cbe 8c38 173e 1fb3 97be 2c42 5abe
00000290: 6cf5 583e c493 d6be 2a77 0dbe 4047 3abd
000002a0: 0862 9ebd d6e3 a53e 38ce a0be 94e6 d2bd
000002b0: 3089 903d 6072 d23c aef5 00bf c81e fabd
000002c0: af88 88be 583c 0c3f 4231 a33e 604a 143d
000002d0: 4432 1d3e ca3b a13e 9250 b4be c0bc fd3e
000002e0: 0696 cf3e 207d c33e 74fe fe3e ccef 09bf
000002f0: fc87 c63e 1eb4 9e3e 40db c73c 152b eebe
00000300: b801 ee3e 00c8 003b fc0a dabd 2cb8 c3be
00000310: 58a8 bbbd a064 e6bc 2499 10bf e89d 003f
00000320: cc2d 293e 3e59 3cbe a816 e13e 522b 0abf
00000330: 6471 fe3e 5c32 7fbe 607d 093f 8424 64be
00000340: 1c70 13be c869 aa3d 6a6d c9be ea37 0bbf
00000350: 74c1 ccbd b701 99be 006e 0a3d 5e53 05bf
00000360: 4b8c 87be 35c9 07bf af6c a2be 2e2b b93e
00000370: c9fa d5be 5cee 1abe 228f cebe 23ad 8ebe
00000380: 4448 69be c085 363c e458 173e c691 d03e
00000390: 7028 94bd ec02 febd 74c4 e13e d877 283e
000003a0: acb8 3fbe e0c7 e53d 288d 7f3e e9cf f2be
000003b0: a5f5 12bf 3005 67bd 7511 0ebf 6011 f93c
000003c0: cf12 a5be 11e6 e6be 604b a9bd 3805 e6be
000003d0: 1468 b43e 1008 da3e a28c 70be 10e1 263d
000003e0: ddb3 b3be a001 9dbd 88fd 01be edeb ebbe
000003f0: 8c5d dfbe 4e53 c5be 2059 133e 4a26 a83e
0.1878112 0.51006377 0.39222002 -0.05104816 -0.12913594 -0.35073173 0.040067077 0.39619017
0.30692327 0.5471324 -0.058271825 0.2331338 -0.34486014 -0.13805303 -0.0056878924 0.2711017
-0.23130217 0.14922869 -0.16521323 0.4896083 0.19157773 -0.1908583 -0.13103297 -0.16375738
-0.24470472 -0.22036085 0.11780709 0.23864144 -0.38073173 0.56949484 0.5751884 0.20419246
0.13019872 0.29721326 -0.53332514 0.14382213 -0.46519104 0.15665 -0.49799624 -0.08676708
0.09304321 -0.38545427 0.2685731 -0.4002952 -0.25702256 -0.20793861 -0.49594048 0.36089522
0.1809268 0.5075375 0.34978664 -0.45055693 0.40293503 -0.020850599 0.07927704 0.23199683
0.23100156 -0.5753377 0.45720887 0.51789474 -0.17656884 0.54890275 0.33335143 -0.43387926
0.14981347 0.038648427 -0.15997025 -0.23735276 -0.10321832 0.2619214 -0.5424323 -0.49772835
-0.12418464 0.5252907 0.3588584 -0.5700174 0.07985169 -0.45204675 -0.563478 -0.07144612
0.52412236 0.35330558 0.12343323 0.5309433 0.46713877 0.14464307 -0.18796036 -0.41275308
0.5574548 -0.17451516 -0.23355111 0.16358346 -0.45475763 -0.24227345 0.20888442 0.21590906
-0.3543589 -0.15806812 0.52205133 -0.369932 -0.5519797 -0.011868298 -0.23128912 0.07448304
-0.18896946 -0.5266046 -0.29387778 0.27875322 -0.32025704 -0.54930776 -0.17421287 -0.28978804
0.4837587 0.45553184 -0.039398015 -0.28346923 0.5745877 0.19399351 -0.039005578 -0.3960808
0.50644875 0.14600694 -0.4448027 0.36845994 0.5266937 -0.24080211 -0.29587346 0.20719135
-0.2398693 0.17915046 -0.40733922 0.20926535 0.5423981 -0.45932305 0.21692377 -0.3762547
-0.33123904 0.0531137 0.26267558 0.1308496 0.042321265 0.4330901 0.36374092 0.19744879
-0.012512326 -0.28235 -0.11375433 -0.512534 0.20413321 0.08107197 0.12033796 -0.39135695
-0.06649876 0.40581882 0.1208567 -0.18147567 0.16604125 0.090685785 -0.24073073 0.44745398
-0.13681376 0.14767665 -0.29628846 -0.21314305 0.21187371 -0.4190961 -0.13814989 -0.045478106
-0.07733542 0.32400388 -0.31407332 -0.102978855 0.070574164 0.025689304 -0.5037488 -0.12212902
-0.2666678 0.5477958 0.31873518 0.036203742 0.15351206 0.31490928 -0.3521772 0.49558067
0.40544146 0.381814 0.49803507 -0.53881526 0.38775623 0.30996794 0.024396539 -0.46517244
0.46485686 0.001965046 -0.10646626 -0.3822645 -0.091629684 -0.028124154 -0.56483674 0.50240946
0.16521376 -0.18393418 0.43962598 -0.5397235 0.49695885 -0.24921554 0.5370693 -0.22279555
-0.14398235 0.083209574 -0.3934129 -0.54382193 -0.09997836 -0.2988412 0.03379631 -0.52080333
-0.26474223 -0.5304139 -0.31723544 0.36165756 -0.41792896 -0.1512999 -0.40343577 -0.27866468
-0.22781473 0.011140287 0.14780003 0.40736216 -0.07234275 -0.12402901 0.44095194 0.16451967
-0.1872279 0.11219764 0.2495619 -0.47424248 -0.57406074 -0.05640143 -0.5549539 0.030403793
-0.32240912 -0.45097402 -0.0826633 -0.44925857 0.35235655 0.42584276 -0.23491147 0.04074198
-0.35098162 -0.076663256 -0.12694371 -0.46078435 -0.43626058 -0.3854012 0.14389467 0.32841712

imagination.0.bias f4 [256]
00000000: 0484 ec3e 0f49 d3be 7825 9f3d e227 d53e
00000010: c780 09bf 6493 013f e05d b93c eddd 01bf
00000020: 843b 07bf bcfe c53e 7c1e 043e 7e2c cdbe
00000030: 2c73 083f 7230 0ebf 340b 033f a28a b6be
00000040: 1ca9 1a3e 8670 5abe 2853 833d c000 953e
00000050: e047 c43d 0d7b f5be 301f 163e 80db cb3c
00000060: 006c 47bc a048 96bd f0d5 493e 042c fc3e
00000070: 0490 0abf 9949 81be e8a1 083f 9ce2 31be
00000080: 9c3f 103e e083 483e c8cd 88bd 780e a53e
00000090: d801 e3bd a8aa cfbe c670 8b3e 28ee 2ebe
000000a0: 78fe b9bd 0850 f9be d436 ee3e a8c2 fe3e
000000b0: d85f 133f 3c4e ab3e c476 9f3e fc89 fa3e
000000c0: 71ed 86be 408c eebe 08ae e63e 80e5 36bd
000000d0: ba2d 07bf e2d5 093f e4bc abbd c1cd a5be
000000e0: 801d bb3e a087 ffbe 38c2 ad3d dea2 7fbe
000000f0: 2074 41bd 0548 f6be f07a 06bd 0c27 d8bd
00000100: 002d df3d e0f6 d63c 4c85 553e f272 2dbe
00000110: a000 f43e 0627 953e 4054 1a3d 3cca 7d3e
00000120: 4cba 1d3e c0c4 b63e 4422 1d3e b8eb 11be
00000130: e0d3 733e 8085 23be 64a3 803e 0485 b0be
00000140: 92b8 133f 22c8 28be 88cc 013f 308c bbbd
00000150: 80d0 88bb 687b 7fbe fb93 c9be d3be 8dbe
00000160: eb63 0bbf 004e 6dbc b247 16be 905d 4ebd
00000170: e6de 05be 2253 b8be 3414 233e b00a f3bd
00000180: 4088 593d 806b a6bc 2c61 fa3e 5211 a4be
00000190: b6bc 983e 145f 16be f4c3 973e d618 98be
000001a0: f650 70be fe8f c33e 0066 8ebc c429 133f
000001b0: 219c 13bf d68c 103f a8c7 ee3d a429 31be
000001c0: 2420 363e 3066 e1bd 0056 f5be d645 0cbf
000001d0: 0020 a6ba 00c2 623e da4b 9cbe 7808 743e
000001e0: 5251 cdbe ac94 db3e 6014 e83e a69e 083f
000001f0: 76d2 913e 5ca1 c73e 6a26 8ebe 725e 05bf
00000200: 808e d0bb 8857 af3e ec2a 17be b82c b43d
00000210: 5475 153e 70b9 a93e e8ca ffbe 3642 a9be
00000220: f42d f53e 90fd df3d bce5 ed3e 04ff 87be
00000230: 385b 65be 0e8d 093f 2e22 50be c459 f2bd
00000240: 5bc3 91be d69f 00bf 408e a73c c908 b0be
00000250: 803d 613c c0a5 143c a68e 03bf 8e28 ce3e
00000260: 2e75 8fbe 60ce a0bc 4886 dcbe b8a9 f03d
00000270: e2d6 b93e 9041 ecbe 7c3d 5ebe fc30 a33e
00000280: b022 4f3d 4e27 133f 6848 a6be e5ca a6be
00000290: 67ff a2be 3800 113e fbdf 10bf 76cb 15be
000002a0: 1cea e13e 006a e53b 1a1c a6be d494 873e
000002b0: bbf2 95be ea0d d2be c4bf c6be ce48 0c3f
000002c0: 4851 f83e 410f c8be a67d a9be d081 9b3d
000002d0: d029 133e d260 c13e 8066 93bc f22d cf3e
000002e0: 4634 01bf f09b 0b3d e070 21bd ae76 45be
000002f0: 9486 333e 06e3 d4be 166f e2be 8605 0b3f
00000300: 80d1 a53b f839 2f3e 8c35 473e 445c d23e
00000310: 8096 fabc d81c 233e f669 03bf 16c5 41be
00000320: 8c0d ac3e b0ab 7abd 04b5 b43e 404d 2a3e
00000330: 805d 613c 28c5 82bd 401c 88be fc85 ff3e
00000340: 0416 a4bd 4efd a7be d030 59be 188f ee3e
00000350: 6729 c4be 7053 c1bd ba0c 6ebe dee9 923e
00000360: 20ce e23e 208a f2be 463c ddbe 28bb 373e
00000370: fc27 ea3e 184a ce3d 6c1c 1c3e 008b cf3c
00000380: 486d 013f f4a2 543e a021 7a3e df17 0ebf
00000390: 0036 f4bb 2847 443e 0e97 843e 2262 b13e
000003a0: 1422 2abe 0c3a 70be 7e0b 063f 105d e93e
000003b0: 3c2e e13e 2492 10bf 9408 06be c8e6 103f
000003c0: 4038 7b3e 8489 d3be 0020 34bd a090 d33e
000003d0: bc97 f83e f49f e23e b454 0e3f 38e8 113f
000003e0: 00b5 cebd b830 dc3e 8c1d 0a3f dca0 f03e
000003f0: febb 12bf 9065 cbbe 49a0 c7be a10b 82be
0.4619447 -0.41266677 0.077708185 0.4163199 -0.53712124 0.50615525 0.02262777 -0.50729257
-0.5282519 0.3867091 0.12902254 -0.40073007 0.5330074 -0.5554267 0.5118897 -0.35652643
0.15103573 -0.21331987 0.06412345 0.29102135 0.095840216 -0.47945443 0.14660335 0.02488494
-0.012171745 -0.07338071 0.19710517 0.4925233 -0.54126 -0.25251463 0.5337205 -0.17371601
0.14086765 0.19581556 -0.06679875 0.322376 -0.11084336 -0.40559888 0.27234477 -0.17083037
-0.09081739 -0.48693871 0.46526206 0.49757886 0.5756812 0.33458126 0.31145298 0.489334
-0.26353028 -0.46591377 0.4505465 -0.044652462 -0.5280415 0.53841984 -0.083856374 -0.3238354
0.36545944 -0.4990816 0.0848431 -0.24964473 -0.047229886 -0.48101822 -0.032832086 -0.105543226
0.10897255 0.026240766 0.2085163 -0.1693838 0.47656727 0.29131335 0.037678003 0.24784178
0.15403098 0.35696983 0.15345103 -0.14250076 0.23811293 -0.15968895 0.25124657 -0.34476483
0.57703507 -0.16482595 0.50702715 -0.09157598 -0.0041752458 -0.2494942 -0.39370713 -0.2768465
-0.5444934 -0.014483929 -0.14675787 -0.050382197 -0.1307331 -0.36000925 0.15925676 -0.11867273
0.053108454 -0.020314932 0.4890226 -0.32044464 0.29831475 -0.14684707 0.29641688 -0.29706448
-0.23468384 0.38195795 -0.017382622 0.57485604 -0.5766011 0.564649 0.11659175 -0.17301041
0.17785698 -0.11005819 -0.47917175 -0.5479406 -0.0012674332 0.22144318 -0.3052662 0.23831356
-0.40101105 0.42886865 0.45328045 0.5336708 0.2848088 0.38990295 -0.27763683 -0.5209724
-0.0063646436 0.3424647 -0.14762467 0.08797592 0.14595538 0.3314929 -0.49959493 -0.33058327
0.47886622 0.10937035 0.46464336 -0.2656175 -0.22398078 0.5373086 -0.20325539 -0.11833528
-0.28469357 -0.5024389 0.020453572 -0.34381703 0.013747573 0.009072721 -0.5138954 0.40265316
-0.28019089 -0.019629657 -0.43071198 0.11751121 0.36296755 -0.4614377 -0.21703142 0.3187331
0.05057019 0.5748185 -0.32477117 -0.3257667 -0.31835482 0.1416024 -0.5659177 -0.14628395
0.44123924 0.0070011616 -0.32443315 0.26480734 -0.2928675 -0.4102624 -0.3881818 0.5479859
0.48499513 -0.39074138 -0.33103675 0.07593119 0.14371419 0.3776918 -0.017993212 0.4046474
-0.5047039 0.03408426 -0.039414287 -0.19283554 0.17531806 -0.41579455 -0.44225377 0.54305303
0.0050603747 0.17111957 0.1945402 0.41086018 -0.030589342 0.15928972 -0.5133356 -0.18922839
0.33604085 -0.06119889 0.35294354 0.16631031 0.013755202 -0.06385261 -0.26584053 0.4990691
-0.08012012 -0.32810444 -0.21210027 0.46593547 -0.38312837 -0.094397426 -0.23247042 0.28694052
0.44297886 -0.47371006 -0.43210047 0.17942488 0.4573363 0.10072726 0.15245217 0.025334835
0.50557375 0.20765287 0.2442689 -0.55505174 -0.0074527264 0.19167769 0.25896496 0.34645182
-0.16614562 -0.23459643 0.52361286 0.45578814 0.43980587 -0.5647299 -0.1308921 0.56602144
0.24533176 -0.41315854 -0.04397583 0.41321278 0.48553264 0.4426266 0.55597997 0.5699496
-0.10093117 0.4300592 0.53951335 0.46997726 -0.57318103 -0.39725924 -0.38989475 -0.25399497

imagination.2.weight f4 [256, 256]
00000000: c4a1 f43c d099 2e3c 9e02 213d d046 ba3b
00000010: 902b 4b3d fa5d 3dbd 98a5 733d 6a5c 4c3d
00000020: 5e44 2c3d b090 4d3d d835 363d 1493 903c
00000030: 2c82 b63c 48bb 7ebd a2ef 173d 20dd 663c
00000040: 4c32 51bd f078 4fbc f8d4 2abd d28a 273d
00000050: 3c6a ebbc f654 2fbd 1e7e 683d 56ad 4b3d
00000060: 369a 1ebd 3087 043c c4a4 313d 3664 553d
00000070: 8055 413c fc42 a03c 7060 9ebc 3c80 083d
00000080: 40e2 e03a ce83 683d 70fe 113c eeed 603d
00000090: 9480 d6bc 949d 583d 7ca9 8e3c e858 753c
000000a0: 0058 79b9 98a6 643c 4a5e 6dbd 56c5 713d
000000b0: 5255 1e3d 8833 0fbd 6858 6dbd 642e f13c
000000c0: c052 3fbd bc86 1e3d 9008 753c c200 613d
000000d0: d477 7dbd e455 cebc b60c 7f3d 00a0 5abd
000000e0: eead 273d 2c4d 613d fe13 1fbd 2aa5 4dbd
000000f0: 6286 6bbd 56fa 7dbd de77 5cbd 6af7 6bbd
00000100: 3659 6cbd 46ef 0d3d 9893 413c 2479 653d
00000110: fc2e f1bc 1091 55bc 983b 58bc 7201 5a3d
00000120: e28f 18bd 920f 703d 163d 41bd 2c03 c4bc
00000130: 921b 163d 1ee4 233d e0b0 26bd f819 4cbd
00000140: 70b3 773c 68ef debc ee2e 023d 1638 473d
00000150: 8220 6b3d 2c22 e8bc 8692 56bd 9228 0fbd
00000160: e465 b33c d83c 46bd 2a66 2e3d 4c01 a33c
00000170: a89e b13c d00b f1bc 1ca6 98bc d6f5 58bd
00000180: d4ce a7bc 4606 54bd 582e 9a3c ac00 3ebd
00000190: a2a1 4abd 92eb 7cbd 886d 66bd fc5a 0dbd
000001a0: 962b 623d 70ba 6c3d 1a96 133d da30 2f3d
000001b0: 84ae b63c b6c1 59bd 408e 073d 723f 4dbd
000001c0: 980c 563d 4c63 c03c 8891 1a3c d0f2 34bd
000001d0: fcef 5bbd e4fb f83c 041c b83c 283c 32bd
000001e0: 605d 59bc bc8c 32bd ba1d 633d a445 673d
000001f0: f069 de3c 4806 77bc 9028 29bd 14fc 2b3d
00000200: 3e00 4cbd 940a 903c f2b8 31bd 0088 6f3d
00000210: ecac abbc 78dd 4a3d 587f a33c 1828 bebc
00000220: 6419 c83c fcd4 9b3c 18da 09bc c259 013d
00000230: 0852 5ebc 3c5d 913c 1444 ec3c 44be b03c
00000240: 7e32 363d 5030 1bbc 801d 3e3a 92dc 5ebd
00000250: 1816 f43c 9065 483d 0402 41bd b0e3 113c
00000260: 3c72 b8bc 28d5 63bc 4066 cfba 407f ba3c
00000270: f067 b6bc a415 adbc 02f2 013d 4038 1e3c
00000280: 5008 7b3d 16be 2dbd 7801 563c 2c5b bfbc
00000290: 8e9f 2fbd a2d6 4abd e449 f33c eeae 44bd
000002a0: 6688 333d 2829 62bc b076 59bc 60df fd3c
000002b0: 58cb 413d 6843 86bc 1016 fd3b d09a 043c
000002c0: 4821 653d f066 7fbc 4883 adbc 00d8 2639
000002d0: f84f 61bc 70c8 9cbc 5026 38bd c697 2e3d
000002e0: cc1f eebc 60f3 013c 7665 2f3d f8d9 1e3d
000002f0: e640 20bd 12cf 7dbd 8231 4fbd 70a7 013d
00000300: 9825 a43c 809d eb3c b43e abbc 00b9 e83a
00000310: 946f a6bc 8e72 5abd b00a d03c ec9b 003d
00000320: 40a0 013b 909e bcbc 60b4 b3bb 12a9 0bbd
00000330: e287 7ebd 6849 ff3c d4fa c8bc f6d2 1d3d
00000340: 7012 4b3c 1634 6f3d 38da b4bc a093 293d
00000350: a043 73bb a0f0 673d 4054 94bc 1a32 62bd
00000360: 6caf 7abd 4078 79bc de25 6e3d 0077 df3a
00000370: 9898 01bd 8899 3b3c 4054 9f3b aa05 40bd
00000380: 28f5 e43c d4eb ea3c 00b6 a9ba 0c8c f03c
00000390: eea9 333d 70b6 1a3c a401 2e3d e2f9 693d
000003a0: fa3f 6abd f812 a3bc 005d 9f3b 7c4b bfbc
000003b0: d8be 06bd 2ea0 6b3d 0c86 dabc ac73 4f3d
000003c0: a48c cabc b865 533c 0a75 593d 587c 7cbc
000003d0: 00bb e93b 0874 f4bc c459 be3c 1094 043d
000003e0: e080 b0bc 28d4 9d3c 02a4 603d 00cc c63a
000003f0: 78ac afbc 88cf 2a3c dc8b c0bc 1865 52bc
0.029862292 0.010656789 0.039309137 0.005684711 0.04960209 -0.0462322 0.059484094 0.04989282
0.042057388 0.050186813 0.044484943 0.017648257 0.022278868 -0.062190324 0.037093766 0.014090806
-0.051073357 -0.012663111 -0.04170701 0.040903874 -0.02873718 -0.042805634 0.0567609 0.049725853
-0.038721286 0.008088872 0.043370023 0.05209752 0.01180017 0.01956319 -0.019333094 0.03332542
0.0017157272 0.056766324 0.00891076 0.054914407 -0.026184358 0.052884653 0.0174148 0.01497481
-0.00023779273 0.013955735 -0.05795125 0.059026085 0.038655587 -0.034961253 -0.05794564 0.029441066
-0.046709776 0.03870271 0.014955655 0.054932363 -0.061881855 -0.02518744 0.06226798 -0.053375244
0.040937357 0.055005237 -0.038837425 -0.05020634 -0.057501204 -0.062006317 -0.05382525 -0.057609
-0.057702266 0.034652017 0.011814974 0.05602373 -0.02944135 -0.013035074 -0.013197802 0.053224035
-0.037246592 0.0586086 -0.047177397 -0.023927294 0.036647387 0.04001247 -0.040696025 -0.049829453
0.015118465 -0.027213767 0.031783037 0.048637472 0.05740405 -0.028336607 -0.05238583 -0.0349508
0.021899171 -0.04839787 0.0425779 0.01989808 0.021682099 -0.029424578 -0.018633895 -0.052968822
-0.020484366 -0.051763795 0.018820927 -0.04638736 -0.04947055 -0.061748095 -0.0562568 -0.034510598
0.055217348 0.05779499 0.03603182 0.042771198 0.022300012 -0.053163253 0.033094645 -0.050109334
0.052258104 0.023484848 0.009434111 -0.044176877 -0.053695664 0.030393548 0.022474296 -0.0435144
-0.013266891 -0.043591246 0.05544827 0.0564629 0.027150124 -0.015077181 -0.04129845 0.041988447
-0.04980492 0.017583169 -0.04338927 0.05847931 -0.020956479 0.049527615 0.019958183 -0.023212478
0.02442617 0.019022457 -0.008413814 0.03157974 -0.013569362 0.017744653 0.028841056 0.0215751
0.044481747 -0.009471968 0.00072523206 -0.05440957 0.029795691 0.048924983 -0.047121063 0.008904383
-0.022515409 -0.013905801 -0.001582332 0.022765756 -0.022266358 -0.021128483 0.031724937 0.009656966
0.061287224 -0.04241761 0.013061874 -0.023358904 -0.042876773 -0.049521096 0.02969832 -0.04801839
0.04383125 -0.013803758 -0.013272926 0.030990303 0.047313064 -0.016389564 0.0077235773 0.008093551
0.055939943 -0.015588507 -0.021180764 0.0001591146 -0.013751976 -0.019138545 -0.044958413 0.04262521
-0.029067896 0.00793156 0.04282137 0.03878209 -0.039124392 -0.061965056 -0.050584324 0.03165382
0.020037457 0.028761625 -0.020903923 0.001775533 -0.020316876 -0.053331904 0.025395721 0.0313987
0.0019779354 -0.023024827 -0.005484149 -0.034096785 -0.062141307 0.031162933 -0.024533667 0.038531266
0.012394533 0.058399282 -0.022076711 0.04140055 -0.0037119165 0.056625962 -0.01810658 -0.05522356
-0.06120245 -0.015226424 0.05814158 0.0017049015 -0.031639665 0.011450179 0.0048623383 -0.0468804
0.02794893 0.028676905 -0.0012947917 0.029363655 0.04386323 0.009442911 0.042482033 0.057123072
-0.05718992 -0.019906506 0.0048633814 -0.023351423 -0.032896847 0.057525806 -0.026675247 0.050647423
-0.024725266 0.01290267 0.053090133 -0.015410505 0.007132888 -0.029840484 0.023236163 0.032367766
-0.021545827 0.019266203 0.05484391 0.0015166998 -0.021444544 0.010425456 -0.02350419 -0.012841485

imagination.2.bias f4 [256]
00000000: ae4c 723d fce4 333d 34f8 003d 505f 753d
00000010: 9ad4 2abd 7a6e 103d 36d6 6ebd e6c2 663d
00000020: 2ca2 163d 9c9d 243d be64 51bd 2c66 dd3c
00000030: 0004 16bd 98fb fb3c c013 083b ee75 5f3d
00000040: d0e6 653c ae5c 083d 1ae0 40bd 00e3 5f3b
00000050: 90b8 2bbd 8663 45bd 5cab c43c 3cd2 d83c
00000060: 40ec baba 96dc 5fbd ee41 0cbd 5278 59bd
00000070: 9e09 72bd 2a72 54bd 00c7 59bc 5214 433d
00000080: 8ebf 4ebd 9cba f2bc 4e0d 7b3d 7223 643d
00000090: 2826 15bc 50c5 adbc 2a84 23bd 6ce8 a2bc
000000a0: 5435 833c d804 6a3c 480c 0abd 5c82 2ebd
000000b0: 80ce 2aba 7874 eb3c 0098 66bd 6019 e63b
000000c0: e064 66bc ec9c acbc c019 2cbc f0f4 34bd
000000d0: d091 373c c068 e53a 3286 653d 1a7a 68bd
000000e0: 2c6e 9cbc 907c a4bc 8015 5bba fc6b e43c
000000f0: d4ec 0ebd 7ec4 4c3d ac9a 463d e03e 753b
00000100: d6f0 06bd 8058 07bb 60eb 1d3d 06e2 113d
00000110: 1882 40bd 46f3 373d d4bf 713d 709d 9fbb
00000120: a4be 323d 80a4 393a 508b db3c 00bc 1d3d
00000130: 1033 a1bb 1604 583d a4f5 e3bc 767f 4fbd
00000140: 60e5 483b 4c24 98bc ac97 b43c 507c 85bb
00000150: 60f6 f6bb d0aa dfbb ca18 66bd a085 b1bb
00000160: e6ca 1ebd cc92 d83c 6049 fc3b dce0 45bd
00000170: f0c8 e2bb 6464 4d3d 8262 243d 0680 033d
00000180: 101a ec3c 8027 babb f44b c2bc b2b3 10bd
00000190: 7041 cabb 7232 423d b673 3f3d 387f 42bd
000001a0: 6447 e2bc e82b 243c 1048 c9bc 24d2 ba3c
000001b0: fc32 ac3c c0b8 fe3b 600e 0b3c 324a 053d
000001c0: a002 bf3c a898 85bc c26d 61bd 5c04 eb3c
000001d0: 8e28 233d d47f 9a3c 2092 d93c 446a 143d
000001e0: fcbf 38bd 345e a5bc 70bb e33c dc09 093d
000001f0: d8dc 28bd 128a 1f3d 2c31 debc 20c3 d43b
00000200: f81b cabc fcab 523d c4b7 dabc 98a8 5abd
00000210: 5635 713d 900f f6bc 96a1 703d 4873 643c
00000220: b05a babc 08f5 773d 80ad eaba 3887 79bd
00000230: 68c7 b13c 788c 32bc 7876 73bd c0cc adbc
00000240: a8f7 0b3c 1089 263d e4be 61bd 5c50 5fbd
00000250: d82c 53bd 20ba bc3b 30cd 5abc 3a9b 683d
00000260: d433 3dbd 1844 1bbd a4e0 e83c 8a9d 50bd
00000270: a0b5 15bb e0b1 a13c 5c37 6fbd e2c5 6abd
00000280: 1069 ed3c 4648 39bd 3242 083d 1838 5abd
00000290: 3827 393d 3498 c43c 68f6 4d3c f843 a7bc
000002a0: eec3 2ebd 3ef3 59bd 34c1 d73c 30a3 b33b
000002b0: 90df 583c c85a 1a3d d053 4a3d acd3 f23c
000002c0: 6080 df3c 80be fb3b 1cd9 abbc 04f2 1cbd
000002d0: a88d 92bc 0cdd 7f3d 58d3 1f3d 28e5 7b3d
000002e0: 70bb 5ebc 4012 5a3c 7498 9b3c 244b 00bd
000002f0: f85b da3c 5067 88bb 544f 513d 60fc c43c
00000300: 886d 79bc 7422 343d 8495 6f3d 0e6c 4d3d
00000310: ea45 153d 6047 f33c f82c 773c 66c7 073d
00000320: 18d3 3f3c 50b3 28bd c816 163d 6437 adbc
00000330: e8f8 7ebc 7800 b9bc 60be f0bc 7811 9e3c
00000340: 20ff fa3b 3008 503c 04e6 bf3c b462 fb3c
00000350: b608 0fbd 0094 78ba 087b dfbc b450 b7bc
00000360: 7063 3bbc aa2e 6bbd 3022 9b3c fe77 3c3d
00000370: 3cbf 183d 1c33 34bd 30c5 a7bb fc04 98bc
00000380: 1c94 823c 903b 8b3c 44fe 65bd 20bf 3bbb
00000390: 7eb4 203d f2cb 053d 5462 87bc a6f7 363d
000003a0: e064 1bbc 400c 04bd 08a4 ee3c 9ad4 1c3d
000003b0: da6e 643d ec1a e8bc 5867 d13c 48d3 063d
000003c0: 98af 58bc cc82 efbc 5019 67bc 48c2 513d
000003d0: d842 d83c 2859 68bc a620 043d 14d1 783d
000003e0: a01b c6bc 8421 5ebd 6022 4d3c 949d ff3c
000003f0: 1860 80bc ee16 01bd c897 51bd ec7c 35bd
0.05915516 0.04391955 0.031486705 0.05990535 -0.04170666 0.03526161 -0.058309756 0.056338213
0.036775753 0.04018937 -0.051121466 0.027026258 -0.03662491 0.030759618 0.0020763725 0.054555826
0.014032081 0.03329151 -0.04708872 0.0034162402 -0.04192406 -0.048190616 0.024007492 0.026467435
-0.0014261082 -0.054653727 -0.034242563 -0.053093262 -0.059091203 -0.051866688 -0.013292074 0.0476268
-0.05047565 -0.029629998 0.061291985 0.055697866 -0.009103335 -0.02121225 -0.039920963 -0.019886218
0.01601664 0.014283381 -0.03370312 -0.04260479 -0.0006515756 0.02874206 -0.056297302 0.007022068
-0.014062136 -0.02107092 -0.010504186 -0.044178903 0.011204198 0.0017502531 0.05603618 -0.05675707
-0.019095503 -0.020078927 -0.0008357391 0.027883522 -0.034893826 0.049992077 0.04848735 0.003742151
-0.032944523 -0.0020652115 0.03855455 0.035615943 -0.046999067 0.044909738 0.059020832 -0.004871063
0.04363884 0.00070817024 0.026799828 0.03850937 -0.004919417 0.05273827 -0.027827092 -0.050658666
0.0030654296 -0.018571995 0.022044979 -0.004073657 -0.0075366944 -0.0068257824 -0.056175984 -0.0054175407
-0.038767718 0.026437186 0.0076991767 -0.048310146 -0.0069209263 0.050144568 0.040133007 0.032104515
0.028821021 -0.0056809783 -0.023717858 -0.03532762 -0.0061723515 0.04741139 0.04674121 -0.047484607
-0.027621932 0.010020234 -0.024570495 0.022805281 0.021020405 0.0077734888 0.008487314 0.03254146
0.023316681 -0.016308144 -0.055036314 0.028688602 0.039833598 0.018859781 0.026558936 0.036234155
-0.045104966 -0.020186521 0.027799338 0.03345667 -0.041226238 0.038950033 -0.027123056 0.0064929873
-0.02467154 0.05143355 -0.026698954 -0.05338344 0.058888756 -0.030036718 0.05874785 0.013943501
-0.022748321 0.060536414 -0.001790449 -0.06091997 0.02170153 -0.010897748 -0.059439152 -0.021215796
0.008542933 0.040658057 -0.055113688 -0.054519996 -0.05155644 0.0057594925 -0.013354585 0.05678866
-0.046192005 -0.037906736 0.02842743 -0.05093149 -0.0022843853 0.019738138 -0.058402404 -0.057317622
0.028980762 -0.04523494 0.033266254 -0.05327615 0.045203418 0.023998357 0.012570955 -0.020418152
-0.04266732 -0.05321049 0.026337244 0.0054821 0.013236895 0.037684232 0.049396336 0.029641949
0.027282894 0.0076826215 -0.02097755 -0.03831674 -0.017889813 0.062466666 0.039019912 0.061497837
-0.013594493 0.013310015 0.018993594 -0.03132166 0.026655182 -0.0041627064 0.051101044 0.024046123
-0.015223868 0.04397817 0.0584922 0.050151877 0.03644363 0.02969712 0.015086405 0.033149146
0.0117080435 -0.04118663 0.03664282 -0.021144576 -0.015562274 -0.022583231 -0.029387653 0.01929544
0.007659808 0.012697265 0.02342511 0.030686714 -0.034920417 -0.0009482503 -0.027280346 -0.02237735
-0.011437282 -0.05741755 0.0189372 0.04601287 0.03729175 -0.043994054 -0.005119942 -0.018557064
0.015939765 0.016996175 -0.05615069 -0.0028647855 0.03923463 0.0326652 -0.016526379 0.04466977
-0.0094845 -0.032238245 0.02913095 0.03828869 0.05576978 -0.02833315 0.025561973 0.032916337
-0.013225459 -0.029237173 -0.014105156 0.05121067 0.026399061 -0.014181413 0.0322577 0.060746267
-0.024183095 -0.05423118 0.012520403 0.031203069 -0.015670821 -0.031516008 -0.05117014 -0.044308588

model_free_agent.conv1.weight f4 [32, 3, 3, 3]
00000000: 1614 953d 4205 b43d f29a 89bd d8c7 f6bd
00000010: 36fc f43d 30fa 4b3c fe04 cabd 664a 14be
00000020: a0e4 99bd d673 cb3d 4935 b1bd c07f 313b
00000030: 4c5f 10bd c6e3 23be d284 af3d debc 913d
00000040: 6781 313e eb5e 003e d3d7 2abe d834 11be
00000050: e5e1 27be f2be d63d 197f 18be ba34 833d
00000060: d28d d63d 4a04 04be 2eed 12be e57d a4bd
00000070: 65ec b5bd 1850 4e3d adff 183e 85df dcbd
00000080: a5be 153e 32e2 8d3d 8bb6 26be 5190 373e
00000090: d20b 833d a44d 2a3d e7e2 3c3e bc57 1dbd
000000a0: 3ad4 c43d e838 1e3d 40d8 913b 05a3 91bd
000000b0: 905a 323d a53d 2d3e 302d a53c 96db 1ebe
000000c0: 47c7 2fbe d98b 0e3e 52ad ae3d 088f b7bc
000000d0: 70e0 44bd d019 5cbc 933c 003e bdb8 8bbd
000000e0: 1e40 943d 4715 98bd 9925 063e 0018 3d3a
000000f0: e00c fc3b edfe a3bd 8796 44be 0a98 29be
00000100: 0403 3cbe eee2 ad3d c8bb 0f3d e7ce 3f3e
00000110: 20b8 1fbe 56a9 3cbe 302a 23bd 2014 623d
00000120: 9aec fc3d d83c 26bd 4489 6b3d 536a 403e
00000130: 7ec4 893d 3aa3 d73d a0a2 fbbc 8789 fabd
00000140: 0962 013e 4083 b13b 0082 70bc 21bd 313e
00000150: b9a2 0a3e e871 4bbd d223 a83d 3248 35be
00000160: 70e1 4cbd 2286 f2bd 820a e4bd a83d eabc
00000170: 1b39 3c3e 202a 65bd da70 ef3d 00a2 b23b
00000180: f046 3dbd 979e 1dbe 9c45 a1bd ce52 e63d
00000190: 5d54 393e d6af 903d 5159 99bd b0f8 bfbc
000001a0: 389d 38be a70b 393e 0e9c d3bd 7336 163e
000001b0: eacb 983d 10bb 413d bede 0abe f737 a4bd
000001c0: 429f 9d3d b05b 313c 4816 063d fa7b 803d
000001d0: 78d5 febc 89fe e6bd ad66 c5bd 1044 0f3d
000001e0: 8b01 9abd 00b2 dc3b 266e 12be 54c5 353d
000001f0: d7df 253e 7c7c 2d3d f378 0f3e 68b4 0cbe
00000200: 3585 2bbe fdaa 063e e040 4e3d b486 11bd
00000210: ddc9 ebbd a88c 91bc c083 92bc 4482 3e3d
00000220: 9793 173e 90af 7fbc 70ad dd3c 6412 30be
00000230: 1ab8 fabd 64f7 683d a6b8 bb3d 11bb 37be
00000240: 6447 febd 74f5 763d 70df 95bc 9bd3 1e3e
00000250: befb 913d fcac 323d 9ff7 183e b3dc 1d3e
00000260: b3f4 213e 6e4c 0dbe 98ab af3c 2c57 5cbd
00000270: fabf 823d 62fb a73d a272 e63d 885e 583d
00000280: c981 283e c084 ba3c f53e 053e b81a 483d
00000290: ba6c b7bd befe ee3d 6b06 d2bd 17f5 d0bd
000002a0: 8038 c4bb 479f 1c3e a231 ed3d e0b9 7abd
000002b0: 5082 41bc badc 8c3d b152 14be 5ec5 993d
000002c0: 60ab f4bc 9a32 c33d df4c 3b3e 2160 18be
000002d0: a970 313e 80af 603b 0543 193e 6e82 00be
000002e0: e9df 36be 0059 283b 965a f33d 862b da3d
000002f0: b4bd ddbd 3e06 17be 8ee1 a53d 9a0a bebd
00000300: 1094 b9bd f546 0b3e c2c6 dc3d 803a 48bd
00000310: a02d 12bd 6720 b8bd 2096 b73c 4a51 da3d
00000320: ffb8 2ebe c5f3 233e 5e87 fb3d f8d2 d5bc
00000330: 97b2 0c3e 2cbe 16bd 10c3 23bd 490d 083e
00000340: 212c 3bbe cdba 0d3e 02da 00be 3ac1 c33d
00000350: 638e 113e f730 073e 077a 273e e0d3 a73b
00000360: f1c2 3d3e a70a c4bd aa8b 0ebe 2028 8f3c
00000370: 22cd d2bd 38c7 693d e6e0 abbd eafe f33d
00000380: e07f 2f3d 14c3 383d a57f 213e 4a27 983d
00000390: dd57 d4bd d7dc 1f3e e052 a33b 2183 e6bd
000003a0: a4b3 06be 00b3 beba 056a 0a3e c428 1bbe
000003b0: e828 9f3c fde8 0a3e aada 8f3d 28c7 4ebd
000003c0: bc72 a2bd d22f 9bbd b979 323e 817f 06be
000003d0: 6c16 483d b6b5 09be b230 993d a00f 93bb
000003e0: aea6 a03d 425d 893d 73bc 163e c039 103d
000003f0: f83a 4abd 00a0 55b8 918c 313e b02c 20bd
0.07279222 0.08790065 -0.067190066 -0.12049836 0.11962168 0.012449786 -0.098642334 -0.14481506
-0.0751431 0.09934203 -0.086527415 0.0027084202 -0.035247132 -0.16004857 0.08570255 0.07116102
0.1733452 0.12536208 -0.16683893 -0.14180315 -0.16394766 0.10485639 -0.14892234 0.06406541
0.10476269 -0.12892261 -0.1434829 -0.08031825 -0.08882979 0.050369352 0.14941283 -0.107848205
0.14623506 0.06927909 -0.16280572 0.17926146 0.06398739 0.04157795 0.18445931 -0.03841375
0.096107915 0.03862849 0.004450828 -0.07111172 0.0435434 0.16918047 0.020163149 -0.15513453
-0.17165862 0.13920535 0.08529152 -0.02240707 -0.048065603 -0.013433889 0.12523107 -0.068223454
0.07238792 -0.07425933 0.1310028 0.0007213354 0.0076919645 -0.080076076 -0.19198047 -0.16561905
-0.18360525 0.08490549 0.03509119 0.1873127 -0.15597582 -0.18423972 -0.039835155 0.055194974
0.12349816 -0.04058537 0.057503954 0.1879056 0.06726931 0.1052918 -0.030717194 -0.122332625
0.12635054 0.0054172575 -0.014679432 0.17357303 0.13538636 -0.049669176 0.08209957 -0.17703322
-0.05001968 -0.1184199 -0.11134817 -0.028593853 0.18381159 -0.055948377 0.116914466 0.005451441
-0.04621023 -0.15392528 -0.07874605 0.112462625 0.18098588 0.07064788 -0.07487739 -0.023434013
-0.18028724 0.18070851 -0.103324994 0.14669208 0.074607685 0.047297537 -0.13561532 -0.08018487
0.07696392 0.010825083 0.032736093 0.06273647 -0.03110765 -0.112790175 -0.096387245 0.03497702
-0.075198255 0.0067350864 -0.14299831 0.04437764 0.1619867 0.042355046 0.14010982 -0.13740695
-0.16750033 0.13151164 0.05035484 -0.035528854 -0.11513112 -0.017767265 -0.017885089 0.04651095
0.14802395 -0.015605822 0.02706024 -0.17194515 -0.12242146 0.056876555 0.09166078 -0.17942454
-0.124159604 0.060292676 -0.01829502 0.15510409 0.07128094 0.043622002 0.1493821 0.15416221
0.15816002 -0.13798687 0.021444127 -0.05379407 0.06384273 0.08202244 0.11252333 0.052824527
0.16455759 0.022768378 0.13012297 0.048853606 -0.08956285 0.11669682 -0.102551304 -0.10202997
-0.0059881806 0.15295134 0.11581732 -0.06121242 -0.011810854 0.06878038 -0.1448467 0.07508348
-0.029866874 0.09531136 0.18291043 -0.1488042 0.17328133 0.0034284294 0.14966972 -0.12549755
-0.17858852 0.0025687814 0.11882512 0.10652833 -0.108271986 -0.14748475 0.08099662 -0.09279366
-0.09061444 0.13601287 0.107800975 -0.048883915 -0.035688043 -0.08990555 0.022410452 0.10660036
-0.17062758 0.1601096 0.122816786 -0.026101574 0.13740002 -0.036802456 -0.039980948 0.13286318
-0.18278553 0.1384079 -0.12583163 0.095583394 0.14214472 0.13202272 0.16355143 0.005121693
0.18531395 -0.09572344 -0.13920465 0.017475188 -0.10293032 0.057074755 -0.08392505 0.119138554
0.04284656 0.045107916 0.15771349 0.07429369 -0.10368321 0.15611587 0.0049842447 -0.112554796
-0.13154465 -0.0014549196 0.13517006 -0.1515227 0.019428685 0.1356544 0.07024129 -0.0504829
-0.0793204 -0.075774804 0.17429246 -0.13134576 0.04884951 -0.13448223 0.07479991 -0.0044879466
0.078442916 0.06707241 0.14720325 0.035211325 -0.049372643 -5.093217e-05 0.17338778 -0.039105117

model_free_agent.conv1.bias f4 [32]
00000000: 8a30 973d 97a7 3f3e 1b32 32be 7f38 073e
00000010: f2e8 99bd 3d97 dbbd fe90 bf3d 10ba b33c
00000020: 0486 7f3d c0e8 b93c 5ccd 243d 5880 b1bc
00000030: 142f 8dbd b04f 00bc a66c 02be f443 2a3d
00000040: f765 383e 00e0 9d3b 0091 e83c 3d7b 8dbd
00000050: 923a b83d 9653 debd 50d5 3abe a6cc f63d
00000060: e854 303d 1841 2dbe f856 3fbd 4007 5cbc
00000070: c38a 15be ad13 0f3e 333e 0e3e 8cec 40bd
0.07382305 0.18716274 -0.17401926 0.13205145 -0.07515134 -0.10722206 0.09353827 0.021939307
0.062383667 0.022693992 0.04023491 -0.021667644 -0.06893745 -0.007831499 -0.12736759 0.04156871
0.18007647 0.0048179626 0.028389454 -0.069082715 0.089955464 -0.108557865 -0.18245435 0.12050752
0.043049723 -0.16919363 -0.0467138 -0.013429463 -0.14603715 0.1397235 0.13890915 -0.04710059
