MAI2A_TreasureFinder/agent_1_model.pth (torch, 936005 bytes, 34 tensors)

env_model.conv1.weight f4 [32, 14, 3, 3]
00000000: b90b fc3b e790 28bc ec62 27bc 1a9b 4abd
00000010: 735b 7c3d b673 023c 2add 063c 6c62 703d
00000020: c1fd 753d 29cb 0cbd 1da5 ef3c e269 eabc
00000030: 3447 403d e70b ffbb 487c ee3b 16dd ccbc
00000040: ff09 ee3c 8079 c13d 96a2 bf3c 8ca8 14bd
00000050: a64f 86bd eaa8 683d 059a 81bd 8b67 d13c
00000060: 3c32 483d c562 103d 5427 263d 6ab9 e73c
00000070: 13dc fc3d 6dbf dcbc 98d7 b9bc 2046 933d
00000080: 20a7 95bc 340c 813d 3a77 acbd f9ef fd3c
00000090: 942f 28bd 3a83 9b3d 01ad 903b 1446 d8bd
000000a0: 2162 5dbe e53f 3dbe c025 b3be 8ff7 63be
000000b0: 2087 723c 0134 003e 4f2e 933d 08f1 afbc
000000c0: 9264 1e3e 90e5 873c 8d00 263e f614 443c
000000d0: 55b9 243e f829 11be 156f a13c 5b8a 7fbd
000000e0: 2ea1 d53b 81aa 5a3d ed52 3ebc 952b 2f3d
000000f0: ed8f 22bb 8fc7 cebd dcd7 62bc 4abe 63bc
00000100: 21dd 38bc 8d09 b6bd 99bd 5d3b 0f65 793c
00000110: 522c 1abc 865b 21bd a09d afbd b663 c2bd
00000120: 6d89 80bd 2856 303d 2d5c feba 0699 4d3d
00000130: 9545 c9bc 8a47 463c 4a2e 923c c887 52bd
00000140: 8666 4ebc 27ee 21bd 44e0 6abd e809 6ebb
00000150: 001b 2a3d a513 4e3d 8e36 e13d 188c acbd
00000160: 6bb4 c33c 88ae 3abc 0b6f 903d fc4a f6bb
00000170: aa47 9bbd bee3 e3bd f910 433d a88c cb3c
00000180: 3917 b9bd 84b8 543c 843b 65bd 5471 8c3d
00000190: 032a ce3d a4f3 cabd d096 7bbb 5ce4 2dbc
000001a0: b29e afbb 1160 9b3d c2fb f33d f3a6 a73d
000001b0: ee7a a4be 0df0 14be 150c 3abe 49c2 7bbd
000001c0: e949 343c e3b1 3bbb 8099 e8bb 7334 7f3c
000001d0: 45c8 b23d 1f5c 46bd 5a75 093c 1bc8 773d
000001e0: 29d6 babc dde0 353d 65c8 903b 3021 833d
000001f0: 91e3 5dbc 6611 913d 453b 053d a13d c7bb
00000200: 362e 07bd 7001 413d 1fc0 613c 4a2f d23d
00000210: 69b8 88bd 6770 5bbc 4192 b43d fe98 f3bd
00000220: a3f1 1c3d 69a8 2dbd 580b 123e 1343 8f3d
00000230: d0b4 e1bc 416a d23c 068f c73d abe8 34bd
00000240: 72cb 9ebc 046e bf3d c3b1 92bd b194 b9bd
00000250: 9a55 343d d441 6f3d 522d 45bc 6177 7a3d
00000260: c06f 603d 84ee 7cbd 0414 8e3d 2e60 f23d
00000270: c5f7 3abd 2b31 703d a6a6 4b3d 6989 c43d
00000280: a835 43bd 1c96 403d d00f dabb 0b9e 073d
00000290: 73ea 8cbd 6908 dcbd a070 edbc e324 9bbb
000002a0: a62d ae3d 8960 b33d de73 c13b e3f6 1fbe
000002b0: 7e80 1c3d c5f4 653d be61 9b3c e173 0e3d
000002c0: 5433 493d 69d6 41bd 47cb 2bbb c5a6 e4bc
000002d0: 6f58 febd e3c3 b63c 2188 91bd 39bf 57b7
000002e0: 1316 acbd c218 033c 2dc8 363c b343 8cbc
000002f0: d947 42bc 2825 543d 0998 323d 8534 953d
00000300: 43f5 033e 9d9e fd3c 73c6 113e 37e2 1d3d
00000310: 7367 ba3a 27a5 ad3d 8402 f8bc 29f7 71bd
00000320: 5443 b6bb 25b4 e8bc 07bd f2bc 85fe cebc
00000330: 5f8b d23c 0cec ffbc 4afd ae3c 4eaa 28be
00000340: fe58 e7bd 2c47 ecbd 38af 06be ab7f 92bd
00000350: f3ae 9ebd bb2c 9ebd d251 aebd fd69 53bb
00000360: d4f5 b23d f92d 223d 6314 a93d 916a 093d
00000370: ff4f 8a3d 6134 1d3e e4d1 8a3d cb42 bc3d
00000380: c863 463d f034 c3bc d42d 3b3d 2615 803d
00000390: f456 083d ce7f b33c cd7b 793d 6bff 1d3d
000003a0: f4ac 943d d0f2 c83d 74ee ad3d c085 db3d
000003b0: 88aa 563d 564c 453d 35e5 c43d c29f 853d
000003c0: bcc6 9f3d 6fb8 b03c 80bd 313e 4c9c 3ebb
000003d0: db86 f2bb d27f 13be 895d 94bd bedf d2bd
000003e0: 0b17 84bc c69d 19bd 6078 433d 5925 02bd
000003f0: f5c3 683c 1517 3fbd 260c 5e3d c812 8cbd
0.007691827 -0.010288454 -0.010216456 -0.049464323 0.06161065 0.007962158 0.008231441 0.058687612
0.06005645 -0.034373436 0.029253537 -0.028614942 0.046942905 -0.0077834013 0.007277999 -0.025007766
0.0290575 0.094470024 0.023392957 -0.03629355 -0.065581605 0.056801714 -0.06328205 0.025562068
0.048876032 0.035250444 0.04056485 0.028286655 0.12346663 -0.026946748 -0.02268581 0.0719111
-0.018268168 0.06301156 -0.08421178 0.030998217 -0.041061 0.07593389 0.004415155 -0.10560241
-0.21619464 -0.18481405 -0.34989738 -0.22262405 0.014802724 0.12519838 0.07186567 -0.021477237
0.15468052 0.016588956 0.16211148 0.011967888 0.16086324 -0.14176166 0.019706288 -0.062387805
0.0065194583 0.05338526 -0.011616451 0.042766172 -0.0024805025 -0.100966565 -0.01384541 -0.013900349
-0.01128319 -0.088885404 0.0033834933 0.015221848 -0.009409981 -0.039393924 -0.085749865 -0.094916746
-0.06276212 0.043050915 -0.0019406133 0.050194763 -0.024569312 0.012102017 0.017844338 -0.051399022
-0.012597686 -0.03953376 -0.057342783 -0.0036321823 0.041529655 0.050311703 0.109967336 -0.08425158
0.02388974 -0.011394151 0.0705243 -0.007516263 -0.07582028 -0.11127423 0.04762361 0.024847344
-0.090376325 0.012983445 -0.05596496 0.06857553 0.10066607 -0.09909752 -0.0038389452 -0.010613527
-0.005359494 0.075866826 0.11913253 0.0818614 -0.32125038 -0.14544697 -0.18168671 -0.06146458
0.01100395 -0.0028639964 -0.0070983768 0.01557647 0.08729605 -0.048427697 0.008389795 0.06049357
-0.022807198 0.0444039 0.00441842 0.064028144 -0.013543026 0.070833966 0.032527227 -0.006080345
-0.033003055 0.04712051 0.013778715 0.10262926 -0.066757984 -0.013393498 0.08816958 -0.11894415
0.03831638 -0.042396937 0.1426214 0.06995215 -0.027552038 0.025685431 0.097440764 -0.044167202
-0.01938412 0.09347156 -0.071628116 -0.09061564 0.04402695 0.058412388 -0.012034731 0.061149005
0.054794073 -0.061750904 0.069374114 0.11834751 -0.045646448 0.05864064 0.049719475 0.095965214
-0.047658592 0.047018155 -0.006654717 0.033109706 -0.06880655 -0.107437916 -0.028984368 -0.004734622
0.085048005 0.08758647 0.005903705 -0.15621524 0.038208477 0.056141634 0.018967506 0.03477848
0.049121216 -0.047323618 -0.0026213692 -0.027911553 -0.12419211 0.022310203 -0.07106043 -1.2859521e-05
-0.08402648 0.008001508 0.011156124 -0.017122125 -0.01185795 0.051793247 0.043602023 0.07285408
0.12886529 0.030959422 0.14235859 0.038545813 0.0014221504 0.08478766 -0.030274637 -0.0590736
-0.0055622254 -0.028406212 -0.02963115 -0.025267849 0.025701223 -0.031240486 0.021361012 -0.16471216
-0.11296271 -0.115370125 -0.13152778 -0.07153257 -0.07748213 -0.077233754 -0.085117 -0.003225922
0.08738294 0.039594624 0.082558416 0.033548895 0.06753539 0.15352012 0.06778315 0.09192427
0.048435003 -0.023828954 0.045698002 0.06254034 0.03328605 0.021911528 0.06090908 0.038573664
0.07259551 0.09811938 0.08492747 0.1071887 0.052408725 0.048168503 0.0961403 0.06524612
0.078015774 0.02157232 0.17357445 -0.002908486 -0.00740133 -0.14404228 -0.07244403 -0.10296582
-0.016124269 -0.03750398 0.04772222 -0.0317739 0.014206876 -0.046652872 0.054210804 -0.0683952

env_model.conv1.bias f4 [32]
00000000: 2815 8fbc 10ce c0bc 2944 feba fde4 23be
00000010: 5eeb 4c3d 13ac 8d3c df9a 14be 42b5 c03d
00000020: 114e 25ba 094a 90bc f479 08bd 34ab 9abd
00000030: 6f03 fb3c 645b 653c 3e61 3a3c 9e15 b1bc
00000040: 860e 483b 6b79 bd3d b14b ae3c 027d 253d
00000050: 5f69 cfbd 627c 01bd e7d9 88bc 39f5 22be
00000060: 4595 893d 8ff2 803d 005f 883d aa81 9e3c
00000070: 3be1 c13d d56e c1bd 9b1f 963d 2152 623d
-0.017466143 -0.023535758 -0.0019398975 -0.16005321 0.05002915 0.017293965 -0.14512204 0.09409572
-0.0006305883 -0.017613428 -0.03331943 -0.07552186 0.030641286 0.01399884 0.011375723 -0.021616753
0.0030526235 0.09251674 0.021276327 0.04040242 -0.1012752 -0.03161276 -0.016705466 -0.15913858
0.06717924 0.062962644 0.06658745 0.019348938 0.094667874 -0.09444968 0.07330247 0.055254105

env_model.conv2_state1.weight f4 [3, 32, 3, 3]
00000000: 7199 3ebc 1bbb ebbd cf70 edbd d983 09be
00000010: 745a 933b bbd1 703e 1f00 76bd 457c 483e
00000020: 615c d43d 878e 56bd 3454 2c3d be0d a53d
00000030: d0fe 933c 2f8d 4d3d fb10 e93c 46b5 a83d
00000040: 9a7b 3c3d 9dfb 0b3d 92e5 32bc bf69 15bc
00000050: 1226 0f3c d0b5 9abd 4ed9 04bd 025f a1bc
00000060: 177c 293b 9ade 76bb 9436 fa3c e82d f2ba
00000070: 1009 83bb 7e64 d73b 77ea 24bc c4be 1bbc
00000080: f679 48bb 9246 a8bb 2886 7fbb c0c2 593c
00000090: dda6 b23b 37bc 0dbd a982 843d 50f8 89bd
000000a0: a4d8 40bd dd57 cc3c 9c67 03be 2def dcbc
000000b0: 3498 c73c da6f 32bd 69ba 8a3d 81bc 233e
000000c0: 3bd9 cabb 4cd5 cd3d 2c11 413d 44aa 903d
000000d0: 1c5f 293c 9731 f73c 510e 803b 8266 9abc
000000e0: e3d1 f8bd 830e e5bc 50e9 37bd 3154 14bc
000000f0: ab23 c13b c332 5c3d dffb 3a3d 52a1 0cbd
00000100: 1640 8d3d 46b6 c43d f917 0fbd f93b 493c
00000110: 6361 a33d 5daa 0bba e87e 093d cab6 2d3d
00000120: 1099 8f3c b6f0 72bc c3f1 3c3d ba2b 80bc
00000130: 7dc3 2d3d d629 cbbc 60af ebbc 3e9d 56bd
00000140: 30b7 0cbd c0f8 a33c a918 9f3d d236 0a3d
00000150: 7fe6 34bd c52f 9dbc 3e3e d23c 624f 78bd
00000160: 9ab8 febc 6c3b aabc f4fb 93bd 41cc 96bd
00000170: 1f9f 173d 6562 09bd 4332 b43b 0810 323d
00000180: 000c 8a3d f534 363d 921d a03d 95fa bdbc
00000190: 410c f5bc b7d0 c93d 5ac9 1abd 5973 7e3d
000001a0: ca17 01bd e598 023e 600f 90bd 8bfd 6c3d
000001b0: eb6d 0abd ed43 2cbe 0915 b53d a737 5b3e
000001c0: e6f9 bf3d eb9b aabc dc54 053d ea1d 9fbd
000001d0: 997d 963d 0e5b e13d bfee e23d dc2e e8bd
000001e0: 1aad 7ebc 7c6b 7dbd edb3 7cbd be00 cfbd
000001f0: 202e 08be ef32 b6bd fbed de3c 3e94 f9bc
00000200: ee10 9f3c b17a b9bd de37 2eba d2fc 533d
00000210: 0cb8 21bd c1c2 b0bb e463 5fbc 6aed fb3c
00000220: 17db 8f3c c62a a83c 2550 92bb 1f23 503d
00000230: 2b46 b23c d1b6 5a3d 5e4d be3d e056 36bd
00000240: 2b93 7d3c 4e61 9fbb 369c 513c caa0 de3d
00000250: 04ae fd3d 96cb 433c 5cbd 973d d776 e43c
00000260: 6b6a dabc d752 453d 172b 98bb 26d5 47bd
00000270: 3e59 f5bd f575 8dbc 0d1e 10bd 61b4 40bd
00000280: 7cc9 18bd ef24 38bd 58ff 983d 8fb6 aebc
00000290: 3d4c 7abc 554a 86bd 2287 b53b 1f59 47bd
000002a0: 3c45 3bbd 3b67 e4bc 2bc4 96bd d60c afbd
000002b0: cbf0 a7bb 96ca 6b3d df7b 3cbd c7e1 3a3d
000002c0: 0177 0f3e ae39 8b3d 5e2f b83d ec86 ec3d
000002d0: a48f 1a3d 2a5f aa3c f49c 85bb cd3a cd3a
000002e0: 2a73 76bd 417a 7dbd a76e eebc 12be c9bc
000002f0: 880c 5339 48b4 cbbc 9ad0 503d bd8a 913c
00000300: 7712 adbc cb5c 963d 7ee9 903d 74ab 483d
00000310: e256 5c3d 53de 253d 6a97 5bbd 56a2 61bc
00000320: 8ab3 473d 87f1 15bd 1aaa 7f3b ab38 993c
00000330: 51ce d93c 62d3 2d3c ef9b 113d 13f6 843b
00000340: 21cf f0bd 20a3 2bbd 6b96 4abe 8b23 20bd
00000350: 75ee fc3b 2dfb 263e b8a3 873d d739 543c
00000360: 5a91 323d 80d3 d2bc 516d a1bd d594 2ebd
00000370: c5a1 21bd c4d5 d9bc 2ea4 cdbd fdfd 88bd
00000380: 60cf 91bd fa01 8dbd c392 10bd b432 bd3d
00000390: 9bd9 de3b 5dee 86bc 505b 013d bc96 7f3d
000003a0: 9fc7 873d 3a2a 733d ec95 ad3b 44c8 4d3d
000003b0: fe3a 1bbd ef37 3b3c 9397 a0b8 306d 5c3d
000003c0: a025 2fbd 5f67 c13b 8267 be3c 04be dbbe
000003d0: 284b 33bd faf6 013f 699d 1ebd e932 853d
000003e0: 17a8 963d 1fa2 c13d 168b c03d f839 be3d
000003f0: b4ea 6a3c d7cd 0abe 5964 d7bd d162 38bd
-0.011633263 -0.11510297 -0.11593782 -0.13429202 0.004496867 0.23517506 -0.06005871 0.19578655
0.103691824 -0.05238202 0.04207249 0.08059262 0.01806584 0.05018347 0.02845048 0.082377
0.046016313 0.034175504 -0.010918992 -0.00911945 0.008737104 -0.07554209 -0.0324338 -0.019698624
0.0025861317 -0.0037669302 0.030543603 -0.0018476816 -0.003998883 0.006573259 -0.010065666 -0.009505931
-0.0030590273 -0.0051353658 -0.0038989875 0.013291061 0.0054520206 -0.034603324 0.06470234 -0.06736815
-0.047081605 0.02494424 -0.12832493 -0.026969517 0.024364568 -0.0435637 0.06773836 0.15989877
-0.0061904467 0.10050449 0.047135517 0.070637256 0.010337617 0.030175013 0.0039079566 -0.018847708
-0.12149408 -0.027961021 -0.04490024 -0.009053276 0.0058941445 0.053759348 0.04565036 -0.034333535
0.06896989 0.096050784 -0.03493497 0.012282365 0.079775594 -0.00053278153 0.033568293 0.04241065
0.01752904 -0.014827898 0.046129 -0.01564585 0.04242276 -0.024800222 -0.028770149 -0.05239605
-0.03435439 0.020016074 0.077683754 0.033743687 -0.04416513 -0.019187817 0.025664445 -0.06062258
-0.031093884 -0.020780288 -0.072257906 -0.07363177 0.037016984 -0.033541102 0.0054991557 0.04347232
0.0674057 0.044484098 0.0781814 -0.023190776 -0.02991307 0.09854262 -0.03778968 0.062121723
-0.031516828 0.12753637 -0.070341825 0.057858985 -0.033796232 -0.16822787 0.08841903 0.21407948
0.09373836 -0.0208263 0.03255163 -0.077693775 0.073481746 0.110036954 0.110806935 -0.11337063
-0.0155442 -0.061870083 -0.061695028 -0.101075634 -0.13298845 -0.088964336 0.027213087 -0.030466195
0.019417252 -0.09056605 -0.0006645898 0.05175478 -0.03948216 -0.00539431 -0.013634656 0.030752856
0.017560525 0.020528208 -0.0044651204 0.050814744 0.021761974 0.053397004 0.092921 -0.044516444
0.015476982 -0.0048638945 0.012793591 0.10870512 0.123867065 0.011950394 0.07409164 0.027888699
-0.026662072 0.048174705 -0.0046438086 -0.04878726 -0.11979912 -0.01726816 -0.03518491 -0.047047023
-0.037301525 -0.044957098 0.07470578 -0.021327285 -0.015276966 -0.065571465 0.0055397907 -0.048668977
-0.045720324 -0.027881255 -0.07361635 -0.0854737 -0.0051251403 0.057566248 -0.04601657 0.045625474
0.1401024 0.06798111 0.089934096 0.11549172 0.037734643 0.02079733 -0.004077548 0.0015657783
-0.060168423 -0.06188417 -0.029105498 -0.024626765 0.00020127196 -0.024866238 0.050980188 0.01776635
-0.021126969 0.073419176 0.07075785 0.048991635 0.053793795 0.040495228 -0.053611197 -0.013771614
0.048755206 -0.03660729 0.00390113 0.01870378 0.026587637 0.01060948 0.0355491 0.0040576546
-0.11758257 -0.041903615 -0.19783942 -0.039096396 0.007718856 0.16306753 0.06623024 0.012953243
0.04359565 -0.025735617 -0.078821786 -0.042622406 -0.039460916 -0.02659119 -0.100410804 -0.066890694
-0.07119632 -0.068851426 -0.035296213 0.092381865 0.006800843 -0.016471082 0.031581223 0.06239961
0.066298716 0.059366442 0.005297413 0.050239816 -0.037898056 0.01142691 -7.6576274e-05 0.053815067
-0.04276049 0.0059022154 0.023242716 -0.42918408 -0.043772846 0.5076748 -0.038724337 0.06503851
0.07356279 0.0945475 0.094015285 0.092884004 0.014338184 -0.13555084 -0.10517187 -0.045016114

env_model.conv2_state1.bias f4 [3]
00000000: 8985 283c 592c 903c c606 10bd
0.0102857435 0.017599272 -0.03516271

env_model.conv2_state2.weight f4 [3, 32, 3, 3]
00000000: 81a0 03bb 0b5b d13b 756f 48bc 5254 2bbb
00000010: 5bb9 113c 97ff f1b9 f7b3 bd3b 94ff b23a
00000020: 8dd8 033d da3c 053c b0be 593b 80c0 023d
00000030: 285a b33a ba74 33bb 78e6 30bb 1177 08b8
00000040: ee73 23bc e31e 2fbb f5a8 1b3c b0df 3dbc
00000050: 2ba9 9c3d 6670 14ba 21a4 6dbb 4711 0fbc
00000060: efb0 383b 164a 92ba 0936 893b d360 173f
00000070: 496f eb3e 3359 1d3e b3d1 4e3b f528 27bc
00000080: 0a77 8b40 d78f 193c a1d8 45bb ed98 fb3b
00000090: 6ef0 5abb a839 0a3d 926c d4bb a73e e83a
000000a0: ad7e 75bb aaf7 7aba a802 79bb cc13 3cbc
000000b0: 0238 1e3c ea8b b13a 20ee de3b 1444 803c
000000c0: 558c 173a 523e ae3a 8109 553c c72c cf3a
000000d0: e767 e73a 4120 90ba 1a74 22bc 7da3 7a3c
000000e0: ebc7 0dbd 6198 47bb febc 6cb9 dbdb 963c
000000f0: 503b 923b 8ff8 783b 3755 a3b7 6dbb c6bb
00000100: ad14 df3a ad3b 5dbc ed30 823c abf0 663a
00000110: 9b05 883b a54b b0bb 5370 20bc e626 19bb
00000120: 6383 edbb 75e4 f1ba cf4e 4e3b 309b 253b
00000130: 28be e7ba 59aa 3bba ab76 d2bb 436e 183c
00000140: a0da 5bbb d6cb c6bb 4cb9 81bc 94be e43c
00000150: ef58 b4ba 424e ca39 d777 393c 1669 073b
00000160: 0ec1 98ba 6fb1 c23b 659f 52bc 1629 ceba
00000170: 812c 32bb a542 cbba 4b17 323c 0320 94bb
00000180: d4db f43b 4a82 14bb 6a8e 43bc 0d7e f93c
00000190: 1887 48bc 2718 8dbb a6fe be40 5947 173f
000001a0: 2e34 9c3f 40c1 073b 971a 22bb 205f 8a3e
000001b0: 6f95 bfbc e225 353b e13b a43b 0862 a1b9
000001c0: f6dd 3abc b728 c83a a8d2 cb3b e968 05bc
000001d0: a036 0f3b 6fd7 6d3c 7f5e a5bb f885 b83c
000001e0: 4c97 d43b 84bd 91ba 1a2c ecbb 3037 27ba
000001f0: 1376 d83b 96d1 883b 2148 44bc 7d81 bbbb
00000200: 9a46 c33b 0188 07bc 1da8 f53b 0d17 cbbb
00000210: 1af4 ebbb 830d 3cbb ec81 f8bb a673 623c
00000220: e998 1c3c b0cd 363c c288 3fbb 2526 8f3c
00000230: 85b6 03bb c2a1 9d3b 1df0 8c3c 7a17 6fbb
00000240: b6a5 ed3e b5aa 9d3d 69f3 7fbb b042 c2b9
00000250: bda2 1440 0904 8d3d d1dd 5a3b 9161 bbba
00000260: cf44 d9bb f430 983a e3c2 caba 362f c4bc
00000270: c1fc adbb e610 963a 42ff 313c 0673 1a3c
00000280: 57ff 40bb 602f b1bb fc82 fa39 25f0 1b3b
00000290: 1f8e 5fbc d010 873c 0067 813c c1f2 8dbb
000002a0: 29c9 a73b 7575 c13c 3521 423b 67f4 d9bb
000002b0: 8d3e 8d3d 7265 4a3d 2826 1bbb 2a1c c03a
000002c0: b735 793d 6601 85bb 0ec5 e339 9c9e 7abb
000002d0: 8006 6fbc 13d2 b53b 936f 1a3c dea7 83ba
000002e0: f125 16bc e439 0dbc e676 16bb f115 143b
000002f0: 717a 25bc 83d3 b83a e02f 94ba f746 3441
00000300: 70ce d4b9 017e d4b9 a1fa d6b9 c0c7 2a3d
00000310: fc0f 7abc 56c2 b13e 6da6 e8ba d66c 2c3c
00000320: 1703 463c 51da 433b 757d 503c 2c69 033a
00000330: 66b1 043b 822a c53a 24da c8bb 1e41 d8bc
00000340: adad f03b ad2f 853d cab9 8dbd 2ddf 9940
00000350: 5fb0 da3f ed95 c6bc 6f10 ce3b fdbb e9bb
00000360: 52cc c2bb 2b36 26bb 1c67 903f ac7e 803b
00000370: cd9b 12bc 60ce 1fba 417b 4d3b 598e 4ebd
00000380: 88ba 5c3c 6eff c939 60d8 803b 74bf 8dbc
00000390: e76f 3dbc b397 6a3c d3b5 5fbb 498d 1f3d
000003a0: 03e6 243d ff04 a83d 85b6 90bb 7ace a0bb
000003b0: 8a65 92bc 4d13 623b 2bf8 543b e10d 8c3b
000003c0: 2181 acba 1689 2c3d 56a0 313c 8aec b43a
000003d0: 814f a1bb a5d8 e640 e64b 30bb 06e3 a53b
000003e0: f1df 39bb 1d94 a2bb bdc1 40bc 2af2 04bb
000003f0: f86c ea3c 9d4c a03c e8de ec3a 7816 63bb
-0.0020084681 0.006389027 -0.012233605 -0.0026142788 0.00889429 -0.0004615753 0.0057892757 0.001365649
0.03218894 0.008132184 0.003322523 0.031921864 0.0013683485 -0.0027382807 -0.0026992839 -3.2535816e-05
-0.00997637 -0.002672129 0.009500732 -0.011588976 0.07649454 -0.00056625006 -0.0036261159 -0.008732147
0.0028181633 -0.0011160995 0.0041873497 0.5913212 0.4598334 0.15366058 0.0031558096 -0.010202636
4.358281 0.009372673 -0.0030188935 0.0076781423 -0.0033407467 0.03374639 -0.006482669 0.0017718867
-0.0037459538 -0.0009573648 -0.0037995968 -0.011479329 0.009656908 0.0013545726 0.006803289 0.015657462
0.0005781104 0.0013293719 0.013002754 0.0015806191 0.0017654867 -0.001099594 -0.009915376 0.015297768
-0.034614485 -0.0030455815 -0.00022577119 0.018415382 0.004462637 0.003798995 -1.9470795e-05 -0.0060648234
0.0017019712 -0.013502997 0.01589247 0.0008809666 0.004151059 -0.0053801113 -0.009792405 -0.0023369133
-0.0072483285 -0.0018454926 0.003148008 0.00252695 -0.0017680572 -0.00071588677 -0.0064228377 0.009303632
-0.0033547059 -0.0060667796 -0.015835427 0.027922906 -0.0013759414 0.0003858675 0.011320076 0.0020662001
-0.0011654214 0.005941562 -0.012855385 -0.0015728797 -0.002718717 -0.0015507533 0.010869811 -0.0045204177
0.0074724946 -0.0022660666 -0.01193581 0.030455614 -0.01223924 -0.0043058577 5.968585 0.5909324
1.2203424 0.0020714551 -0.0024735087 0.270257 -0.023386685 0.0027640988 0.005012021 -0.00030781352
-0.011405459 0.0015270923 0.0062201805 -0.008142688 0.0021852627 0.014516695 -0.005046665 0.022524819
0.0064877626 -0.0011119102 -0.0072074058 -0.0006378768 0.0066058724 0.004175375 -0.0119800875 -0.0057222233
0.005959344 -0.008272172 0.0074968473 -0.006197816 -0.00720073 -0.0028694577 -0.0075838473 0.013821518
0.009557941 0.011157438 -0.00292258 0.017474243 -0.0020097804 0.004810543 0.017204339 -0.00364825
0.4641549 0.076985754 -0.0039054996 -0.0003705225 2.3224328 0.06885535 0.0033396373 -0.0014296045
-0.006630517 0.0011611269 -0.0015469458 -0.023948293 -0.0053096716 0.0011449128 0.010864081 0.009426838
-0.002944907 -0.005407259 0.00047781307 0.002379426 -0.013644724 0.016487509 0.015796185 -0.004331917
0.0051204157 0.023615578 0.0029621844 -0.0066514495 0.06896696 0.049413152 -0.0023673866 0.0014656831
0.060842242 -0.0040590046 0.0004344363 -0.0038241511 -0.014588952 0.0055487244 0.009426015 -0.0010044535
-0.009164319 -0.008619759 -0.0022959053 0.0022596086 -0.010099993 0.0014101121 -0.0011305772 11.267325
-0.000405896 -0.0004052967 -0.00041003994 0.041694403 -0.0152626 0.3471858 -0.0017749794 0.010523995
0.012085698 0.0029884765 0.012725224 0.0005012925 0.002024734 0.0015042576 -0.00612952 -0.026398238
0.0073449225 0.06503234 -0.06920202 4.808493 1.7085074 -0.024241412 0.00628858 -0.0071330057
-0.005944767 -0.0025361876 1.1281466 0.0039213505 -0.008948279 -0.0006096121 0.0031353983 -0.050428722
0.013472207 0.00038528017 0.003932044 -0.017303206 -0.011562324 0.0143183945 -0.0034135475 0.0389531
0.04025842 0.08204078 -0.0044162893 -0.0049074264 -0.017870683 0.0034496367 0.0032496552 0.0042741154
-0.0013161042 0.042122923 0.01084145 0.0013803404 -0.0049228077 7.213946 -0.0026900708 0.0050624637
-0.002836224 -0.004961504 -0.011764941 -0.0020285943 0.028616413 0.019567782 0.0018071802 -0.0034650844

env_model.conv2_state2.bias f4 [3]
00000000: 64d5 6739 5227 37b9 7e99 3ab8
0.00022109371 -0.00017466888 -4.4488806e-05

imagination.0.weight f4 [256, 3]
00000000: 5c32 c83e 842d 093f f6b7 4bbe 80a8 f63d
00000010: d5dc ddbe 584a dabe bb5a ecbe ce84 debe
00000020: fc06 e6bd 4aee 973e ade9 c0be d7e7 d3be
00000030: a00f b2be c0d6 a13d 097f f1be 4ce3 18be
00000040: f345 cbbe 5c0d 0e3f dcbe 02bf d8ed f5be
00000050: 4c95 f23e 9eaf ebbe b273 c9be 0030 5bbb
00000060: 487d 983d 4024 fc3e f2a4 65be 64ef 353e
00000070: 9062 903d 0f77 03bf 6049 3dbd 9ca3 613e
00000080: 0000 4e3c a014 a6bc 2800 8fbd 6cce 653e
00000090: 9a63 a4be 80c2 d83d dcf1 563e 5264 d63e
000000a0: c8ed 64be 426f ae3e a8d9 f4be 624d 89be
000000b0: 1456 f73e dc2c 003f 005e efba 00d6 09bb
000000c0: dcc7 5a3e 5029 0c3d 41a1 e8be d8c6 a03d
000000d0: d811 9fbd f07e 033f bab2 47be 0ea0 bfbe
000000e0: 848e 8cbe 5c37 823e 10e7 a6bd d8d3 f83e
000000f0: c229 42be 68da e73e 0e86 15be 0b0d 0dbf
00000100: 8813 963d 11d6 dfbe a45c cebe 803f 9dbb
00000110: 7cec c63e ae97 a43e e4cf 0f3f 4872 d43d
00000120: fa61 983e c0bc 3a3e cc6c febe 67d4 ccbe
00000130: e8d8 503e 783c 9f3d 2c79 bdbe aedc 083f
00000140: 50c1 f63d 2cf8 de3e 70b7 653d 2ef9 123f
00000150: 1aee d13e 2749 8cbe d8f4 033f 5747 f2be
00000160: d0c0 2cbe 505e 3c3d 5ed4 bd3e 70a6 79bd
00000170: 8e8b ebbe 98b8 613e a240 acbe 90f3 cfbe
00000180: e314 e9be 28dd dcbe ce7c a3be a0ec c3bc
00000190: 101a 0d3e 8471 41be e29f 74be b807 aabe
000001a0: c4ed f23e 9c7d 753e 8c81 dabe 1267 75be
000001b0: 4080 8cbd 18bb 973e 5609 bfbe 6a39 34be
000001c0: 64c8 9dbe d74f a9be 8417 973e d44f 043e
000001d0: 8c94 87be 0c5d ff3e 9a01 acbe f419 013f
000001e0: 5ded cbbe 7089 3d3e 718b f4be 200f 10bd
000001f0: bf05 13bf 58eb d0bd 643b d3be d4e1 56be
00000200: 5ee5 023f 4c0a aabe 409c 4fbe d076 f6be
00000210: 2ebd 003f 80d0 f43e ae7a c23e 505f 403d
00000220: 786d 813d 100c a43d b231 a4be 304f 023f
00000230: d078 fe3d 0808 d33e 39b1 9dbe 406c c4bd
00000240: da22 043f b88b 1dbe beae babe 2b73 0dbf
00000250: b2c4 03bf 9a03 a5be 527c 913e 302c 5cbd
00000260: 457b abbe 92f9 bd3e 54fb f53e ee06 d83e
00000270: 808b 10be 79b3 fabe c825 a13d 227f 08bf
00000280: 0b3f ddbe a2aa 37be 788d f5bd 868f 13bf
00000290: 8c01 aabe c418 aa3e 080c cf3e 9843 fc3d
000002a0: eb9e f3be c49f fb3e 848f 863e 0000 213e
000002b0: dac2 063f a0ee f63e 80d5 e73e 4825 923d
000002c0: 2c0f b83e a0e2 513e 146e cf3e bcfd f0bd
000002d0: 2cf0 07bf b023 4cbe 887d 8e3d c0f2 66bd
000002e0: 60bd e43c 805e dabc 6442 5cbe e6d1 e6be
000002f0: 60a6 3abd 500f 9b3d 207f f8bd 581a c6bd
00000300: 9468 aabd f017 a03d 4051 fcbc c058 e63e
00000310: b865 be3d a9cc 0ebf 7480 053e 6a62 44be
00000320: c005 4c3e 105e 75be f3b1 fbbe 74fe fe3e
00000330: 2160 fdbe 00a6 0ebd 4d05 debe 2c19 0a3f
00000340: c4ea a3be 3a28 11be 0814 af3e 397d a7be
00000350: e00b 613d 00e8 acbe 00fe b6ba 5cb8 6c3e
00000360: c015 973d 10d6 3a3d 90bc 6d3d 84dd 9bbe
00000370: 989d ed3d 95a7 f9be e0ed 4d3d 4e56 a33e
00000380: a0aa 49be a69e 64be 6427 eb3e d081 09bd
00000390: cc4d 063f 0c5c 473e f6ba a33e 58bc 333e
000003a0: f47c 053f 305b d93d f472 50be ddc1 d8be
000003b0: f8b1 093f 425a 8bbe e01c bb3e c603 d7be
000003c0: 08d6 c4be b044 08bd e487 4abe f4aa f5be
000003d0: f0c7 79be 7235 9a3e e099 a63d 704e 053e
000003e0: 54ef 01be 8821 ce3d f7fa 00bf b89b 043f
000003f0: 466a 013f 1e29 aebe e815 d0be c800 07be
0.3910092 0.53585076 -0.19894394 0.120438576 -0.43332544 -0.42634845 -0.46162972 -0.43460697
-0.11231801 0.29673988 -0.3767828 -0.41387817 -0.34777546 0.079022884 -0.47167233 -0.14930457
-0.39701805 0.55489135 -0.5107248 -0.48033023 0.4737953 -0.46032423 -0.3934608 -0.0033445358
0.074457705 0.49246407 -0.22426203 0.17767102 0.07050049 -0.51353544 -0.046212554 0.22035068
0.012573242 -0.020273507 -0.06982452 0.22442025 -0.3210724 0.10583973 0.209907 0.41873413
-0.22356331 0.34069258 -0.4782231 -0.2681685 0.4830786 0.5006845 -0.0018262267 -0.0021032095
0.21365303 0.034219086 -0.45435527 0.078504264 -0.07767075 0.51365566 -0.19501773 -0.374268
-0.2745248 0.2543286 -0.081495404 0.48599124 -0.18961242 0.45283818 -0.14601919 -0.55098027
0.07327944 -0.43718007 -0.40305054 -0.0047988296 0.38852298 0.32146972 0.5617659 0.1037336
0.2976225 0.18236065 -0.4969238 -0.400058 0.20395243 0.077752054 -0.3700651 0.5346173
0.1204859 0.43548715 0.056083143 0.5741147 0.4100197 -0.2739956 0.51545477 -0.47320053
-0.16870427 0.04598838 0.37076086 -0.060949743 -0.4600491 0.22043073 -0.3364306 -0.4061551
-0.45523748 -0.4313748 -0.31931156 -0.023916543 0.13779473 -0.18890959 -0.23889115 -0.33209014
0.47447026 0.23973697 -0.4267696 -0.239651 -0.06860399 0.2963493 -0.3731181 -0.17600027
-0.30816948 -0.33068725 0.29510128 0.12921077 -0.2648052 0.49875677 -0.33594972 0.50430226
-0.3982953 0.1850946 -0.47762635 -0.035170674 -0.5743064 -0.10201138 -0.4125625 -0.20984584
0.51131237 -0.3321098 -0.20274448 -0.48137522 0.50288665 0.47815323 0.37984222 0.046965897
0.06319708 0.08010113 -0.32069165 0.5090208 0.12425387 0.41217065 -0.30799273 -0.095909595
0.5161568 -0.1538533 -0.36461443 -0.5525386 -0.5147201 -0.3222931 0.2841516 -0.053753078
-0.33492485 0.3710447 0.4804331 0.42192787 -0.14115715 -0.48965052 0.07868534 -0.5331899
-0.4321216 -0.17936185 -0.11989874 -0.57640874 -0.33204305 0.3322202 0.40438867 0.1231758
-0.47582182 0.4914533 0.2628137 0.15722656 0.5264107 0.4822893 0.45280075 0.07136017
0.35949075 0.20496607 0.4051367 -0.11767146 -0.5310085 -0.19935489 0.06957537 -0.05638385
0.027922332 -0.02665639 -0.21509701 -0.45082015 -0.045568824 0.0757128 -0.12133622 -0.096729934
-0.08320728 0.07817066 -0.030800462 0.44989586 0.09296745 -0.55781037 0.13037282 -0.19178167
0.19924068 -0.23961663 -0.49159202 0.49803507 -0.49487403 -0.03482628 -0.4336342 0.5394466
-0.3201505 -0.14175501 0.3419497 -0.32712725 0.054942966 -0.33770752 -0.0013961196 0.23117203
0.07377195 0.045614302 0.058041155 -0.3044244 0.11602324 -0.48760667 0.050275683 0.31901783
-0.19693995 -0.22326145 0.4592849 -0.033571064 0.5246246 0.19468707 0.31978577 0.17552316
0.5214379 0.10613096 -0.20356351 -0.42335406 0.53787184 -0.272173 0.36545467 -0.41995066
-0.38444543 -0.03326863 -0.197784 -0.4798199 -0.24392676 0.301189 0.08134818 0.13018203
-0.12688953 0.10064989 -0.5038294 0.5180011 0.50552785 -0.34015745 -0.40641713 -0.13183892

imagination.0.bias f4 [256]
00000000: 34db 21be 3c63 eabe 8c6e 1ebe a01f 42bd
00000010: 4617 c43e 4afe 17be ad24 9ebe 4cbe f93e
00000020: 6a64 97be b03f 43be 403a a4bc a8ff da3e
00000030: a9ee e2be 8242 a03e 9013 723d b00d a7be
00000040: 3090 ff3d be60 a43e 5497 d7be fd84 bcbe
00000050: d37c 99be b8d2 d83e 723e fdbe 94e2 ff3e
00000060: 40f3 0abe d000 293e 145d 08bf 8888 ac3d
00000070: 2031 de3e 76a3 a63e 7c0f 6fbe fc7a dcbd
00000080: 4ddb eebe f61d aabe ac85 8abe b4a1 6cbe
00000090: acb7 c2be 24cc 0fbe a8a2 24be 7487 6dbe
000000a0: 2aea 01bf 302b 7f3d caa9 873e b011 e3bd
000000b0: 3880 59be 00cb 2ebc 2367 02bf 0836 79be
000000c0: febc dabe 5a3b f2be 2a23 ccbe 1e8f a3be
000000d0: dccc bdbe 688d 353e fab4 133f 0dab e5be
000000e0: 4096 ce3c 1a4d 0bbe 74cd 183e 07da a2be
000000f0: 8ea1 c13e 38bb 60be 75a3 dbbe 3b04 03bf
00000100: 9f3c 11bf cebf c53e 0285 033f b4fc ec3e
00000110: 6693 d63e 6023 92be 30e0 663d 7e71 37be
00000120: dc4a e2bd 74d3 bebe 18f2 0f3f 6ebb a1be
00000130: be35 28be 1c0e 033f 245e fd3e d0f4 393e
00000140: c49a 5fbe 2ccf 733e 5c74 f33e c045 f2bd
00000150: ac72 b5bd 0811 ac3d a8be e23d a069 253d
00000160: 4e50 0e3f 6065 81bd 4232 c93e 44f2 cc3e
00000170: 0088 793c 8c7c 553e c676 d8be 1c7d 013e
00000180: f6e7 8c3e c4fe b5bd a09b 94bc d8c7 c53d
00000190: e4c9 4bbe 7075 e73e 4c45 a53e 3ad5 90be
000001a0: 007a 45bb 2895 2ebe 7842 343e af69 13bf
000001b0: f051 bebe 422e 093f 58e9 f03e 70b0 dbbe
000001c0: b889 623e 4430 66be f600 51be 205e 93bd
000001d0: 18c5 563e be35 f3be f444 603e b2e6 ad3e
000001e0: 54f7 283e c679 58be 04a1 d93e 5456 073f
000001f0: b026 1f3d 204f abbd ae3e 8abe 0034 2dba
00000200: 58ac e53e 2ec2 873e b4ac da3e 4950 85be
00000210: 2046 3bbd 809a 953e d417 abbe 7899 d0bd
00000220: 8a22 043f f8ed 9c3e 000c b03b 4e3c a43e
00000230: 8a0d 0f3f 8881 ed3e d46b 2a3e a079 95bc
00000240: 228d 04bf 0bf4 00bf 7629 863e d4d8 033f
00000250: 1846 8cbe 4438 5b3e 38c7 12bf b06d 53be
00000260: 0152 cdbe d2ee c4be ee01 f9be a8c5 133f
00000270: 1205 e5be 3e3d 03be 2051 b13c c861 f63e
00000280: f088 a43e 6837 b6bd b099 febd e0b8 873d
00000290: 4068 003d 9857 7bbe 8042 623e 2012 b83c
000002a0: 2a2f 973e fc01 c4bd 968f 8a3e f0ca 703d
000002b0: 30de 083f f4bb 183e 1c51 e7be 05d5 9dbe
000002c0: ab02 04bf 40aa 313c c025 823e a015 ae3e
000002d0: a0ea f33c f91f 8fbe a0ad ee3e 0091 e33e
000002e0: 8071 ad3b 00b7 d43d 5080 b23d 4c61 9fbe
000002f0: 4ca7 ba3e a9bf fbbe f65e 6fbe 582c eb3d
00000300: 8f18 c2be cc25 5fbe 2456 253e 54ed 97be
00000310: e03b 193d e058 8f3c 9461 86be 7468 d2be
00000320: b82f 63be dadc 0a3f e858 be3d ac41 493e
00000330: 29ef 01bf 8881 ee3e 2155 d2be 3945 08bf
00000340: b4e0 c5be 32ac b13e 8706 07bf 1feb 8fbe
00000350: 9cf7 49be 5cd0 ae3e da11 e6be dc2b 133e
00000360: 8830 a43e 3c34 babd 4c4d 253e 8c2d 133f
00000370: 1c7a cf3e 6125 d2be f0c5 683e d89e 2fbe
00000380: 8a04 083f 9073 03be 6ef8 0dbe 80b6 7e3d
00000390: fe16 55be 14ba 2c3e e0cd 173d 988e b9be
000003a0: d004 413d d8e5 f73d 7104 8ebe e9e1 84be
000003b0: 4499 aa3e 10d7 01bd a0a0 f43e b6a7 093f
000003c0: 2864 a0be fa2d d33e 402b cb3d 6d35 dcbe
000003d0: d862 dc3e 298f 92be ace2 0e3f 4cd2 da3e
000003e0: 648f e5be c283 11be 5487 e53e 1c46 f8bd
000003f0: 4622 003f 80e3 a73d c04c 46bd e4a7 543e
-0.15806276 -0.45778835 -0.15471858 -0.04739344 0.38299006 -0.14843097 -0.30887356 0.48777997
-0.29568797 -0.19067264 -0.020047307 0.42773175 -0.44322708 0.3130074 0.059100688 -0.3262763
0.124786735 0.32105058 -0.42107642 -0.36820212 -0.29978046 0.42348266 -0.49461704 0.49977553
-0.13569355 0.16504216 -0.53267026 0.08424479 0.43396854 0.32546586 -0.2334575 -0.10765645
-0.46651688 -0.33225983 -0.2705511 -0.2310856 -0.38030756 -0.14042717 -0.16077673 -0.23196203
-0.5074793 0.062297046 0.26496726 -0.11087358 -0.21240318 -0.010668516 -0.50938624 -0.24337018
-0.42722315 -0.47310907 -0.39870578 -0.31945127 -0.37070358 0.17729723 0.57698023 -0.44857064
0.02521813 -0.1360363 0.14922124 -0.31806967 0.3781857 -0.21946418 -0.42898145 -0.5117833
-0.56733125 0.38622898 0.5137483 0.46286547 0.4190933 -0.28542614 0.056366146 -0.17914388
-0.110494345 -0.372707 0.5622878 -0.3158831 -0.16426751 0.51193404 0.49485886 0.18159795
-0.21836382 0.23809499 0.47549713 -0.1182971 -0.088597625 0.08401686 0.11071521 0.040383935
0.55591285 -0.06318164 0.39296156 0.40028584 0.015230179 0.20848292 -0.42278117 0.12645382
0.27520722 -0.08886483 -0.018140614 0.09657258 -0.19901234 0.45206785 0.32279432 -0.2828768
-0.0030132532 -0.17049086 0.17603481 -0.57583135 -0.37171888 0.5358621 0.47053027 -0.4290805
0.22122848 -0.2247935 -0.20410523 -0.07195687 0.20973623 -0.4750194 0.21901304 0.3396507
0.16500598 -0.21140203 0.42505658 0.528661 0.038855255 -0.08364701 -0.27000946 -0.0006607175
0.4485805 0.26515335 0.42709887 -0.26037815 -0.045721173 0.29219437 -0.33416617 -0.10185522
0.516152 0.30650306 0.0053725243 0.3207726 0.55880034 0.46387887 0.16642696 -0.018246472
-0.5177785 -0.5037238 0.26203507 0.5150273 -0.27397227 0.21408182 -0.57335234 -0.20647311
-0.40101627 -0.38463455 -0.48634285 0.57723475 -0.4473043 -0.12816331 0.021645129 0.48121476
0.32135725 -0.08897287 -0.12431657 0.06627059 0.03134942 -0.24545133 0.2209568 0.02246958
0.2952817 -0.09570691 0.27062672 0.058787286 0.5346403 0.14915448 -0.4517907 -0.30826584
-0.5156657 0.010843813 0.25419426 0.34000874 0.029774964 -0.2795408 0.4661684 0.44446564
0.0052930713 0.10386467 0.0871588 -0.3112892 0.36455762 -0.49169663 -0.23376068 0.11483067
-0.37909362 -0.21791762 0.16146141 -0.29673254 0.037410617 0.017498434 -0.2624632 -0.41095316
-0.22186172 0.5424324 0.09294301 0.19653958 -0.50755554 0.465832 -0.41080573 -0.53230625
-0.38647997 0.34701687 -0.52744335 -0.2810907 -0.19723362 0.3414334 -0.44935495 0.143722
0.32068276 -0.09091994 0.16142768 0.57491374 0.4052285 -0.41044143 0.22731757 -0.17150438
0.53131926 -0.12837052 -0.138643 0.062185764 -0.20809552 0.16867858 0.037061572 -0.36241603
0.04712373 0.12104386 -0.27737764 -0.25953606 0.33320057 -0.03169924 0.47778797 0.5377153
-0.31326413 0.41246015 0.09920359 -0.4300951 0.43044162 -0.28624848 0.55814624 0.4273857
-0.4483596 -0.14210418 0.4482981 -0.12122747 0.500523 0.08197689 -0.04841304 0.2076717

imagination.2.weight f4 [256, 256]
00000000: 2c1e 6cbd 8063 e4ba 9819 7d3d c0df b33c
00000010: fcfd 89bc a0f9 28bc 4c52 b03c 9004 96bc
00000020: 82af 6f3d 886c 4bbd f09e 01bc a89a 053c
00000030: c08d f23a d433 fabc cef5 0ebd b05e 873b
00000040: e864 55bd 82e9 4f3d e8ac edbc e81c b0bc
00000050: 4e3e 1fbd 2cb1 5d3d 007a 05bb c880 0dbd
00000060: 2ea6 43bd e2c0 66bd c83c 36bc 4044 37bb
00000070: d835 c53c 6035 3dbb 3667 56bd e4f6 363d
00000080: d077 643c 6e35 643d ac86 f2bc 4675 1e3d
00000090: 2088 7dbc 90b9 e0bb 0046 2e39 4440 9c3c
000000a0: c8eb 5ebc 7cb4 c33c 108b 503d b635 513d
000000b0: 1c63 ab3c 20e3 16bd 565f 5a3d e4ac d53c
000000c0: 5a48 76bd 4020 ae3b 3e31 373d f81f 743d
000000d0: 0660 733d d0b3 103d 18c1 22bc 6200 3d3d
000000e0: b003 95bb b4f9 323d 34a4 4d3d 90de cebb
000000f0: 4830 313c 80d6 1ebd f808 403d 367f 68bd
00000100: 2c4f ed3c 3a21 64bd b2be 393d 30ba 24bc
00000110: ac0b 60bd 8a72 2f3d c294 663d d28e 39bd
00000120: 3815 29bc 00e3 cc39 c8b9 213c 1c34 4f3d
00000130: 1ce2 d73c a037 3e3b a08e 28bc 4094 543c
00000140: de8c 6b3d 9aeb 503d 1c47 053d 88c5 683c
00000150: 30f0 253d c8d8 503c e828 68bd 7c29 643d
00000160: 2eac 023d c44e 2f3d f017 26bc e0ab 6abb
00000170: 0cdd 46bd 8852 ca3c ec6b c8bc be8b 44bd
00000180: 8879 493c 78b4 713d 0c18 ca3c e641 1abd
00000190: 9258 45bd 44de 67bd dca4 8c3c 8014 bdba
000001a0: 2833 65bd 0afe 5fbd 20e4 72bd 96e3 5b3d
000001b0: 62e9 7d3d d082 e3bb a2fa 533d e8df ac3c
000001c0: e0d7 ef3b a46e e03c 36da 4fbd 20bc 003c
000001d0: 9208 76bd e4fd 5a3d f842 453d cedb 603d
000001e0: 626a 27bd 00c8 9abc a0a9 82bc c06e 2a3c
000001f0: 480c 35bc 6cc0 2c3d a4bf 6e3d beae 31bd
00000200: 74fd 69bd 1258 74bd 144d 0fbd 0084 973a
00000210: b646 723d d403 b43c 2488 af3c a209 18bd
00000220: 90a4 863b 06ba 06bd 4000 963c 1816 403c
00000230: 94b4 a4bc 6eaa 4bbd 00ca 133d 9033 85bc
00000240: b823 543d d864 3abd 3816 773c b043 df3b
00000250: 3879 633c 0047 fdb9 4c34 753d c692 5f3d
00000260: c809 08bd 800e ebba 7ac2 653d 8823 abbc
00000270: 182d 7dbd 7ca7 94bc 3e10 75bd 102a 6abd
00000280: 2094 d53b e2bd 323d d855 75bc eed4 383d
00000290: 8c85 be3c 201b c3bc fa7e 58bd 687a a5bc
000002a0: 843a f33c 7e50 013d 3ce8 51bd c898 36bd
000002b0: 2068 663d 4061 9ebb 2e64 60bd 1831 28bc
000002c0: 988a ab3c e837 f9bc b8f4 6ebc 4cf5 fb3c
000002d0: 007e f4bc 1808 ca3c 20d0 f43b f01c 4dbd
000002e0: ecd5 233d 469b 583d f879 e73c e011 72bd
000002f0: 685a b1bc dc9a f13c f272 1b3d 842c d63c
00000300: 40be 57bc 0846 a9bc 8c19 5a3d 900a 99bc
00000310: a891 53bd a0b9 313d cc0f 9a3c 8e1b 213d
00000320: 1453 053d ec7e 273d 74ab b33c 9825 21bc
00000330: b06b f93c 922a 0d3d 58b0 fabc 94d8 e63c
00000340: c083 803b d806 cdbc 2c50 8e3c 3056 1fbc
00000350: 60cb 2abc d8f8 623c e88c 193c ce1b 703d
00000360: daac 2ebd 4004 d2bc 7804 d4bc e42f 6dbd
00000370: 9e8d 0c3d f8f9 5fbc c41f af3c 987e ce3c
00000380: e6cc 50bd 183c 83bc 3019 cb3b 50d8 4c3d
00000390: c099 e03c 1079 72bd 989c 753d b61b 693d
000003a0: 3a79 573d f0c4 d23c 84e8 ff3c 00be 233a
000003b0: 6acd 263d 8232 06bd cc4e 353d d4cf 2cbd
000003c0: 622f 55bd 68fe 303d d063 f33c f088 883b
000003d0: 0081 0d3c dc72 f43c 30e0 983b 1423 6f3d
000003e0: 9248 573d 723f 48bd 6c54 983c 8052 f0ba
000003f0: e4a7 38bd 7006 d4bc 381e 3cbd e824 693d
-0.05764596 -0.0017424673 0.061791986 0.021957278 -0.016844742 -0.0103134215 0.021523617 -0.018312722
0.058516987 -0.04966405 -0.007911429 0.008154549 0.001850538 -0.030542292 -0.034902386 0.0041311607
-0.052098185 0.0507598 -0.029013112 -0.021498159 -0.038877778 0.054124042 -0.0020366907 -0.034546643
-0.047765903 -0.05633629 -0.01112289 -0.0027964264 0.024073526 -0.0028870925 -0.052344523 0.044669047
0.013944581 0.055715017 -0.029605232 0.03868606 -0.015474349 -0.0068580583 0.0001662001 0.019073613
-0.013606019 0.023889773 0.05091387 0.051076613 0.020921282 -0.036837697 0.053313576 0.026083417
-0.060127594 0.005313903 0.044724695 0.0596008 0.059417747 0.035327733 -0.009933732 0.046142943
-0.0045475587 0.043695167 0.050205424 -0.0063131526 0.010814734 -0.038778782 0.046883553 -0.056761943
0.028968416 -0.05569575 0.045347877 -0.010054156 -0.05469863 0.042833842 0.05629421 -0.04530222
-0.01032 0.0003907904 0.009870954 0.050586805 0.026352935 0.0029024854 -0.010287911 0.012974799
0.05750739 0.051005937 0.03253852 0.014207251 0.040512264 0.012746997 -0.056679636 0.055703625
0.031902485 0.042799726 -0.010137543 -0.0035808012 -0.04855065 0.024697557 -0.024465524 -0.04798483
0.012297042 0.05901 0.02466967 -0.037660502 -0.04818017 -0.056608453 0.017168455 -0.0014425665
-0.05595699 -0.05468563 -0.05929959 0.05368384 0.06199015 -0.0069430843 0.051752694 0.02110286
0.0073194355 0.027396508 -0.05074521 0.0078573525 -0.060066767 0.053464785 0.04815957 0.054897122
-0.04087294 -0.018894196 -0.015950024 0.010402381 -0.011050291 0.042175695 0.05828823 -0.043379538
-0.057126477 -0.059654303 -0.034985617 0.0011559725 0.059149466 0.021974482 0.021427222 -0.03711856
0.004108973 -0.03289225 0.018310666 0.011724018 -0.020105638 -0.04972308 0.036081314 -0.016259938
0.051791877 -0.04550633 0.015080981 0.006813489 0.013883881 -0.0004830882 0.059864327 0.054583333
-0.033212453 -0.0017933398 0.05609367 -0.020890966 -0.061810583 -0.018146269 -0.059829943 -0.05716902
0.006517902 0.043638118 -0.01497408 0.04512494 0.02325704 -0.023816645 -0.05285547 -0.02019997
0.029690988 0.031570904 -0.051246867 -0.044579297 0.056251645 -0.0048333704 -0.05478304 -0.010265611
0.02094011 -0.030422166 -0.014584713 0.030756615 -0.029845238 0.024662063 0.0074710995 -0.050076425
0.039998934 0.052882455 0.028256401 -0.05909908 -0.021649554 0.029492788 0.037951417 0.026144274
-0.013167918 -0.020663276 0.05324702 -0.018681794 -0.05165258 0.043389916 0.01880636 0.03933292
0.032549933 0.040892527 0.021932341 -0.009835623 0.030446857 0.034464426 -0.030601665 0.028179444
0.003921956 -0.025027677 0.017372213 -0.009725139 -0.010424465 0.013853274 0.009371974 0.058620267
-0.042645313 -0.025636792 -0.025881037 -0.057907 0.034314744 -0.013670437 0.021377452 0.025206849
-0.050976656 -0.016019866 0.006198071 0.05001098 0.027417064 -0.059197485 0.059963793 0.056911193
0.052605845 0.025728673 0.031238802 0.0006246269 0.040723242 -0.03276301 0.0442646 -0.042190388
-0.05204714 0.04321137 0.02971068 0.004166715 0.008636713 0.029839925 0.004665397 0.058383062
0.052559443 -0.04888863 0.018594943 -0.0018335134 -0.045081988 -0.025881976 -0.045927256 0.056919962

imagination.2.bias f4 [256]
00000000: 002b 2bbd d0d1 4c3d 60b9 123b 00c1 9fba
00000010: 2c02 50bd 8454 f9bc 240b ac3c 4e3d 6e3d
00000020: 9a09 19bd 16b6 503d 7064 c8bb 7acf 013d
00000030: de91 2a3d 009a 97bc f4b0 b33c 38c9 0f3d
00000040: 72f2 7bbd 6242 06bd 7094 133d 34ad 0e3d
00000050: c687 093d a06e f33c d8dd ae3c 44a2 9dbc
00000060: 7c6c 543d 805d b33c 303e 67bd 4401 02bd
00000070: 9eae 54bd 0068 db38 b018 4c3c 8058 693b
00000080: 8c1c 783d b6a5 563d 008e ff3c c05e d3bc
00000090: f0f0 103d 60a3 56bd a0d2 a23b 8027 49bc
000000a0: 784f 133c bc71 e0bc 407c 25bd d882 4f3d
000000b0: 2ecf 5c3d c054 e7bc a6b3 73bd c039 34bd
000000c0: 5c9a 30bd b0a6 1b3c d664 1c3d e617 32bd
000000d0: e067 a4bb 52a7 47bd 3094 713c 9a36 273d
000000e0: f87c 6bbc e294 1bbd 007a 87bb 98d6 21bc
000000f0: 9c23 0dbd 20ce 4bbb 66ca 203d de76 6b3d
00000100: 904c bbbb d822 403c 6872 68bc 10bf 263c
00000110: 3893 75bc 8006 ebba 6020 74bb d002 e63b
00000120: b650 00bd 14b4 183d ecb0 de3c 788d d8bc
00000130: 60c4 cb3b a47c 9cbc 7c75 673d a270 5a3d
00000140: ea04 34bd 38fd e13c 1c9e a23c 023d 58bd
00000150: be2a 3e3d a429 8abc d818 13bc 3834 183d
00000160: f4b6 bebc a06a aabc 7aeb 28bd 22ea 35bd
00000170: faf3 583d fc0b a23c 606d 53bb 9ce7 37bd
00000180: 1824 35bc 081a 0fbc a0e2 7d3d 2cdb 483d
00000190: b647 49bd cc48 6b3d 80b5 30ba 7c8c 913c
000001a0: 70c6 1a3d 002b 84ba e2ca 00bd cc3f 693d
000001b0: e0eb 7c3c c878 ad3c c8d2 433c de8b 31bd
000001c0: 88d2 22bd d0d2 5d3c b428 8fbc 5c13 9f3c
000001d0: 0018 8dbc 6031 febb 10a9 483d 006e 59bb
000001e0: 646e aebc b422 b6bc 5a19 373d d8c1 223d
000001f0: a637 2e3d e855 bd3c ac66 68bd 80cd 60bb
00000200: fef1 0bbd 3297 713d be89 02bd 2043 7bbb
00000210: 0043 7e3b 7821 623d 601d c9bc a669 4e3d
00000220: 224f 333d ec24 43bd e81e 58bd a49d da3c
00000230: 6876 66bc d4a3 99bc 704e 6b3c 6412 843c
00000240: b0de 063c ce75 7bbd f8e7 fc3c e0a0 153b
00000250: ac78 eebc 8067 453b a2c7 1dbd faf6 713d
00000260: 9a95 56bd 2cf9 fe3c 3e3d 1b3d 862c 0b3d
00000270: 98d7 0ebd 0cdb e7bc b2bf 073d 0eba 2f3d
00000280: 7664 703d a2b4 2e3d e055 133b 6056 c73c
00000290: 7852 c6bc 785e 5b3c 7480 f43c 3e93 3a3d
000002a0: c0a0 bebc 9e58 6a3d 40af 233b e673 1e3d
000002b0: c098 13bd 40c6 ad3a b4e5 9d3c 827b 523d
000002c0: 60d3 84bc fc16 f83c 582d 3abc 2290 023d
000002d0: 90c1 24bd f44e 4ebd 8077 903a 40c5 343b
000002e0: 3822 27bd 7a68 3ebd dccf e5bc 905c 193d
000002f0: b4d8 1dbd 38a3 15bd be77 423d d0ca 513c
00000300: a0a4 05bc bc75 bebc c081 a2ba 1ca8 ab3c
00000310: 4815 11bd 84fc b0bc 5a05 44bd 2067 753d
00000320: 4efe 2e3d c00a 87ba 38b3 84bc 24e8 253d
00000330: a650 473d ac22 623d f41d c23c 903f 17bc
00000340: 9c79 84bc 8043 83bc cc9d 483d 28b8 f7bc
00000350: f6ca 33bd 8e4a 2cbd 2664 5dbd 24cb b5bc
00000360: 4a53 3dbd 7837 bdbc 78e2 5cbd 985d afbc
00000370: d83d 093d 1875 673d 7c64 8d3c 828b 5dbd
00000380: 78fb 113d a0e0 96bc ceb2 35bd 109d 293c
00000390: c0bc 14bc f2a9 4f3d aedf 42bd 20ba 68bd
000003a0: 944e 14bd 345a d9bc c0d8 fdbc 64e3 73bd
000003b0: c2b9 4fbd 20a9 89bc c23a 22bd d80a 17bd
000003c0: b057 f6bb fcdd 4cbd b0ea 4dbc 50ec 1dbd
000003d0: dabb 6ebd 780e fdbc a033 85bc ae4d 53bd
000003e0: 949d 87bc f0ef ed3b 80c2 ee3c 5a8a 2dbd
000003f0: 2afa 4bbd 2c3e d6bc 80f6 bdbc f8d9 13bc
-0.041789055 0.05000478 0.0022388324 -0.0012188256 -0.05078332 -0.030435808 0.021001406 0.058163933
-0.037362672 0.0509549 -0.0061154887 0.031692006 0.041643016 -0.01850605 0.021934964 0.035104007
-0.06151051 -0.03277815 0.036030233 0.034833148 0.03357675 0.029715836 0.021346018 -0.019242413
0.05186127 0.02189517 -0.05645579 -0.03173949 -0.05192434 0.00010462105 0.012457058 0.0035605729
0.0605741 0.052404128 0.03119564 -0.025802016 0.035386026 -0.0524019 0.004968956 -0.012277484
0.008991115 -0.027397983 -0.040401697 0.05066189 0.05390852 -0.028238654 -0.059497498 -0.044000387
-0.04311596 0.009500191 0.038182102 -0.043479823 -0.0050172657 -0.048743553 0.014744803 0.040823556
-0.014373057 -0.037983783 -0.0041344166 -0.009877823 -0.034457788 -0.0031098202 0.039255522 0.057486407
-0.005715914 0.011727057 -0.014187433 0.010177389 -0.014988713 -0.0017931014 -0.0037250742 0.0070193782
-0.031326972 0.03728111 0.027183972 -0.026434645 0.006218478 -0.019102402 0.056508526 0.05333007
-0.04395 0.027586564 0.019850783 -0.052792557 0.04642748 -0.016865559 -0.008978091 0.037159175
-0.023280598 -0.020802796 -0.041240193 -0.04441274 0.05296705 0.019781105 -0.0032261238 -0.044898614
-0.011055969 -0.008734234 0.061983705 0.049037144 -0.049140655 0.05744247 -0.0006740913 0.017767183
0.0377869 -0.0010083616 -0.031443484 0.056945607 0.015437096 0.021175757 0.01195211 -0.04334628
-0.03975156 0.013539031 -0.017475463 0.019418411 -0.017223358 -0.007757351 0.048989356 -0.0033177137
-0.021292873 -0.022233345 0.04470191 0.039735645 0.04253354 0.023112252 -0.05673854 -0.0034302175
-0.03416633 0.05898208 -0.031869642 -0.003833957 0.003879726 0.0552077 -0.02455014 0.050393723
0.04377664 -0.047642633 -0.05276385 0.026686497 -0.014066316 -0.018754877 0.014361963 0.01612205
0.008231804 -0.061391644 0.03087233 0.0022831485 -0.029110275 0.0030121505 -0.038520463 0.059073426
-0.052388765 0.031124674 0.037900202 0.033978008 -0.034873575 -0.028302692 0.0331418 0.042902045
0.058689557 0.042652734 0.0022481605 0.024333179 -0.024209246 0.013389222 0.029846407 0.045550577
-0.023270011 0.05721342 0.0024976283 0.038684748 -0.036034346 0.0013257936 0.01927457 0.051387317
-0.016214073 0.030284397 -0.01136335 0.031875737 -0.040223658 -0.050368264 0.0011021942 0.002758339
-0.040804118 -0.046486355 -0.028053217 0.03744179 -0.038536742 -0.03653261 0.047477476 0.012804702
-0.008156925 -0.0232495 -0.0012398288 0.020954184 -0.035420686 -0.021604784 -0.047856666 0.0599128
0.042722993 -0.0010302886 -0.01619874 0.04050459 0.048660897 0.055208847 0.023695923 -0.009231463
-0.01617127 -0.016023397 0.04897861 -0.03023918 -0.04389473 -0.04206329 -0.054050587 -0.022191592
-0.04622201 -0.023097739 -0.053926915 -0.021406934 0.033506244 0.056508154 0.017259829 -0.054088123
0.03564021 -0.018417656 -0.044359975 0.010352388 -0.009078205 0.05069918 -0.0475766 -0.056818128
-0.03620775 -0.02653227 -0.030987144 -0.05954303 -0.05071426 -0.016804278 -0.039606817 -0.036875576
-0.0075177774 -0.05001639 -0.012568161 -0.038555443 -0.058284618 -0.030890688 -0.016259968 -0.051587753
-0.016554631 0.007261269 0.02914548 -0.04236827 -0.049799122 -0.026152693 -0.02318883 -0.009024136
