MAI2A_TreasureFinder/agent_2_model.pth (torch, 848959 bytes, 30 tensors)

env_model.conv1.weight f4 [32, 14, 3, 3]
-0.11800188 -0.06720958 -0.11822357 0.08743931 -0.03263429 -0.054071028 -0.13292453 -0.2050632
0.024675371 -0.18518808 -0.32784137 -0.33041865 -0.15137541 0.08199056 -0.065439805 -0.13787097
-0.04889342 -0.11160423 -0.044271387 -0.00014403113 -0.07094955 0.0035152796 -0.1003203 -0.084533356
-0.10527011 -0.11850152 -0.10852753 -0.6622878 -1.8567032 -0.07257561 -0.02166752 -0.16873308
-0.3679631 -0.49688458 -0.68812096 -0.61804056 -0.13380219 -0.047494184 0.414425 0.33854386
-0.18480179 -0.63964254 -0.5128944 -0.23530114 -0.35752738 0.48355094 -1.6991084 -1.208973
0.17538172 0.60899174 -0.21046735 -0.6914356 0.39347073 -1.1175736 0.025593521 -0.070170954
-0.0006909415 0.06527051 -0.01402184 0.04301876 0.018665446 -0.108372286 -0.020771345 -0.026704555
0.00016245471 -0.056208838 0.051014803 0.043540236 0.021037418 -0.0010939366 -0.05596261 -0.05777752
-0.056129318 0.051414326 -0.011085616 0.05643498 -0.016171042 0.004885627 0.02124487 -0.05641368
-0.017323503 0.042059302 -0.030743955 -0.035667304 0.02695873 0.04290833 0.069693096 -0.053383015
0.0031796573 -0.0812322 -0.1418833 -0.16146187 0.18563029 -0.35241336 -0.3532377 -0.063135326
-0.2061658 -0.36743212 -0.15678927 -0.06724176 -0.12040525 0.069798104 -0.16561826 -0.19742338
-0.08445705 -0.39962232 -0.37603524 -0.31833676 -0.017783083 -0.17571577 0.093413204 -0.13020805
-0.20238641 -0.030230513 -0.18453951 -0.3951194 -0.19031441 -0.14625257 -0.13553101 0.18166164
-0.2785974 -0.19321376 -0.056088563 -0.44189444 -0.4366852 -0.1263128 -0.08824619 -0.019209715
-0.026051061 0.015682887 -0.0091896085 0.013610894 0.01407417 0.021921583 0.09394191 -0.04707725
0.08741101 -0.052534547 -0.1507741 0.046299487 -0.042490333 -0.14572124 0.05758846 -0.024412923
-0.002817196 -0.05824937 0.04531876 -0.07025296 0.014434907 -0.028043203 -0.11441212 -0.016979668
-0.0574847 -0.62681776 0.64136916 1.3989067 -1.9384633 0.7473959 0.6008508 0.4020688
-3.4271085 -1.9236462 0.03301904 -0.12167052 -0.4913617 0.32513866 -0.44180268 -0.5847262
0.20743793 -0.46912545 -0.96208143 0.5960755 0.49072158 0.7795462 -1.3912241 -0.38041908
0.18006973 -1.1430949 0.40604073 -1.349096 -0.11249463 0.034891143 -0.058414936 0.008414916
-0.07342218 0.019536164 0.020207267 -0.005972347 -0.00047027395 -0.040965732 -0.06428075 -0.04515153
0.075225964 -0.04098792 0.050536517 -0.018701883 -0.05748852 0.0135712745 -0.020183029 -0.053594016
-0.0014002976 -0.017416295 -0.027270216 -0.024050469 0.031721573 -0.02437294 0.031614702 -0.043198384
-0.032090887 -0.068889 -0.03073974 0.013825278 -0.017584173 0.01970382 -0.015917528 0.032482296
-0.21417548 -0.05132773 0.07774139 -0.41313085 -0.104879916 0.09184933 -0.12917475 0.16732074
0.38362372 -0.2992921 -0.05907323 0.051989526 -0.3657967 -0.16123055 -0.014206037 -0.045089856
0.25350538 0.4421244 -0.27023548 -0.05283481 0.02116259 -0.36444822 -0.08927978 0.005580773
-0.018038593 0.1335016 0.48483455 -0.2725961 0.00711426 -0.03289208 -0.3876846 -0.07814273
0.10772156 0.19744776 0.14353068 0.30912685 0.00067259616 0.003411331 0.0059324056 0.0034407228
00000000: f8aa f1bd 2da5 89bd 331f f2bd 6213 b33d
00000010: 89ab 05bd 9579 5dbd 5e1d 08be 16fc 51be
00000020: 0124 ca3c f2a1 3dbe d3da a7be a22c a9be
00000030: 2802 1bbe abea a73d 4e05 86bd 0c2e 0dbe
00000040: 7744 48bd c290 e4bd ea55 35bd 1007 17b9
00000050: ff4d 91bd 9b60 663b bb74 cdbd d31f adbd
00000060: db97 d7bd edb0 f2bd af43 debd b18b 29bf
00000070: 73a8 edbf 85a2 94bd 1580 b1bc 5dc8 2cbe
00000080: a965 bcbe a867 febe b228 30bf e837 1ebf
00000090: 7103 09be 4389 42bd 832f d43e 9f55 ad3e
000000a0: ae3c 3dbe 9dbf 23bf 0c4d 03bf c8f2 70be
000000b0: d40d b7be fd93 f73e 627c d9bf a1bf 9abf
000000c0: 4497 333e e2e6 1b3f c184 57be ec01 31bf
000000d0: ff74 c93e a70c 8fbf 81a9 d13c cab5 8fbd
000000e0: 4d20 35ba 8cac 853d dcbb 65bc 7034 303d
000000f0: 47e8 983c 4af2 ddbd ab28 aabc 83c3 dabc
00000100: 9b58 2a39 3d3b 66bd e6f4 503d 3f57 323d
00000110: aa56 ac3c 6c62 8fba 0d39 65bd 1fa8 6cbd
00000120: dbe7 65bd d497 523d 72a0 35bc 5e28 673d
00000130: 2279 84bc 9c17 a03b b909 ae3c 0812 67bd
00000140: 05ea 8dbc 6046 2c3d bfda fbbc e117 12bd
00000150: 8ed8 dc3c a5c0 2f3d 41bb 8e3d 26a8 5abd
00000160: cc61 503b 115d a6bd db49 11be 4356 25be
00000170: de15 3e3e 866f b4be 92db b4be 184d 81bd
00000180: 211d 53be 1020 bcbe 5e8d 20be 0cb6 89bd
00000190: 0797 f6bd 4ff2 8e3d d597 29be 5b29 4abe
000001a0: d1f7 acbd 4c9b ccbe b187 c0be 09fd a2be
000001b0: d4ad 91bc d6ee 33be 6c4f bf3d 4255 05be
000001c0: 623e 4fbe fba5 f7bc edf7 3cbe 174d cabe
000001d0: c8e1 42be 3cc3 15be a4c8 0abe 8205 3a3e
000001e0: 52a4 8ebe d4d9 45be 1fbd 65bd fd3f e2be
000001f0: 3495 dfbe 2558 01be 6bba b4bd b15d 9dbc
00000200: 0969 d5bc 6679 803c 0390 16bc 3a00 5f3c
00000210: 5997 663c e494 b33c 9e64 c03d 13d4 40bd
00000220: 8b04 b33d 772e 57bd 8764 1abe 88a4 3d3d
00000230: 580a 2ebd f337 15be e1e1 6b3d 9cfd c7bc
00000240: b5a0 38bb e496 6ebd 2aa0 393d c9e0 8fbd
00000250: 6380 6c3c dcba e5bc e750 eabd f218 8bbc
00000260: 1475 6bbd 2177 20bf c530 243f 600f b33f
00000270: 911f f8bf 5655 3f3f 5cd1 193f f6db cd3e
00000280: bf55 5bc0 0a3a f6bf f93e 073d 652e f9bd
00000290: c393 fbbe 9378 a63e f633 e2be 9eb0 15bf
000002a0: 9c6a 543e 3631 f0be f84a 76bf 6798 183f
000002b0: dc3f fb3e 5790 473f a213 b2bf 4ac6 c2be
000002c0: 3364 383e ef50 92bf 92e4 cf3e 2daf acbf
000002d0: 9663 e6bd 04ea 0e3d 8044 6fbd b7de 093c
000002e0: 5e5e 96bd 4e0a a03c b689 a53c aeb3 c3bb
000002f0: 1a8f f6b9 afcb 27bd a0a5 83bd d0f0 38bd
00000300: 1210 9a3d f3e2 27bd 61ff 4e3d b134 99bc
00000310: 1579 6bbd 0d5a 5e3c e156 a5bc 6685 5bbd
00000320: 318a b7ba 9eac 8ebc ca65 dfbc 7d05 c5bc
00000330: 7bee 013d c3a9 c7bc 6b7e 013d caf0 30bd
00000340: bc71 03bd ad15 8dbd e8d1 fbbc 6b83 623c
00000350: af0c 90bc e869 a13c 7a65 82bc 280c 053d
00000360: d150 5bbe 073d 52bd e136 9f3d e385 d3be
00000370: 48cb d6bd 801b bc3d 6346 04be 2156 2b3e
00000380: 546a c43e d03c 99be c5f6 71bd f8f2 543d
00000390: b449 bbbe 9f19 25be 70c0 68bc 24b0 38bd
000003a0: 75cb 813e 215e e23e 4e5c 8abe 5069 58bd
000003b0: 2b5d ad3c f598 babe 51d8 b6bd ebde b63b
000003c0: acc5 93bc a5b4 083e 3c3c f83e b791 8bbe
000003d0: bd1e e93b d8b9 06bd 997e c6be 4c09 a0bd
000003e0: 1f9d dc3d bf2f 4a3e b5f9 123e e045 9e3e
000003f0: 2a51 303a a390 5f3b a064 c23b c07d 613b

env_model.conv1.bias f4 [32]
-0.5745078 -0.27300256 -0.26124433 -0.15995795 -0.27303666 -0.1261401 -0.13947412 -0.07130548
-0.269682 -0.66589975 -0.4246381 -0.14194655 -0.12704125 -0.37946716 -0.7319397 -0.46198007
0.3613638 -0.03834795 0.55939555 -0.056336373 -0.26717192 -0.13489543 -0.6185925 -0.24124402
-0.02980592 -0.02033856 -0.036245827 0.221606 -0.02018005 -0.10034091 0.06323552 -0.9601111
00000000: f112 13bf fec6 8bbe d1c1 85be 04cc 23be
00000010: 76cb 8bbe df2a 01be 4ed2 0ebe 9c08 92bd
00000020: c213 8abe 6878 2abf 2a6a d9be 705a 11be
00000030: 1a17 02be 8549 c2be 6660 3bbf a788 ecbe
00000040: ad04 b93e bd12 1dbd 8c34 0f3f f8c0 66bd
00000050: c2ca 88be 0722 0abe 145c 1ebf ac08 77be
00000060: 8b2b f4bc 0d9d a6bc 8176 14bd afec 623e
00000070: a250 a5bc 897f cdbd a081 813d d7c9 75bf

env_model.conv2_state1.weight f4 [3, 32, 3, 3]
-0.0030862459 -0.0102325715 -0.00745199 -0.004795714 0.0068210056 -0.002407964 -0.0006407813 0.01092718
-0.0052292286 -0.014231013 0.001336138 0.013140315 -0.00034032666 0.0039274003 -0.0059883962 0.0063153943
-0.010260918 -0.0005294888 -0.0038941272 -0.0011385051 0.0007839988 -0.00084699964 -0.00046479658 7.3001414e-05
-0.0005687028 -0.0013953777 -0.00018815196 -0.001273099 -0.00066315394 0.0057859793 -0.0048524197 -0.0011905357
0.0029062538 0.00409685 -0.0010531237 0.011396141 0.00047509556 -0.010149374 0.016694363 -0.00904683
0.004763181 -0.0011558973 0.0019904398 -0.004683687 0.0067714 -0.00089494063 -0.007171431 0.010224553
0.002177036 0.0044259443 -0.007911243 0.0029941946 0.0025144552 -0.003584959 -6.789699e-05 0.008086628
-0.0058543924 -0.00028221912 0.00036418927 0.0014346496 -0.001959242 0.002016396 0.0037003441 -0.007920053
-0.0016468229 0.00042092576 -0.0026251008 0.0019845883 0.0046611354 0.015668413 0.000656251 0.0017704938
-0.0027559137 0.0052870014 -0.0029599906 0.0008311377 -0.004770206 -0.0023674187 0.0001581944 -0.004392464
0.00028930232 -0.0015806033 0.011417603 -0.019900933 -0.0051090815 -0.0024061257 0.01093077 -0.001940111
0.0004881575 0.0015367364 -0.0025408198 -0.009777569 0.009369371 0.0015042182 0.004094024 -0.0014153421
0.003804624 -0.0011165736 0.008515217 0.0017710802 0.022635153 0.012764832 1.2132282e-05 0.004912717
-0.012691598 0.00039045146 0.00094381144 0.0027282885 -0.0005207142 0.009397631 -0.009407108 0.0012297361
0.0076147937 -0.0055115568 -0.010373982 0.009715862 0.015549972 -0.017555473 -0.0018048765 0.01325505
-0.017996838 -0.007933634 0.010506058 0.018098596 -0.003561054 -0.0008240844 -0.0046205 -0.0031324457
0.0016320782 -0.0022664214 0.000923089 0.0040214253 0.00056272146 0.005508673 -0.005508156 0.011922871
-0.0011758893 0.012298282 -0.0117708435 -0.002262512 0.0036895245 0.00047966168 0.017185904 -0.01982477
0.0018883491 -0.0033678224 0.008381915 -0.0014244653 0.0018742116 0.004248707 -0.0041071577 -0.00062033045
-0.025137184 0.006161346 -0.003567941 0.0031947095 -0.003623568 0.00648762 -0.0039525013 -0.0077371406
-0.0030957132 -0.0077716657 0.036410514 -0.0106515605 0.0042393166 -0.012314755 0.0020269414 -0.02724453
0.007948839 2.0022679e-05 -0.043034296 -0.0039177183 0.0006878973 0.009405981 -0.0016046813 0.0031261214
0.00138902 0.0039889487 0.0032186566 -0.0034735238 0.0017675972 0.0036550034 0.0066760276 0.00040629925
-0.0056221415 -0.009208922 -0.0014067513 0.007866911 0.004325522 -0.0006273093 0.0061218566 -0.008543811
0.00022981431 0.00022983308 0.00022974625 0.01494503 -0.0028506618 -0.00036171058 -0.013898199 0.007869602
0.0071497294 0.00670029 -0.0023614606 0.017754873 0.004539015 -0.0127206305 0.00016250473 -0.032727495
-0.00037266526 0.036947425 -0.054818336 0.00024553694 0.00010610421 -0.0016555386 0.0006322373 -0.00033323537
0.0049180454 -0.004422041 0.0050156633 0.0043204357 -0.003244303 0.005969342 -0.021837978 -0.012918506
-0.021162648 0.008035003 -0.011759922 0.0052638375 0.01390915 -0.010557642 0.008167196 0.017054638
0.004945174 -0.007919154 -0.005753145 0.022289637 -0.009924337 0.002292506 -0.0037137775 0.009565056
-0.00095490535 -0.0030141787 -0.006103316 0.0023828675 0.0030257246 -0.0022516465 -0.00038988725 -0.0037565813
0.0011522387 -0.036505416 0.0018514226 0.0003696098 0.0055458876 0.0050177863 -0.007424393 0.0071947128
00000000: 9d42 4abb 84a6 27bc d32f f4bb 5d25 9dbb
00000010: be82 df3b efce 1dbb 1bfa 27ba ea07 333c
00000020: f359 abbb 3229 69bc 5a21 af3a 7a4a 573c
00000030: df6d b2b9 6cb1 803b 4f3a c4bb 5ef1 ce3b
00000040: 691d 28bc 64cd 0aba 9d34 7fbb e439 95ba
00000050: 4585 4d3a 2f09 5eba f1af f3b9 5618 9938
00000060: 0015 15ba 1be5 b6ba a84a 45b9 1dde a6ba
00000070: 82d7 2dba 5098 bd3b 0c01 9fbb c00b 9cba
00000080: d976 3e3b de3e 863b f808 8aba e1b6 3a3c
00000090: 3f16 f939 8f49 26bc 9ec2 883c 2839 14bc
000000a0: 7514 9c3b 7a81 97ba 0a72 023b 9d79 99bb
000000b0: 9fe2 dd3b 739a 6aba 53fe eabb e284 273c
000000c0: 9aac 0e3b 8307 913b 289e 01bc 403a 443b
000000d0: 8fc9 243b a2f1 6abb eb63 8eb8 c77d 043c
000000e0: 34d6 bfbb cff6 93b9 a8f0 be39 da0a bc3a
000000f0: a066 00bb 8325 043b 7981 723b 1cc3 01bc
00000100: 35da d7ba b3af dc39 e209 2cbb de0f 023b
00000110: 70bc 983b 0b5b 803c 4208 2c3a ea0f e83a
00000120: 8f9c 34bb 953e ad3b 67fc 41bb b5e0 593a
00000130: 634f 9cbb b226 1bbb fce0 2539 a9ee 8fbb
00000140: 80ad 9739 3f2c cfba e610 3b3c 4807 a3bc
00000150: 156a a7bb 17b0 1dbb f916 333c 534b feba
00000160: 64ef ff39 516c c93a e283 26bb 1932 20bc
00000170: fe81 193c 3029 c53a 2a27 863b 0083 b9ba
00000180: 0057 793b fe59 92ba 6983 0b3c 9723 e83a
00000190: 5b6d b93c 9623 513c c18b 4b37 dbfa a03b
000001a0: 6cf0 4fbc 82b5 cc39 1d6a 773a 16cd 323b
000001b0: 8a80 08ba 85f8 193c 4520 1abc 192f a13a
000001c0: 8585 f93b 4a9a b4bb a2f7 29bc 472f 1f3c
000001d0: 4fc5 7e3c 7fd0 8fbc 9b91 ecba b62b 593c
000001e0: 1b6e 93bc 13fc 01bc 9a21 2c3c 8243 943c
000001f0: 9260 69bb 5e07 58ba 9067 97bb b849 4dbb
00000200: 75eb d53a 3e88 14bb 74fb 713a 29c6 833b
00000210: 9983 133a 1982 b43b c37d b4bb 2558 433c
00000220: 4c20 9aba bc7e 493c 7fda 40bc a746 14bb
00000230: f3cb 713b 1a7b fb39 74c9 8c3c 8e67 a2bc
00000240: 7b82 f73a afb6 5cbb 4d54 093c 20b5 baba
00000250: 1ba8 f53a bd38 8b3b 5695 86bb ac9d 22ba
00000260: 7fec cdbc 1ee5 c93b 1ed4 69bb 555e 513b
00000270: 6279 6dbb 1a96 d43b fc83 81bb d787 fdbb
00000280: 73e1 4abb 75a9 febb 3123 153d e283 2ebc
00000290: f7e9 8a3b d3c3 49bc 6fd6 043b ec2f dfbc
000002a0: d93b 023c 60f6 a737 bb44 30bd 3460 80bb
000002b0: 0254 343a 8b1b 1a3c 2b54 d2ba 9ddf 4c3b
000002c0: c70f b63a bab5 823b 19f0 523b 0fa4 63bb
000002d0: b8ae e73a c888 6f3b 94c2 da3b 9004 d539
000002e0: f139 b8bb 05e1 16bc be62 b8ba 37e4 003c
000002f0: 1cbd 8d3b 0472 24ba db99 c83b 57fb 0bbc
00000300: 4ffa 7039 59ff 7039 0ae8 7039 00dc 743c
00000310: 2bd2 3abb f9a3 bdb9 46b5 63bc 81ef 003c
00000320: 4748 ea3b 1b8e db3b bcc2 1abb ab72 913c
00000330: 04bc 943b 316a 50bc 0866 2a39 440d 06bd
00000340: 4962 c3b9 2f56 173d 3189 60bd 69bb 8039
00000350: 4484 de38 a8fe d8ba babc 253a 18b6 aeb9
00000360: 8e27 a13b c5e6 90bb 6f5a a43b 7192 8d3b
00000370: 5f9e 54bb 789a c33b 8fe5 b2bc 24a8 53bc
00000380: 4a5d adbc 3fa5 033c b0ac 40bc 457c ac3b
00000390: 34e3 633c f6f9 2cbc b4cf 053c 2bb6 8b3c
000003a0: 200b a23b 57bf 01bc e184 bcbb c298 b63c
000003b0: b099 22bc de3d 163b d962 73bb c1b6 1c3c
000003c0: 9d52 7aba 8789 45bb 53fe c7bb e229 1c3b
000003d0: 3c4b 463b 5c90 13bb c869 ccb9 fa30 76bb
000003e0: b706 973a b486 15bd 6fab f23a 30c8 c139
000003f0: 47ba b53b 3e6c a43b 5348 f3bb a0c1 eb3b

env_model.conv2_state1.bias f4 [3]
-0.000103470986 0.0020701985 -0.00031821008
00000000: 90fe d8b8 2bac 073b 6fd5 a6b9

env_model.conv2_state2.weight f4 [3, 32, 3, 3]
0.97024834 0.17295584 -0.34868506 -0.09459875 0.18052426 -0.14687744 -0.5177697 0.08639405
1.9178779 1.0112208 -0.34096435 -0.11175211 0.67166036 -0.88446784 0.94680464 0.52399194
1.1117185 -0.12429435 0.5057372 -0.067395814 -0.31861958 -0.25872377 0.47245163 -0.095085956
0.2566873 -0.009123292 1.1685337 0.5883663 0.46683645 0.14153174 0.0029154324 -0.008481682
4.341238 0.02503628 -0.00999455 -0.004322078 1.5158949 1.5992532 -0.7101003 -0.40873453
0.36850485 1.2237824 -0.03897341 -0.6476 1.0083334 0.012926783 -0.07437154 0.025409672
0.0008950201 0.08593386 -0.0068859486 0.03368273 -0.027256785 0.047628693 -0.0028396894 0.02175089
-0.036916923 0.013944193 -0.011081467 0.0032756748 0.0181768 -0.010867353 -0.021661876 0.0046418877
0.039230425 0.03528728 0.038159378 -0.06481699 -0.009147991 0.08113321 0.09611704 -0.0082389265
0.08540626 -0.44340634 -0.13728087 0.6537437 -0.72711664 0.39262584 0.68006253 -1.1930801
0.29559827 -0.06055445 -0.08016868 -0.4993587 0.8512493 0.5341603 0.37737292 1.2239625
-0.48909998 0.29861844 1.8134818 0.73267347 -0.3920085 -0.2604791 0.7210946 -1.0507364
0.044924553 1.1838148 1.6053176 0.0619104 -0.11529872 0.104024865 5.9595423 0.5402898
1.2688128 -0.0064789825 0.017225495 0.2305626 0.8087408 0.76305103 -0.3894629 0.6628937
-1.0357183 -0.9066501 -1.900003 1.66379 3.3857071 -0.76723206 -0.3750589 -0.21899605
0.46627092 -0.028016716 -0.1775793 -0.23824966 1.0715404 -1.0580171 -0.6993525 -0.25467703
-2.2002559 0.75351954 0.8007129 -0.7416328 -0.1755937 0.113805294 -0.9068938 -0.49816865
-0.114347346 0.26141182 -0.66687185 1.9250375 0.16714785 -0.16410182 -0.29044524 1.3159835
0.38181317 -0.15617336 -0.039069317 -0.6768468 1.3494676 -0.2768862 0.29102153 0.7316369
1.0286963 -0.016563127 0.07784137 -0.069781885 0.013568499 -0.18781208 0.058452126 0.019003363
-0.024982328 -0.1091161 0.11095012 -0.05929211 0.6458403 -0.26952654 0.13561739 0.83042693
0.026881948 0.20192632 0.059602056 -0.050578833 0.14150809 0.09846584 -0.0074475473 -0.027938
0.06257994 0.007715103 -0.021763187 -0.030980652 1.472351 1.270903 1.900787 0.053527772
1.3259851 1.0197761 -0.26053798 -2.0818079 1.3766332 0.018942198 0.033928033 11.262533
0.10051482 0.014771895 0.0783088 0.019366562 0.01644942 0.3470922 1.8914006 -0.20594077
-2.2395234 1.3082072 0.24637 0.033306126 0.3930612 -0.22224575 1.4606831 -0.03826038
0.0073545408 0.067179255 -0.086239494 4.7510705 1.6627079 0.0012331997 -0.0154375015 -0.0037513617
0.03883567 -0.039661292 1.1356208 -0.0013607519 0.047925826 0.05307 0.005301749 -0.03322469
0.004492512 0.6773463 -0.59447694 0.15581797 0.812427 -0.70131457 -0.25280562 0.3054067
-0.07274892 0.38354164 0.0024313347 -0.012995484 -0.008926398 0.019714966 0.0061472068 -0.0057911887
0.002823224 0.039858192 0.0122243175 0.56934154 0.19625187 4.8635983 0.11902995 -0.025396269
-0.13409984 0.37312695 -0.5239517 0.8007661 0.02574668 0.022783266 0.21005253 0.23321927
00000000: 3262 783f 561b 313e d986 b2be fdbc c1bd
00000010: 5adb 383e 0a67 16be 8e8c 04bf 5def b03d
00000020: 067d f53f af6f 813f e192 aebe 4ade e4bd
00000030: eff1 2b3f 7c6c 62bf ca61 723f 5624 063f
00000040: cb4c 8e3f 098e febd fe77 013f d106 8abd
00000050: 1b22 a3be 7177 84be 2ee5 f13e 6dbc c2bd
00000060: 856c 833e dc79 15bc 8392 953f 2d9f 163f
00000070: 3005 ef3e b2ed 103e d710 3f3b c1f6 0abc
00000080: 6ceb 8a40 e218 cd3c 2ec0 23bc 38a0 8dbb
00000090: d808 c23f 54b4 cc3f 22c9 35bf a745 d1be
000000a0: abac bc3e e7a4 9c3f 95a2 1fbd 1dc9 25bf
000000b0: 1211 813f dcca 533c 1b50 98bd f227 d03c
000000c0: c89f 6a3a 17fe af3d 86a3 e1bb e7f6 093d
000000d0: 9f49 dfbc 4e16 433d 151a 3abb ec2e b23c
000000e0: 3336 17bd 2f76 643c 0b8f 35bc b4ac 563b
000000f0: 83e7 943c fb0c 32bc 3f74 b1bc fa1a 983b
00000100: 15b0 203d 6589 103d 024d 1c3d c5be 84bd
00000110: 75e1 15bc 2b29 a63d 03d9 c43d 90fc 06bc
00000120: 7ae9 ae3d 2806 e3be 5b93 0cbe bf5b 273f
00000130: 5124 3abf 4106 c93e 9418 2e3f d9b6 98bf
00000140: a858 973e f107 78bd 7a2f a4bd f2ab ffbe
00000150: 79eb 593f bbbe 083f 0637 c13e ceaa 9c3f
00000160: 506b fabe 84e4 983e 2c20 e83f 7d90 3b3f
00000170: 57b5 c8be 845d 85be a899 383f 887e 86bf
00000180: cf02 383d 3e87 973f 0c7b cd3f c295 7d3d
00000190: bc21 ecbd fd0a d53d 92b4 be40 6f50 0a3f
000001a0: 7568 a23f a54d d4bb 7b1c 8d3c 9a18 6c3e
000001b0: a309 4f3f 5057 433f ae67 c7be 67b3 293f
000001c0: 6b92 84bf 391a 68bf 4c33 f3bf 12f7 d43f
000001d0: 6daf 5840 5269 44bf b807 c0be 8040 60be
000001e0: 10bb ee3e 5083 e5bc 59d7 35be b8f7 73be
000001f0: 3c28 893f 1b6d 87bf c408 33bf 0765 82be
00000200: fed0 0cc0 a8e6 403f 85fb 4c3f a6db 3dbf
00000210: d6ce 33be c012 e93d 312a 68bf f60f ffbe
00000220: f12e eabd c5d7 853e 1db8 2abf a167 f63f
00000230: ce28 2b3e 4f0a 28be 3db5 94be 2672 a83f
00000240: 047d c33e e9eb 1fbe 2607 20bd d545 2dbf
00000250: 5bbb ac3f 07c4 8dbe c600 953e 8e4c 3b3f
00000260: 52ac 833f 65af 87bc 4c6b 9f3d cee9 8ebd
00000270: 694e 5e3c cf51 40be 7f6b 6f3d f1ac 9b3c
00000280: bda7 ccbc 4378 dfbd d139 e33d 49dc 72bd
00000290: ca55 253f 62ff 89be 49df 0a3e dc96 543f
000002a0: 8837 dc3c c6c5 4e3e 4921 743d c02b 4fbd
000002b0: 7fe7 103e 75a8 c93d 8e0a f4bb 3cde e4bc
000002c0: e929 803d face fc3b b648 b2bc 23cb fdbc
000002d0: ff75 bc3f f3ac a23f fd4c f33f f03f 5b3d
000002e0: e1b9 a93f 0688 823f 3c65 85be 573c 05c0
000002f0: 8435 b03f ab2c 9b3c 1ff8 0a3d 5633 3441
00000300: b7da cd3d d105 723c 5d60 a03d a0a6 9e3c
00000310: efc0 863c 12b6 b13e 6a19 f23f 23e2 52be
00000320: 5a54 0fc0 5573 a73f 6b48 7c3e 016c 083d
00000330: 513f c93e 6494 63be aaf7 ba3f ebb6 1cbd
00000340: 5cfe f03b 4795 893d 559e b0bd c508 9840
00000350: 9dd3 d43f 51a3 a13a 93ed 7cbc 68d9 75bb
00000360: 2712 1f3d e173 22bd 065c 913f 425b b2ba
00000370: df4d 443d ee5f 593d 4bba ad3b 9d16 08bd
00000380: ec35 933b 9166 2d3f a42f 18bf bf8e 1f3e
00000390: 37fb 4f3f 5a89 33bf bd6f 81be 445e 9c3e
000003a0: 63fd 94bd 925f c43e 0757 1f3b 03eb 54bc
000003b0: 0740 12bc 4881 a13c 826e c93b 03c4 bdbb
000003c0: d705 393b 5842 233d 8148 483c 5ec0 113f
000003d0: 40f6 483e 99a2 9b40 f9c5 f33d d60b d0bc
000003e0: 7851 09be 7f0a bf3e b321 06bf 02ff 4c3f
000003f0: b4ea d23c f9a3 ba3c 0318 573e 08d1 6e3e

env_model.conv2_state2.bias f4 [3]
0.48921946 -0.29060215 0.37416276
00000000: f97a fa3e cec9 94be 4392 bf3e

imagination.0.weight f4 [256, 3]
-0.0779475 0.3462305 -0.35087618 0.1265347 0.39968884 -0.35173878 0.55311394 0.15522093
0.027896106 0.45202923 0.54090166 -0.058705866 -0.2455174 -0.26008087 -0.20051062 -0.20548752
-0.3948349 0.52959204 -0.21078089 -0.43181342 -0.3881103 0.20830125 -0.47860527 -0.37043688
0.012863576 0.17692828 -0.19040683 0.44474983 -0.06968576 0.20112872 0.17155397 0.48965538
0.25923836 -0.2104285 0.5370059 0.053964972 -0.36182398 -0.35738853 0.4362465 0.4908415
-0.30387098 -0.012330174 0.1135211 0.47072434 -0.49833238 -0.5353959 -0.32746732 -0.41995692
-0.37180024 0.38513893 -0.13926905 0.5708288 0.089939654 0.22588694 0.2017746 0.36050248
0.38597095 0.28202987 -0.42748958 -0.36147922 -0.31544322 0.45429564 0.23673797 0.30386978
-0.2613348 -0.072532535 0.029297233 0.49340105 0.44971633 0.009253502 0.49031126 -0.35826984
0.2517805 -0.31495354 -0.23543859 -0.55705076 0.42728126 -0.4387056 -0.1824108 -0.44903898
0.34298575 -0.069656014 -0.24769822 0.28405076 0.20270419 0.30055058 -0.23141947 -0.2382234
0.45076036 0.33344817 -0.5325948 0.5281303 0.05106747 -0.040964782 -0.113349855 -0.5539096
-0.3291499 0.16070116 -0.14898404 0.4604888 0.035219967 -0.32671562 -0.5682447 -0.2360217
0.3736022 0.44375014 0.052306473 0.03674358 0.5510527 -0.54331976 -0.32200575 -0.13709244
0.048237324 0.05505675 0.32771987 -0.15768227 -0.19430089 -0.4392447 0.2754345 0.21036708
-0.121145576 -0.40570486 -0.5161277 -0.23120907 0.10972124 0.1913631 -0.015428007 0.24183291
-0.34083393 -0.4574823 0.2306447 0.44140744 -0.11866531 -0.42597878 -0.014333785 -0.18259305
0.006137848 0.06953758 0.27363086 0.55093837 -0.53143257 0.57616603 -0.18962201 -0.07662225
0.2934127 -0.39873815 0.24699295 0.33876044 0.52343166 0.54188216 0.039776742 0.44571328
0.17135501 -0.030237675 0.48123252 -0.3409148 -0.364443 0.18673378 -0.056054592 -0.44597328
-0.43521717 -0.028401673 0.07468629 -0.46263146 -0.2401762 -0.13630563 -0.5085725 0.2733165
-0.18931112 0.1609835 0.37894106 0.40488142 -0.24384695 0.17135185 -0.4102208 0.17022544
-0.47425598 -0.14086565 -0.27353483 -0.40718907 0.08193427 0.010751307 0.4362396 0.24122173
-0.387308 -0.030203342 0.5488485 0.3828901 -0.26576993 0.22534657 0.4129008 0.5600816
-0.32944793 0.4285934 -0.54788816 -0.47047675 0.36981148 0.12720561 -0.0051082373 -0.20254281
0.55249417 0.14515859 0.54170406 0.3408081 -0.388262 -0.45570308 -0.54022425 -0.382096
0.4906969 -0.26803008 -0.41466457 0.5534166 0.46897995 0.26927334 0.32058018 0.5225184
-0.11116147 0.1767767 -0.48672956 -0.43764156 0.30284107 -0.3960514 -0.47186628 -0.43030152
-0.18644103 0.3614592 -0.24329653 -0.09279862 0.33703446 0.23082256 0.15132976 0.041068792
-0.47020626 0.2899124 0.030673563 0.494892 -0.18868288 0.21207213 -0.041759014 -0.11103344
-0.3077687 0.044805825 -0.35436743 0.22050136 0.380745 0.32202488 0.44777668 0.04338491
0.47123086 0.53913844 0.0013194084 0.40469313 -0.5321751 -0.26392198 0.1338408 -0.29326394
00000000: f0a2 9fbd 2045 b13e 0ba6 b3be 5092 013e
00000010: 04a4 cc3e 1b17 b4be e098 0d3f 3cf2 1e3e
00000020: 6086 e43c 6070 e73e 8878 0a3f 9075 70bd
00000030: ea68 7bbe 5229 85be a852 4dbe 526b 52be
00000040: cd27 cabe 5893 073f f2d6 57be a616 ddbe
00000050: 65b6 c6be ec4c 553e c00b f5be e7a9 bdbe
00000060: c0c1 523c b02c 353e 02fa 42be 40b6 e33e
00000070: 68b7 8ebd b0f4 4d3e d8ab 2f3e 1cb4 fa3e
00000080: e4ba 843e 927a 57be 3879 093f 600a 5d3d
00000090: fe40 b9be a1fb b6be b45b df3e 944f fb3e
000000a0: fa94 9bbe 8004 4abc c07d e83d c802 f13e
000000b0: 6c25 ffbe b50f 09bf cca9 a7be 9804 d7be
000000c0: 9a5c bebe ee30 c53e 8c9c 0ebe d621 123f
000000d0: 4832 b83d e84e 673e 009e 4e3e c893 b83e
000000e0: fc9d c53e 3866 903e eadf dabe ce13 b9be
000000f0: c681 a1be 7099 e83e 706b 723e d294 9b3e
00000100: adcd 85be f08b 94bd c000 f03c 109f fc3e
00000110: 3841 e63e 009c 173c 140a fb3e 256f b7be
00000120: 60e9 803e 9741 a1be d016 71be e19a 0ebf
00000130: 9cc4 da3e 059e e0be e6c9 3abe 70e8 e5be
00000140: d49b af3e d0a7 8ebd 9aa4 7dbe 1a6f 913e
00000150: b091 4f3e c4e1 993e 3af9 6cbe d6f0 73be
00000160: 10ca e63e b8b9 aa3e 2258 08bf 8c33 073f
00000170: 202c 513d b0ca 27bd f823 e8bd 05cd 0dbf
00000180: 5686 a8be d88e 243e 468f 18be 30c5 eb3e
00000190: d042 103d 4547 a7be 7c78 11bf acaf 71be
000001a0: ca48 bf3e 3833 e33e 503f 563d 7080 163d
000001b0: ca11 0d3f 0117 0bbf f0dd a4be f661 0cbe
000001c0: 8094 453d 3083 613d e6ca a73e 7677 21be
000001d0: d0f6 46be aee4 e0be c005 8d3e 786a 573e
000001e0: 2c1b f8bd 8cb8 cfbe f220 04bf 12c2 6cbe
000001f0: 88b5 e03d b0f4 433e c0c5 7cbc 0ca3 773e
00000200: c981 aebe 1f3b eabe 202e 6c3e 2800 e23e
00000210: cc06 f3bd e419 dabe 40d8 6abc acf9 3abe
00000220: 0020 c93b b869 8e3d 5819 8c3e 4c0a 0d3f
00000230: f70b 08bf 9e7f 133f 462c 42be 20ec 9cbd
00000240: 303a 963e 6827 ccbe b8eb 7c3e 0272 ad3e
00000250: 9eff 053f cab8 0a3f f0ec 223d 8834 e43e
00000260: b077 2f3e 00b5 f7bc 1c64 f63e 628c aebe
00000270: 4698 babe 2437 3f3e 8099 65bd 9c56 e4be
00000280: c9d4 debe a0aa e8bc 20f5 983d 08de ecbe
00000290: c0f0 75be b493 0bbe cf31 02bf 24f0 8b3e
000002a0: c6da 41be dcd8 243e 9004 c23e 9e4c cf3e
000002b0: 04b3 79be dc76 2f3e 7608 d2be 944f 2e3e
000002c0: aed1 f2be 163f 10be c20c 8cbe 167b d0be
000002d0: 28cd a73d 4026 303c cc5a df3e d402 773e
000002e0: 3c4d c6be 006d f7bc 5681 0c3f 2c0a c43e
000002f0: ff12 88be 40c1 663e bc67 d33e 8261 0f3f
00000300: 66ad a8be 9870 db3e 6642 0cbf 54e2 f0be
00000310: ee57 bd3e 3042 023e 0063 a7bb 6267 4fbe
00000320: 4270 0d3f 74a4 143e 1ead 0a3f 667e ae3e
00000330: 47ca c6be ea51 e9be 234c 0abf 16a2 c3be
00000340: a03c fb3e 3d3b 89be ea4e d4be b6ac 0d3f
00000350: 241e f03e 32de 893e 1623 a43e c4c3 053f
00000360: a0a8 e3bd f404 353e 9e34 f9be 8e12 e0be
00000370: fc0d 9b3e 40c7 cabe 7598 f1be 7b50 dcbe
00000380: 66ea 3ebe 2e11 b93e ba22 79be 340d bebd
00000390: c88f ac3e c05c 6c3e 30f6 1a3e c037 283d
000003a0: e0be f0be 666f 943e 2047 fb3c 7c62 fd3e
000003b0: 1636 41be 7029 593e 800b 2bbd 8065 e3bd
000003c0: dc93 9dbe 5086 373d a66f b5be 1ccb 613e
000003d0: 02f1 c23e 72e0 a43e fc42 e53e 60b4 313d
000003e0: 2c45 f13e fa04 0a3f 00f0 ac3a f033 cf3e
000003f0: a13c 08bf c820 87be 900d 093e b126 96be

imagination.0.bias f4 [256]
0.53503513 -0.027271688 0.42957902 0.46013474 -0.378232 -0.45896968 0.51928794 -0.032384872
-0.08629447 -0.31355706 -0.35505968 -0.20046532 -0.33595854 -0.061924994 -0.24542159 -0.45510527
-0.2615232 -0.22980335 0.25237507 -0.4400012 0.15622139 -0.42175415 -0.5288447 0.48367965
0.41625404 -0.4319709 0.088008165 -0.27497205 -0.5101577 0.42208815 -0.30039096 -0.48761857
0.5648048 0.1899252 0.29743963 0.012234032 -0.15121418 0.54052305 -0.089607716 0.53666735
-0.29855406 -0.5668584 0.13878685 -0.3642871 0.12637746 0.49627018 -0.4943021 0.0921554
0.0040480494 0.15348732 -0.16750994 0.15737146 0.5057775 -0.22486025 0.52060664 -0.5424396
-0.4761003 0.16308951 -0.0001949668 0.4679631 0.5417714 -0.42525345 0.03338152 -0.48640147
0.4912231 -0.40826398 -0.2331478 -0.32819325 0.22263008 -0.29775405 -0.19439775 -0.54019386
-0.39127883 -0.023950815 -0.4998513 -0.34980884 -0.48762292 0.5383389 0.37114924 -0.568957
0.4402324 -0.50103885 -0.18412724 0.53876376 0.072916806 -0.07404554 0.259058 0.23338819
0.4421482 0.172647 0.20630372 0.4064541 0.38980484 0.07908028 -0.28265992 -0.2568655
0.063910365 -0.4645738 -0.09955329 0.556177 0.47371817 -0.3124502 0.23921931 0.25998312
-0.10830128 0.5510353 -0.30574125 -0.01660508 -0.21746185 -0.11487955 -0.50445336 0.493626
-0.24831977 -0.31805605 -0.39168835 0.008900464 -0.18698269 -0.36436373 0.15927196 0.16131169
0.5277277 0.4490708 0.57710254 0.21467704 -0.13580975 -0.0723061 -0.12470108 -0.15994161
-0.015140951 -0.41685313 -0.45183784 0.4579301 0.00641495 -0.22339112 -0.21380171 0.2483561
0.412938 0.4218868 0.048446417 0.5222151 0.06282091 -0.30559877 0.45865464 0.47871137
-0.55003047 0.40037352 -0.3370273 0.14048499 0.5532427 -0.41143948 -0.12603295 0.1375261
0.3335914 0.3962772 -0.3527741 -0.33213794 -0.07139814 -0.42743742 -0.018716395 -0.34496042
0.1604476 0.020426393 -0.5478202 0.26470762 -0.28447706 0.2960149 0.5561639 -0.18871638
-0.50654775 -0.25717852 0.18389666 -0.49753323 0.3743956 -0.4473452 0.29430962 0.35090834
0.19973022 0.048619628 -0.24733192 -0.22559687 -0.15843838 -0.310524 -0.425277 0.3193013
0.40769267 -0.10473096 0.13531232 -0.41865337 0.41398215 0.031216323 0.016789854 -0.12551558
0.36331636 0.115608096 -0.05474049 0.10320622 -0.016083777 0.52313614 0.24269938 -0.5502485
-0.036281526 0.30502743 -0.4981277 -0.54525596 0.14153832 -0.48589456 0.114762664 0.1438492
0.527164 0.17170888 0.1124115 0.23648041 0.25263536 0.4149034 0.39369988 -0.4954662
0.1708144 0.17883861 0.5752677 0.023269355 0.18850255 0.14631969 -0.32475883 0.26829278
-0.35206398 -0.42685997 -0.41420102 0.5271424 -0.23272294 -0.1508269 -0.022027731 -0.064887345
-0.39325655 -0.54344565 -0.514266 0.3944459 -0.068382084 -0.36710048 -0.023509264 0.14022732
-0.52250504 -0.46917287 0.085167944 -0.168511 -0.3209063 0.38182682 0.3675266 0.53446233
0.49479985 0.25326115 -0.16510394 0.31664073 0.11426103 0.48448133 -0.21906322 -0.51586705
00000000: 10f8 083f e068 dfbc c8f1 db3e c896 eb3e
00000010: a0a7 c1be 13fe eabe 0ef0 043f 00a6 04bd
00000020: 28bb b0bd 8d8a a0be 62ca b5be c846 4dbe
00000030: c202 acbe 10a5 7dbd cc4f 7bbe 8f03 e9be
00000040: 5ee6 85be 9251 6bbe 4e37 813e d647 e1be
00000050: 80f8 1f3e 29f0 d7be 5e62 07bf dca4 f73e
00000060: 401f d53e 4a2b ddbe a03d b43d 23c9 8cbe
00000070: b299 02bf f01b d83e d8cc 99be 24a9 f9be
00000080: 0c97 103f c07b 423e 024a 983e 4071 483c
00000090: e4d7 1abe b85f 0a3f 4084 b7bd 0863 093f
000000a0: 14dc 98be a21d 11bf 241e 0e3e d783 babe
000000b0: 1869 013e 2017 fe3e 2a15 fdbe f8bb bc3d
000000c0: 80a5 843b c82b 1d3e ba87 2bbe fc25 213e
000000d0: a27a 013f c441 66be 7a46 053f 52dd 0abf
000000e0: 6bc3 f3be f000 273e 0070 4cb9 dc98 ef3e
000000f0: 88b1 0a3f d2ba d9be 10bb 083d 9d09 f9be
00000100: 9881 fb3e fa07 d1be 4cbe 6ebe f208 a8be
00000110: 24f9 633e 3873 98be 3410 47be 254a 0abf
00000120: b355 c8be 8034 c4bc 82ec ffbe 251a b3be
00000130: b6a9 f9be 94d0 093f 4607 be3e 2aa7 11bf
00000140: 2466 e13e 1544 00bf da8b 3cbe 6cec 093f
00000150: 6855 953d 30a5 97bd 40a3 843e 50fd 6e3e
00000160: 4061 e23e 60ca 303e 4841 533e c01a d03e
00000170: 8094 c73e d8f4 a13d cdb8 90be e083 83be
00000180: 70e3 823d 9edc edbe 98e2 cbbd 9e61 0e3f
00000190: 308b f23e 79f9 9fbe e8f5 743e 821c 853e
000001a0: 10cd ddbd a610 0d3f 1e8a 9cbe 6007 88bc
000001b0: 52ae 5ebe f845 ebbd db23 01bf 8cbc fc3e
000001c0: 8a47 7ebe 3ed8 a2be 608b c8be 40d3 113c
000001d0: 6478 3fbe e28d babe 3018 233e e42e 253e
000001e0: 2a19 073f 9cec e53e febc 133f 4cd4 5b3e
000001f0: b611 0bbe 3815 94bd 4863 ffbd bcc7 23be
00000200: c011 78bc c66d d5be 4a57 e7be d075 ea3e
00000210: 8034 d23b a4c0 64be d6ee 5abe 1051 7e3e
00000220: 9c6c d33e 8c01 d83e c06f 463d e4af 053f
00000230: 40a8 803d 7177 9cbe c8d4 ea3e a819 f53e
00000240: ccce 0cbf c2fd cc3e d88e acbe 4cdb 0f3e
00000250: 50a1 0d3f 32a8 d2be c80e 01be a4d3 0c3e
00000260: 7ecc aa3e d8e4 ca3e cf9e b4be fc0d aabe
00000270: 3039 92bd 14d9 dabe 2053 99bc a79e b0be
00000280: 604c 243e 4055 a73c f23d 0cbf c287 873e
00000290: faa6 91be 448f 973e c260 0e3f de3e 41be
000002a0: 1dad 01bf e7ac 83be 684f 3c3e adbc febe
000002b0: c8b0 bf3e 6e0a e5be c0af 963e 42aa b33e
000002c0: 1486 4c3e 6025 473d 9444 7dbe de02 67be
000002d0: ac3d 22be 00fd 9ebe e8bd d9be 767b a33e
000002e0: 18bd d03e 307d d6bd 508f 0a3e bc59 d6be
000002f0: 78f5 d33e 60b9 ff3c e08a 893c 2887 00be
00000300: 9a04 ba3e f0c3 ec3d 9037 60bd c85d d33d
00000310: 20c2 83bc 40ec 053f 3086 783e 16dd 0cbf
00000320: f09b 14bd 8e2c 9c3e 980a ffbe e595 0bbf
00000330: 6cef 103e 2cc7 f8be b008 eb3d 344d 133e
00000340: 38f4 063f 74d4 2f3e 0038 e63d ec27 723e
00000350: 6c59 813e 386e d43e 0893 c93e bfad fdbe
00000360: f8e9 2e3e 7821 373e be44 133f 609f be3c
00000370: d006 413e d4d4 153e ca46 a6be ac5d 893e
00000380: bb41 b4be 648d dabe 2812 d4be cef2 063f
00000390: ec4e 6ebe 5e72 1abe 8073 b4bc a8e3 84bd
000003a0: ec58 c9be 411f 0bbf f0a6 03bf d0f4 c93e
000003b0: e80b 8cbd 98f4 bbbe 8096 c0bc c097 0f3e
000003c0: e4c2 05bf 6d37 f0be 886c ae3d 268e 2cbe
000003d0: d54d a4be ce7e c33e 722c bc3e 86d2 083f
000003e0: 6856 fd3e 72ab 813e 0211 29be bc1e a23e
000003f0: b001 ea3d f00d f83e 1c52 60be dd0f 04bf

imagination.2.weight f4 [256, 256]
-0.053187855 -0.053896196 -0.0047511235 -0.022263788 -0.055050284 -0.005167544 0.016297981 0.020667426
0.03500347 -0.026134282 -0.024828158 -0.05404313 0.016500652 -0.018607952 0.020918213 -0.052261807
0.0032442063 -0.051961698 0.0158028 0.060353413 -0.0066569373 -0.023475967 0.030766293 0.039737955
-0.045631796 -0.029135019 0.025853641 -0.0022124127 0.0014843792 -0.05796863 -0.030857533 -0.011754356
-0.0528835 0.01077079 0.01732228 -0.020655736 0.02773755 0.04892786 -0.028507628 -0.017121024
0.03660383 0.032682635 -0.0026262403 0.030416429 -0.014189586 0.032797128 0.0038021803 0.020339094
-0.05253166 -0.018417247 -0.011622779 0.0028894916 0.026156627 0.0355312 0.003769435 -0.0036207438
0.060908206 -0.061135888 -0.04082744 0.050943643 -0.034642525 0.02121526 -0.010954596 -0.055060342
0.05831056 -0.038971134 0.046435863 -0.043380335 0.02772569 0.024888285 0.049990177 0.054432593
-0.011897251 0.02235628 -0.0034120902 -0.029660136 0.06093373 -0.03980092 -0.025252745 -0.040426508
-0.031828053 -0.061679788 -0.037854813 -0.036840253 -0.0097724125 -0.028623283 -0.0054264814 -0.055781417
-0.035132274 -0.020914398 -0.018552668 0.03484685 0.016451113 -0.0017156899 -0.057791866 0.031057768
0.0451611 -0.033228725 -0.0013446361 -0.01531671 -0.05015359 -0.062013425 -0.0074028596 0.0020793155
0.014371783 0.036966376 -0.03410717 0.043225095 -0.0023680925 0.018162057 -0.042136796 -0.032950208
0.053876325 0.0007548854 0.03388644 0.042596675 -0.039525457 -0.05031454 -0.033618547 0.05310101
-0.050156035 0.02352269 -0.03776773 0.021137878 0.009789355 -0.052544624 -0.03643325 0.041705087
0.047262177 -0.054795966 -0.037648402 -0.01097136 0.016725697 0.0025511682 -0.009698048 0.034214817
-0.009376548 -0.023111932 0.037634753 0.005937904 0.053807534 0.0028504804 0.011410572 -0.047348447
-0.016606838 -0.03058412 0.018794224 -0.03659361 -0.014616922 -0.014482342 -0.02200593 0.025397867
-0.02650921 0.057247892 -0.0010777041 0.013383724 0.01962933 0.0117100105 -0.046085507 -0.03504859
-0.052221984 0.01146552 0.036809213 0.008188777 -0.03816572 -0.01211004 0.05929236 0.038945153
-0.022836022 0.031826593 0.030847907 0.041366816 -0.018335678 0.049758144 0.046681747 -0.0057471767
0.04583671 -0.0055051 -0.043461353 -0.037609145 -0.06124281 -0.015124112 -0.056769118 -0.047670223
-0.03851071 -0.011063293 -0.015352644 -0.020185232 -0.0036196262 -0.021919936 -0.014741302 -0.039062075
0.016551077 -0.029586844 -0.038564257 0.039483145 -0.036600977 0.015867293 0.050894894 -0.009345479
-0.048183896 0.026665755 -0.012908615 -0.061391592 0.0354663 -0.057060614 -0.002437286 0.057751767
0.017739639 -0.025158033 0.031026535 0.032379538 0.043337926 -0.021713592 -0.053517282 -0.0015076101
-0.059747428 -0.015151665 -0.033600904 0.0564225 -0.05125194 0.039572448 0.027110077 0.05751653
0.04886379 -0.046792254 0.055595443 0.006939195 -0.0006345138 -0.016149163 0.037272334 -0.057142317
0.02154196 -0.055030696 0.030717783 -0.035559528 0.058084458 -0.0548307 -0.05680664 -0.062247083
0.061806254 0.026374169 -0.047293365 0.046329483 -0.061934575 -0.05750131 0.06183695 0.056632712
-0.05978375 0.010840878 0.01577843 0.013102934 -0.026082642 -0.0404422 -0.025335342 0.028029516
00000000: 82db 59bd 42c2 5cbd 50af 9bbb 8c62 b6bc
00000010: 687c 61bd 8054 a9bb 5883 853c bc4e a93c
00000020: cc5f 0f3d 9017 d6bc 6c64 cbbc 545c 5dbd
00000030: 602c 873c b46f 98bc ac5c ab3c 7a10 56bd
00000040: c09c 543b cad5 54bd e074 813c 2435 773d
00000050: 7022 dabb ac50 c0bc 9809 fc3c 44c4 223d
00000060: 68e8 3abd 90ac eebc 04cb d33c 20fe 10bb
00000070: 808f c23a 8470 6dbd f0c8 fcbc 5895 40bc
00000080: 5e9c 58bd f877 303c 74e7 8d3c 3836 a9bc
00000090: dc39 e33c 9468 483d d488 e9bc 6441 8cbc
000000a0: e6ed 153d 3ade 053d 001d 2cbb e02b f93c
000000b0: 707b 68bc 4856 063d 002e 793b 2c9e a63c
000000c0: 702b 57bd c4df 96bc 786d 3ebc a05d 3d3b
000000d0: 6c46 d63c 2a89 113d a008 773b 004a 6dbb
000000e0: e27a 793d a069 7abd ac3a 27bd 48aa 503d
000000f0: 52e5 0dbd a0cb ad3c e87a 33bc f486 61bd
00000100: 0ed7 6e3d 32a0 1fbd 8833 3e3d 94af 31bd
00000110: fc20 e33c 84e2 cb3c 80c2 4c3d b6f4 5e3d
00000120: b0ec 42bc 8424 b73c 609d 5fbb d0f9 f2bc
00000130: a695 793d 4a06 23bd d8de cebc 4496 25bd
00000140: 225e 02bd f2a3 7cbd a60d 1bbd cee5 16bd
00000150: 781c 20bc 607b eabc a0d0 b1bb 0e7b 64bd
00000160: dce6 0fbd ac54 abbc c4fb 97bc 92bb 0e3d
00000170: 7cc4 863c 00e1 e0ba 2ab7 6cbd dc6c fe3c
00000180: d8fa 383d d81a 08bd 803e b0ba f0f2 7abc
00000190: da6d 4dbd ca01 7ebd b093 f2bb 2045 083b
000001a0: a077 6b3c 0e6a 173d f6b3 0bbd cc0c 313d
000001b0: 0032 1bbb 98c8 943c a297 2cbd ccf6 06bd
000001c0: 6cad 5c3d 80e3 453a 82cc 0a3d da79 2e3d
000001d0: 72e5 21bd 9e16 4ebd 9ab3 09bd 7280 593d
000001e0: 6a70 4dbd a8b2 c03c 56b2 1abd 5829 ad3c
000001f0: 8863 203c 0839 57bd 083b 15bd f4d2 2a3d
00000200: fc95 413d bc71 60bd 3635 1abd 38c1 33bc
00000210: 5404 893c 8031 273b 90e4 1ebc d624 0c3d
00000220: 18a0 19bc 3c55 bdbc e626 1a3d c092 c23b
00000230: 4a65 5c3d 20cf 3a3b 68f3 3a3c 72f0 41bd
00000240: 100b 88bc 8c8b fabc 58f6 993c 2ee3 15bd
00000250: d07b 6fbc 5847 6dbc c845 b4bc 300f d03c
00000260: d829 d9bc c47c 6a3d c041 8dba 6847 5b3c
00000270: b0cd a03c 58db 3f3c 28c4 3cbd 1c8f 0fbd
00000280: b8e6 55bd e0d9 3b3c 42c5 163d 382a 063c
00000290: a853 1cbd 3069 46bc 8cdc 723d f484 1f3d
000002a0: 9c12 bbbc 9a5c 023d c0b4 fc3c 4070 293d
000002b0: b434 96bc 32cf 4b3d 5c35 3f3d d052 bcbb
000002c0: 46bf 3b3d 2064 b4bb 8804 32bd 0c0c 1abd
000002d0: bed9 7abd 20cb 77bc bc86 68bd da41 43bd
000002e0: 68bd 1dbd d042 35bc a889 7bbc 805b a5bc
000002f0: 4037 6dbb 7091 b3bc 8085 71bc 8eff 1fbd
00000300: 2096 873c 1c60 f2bc 8ef5 1dbd 14b9 213d
00000310: e8ea 15bd 20fc 813c 2a77 503d c81d 19bc
00000320: 7a5c 45bd 2472 da3c a87e 53bc c075 7bbd
00000330: 1c45 113d 64b8 69bd e0ba 1fbb 1e8d 6c3d
00000340: b852 913c 3818 cebc 5c2b fe3c 68a0 043d
00000350: 1c83 313d b4e0 b1bc f034 5bbd 009b c5ba
00000360: b8b9 74bd b03e 78bc 1aa1 09bd 481b 673d
00000370: 8eed 51bd b816 223d f415 de3c 7496 6b3d
00000380: 6625 483d 3ca9 3fbd 0cb8 633d 3062 e33b
00000390: 8055 26ba 404b 84bc e0aa 183d 100e 6abd
000003a0: c478 b03c de67 61bd dca3 fb3c dea6 11bd
000003b0: f8e9 6d3d 2896 60bd 14ae 68bd ccf6 7ebd
000003c0: 8e28 7d3d a40e d83c b0b6 41bd fcc3 3d3d
000003d0: 1caf 7dbd 7e86 6bbd be48 7d3d b4f7 673d
000003e0: cedf 74bd f09d 313c c441 813c b0ad 563c
000003f0: 44ab d5bc b8a6 25bd 108c cfbc 289e e53c

imagination.2.bias f4 [256]
0.050286405 -0.035959214 -0.016901791 0.059491865 -0.05938407 0.033340268 0.03424926 0.030713126
-0.040542275 -0.055454887 -0.01006075 -0.016661726 0.0039832816 0.028706454 0.05031801 0.03847065
-0.033683904 -0.047454484 0.0027638376 0.040458865 0.047978707 -0.046781547 -0.055958554 0.042786784
0.009181 -0.040849194 -0.02803611 0.022541896 -0.04885587 -0.032638796 0.0602317 0.04896553
0.0025555342 0.057458177 0.045776628 -0.027948558 0.014250033 -0.008462369 0.043878876 0.0052471384
0.06156154 0.031789772 -0.020008333 0.044146374 0.044676073 -0.04890006 0.008575246 0.027795866
-0.03282105 -0.060551807 0.012793548 -0.05770246 0.0072644055 0.04706765 -0.017547406 0.014769688
-0.02834709 -0.056105122 0.033186533 -0.014593653 0.032667056 -0.00036732107 -0.035967343 -0.055290855
-0.06088447 -0.04329466 0.031074405 0.039744236 0.038691908 -0.022225633 0.0265439 -0.045637794
-0.061669677 0.015646785 0.010141514 0.056624167 -0.027566478 0.03996028 -0.0063114837 0.054713048
-0.033882804 -0.05775716 0.007981382 0.025229245 -0.029471219 0.022171542 -0.038688056 0.035682335
0.04594782 -0.004981622 0.0017852411 0.021508753 -0.021012463 0.059911557 -0.022679478 -0.007442206
0.05434893 0.030131675 0.05255661 -0.04682848 0.037315607 -0.0593087 0.027012475 -0.044326328
-0.0036825314 -0.062417112 -0.027917817 -0.03769035 -0.05311519 -0.0019213036 0.003134355 0.036565676
-0.025838919 -0.019238152 0.01977674 0.01905866 -0.059887342 -0.046756275 -0.015709788 -0.0515507
-0.0002790317 0.05175662 -0.059732303 0.038317233 0.044470936 0.031484805 -0.024042435 0.049160972
0.030839808 0.020440355 -0.041160397 -0.05527194 -0.015423723 0.049404345 -0.03325116 -0.02508875
0.061375536 -0.020319901 -0.0037290975 -0.009728007 0.04701615 0.035240307 -0.030178666 0.046640642
-0.043295316 0.004120201 0.022936538 0.0182072 -0.061464787 -0.05116015 0.039970517 0.023841344
0.06205038 -0.041601576 -0.007704571 -0.01979421 -0.008788429 0.030750416 0.004213959 0.028644972
0.03441593 0.05545222 -0.059393056 0.014530875 0.025094159 0.021597102 0.018807724 -0.061013944
-0.04521864 -0.05387695 0.044519447 -0.060146637 0.026644818 0.0466792 0.024017446 -0.0044056997
0.043152727 -0.039046206 -0.060861096 0.029195301 0.050319143 0.025530256 0.03735178 0.05136072
-0.024990506 -0.036615133 0.011069484 -0.02967675 -0.05409073 -0.055837296 0.05187452 0.014871687
0.014660135 -0.025348552 -0.0065554455 0.005084537 -0.054751225 -0.02709388 0.03142257 -0.04365603
-0.030927546 -0.029871613 0.019559957 -0.011943266 0.0053531006 -0.031313837 -0.02551476 0.018634364
0.040269926 0.0074644685 -0.032173492 0.0019693524 0.056459896 0.013823114 0.053422444 0.06057401
-0.011357181 0.05775843 0.05293999 0.013912074 -0.018844143 0.010458201 0.01904405 -0.020184398
0.027077518 0.060111947 -0.053115666 -0.04799682 0.04625433 -0.02253598 0.016203828 -0.039168768
-0.05682504 0.020689294 -0.02845361 -0.03503172 0.05763349 0.020467803 0.03774523 -0.004458748
-0.05142472 -0.029452063 -0.021653824 0.03093306 -0.029851466 0.048946023 -0.0005490184 -0.047536843
0.034939587 0.048790008 -0.05818093 -0.06101086 0.05854564 -0.02248969 0.047548987 -0.031710282
00000000: 1ef9 4d3d f849 13bd a075 8abc bead 733d
00000010: b63c 73bd ce8f 083d f448 0c3d 189a fb3c
00000020: a80f 26bd aa24 63bd d8d5 24bc 2c7e 88bc
00000030: 3086 823b cc29 eb3c 421a 4e3d 6693 1d3d
00000040: 22f8 09bd a25f 42bd 8021 353b 32b8 253d
00000050: 5285 443d 029e 3fbd cc34 65bd 3241 2f3d
00000060: e86b 163c 7c51 27bd fcab e5bc c8a9 b83c
00000070: 181d 48bd 42b0 05bd 84b5 763d 1490 483d
00000080: c07a 273b 4459 6b3d 4680 3b3d 60f4 e4bc
00000090: f878 693c c0a5 0abc 56ba 333d 30f0 ab3b
000000a0: f427 7c3d fe35 023d 84e8 a3bc d4d2 343d
000000b0: 42fe 363d 6e4b 48bd 307f 0c3c 28b4 e33c
000000c0: 5e6f 06bd 2c05 78bd 089c 513c 6a59 6cbd
000000d0: 400a ee3b 02ca 403d 94bf 8fbc 90fc 713c
000000e0: 2838 e8bc 7cce 65bd 9aee 073d 381a 6fbc
000000f0: e4cd 053d 0095 c0b9 7e52 13bd aa78 62bd
00000100: fe61 79bd be55 31bd c08f fe3c daca 223d
00000110: 687b 1e3d 8812 b6bc 9872 d93c b2ee 3abd
00000120: 5899 7cbd b02d 803c 9828 263c beee 673d
00000130: 18d3 e1bc 64ad 233d 90d0 cebb ca1a 603d
00000140: b2c8 0abd c692 6cbd 58c4 023c 90ad ce3c
00000150: a06d f1bc 18a1 b53c 5e77 1ebd a427 123d
00000160: c833 3c3d e03c a3bb c0fe e93a 2033 b03c
00000170: 5422 acbc d265 753d 50ca b9bc c0dd f3bb
00000180: fc9c 5e3d b4d6 f63c 9a45 573d 38cf 3fbd
00000190: 40d8 183d aeed 72bd 4449 dd3c 868f 35bd
000001a0: a056 71bb 16a9 7fbd e8b3 e4bc 3261 1abd
000001b0: 508f 59bd 40d4 fbba c069 4d3b e4c5 153d
000001c0: 24ac d3bc 5499 9dbc d402 a23c e820 9c3c
000001d0: 6e4c 75bd 8283 3fbd d0b1 80bc d426 53bd
000001e0: 004b 92b9 c0fe 533d dca9 74bd 88f2 1c3d
000001f0: 2827 363d 36f6 003d a4f4 c4bc 045d 493d
00000200: c4a3 fc3c 8872 a73c ce97 28bd d464 62bd
00000210: c8b3 7cbc 365c 4a3d 5e32 08bd ec86 cdbc
00000220: ea64 7b3d ec75 a6bc e063 74bb 3862 1fbc
00000230: 0294 403d 2458 103d 4039 f7bc 420a 3f3d
00000240: 6e56 31bd c002 873b 68e5 bb3c 4427 953c
00000250: 80c2 7bbd 4e8d 51bd 20b8 233d ec4e c33c
00000260: 8a28 7e3d 6a66 2abd a076 fcbb 7827 a2bc
00000270: 58fd 0fbc 4ce8 fb3c 4015 8a3b dca8 ea3c
00000280: b8f7 0c3d de21 633d 2246 73bd e812 6e3c
00000290: 4492 cd3c 68ec b03c a812 9a3c c2e9 79bd
000002a0: 2e37 39bd 14ae 5cbd 065a 363d 525c 76bd
000002b0: 3c46 da3c b032 3f3d 3cc0 c43c b05d 90bb
000002c0: eac0 303d eaee 1fbd 7c49 79bd fc2a ef3c
000002d0: 721b 4e3d d424 d13c 2efe 183d 9e5f 523d
000002e0: e4b8 ccbc c0f9 15bd c85c 353c a81c f3bc
000002f0: 3e8e 5dbd a6b5 64bd 607a 543d 60a8 733c
00000300: 1031 703c c4a7 cfbc 10cf d6bb 309c a63b
00000310: d242 60bd fcf3 ddbc f4b4 003d aad0 32bd
00000320: c45b fdbc 50b5 f4bc 343c a03c b0ad 43bc
00000330: 1069 af3b f042 00bd 5404 d1bc 18a7 983c
00000340: 14f2 243d 8098 f43b 5ac8 03bd 4010 013b
00000350: 7e42 673d 587a 623c 7ed1 5a3d 741c 783d
00000360: 7813 3abc 1a94 6c3d 9ad7 583d 78ef 633c
00000370: 085f 9abc e058 2b3c 4402 9c3c c059 a5bc
00000380: acd1 dd3c f237 763d d08f 59bd 5098 44bd
00000390: 2e75 3d3d 609d b8bc e4bd 843c 6e6f 20bd
000003a0: 60c1 68bd 987c a93c 8c17 e9bc 6c7d 0fbd
000003b0: 1811 6c3d 18ac a73c be9a 1a3d b01a 92bb
000003c0: baa2 52bd 7445 f1bc 5c63 b1bc 5467 fd3c
000003d0: 108b f4bc a07b 483d 00ec 0fba feb5 42bd
000003e0: d01c 0f3d 08d8 473d 204f 6ebd 86e6 79bd
000003f0: 8ecd 6f3d 4c3c b8bc bac2 423d a4e2 01bd
