MAI2A_TreasureFinder/agent_1_model.pth (torch, 848959 bytes, 30 tensors)

env_model.conv1.weight f4 [32, 14, 3, 3]
00000000: 7e1e f33d 088c 2abc db73 c43c 2823 a23b
00000010: 98fc 033d ffb3 b13c 949b 93bd 8024 6a3d
00000020: d099 cdbd 3099 f23d f956 d6bd fee7 fcbc
00000030: e24d ab3d 9c58 2bbe 3c1c 4dbc e3d0 5c3c
00000040: 6afd 85bc b8d7 2ebc 69df 0cbb 50da bdbc
00000050: b685 40bd ddda 6dba 22ac 833c 6a79 ffbc
00000060: a19f c83c 7dd2 1abd a2fc c33c 6928 d13e
00000070: 9e09 f33e 56d0 823e be4d 813e 226d c63e
00000080: 9539 5c3e 6228 b8be 48ab 303d 0859 ecbe
00000090: 6436 d93d be5f 3b3d 6e56 9d3d 20d0 12bf
000000a0: 8f77 58bf 6d0a fabe 0db2 d0be f4e3 c83e
000000b0: 61b4 21bf b35c 02be bdd1 ea3c b85e 9d3d
000000c0: 482e 19be d380 0bbe 888f 983d 64e2 31be
000000d0: 7956 7d3e 1e5c 6fbe e3b9 ac3c 2942 7fbd
000000e0: 60c9 e93b cd45 753d 4496 c6bb 41c1 503d
000000f0: 42aa 613c d090 cdbd 8545 51bc 4094 28bd
00000100: 8fc3 63bc 3c99 3bbd 52ea 153d ff9d f23c
00000110: bcde b13c 8c95 843b 2a39 62bd d1bf 6fbd
00000120: ab42 8cbd 12ba 263d e5d6 b1bb 5c5a 353d
00000130: 7461 d6bc f14c 353c a4c2 b03c 18ae 2ebd
00000140: 6f1b 9dbb c9e7 d33c 791d 37bd 60a1 12bd
00000150: eecb 2f3c 47d0 ec3c 087a 883d 33ed 91bd
00000160: 064b d6bb 9516 bebd 350c 7abe e0ea 95be
00000170: 1b36 b3be ff9a b3be c783 69be b61a 8cbe
00000180: c7ae 59be 7124 bebd b946 c3bd 894d ba3e
00000190: 7379 a23e e4e6 c83e 945d 4a3e b20a e03c
000001a0: 2b07 c33e e5cb 823d 9e70 0abe ed40 943e
000001b0: 7497 243f 5c4c 0d3f a341 7c3e 61d8 183e
000001c0: e450 c03e 6e18 743e ae0c bcbd bef2 ac3d
000001d0: db2d 0d3d 2b1c f03d 0a8d 7fbd fe39 c53d
000001e0: 1a40 ab3d 51b5 72bd f662 d7bc 49b1 4b3e
000001f0: 3f59 d1bd ffac 4fbd d036 aa3b c258 edb9
00000200: 7528 17bd 98bf 7d3d 3964 53bd ccf3 883b
00000210: f90b ebbd c4ef 143e 6192 05be 0d7c 393d
00000220: d492 d4ba 8ada 633b 1b19 423e 7773 54be
00000230: 1307 5dbe f3ee 30bc 0cab f13c 76e7 d6bd
00000240: b0a7 03bc 7026 883d 3bac 4bbd 3cee c4bc
00000250: d4cc c73c 8633 8cbd 2cba 1d3a 2db4 313d
00000260: d668 89bd 8895 413e ae0a 213e b5db 8b3d
00000270: 9976 963e 28db 6c3e b40a b03e 233f 0d3f
00000280: ba7b 91be bdc5 23be d54e e53c 20db 06be
00000290: f729 51be 9d68 aabe d422 d3be 1ca0 28bd
000002a0: f423 073e eff0 633e a0a0 323f 596a 83be
000002b0: d460 ee3e c1cb 6c3e eba7 8e3d a30c df3e
000002c0: e879 923d d9be 12bf bcb4 413e de75 40bf
000002d0: 47f7 f1bd 0bee dd3c d0d9 87bd 3bbb 2c3b
000002e0: 4faa a5bd 4925 3f3c 4b09 6d3c 3d8f 63bc
000002f0: 2d3d 0cbc 96be dfbc 680b 83bd f3f8 37bd
00000300: dcef 923d 84bc 39bd 565c 4e3d e9f5 b6bc
00000310: 5b63 93bd 2c82 983a 6f19 c6bc 8c91 83bd
00000320: 57a1 3fbc 51bc d5bc 8fe0 07bd ac8d f7bc
00000330: 6ce3 cb3c 740b 0dbd a839 8d3c a8ae fdbc
00000340: 3fe1 0fbd af25 94bd 98c5 0bbd d137 553b
00000350: 24c9 eebc cf6d 843c dd3c dabc 3e10 a03c
00000360: 3599 3cbe 5fbf 803d 3eab a13d d28d 5dbe
00000370: 8a01 103e 0c45 9f3d f6a8 7cbe 5df0 bf3d
00000380: 52a2 16be ae3f b83e 69af b53c c8eb 523e
00000390: c3a8 9e3e 8478 01be 00f3 0a3e 9324 5a3e
000003a0: 8108 b2be e8e5 e33c b58d d43e 4431 fb3b
000003b0: 9a3b 893e 5654 8e3e 13bb 89bc f246 a43e
000003c0: 5c62 913e 7793 9fbe 398a b03e 602b 0b3e
000003d0: 1c75 13be 3960 90be 5586 b63c 1dc9 76be
000003e0: 2774 2cbe 7552 233e a4de 0e3e 1239 123c
000003f0: 1411 723e f475 bebd 9318 0ebe 32c7 73be
0.1187105 -0.010409363 0.023981025 0.0049480386 0.032223314 0.021692274 -0.072074085 0.057163715
-0.10039103 0.118456244 -0.104658075 -0.030872341 0.08364464 -0.1673302 -0.012518939 0.013477537
-0.016356189 -0.010671549 -0.0021495468 -0.023175389 -0.047002517 -0.00090734457 0.01607329 -0.031185824
0.02449018 -0.037798394 0.023924176 0.40851143 0.47468275 0.25549573 0.25254625 0.38755137
0.21506341 -0.3596831 0.043132097 -0.46161675 0.10606077 0.045745604 0.07682501 -0.57348824
-0.8455743 -0.4883608 -0.40760842 0.39236414 -0.6316586 -0.12730674 0.028664464 0.07684082
-0.14959061 -0.13623361 0.074492514 -0.17371517 0.24740018 -0.23374984 0.021084731 -0.062318955
0.0071346015 0.05988102 -0.0060603935 0.05096555 0.013773503 -0.100373864 -0.012772922 -0.041157007
-0.013901605 -0.045800433 0.03660042 0.029616354 0.021712653 0.0040461477 -0.055230297 -0.05853254
-0.068486534 0.040704794 -0.0054272288 0.044275627 -0.026169516 0.011065708 0.021577187 -0.042646497
-0.00479453 0.02586736 -0.04470584 -0.03579843 0.010729773 0.028907908 0.066639006 -0.0712532
-0.006539705 -0.09281651 -0.24418719 -0.29280758 -0.35002217 -0.3507919 -0.22804175 -0.2736413
-0.21258079 -0.092842944 -0.09534974 0.3638728 0.31733283 0.39238656 0.1976226 0.02734885
0.38091406 0.06386546 -0.13519523 0.28955784 0.642936 0.5519464 0.24634413 0.14926292
0.37561715 0.23837444 -0.09182106 0.08444737 0.03446756 0.117241226 -0.062390365 0.09630202
0.08361836 -0.059254948 -0.026292305 0.19891848 -0.102221005 -0.05070209 0.0051945224 -0.00045270292
-0.036903817 0.061950296 -0.05160925 0.0041794535 -0.11476893 0.14544588 -0.1304412 0.04528432
-0.0016218075 0.003476771 0.1895489 -0.20747171 -0.2158473 -0.010799157 0.029500507 -0.104933664
-0.008035585 0.06647956 -0.0497248 -0.02403938 0.024389662 -0.06845765 0.00060168165 0.04338472
-0.06709449 0.18904698 0.1572673 0.06829015 0.29387358 0.23130476 0.34383166 0.55174464
-0.28414708 -0.159934 0.027991692 -0.13169527 -0.20426165 -0.3328294 -0.4123751 -0.041168317
0.13197309 0.22259878 0.69776344 -0.25667074 0.4655825 0.23124601 0.069656216 0.4356433
0.07152158 -0.5732246 0.18916601 -0.7517985 -0.118147425 0.027091047 -0.06633341 0.0026356715
-0.080891244 0.011666604 0.014467548 -0.013889131 -0.008559507 -0.027312558 -0.0639866 -0.04491515
0.07174656 -0.045345798 0.050381027 -0.022334056 -0.07196685 0.0011635474 -0.02418205 -0.06424245
-0.011696181 -0.026090773 -0.03317314 -0.030218922 0.024888717 -0.03443475 0.017239407 -0.030967072
-0.03512692 -0.0723375 -0.034123987 0.003253449 -0.029148646 0.016165642 -0.02664035 0.019538995
-0.18417819 0.06286501 0.0789399 -0.21636131 0.14063087 0.077768415 -0.24673828 0.093720175
-0.14710358 0.35986084 0.022178369 0.20597756 0.3098813 -0.1264363 0.1356926 0.21303014
-0.34772113 0.027819589 0.41514364 0.007665785 0.26803285 0.27798718 -0.016812837 0.32085377
0.28395355 -0.31167194 0.34480456 0.13590765 -0.14400142 -0.28198412 0.022280851 -0.24100156
-0.16841184 0.15949424 0.13952118 0.008924739 0.23639327 -0.092998415 -0.13876562 -0.23806456

env_model.conv1.bias f4 [32]
00000000: cf49 07be 877e 1cbe 4785 69bd cbd1 37be
00000010: 9633 95bd 9a00 1ebe ca31 24be faaa 983d
00000020: b9b9 6e3c 4c2f 8d3d fb68 15be 69d0 02be
00000030: 0ce8 79bd 1be5 14bd 0812 8fbc cfbb 523e
00000040: ec05 0a3d 391f 2ebd 3512 36bd 4ede 82bd
00000050: a13c a8bd f845 41bb 1fd7 79be 7b98 20be
00000060: 9421 323d 61ee 12bd 517a 453e 2837 07bb
00000070: 51f4 1a3e 2095 fbbd 6827 92bd b031 323d
-0.1321175 -0.15282641 -0.05701187 -0.17951123 -0.0728523 -0.15429917 -0.16034618 0.07454486
0.014570647 0.06893787 -0.14590828 -0.12774815 -0.061012313 -0.036351305 -0.017464653 0.20579456
0.033697054 -0.042510245 -0.044450957 -0.063900575 -0.08214689 -0.0029491168 -0.24398468 -0.15683167
0.043489054 -0.035871867 0.19284941 -0.002063224 0.15132262 -0.12284303 -0.071364224 0.043504417

env_model.conv2_state1.weight f4 [3, 32, 3, 3]
00000000: 3c14 013e 7fba f93d 08d8 04be 4304 f13d
00000010: e5d0 e03e 8944 a43d 5988 c1bd db9c 5abe
00000020: e75a 343e cb64 783e 2768 22be f37f 623e
00000030: 63dc 733e 9c03 26be a3d2 033e 24bc 3b3e
00000040: 2347 a8be 7941 2b3e 7040 ad3d e87a ce3e
00000050: d2ff 0bbe 952a bd3d f87b c73e f9c3 d6bd
00000060: 0dcd ddbd 187d 14be 9890 adbd a046 a53b
00000070: 5cbc 213c e54a 603c e659 1eba 04ca 593c
00000080: 1770 40ba fceb 45bb 1f12 0bbc 0f9f b73c
00000090: f0e2 cd3e e6e8 1fbd 550d 973f b323 fc3e
000000a0: c46c dc3e a4cd 2b3f 3024 933d 3356 893d
000000b0: d472 01be c363 693f 7036 13bf c475 b1be
000000c0: cbb0 863e 415d 193c 610c 4c3d 4229 0d3e
000000d0: 77e8 dabe bd05 183c f7d5 3e3d 60b9 a3bc
000000e0: 14ed adbd 3344 6abe 2f95 99bc b890 6e3c
000000f0: 7ace 793e dc17 b4bc 8cb1 113f 5f8a 833e
00000100: d86c 9c3f c536 653f 11a9 c73e 150b b33e
00000110: 61da 123f 9d6f 093e e986 bebd 8621 00be
00000120: 2832 563d f4d3 20bd 67a2 adbe b533 943e
00000130: f596 15bd 0fd7 1f3f 29cc 8abe c519 3d3e
00000140: 1c33 debd 8509 6d3e a491 ef3d e78c 183c
00000150: 3be8 a5bd cb86 59be d258 8fbc 4f28 97be
00000160: 90d8 f53d cf6d b1be d4ce bbbd 466e 97be
00000170: 68c3 f23d e603 fc3d ce7f 96bd c02b 323e
00000180: fb4d 0d3e cf0a b4bc 3db2 243d 1864 e23d
00000190: 6740 6bbd 3d93 bb3d 2be4 333d d3d1 023e
000001a0: 6ea3 3fbe 3e2c 0b3f 2e75 483e aac4 813e
000001b0: 94dc 5c3e f81c 53bc c924 b23d 53c4 ec3d
000001c0: 0fad 823e 77e2 503e a751 433d 9fbb 213d
000001d0: 27bc ee3c 07a8 cdbd de1d fd3c 72d6 333e
000001e0: c440 98be a5c9 1c3d b0a6 eb3d 7bfe dd3e
000001f0: 4157 6d3d a1e6 25bd 703c 553d 481b 0fbd
00000200: ab71 bb3d 9a22 ea3d 040b d73d c87b 243e
00000210: 5a50 07bd 80b0 693e 515f 2f3e b3b4 5cbe
00000220: 8a6e 43be c24e 7bbe c583 fdbb 82f9 823e
00000230: 0bbb a7be ba1a cbbe e95d 313e c042 72be
00000240: 7675 923e d3a1 ba3d d528 f7bd 8460 d03e
00000250: ddb7 133e ef0b d43e 394e c0be c9fc ee3d
00000260: f557 12bd 1a39 9f3c 24d7 76be 521f 813e
00000270: 043a bc3d 1988 3bbd 38fe 42be 4714 66be
00000280: fc4d 96bd 9068 eabd 3123 153d c4fe 06bd
00000290: 9119 31bc 81c4 f0bb 90b3 dd3c 1b6b ddbc
000002a0: ffd1 293c e13e bbbb 6224 06bd a9a2 bebe
000002b0: cc66 bebe 07e8 72be 0c1e b13e 427b 1e3e
000002c0: a0a5 0f3f 39bb 313d 47ed 5bbe 94ab 70be
000002d0: f482 703f 79e9 39be 0280 15bf fe51 1f3e
000002e0: 0210 09bd 5148 94bc e4a5 2fbe 7c38 86bd
000002f0: 58ab 293e 6758 053f 092a e53e c046 3f3f
00000300: 9c43 8cbe 8bfd 86be a651 f6bd be27 ea3e
00000310: 0817 18bf cfc1 973d 954a aebd 388e 323f
00000320: 696f 6cbd 9b18 cd3e 332d 033f 2df2 15be
00000330: 669d 563d ead3 9fbe 6505 bfbc e900 343c
00000340: 1c39 f83e 299a ca3e 6944 73bd dc10 9cbf
00000350: caaf 523e b9aa 17bc 845c acbf e09a 0abe
00000360: aae9 33be 8979 88be 6aea d83c 12a0 c0bd
00000370: 45d8 393c 6348 84bd e145 f5be 477d 923e
00000380: f602 dcbe 9224 be3e d694 1cbd 2776 4fbd
00000390: 4594 9f3c 084c 6dbe 67b6 243e aa4c 9abe
000003a0: 8f50 57bd aa75 fa3e a867 fcbb 6263 0f3d
000003b0: b84b cdbd 0267 2dbe c8ee a1bd 4ff8 61be
000003c0: 93cd 84be 8c05 853d 7f56 fd3d dec7 98bd
000003d0: 699d 7ebd cbac da3c d54a 53bc a67a bfbd
000003e0: b49f ac3d 9839 253e 9767 3a3c cd6b 873e
000003f0: 8010 1a3f 51a0 33be 60c7 aa3e 2056 9f3a
0.12605375 0.121937744 -0.12973034 0.11768391 0.43909374 0.080208845 -0.094498344 -0.21348898
0.17612801 0.242572 -0.15860043 0.22119121 0.2381454 -0.16212314 0.1287332 0.18333489
-0.32866773 0.16724195 0.08459556 0.40328145 -0.13671806 0.092366375 0.38961768 -0.104865976
-0.10830126 -0.14500844 -0.08474845 0.0050438195 0.0098715685 0.013689731 -0.00060406176 0.013292793
-0.00073409214 -0.0030200472 -0.008488207 0.022414712 0.40212202 -0.03904047 1.1800944 0.49245986
0.43051732 0.6711066 0.071846366 0.06705894 -0.1264146 0.9116785 -0.5750494 -0.3466016
0.26306757 0.009360612 0.049816493 0.1378527 -0.42755482 0.009278712 0.04659077 -0.019985855
-0.08492485 -0.22877578 -0.018747894 0.014560871 0.24395171 -0.021984033 0.5691154 0.25691506
1.2220716 0.89536697 0.38996175 0.34969392 0.5736447 0.13421483 -0.09303076 -0.12512788
0.052293926 -0.039264634 -0.33912966 0.289457 -0.036520917 0.6243753 -0.27108887 0.18466862
-0.10849592 0.23148163 0.116977006 0.0093109375 -0.08100935 -0.21242826 -0.017498408 -0.2952294
0.12004197 -0.3465409 -0.09170309 -0.2957632 0.11853677 0.12305431 -0.073485956 0.17399502
0.13799278 -0.02197781 0.040209044 0.110542476 -0.057434466 0.09158943 0.04391877 0.12775354
-0.18714687 0.54364383 0.1957595 0.25345355 0.21568519 -0.012885325 0.086984225 0.115608834
0.25522658 0.2039889 0.04768529 0.03948557 0.029142452 -0.10041814 0.03089803 0.17562273
-0.29736912 0.03827824 0.115064025 0.43358216 0.05794454 -0.040503148 0.05205959 -0.034938127
0.0915254 0.11432381 0.10500148 0.16062844 -0.033035614 0.22821236 0.17126204 -0.21553306
-0.19085136 -0.24541762 -0.0077366554 0.25580984 -0.3275989 -0.39668828 0.1732098 -0.23658276
0.2860524 0.09112897 -0.12068335 0.40698636 0.14425607 0.41415355 -0.3755968 0.11669309
-0.035728414 0.019436408 -0.24105507 0.25219208 0.09190753 -0.04578409 -0.1904229 -0.22468673
-0.07339093 -0.11445725 0.036410514 -0.032957807 -0.010809318 -0.007347644 0.027063161 -0.02702861
0.010365008 -0.005714283 -0.03274954 -0.37233475 -0.37187803 -0.23721324 0.34593236 0.15476707
0.561121 0.04339144 -0.21477233 -0.23502952 0.9394982 -0.18155469 -0.5839845 0.15558621
-0.033462532 -0.01810089 -0.17153126 -0.06553742 0.16569269 0.52088016 0.44758633 0.7471733
-0.27395332 -0.26365313 -0.12027292 0.45733446 -0.5941014 0.07410013 -0.08510319 0.6974826
-0.057723437 0.40057835 0.51240844 -0.14643164 0.0523962 -0.31216365 -0.023318002 0.010986545
0.4848107 0.3957074 -0.059391413 -1.2192645 0.2057487 -0.009257012 -1.3465734 -0.13535643
-0.17569605 -0.26655224 0.026478965 -0.09405531 0.011343067 -0.06459119 -0.47904876 0.28611204
-0.4297101 0.37137276 -0.03822788 -0.05064979 0.01947988 -0.23173535 0.16085206 -0.30136615
-0.05256706 0.48917896 -0.0077027865 0.03500689 -0.10024208 -0.16933826 -0.07906872 -0.22067378
-0.2593809 0.064951986 0.123700134 -0.07459997 -0.062161837 0.026693722 -0.012896259 -0.09349565
0.084288985 0.16135252 0.011377237 0.26449433 0.60181427 -0.17541625 0.33355236 0.0012156405

env_model.conv2_state1.bias f4 [3]
00000000: c50e d9bc ef3a fbbd b73e 30bc
-0.0264963 -0.122671 -0.01075714

env_model.conv2_state2.weight f4 [3, 32, 3, 3]
00000000: 81a0 03bb 0b5b d13b 756f 48bc 5254 2bbb
00000010: 5bb9 113c 97ff f1b9 f7b3 bd3b 94ff b23a
00000020: 8dd8 033d da3c 053c b0be 593b 80c0 023d
00000030: 285a b33a ba74 33bb 78e6 30bb 1177 08b8
00000040: ee73 23bc e31e 2fbb f5a8 1b3c b0df 3dbc
00000050: 2ba9 9c3d 6670 14ba 21a4 6dbb 4711 0fbc
00000060: efb0 383b 164a 92ba 0936 893b d360 173f
00000070: 496f eb3e 3359 1d3e b3d1 4e3b f528 27bc
00000080: 0a77 8b40 d78f 193c a1d8 45bb ed98 fb3b
00000090: 6ef0 5abb a839 0a3d 926c d4bb a73e e83a
000000a0: ad7e 75bb aaf7 7aba a802 79bb cc13 3cbc
000000b0: 0238 1e3c ea8b b13a 20ee de3b 1444 803c
000000c0: 558c 173a 523e ae3a 8109 553c c72c cf3a
000000d0: e767 e73a 4120 90ba 1a74 22bc 7da3 7a3c
000000e0: ebc7 0dbd 6198 47bb febc 6cb9 dbdb 963c
000000f0: 503b 923b 8ff8 783b 3755 a3b7 6dbb c6bb
00000100: ad14 df3a ad3b 5dbc ed30 823c abf0 663a
00000110: 9b05 883b a54b b0bb 5370 20bc e626 19bb
00000120: 6383 edbb 75e4 f1ba cf4e 4e3b 309b 253b
00000130: 28be e7ba 59aa 3bba ab76 d2bb 436e 183c
00000140: a0da 5bbb d6cb c6bb 4cb9 81bc 94be e43c
00000150: ef58 b4ba 424e ca39 d777 393c 1669 073b
00000160: 0ec1 98ba 6fb1 c23b 659f 52bc 1629 ceba
00000170: 812c 32bb a542 cbba 4b17 323c 0320 94bb
00000180: d4db f43b 4a82 14bb 6a8e 43bc 0d7e f93c
00000190: 1887 48bc 2718 8dbb a6fe be40 5947 173f
000001a0: 2e34 9c3f 40c1 073b 971a 22bb 205f 8a3e
000001b0: 6f95 bfbc e225 353b e13b a43b 0862 a1b9
000001c0: f6dd 3abc b728 c83a a8d2 cb3b e968 05bc
000001d0: a036 0f3b 6fd7 6d3c 7f5e a5bb f885 b83c
000001e0: 4c97 d43b 84bd 91ba 1a2c ecbb 3037 27ba
000001f0: 1376 d83b 96d1 883b 2148 44bc 7d81 bbbb
00000200: 9a46 c33b 0188 07bc 1da8 f53b 0d17 cbbb
00000210: 1af4 ebbb 830d 3cbb ec81 f8bb a673 623c
00000220: e998 1c3c b0cd 363c c288 3fbb 2526 8f3c
00000230: 85b6 03bb c2a1 9d3b 1df0 8c3c 7a17 6fbb
00000240: b6a5 ed3e b5aa 9d3d 69f3 7fbb b042 c2b9
00000250: bda2 1440 0904 8d3d d1dd 5a3b 9161 bbba
00000260: cf44 d9bb f430 983a e3c2 caba 362f c4bc
00000270: c1fc adbb e610 963a 42ff 313c 0673 1a3c
00000280: 57ff 40bb 602f b1bb fc82 fa39 25f0 1b3b
00000290: 1f8e 5fbc d010 873c 0067 813c c1f2 8dbb
000002a0: 29c9 a73b 7575 c13c 3521 423b 67f4 d9bb
000002b0: 8d3e 8d3d 7265 4a3d 2826 1bbb 2a1c c03a
000002c0: b735 793d 6601 85bb 0ec5 e339 9c9e 7abb
000002d0: 8006 6fbc 13d2 b53b 936f 1a3c dea7 83ba
000002e0: f125 16bc e439 0dbc e676 16bb f115 143b
000002f0: 717a 25bc 83d3 b83a e02f 94ba f746 3441
00000300: 70ce d4b9 017e d4b9 a1fa d6b9 c0c7 2a3d
00000310: fc0f 7abc 56c2 b13e 6da6 e8ba d66c 2c3c
00000320: 1703 463c 51da 433b 757d 503c 2c69 033a
00000330: 66b1 043b 822a c53a 24da c8bb 1e41 d8bc
00000340: adad f03b ad2f 853d cab9 8dbd 2ddf 9940
00000350: 5fb0 da3f ed95 c6bc 6f10 ce3b fdbb e9bb
00000360: 52cc c2bb 2b36 26bb 1c67 903f ac7e 803b
00000370: cd9b 12bc 60ce 1fba 417b 4d3b 598e 4ebd
00000380: 88ba 5c3c 6eff c939 60d8 803b 74bf 8dbc
00000390: e76f 3dbc b397 6a3c d3b5 5fbb 498d 1f3d
000003a0: 03e6 243d ff04 a83d 85b6 90bb 7ace a0bb
000003b0: 8a65 92bc 4d13 623b 2bf8 543b e10d 8c3b
000003c0: 2181 acba 1689 2c3d 56a0 313c 8aec b43a
000003d0: 814f a1bb a5d8 e640 e64b 30bb 06e3 a53b
000003e0: f1df 39bb 1d94 a2bb bdc1 40bc 2af2 04bb
000003f0: f86c ea3c 9d4c a03c e8de ec3a 7816 63bb
-0.0020084681 0.006389027 -0.012233605 -0.0026142788 0.00889429 -0.0004615753 0.0057892757 0.001365649
0.03218894 0.008132184 0.003322523 0.031921864 0.0013683485 -0.0027382807 -0.0026992839 -3.2535816e-05
-0.00997637 -0.002672129 0.009500732 -0.011588976 0.07649454 -0.00056625006 -0.0036261159 -0.008732147
0.0028181633 -0.0011160995 0.0041873497 0.5913212 0.4598334 0.15366058 0.0031558096 -0.010202636
4.358281 0.009372673 -0.0030188935 0.0076781423 -0.0033407467 0.03374639 -0.006482669 0.0017718867
-0.0037459538 -0.0009573648 -0.0037995968 -0.011479329 0.009656908 0.0013545726 0.006803289 0.015657462
0.0005781104 0.0013293719 0.013002754 0.0015806191 0.0017654867 -0.001099594 -0.009915376 0.015297768
-0.034614485 -0.0030455815 -0.00022577119 0.018415382 0.004462637 0.003798995 -1.9470795e-05 -0.0060648234
0.0017019712 -0.013502997 0.01589247 0.0008809666 0.004151059 -0.0053801113 -0.009792405 -0.0023369133
-0.0072483285 -0.0018454926 0.003148008 0.00252695 -0.0017680572 -0.00071588677 -0.0064228377 0.009303632
-0.0033547059 -0.0060667796 -0.015835427 0.027922906 -0.0013759414 0.0003858675 0.011320076 0.0020662001
-0.0011654214 0.005941562 -0.012855385 -0.0015728797 -0.002718717 -0.0015507533 0.010869811 -0.0045204177
0.0074724946 -0.0022660666 -0.01193581 0.030455614 -0.01223924 -0.0043058577 5.968585 0.5909324
1.2203424 0.0020714551 -0.0024735087 0.270257 -0.023386685 0.0027640988 0.005012021 -0.00030781352
-0.011405459 0.0015270923 0.0062201805 -0.008142688 0.0021852627 0.014516695 -0.005046665 0.022524819
0.0064877626 -0.0011119102 -0.0072074058 -0.0006378768 0.0066058724 0.004175375 -0.0119800875 -0.0057222233
0.005959344 -0.008272172 0.0074968473 -0.006197816 -0.00720073 -0.0028694577 -0.0075838473 0.013821518
0.009557941 0.011157438 -0.00292258 0.017474243 -0.0020097804 0.004810543 0.017204339 -0.00364825
0.4641549 0.076985754 -0.0039054996 -0.0003705225 2.3224328 0.06885535 0.0033396373 -0.0014296045
-0.006630517 0.0011611269 -0.0015469458 -0.023948293 -0.0053096716 0.0011449128 0.010864081 0.009426838
-0.002944907 -0.005407259 0.00047781307 0.002379426 -0.013644724 0.016487509 0.015796185 -0.004331917
0.0051204157 0.023615578 0.0029621844 -0.0066514495 0.06896696 0.049413152 -0.0023673866 0.0014656831
0.060842242 -0.0040590046 0.0004344363 -0.0038241511 -0.014588952 0.0055487244 0.009426015 -0.0010044535
-0.009164319 -0.008619759 -0.0022959053 0.0022596086 -0.010099993 0.0014101121 -0.0011305772 11.267325
-0.000405896 -0.0004052967 -0.00041003994 0.041694403 -0.0152626 0.3471858 -0.0017749794 0.010523995
0.012085698 0.0029884765 0.012725224 0.0005012925 0.002024734 0.0015042576 -0.00612952 -0.026398238
0.0073449225 0.06503234 -0.06920202 4.808493 1.7085074 -0.024241412 0.00628858 -0.0071330057
-0.005944767 -0.0025361876 1.1281466 0.0039213505 -0.008948279 -0.0006096121 0.0031353983 -0.050428722
0.013472207 0.00038528017 0.003932044 -0.017303206 -0.011562324 0.0143183945 -0.0034135475 0.0389531
0.04025842 0.08204078 -0.0044162893 -0.0049074264 -0.017870683 0.0034496367 0.0032496552 0.0042741154
-0.0013161042 0.042122923 0.01084145 0.0013803404 -0.0049228077 7.213946 -0.0026900708 0.0050624637
-0.002836224 -0.004961504 -0.011764941 -0.0020285943 0.028616413 0.019567782 0.0018071802 -0.0034650844

env_model.conv2_state2.bias f4 [3]
00000000: 64d5 6739 5227 37b9 7e99 3ab8
0.00022109371 -0.00017466888 -4.4488806e-05

imagination.0.weight f4 [256, 3]
00000000: fc6c dd3e 1a68 cf3e 6f5f 8abe dae8 bdbe
00000010: a088 61bd 0e7d 00be 9005 713d 0c76 43be
00000020: b6f4 c1be 5c20 953e d222 5ebe 7e1a d1be
00000030: 38f3 103e e4e6 923e e03f 763d 84ed cb3e
00000040: 0cc8 a73e 0c0c db3e 7cc5 fd3e f0c1 1cbe
00000050: d031 5e3e 3c0e e2bd d8f6 013f c0b1 753d
00000060: 60b7 b0bc f465 a53e 3c75 e13e 96d1 a3be
00000070: de18 013f ead2 073f 6a9a 013f c8f9 12bf
00000080: b8f1 753e 800f d83c 401c 9fbe a0da 043d
00000090: bfc5 9cbe 40f9 62be 372b 82be 7051 7b3e
000000a0: f2a7 bc3e 240d 013f 6005 17bd 108b 40bd
000000b0: 580b f03e 0f10 02bf b6c3 b13e 6f85 09bf
000000c0: 2475 0b3f eebe d63e 894f 95be c41e 4e3e
000000d0: 84f3 e3be acd5 633e deff 82be d8d1 063f
000000e0: d6ec d3be e8aa 0bbf b0d4 0e3f f430 c43e
000000f0: 2ee0 e8be ce29 133f a0e0 d4bd 4c72 dabd
00000100: b82b dc3d 5c52 143e 664e c73e 015f b4be
00000110: fb4b 00bf b85b 073e 28c8 473e acdb d23e
00000120: de3d e4be c03e 783e c8a3 95bd 3027 a8be
00000130: 080e 3ebe dc9d fd3e a2c2 0d3f 9092 d53d
00000140: 3218 0b3f 58cf 583e 5414 1b3e 907a 6cbd
00000150: 9cb2 e23e bae8 003f 501a 063f 2a6a 86be
00000160: 0b11 e6be 68bd 063f f215 123f ffd8 9ebe
00000170: 3efb 013f 8608 52be a881 a83d 083e 693e
00000180: 9463 183e 881c d4be 40c0 2ebd 24d7 503e
00000190: 8068 d63d 0a4a c13e dc9c 873e a898 d8be
000001a0: ac5c d83e 9040 cbbe 8fbe adbe 1884 e63e
000001b0: e61f 45be 00bc 2c3e 8439 f03e 8d3d efbe
000001c0: 1604 bebe 841f ffbd 4c8b 823e 4087 14bc
000001d0: 1f92 03bf 94dd 1cbe 5c84 113f e08e 923e
000001e0: 84a8 c2bd e474 f3be c8cc dfbd 1a8d 0dbe
000001f0: a124 82be cf33 00bf d43d e0bd 7c78 813e
00000200: 106a 913d 26fe 08be d0df 63be e802 37be
00000210: 88e8 823e 96a7 d8be 381c dfbd f4d8 73be
00000220: 0c12 d93e 869c debe 8e57 2dbe 0046 cebd
00000230: ea82 b2be 14de 9fbe 4ad6 cd3e 53b9 a9be
00000240: 6226 9fbe 2209 22be a36a c8be adff 95be
00000250: c85b 303e c8f6 b3be 5871 8abd d882 9bbe
00000260: a020 eb3e 0928 e2be f707 c9be 5ec9 fabe
00000270: 4319 99be 68d0 d6be 20c6 183d a032 073f
00000280: 1c32 1dbe 80a7 f2bd 082c af3d dc96 05bf
00000290: 5ae7 b73e 80fd f7be c8fc eb3e e435 d53e
000002a0: f0e8 163d f49f 113e f044 e83d 44e9 733e
000002b0: d831 ec3d 04af 013f b0e5 633e 18c2 fabe
000002c0: 60bb df3d 6e6a cb3e 6488 fabd 5034 07be
000002d0: cdd4 12bf f074 1c3e accc 513e 746c 7abe
000002e0: 1683 093f 4637 0c3f 8c83 d6be 2cf1 e4be
000002f0: 466e 013f 6043 623e e6d2 bf3e 4eda 0f3f
00000300: 00e2 1f3c d856 663e 8caa e93e 17eb 97be
00000310: e46b 8b3e d07d 8d3d cca5 bebd 20e3 d33c
00000320: 60df 19bd dcf9 543e 446a 5ebe 9dbd d5be
00000330: f69d 4cbe 385b 763e 52c3 a0be 3078 153d
00000340: 307e f0be ecbf 553e 2c25 0abe 5ef0 ae3e
00000350: 680e c63d 8081 17bd c04f ca3c c071 a13c
00000360: ec02 c6be 8425 033e bc19 0c3f 1a58 b43e
00000370: 74ea 11bf a2ee 9f3e 8448 f5be 48cb 0abf
00000380: 7aa7 ffbe dc75 bb3e eac4 51be 74fb c03e
00000390: 4859 a03d 5075 353e 9013 00bd aaea a43e
000003a0: 70b0 013f c83f a43d 2a73 a33e a80b e73d
000003b0: 5dc1 f9be 7ea3 013f b8d0 debd 6016 e43c
000003c0: 3a2a fdbe 70ce 79be 04e6 10bf 507e ccbe
000003d0: a0b5 cabc 980a ef3d 9a4b cc3e d88d abbe
000003e0: 8f6f f4be 7dec 8bbe d43c 073f 525b 923e
000003f0: 5e84 8bbe 44b8 b2bd a46c 3f3e 6873 d13d
0.4324721 0.4050911 -0.27025935 -0.37091714 -0.055061936 -0.12547705 0.058843195 -0.19088
-0.37882012 0.2912625 -0.2169297 -0.40840524 0.1415528 0.2869178 0.06011951 0.39829648
0.3276981 0.4278263 0.4956473 -0.15308356 0.2169869 -0.11037871 0.5076728 0.05998397
-0.021571815 0.32304347 0.44034755 -0.3199584 0.5042857 0.53056204 0.5062624 -0.57412386
0.2401799 0.026374578 -0.3107624 0.03243506 -0.30619618 -0.22165394 -0.25423595 0.24542785
0.36846882 0.50410676 -0.03687036 -0.04700762 0.46883655 -0.50805753 0.34719628 -0.5371923
0.5447562 0.41942543 -0.29162243 0.20128924 -0.44521725 0.22249478 -0.25585836 0.52663946
-0.4139163 -0.5455766 0.55793285 0.38318598 -0.45483536 0.57485664 -0.10394406 -0.10666332
0.10750526 0.14484543 0.38927 -0.35228732 -0.50115937 0.13218582 0.19509947 0.4118322
-0.4457845 0.24242687 -0.073066294 -0.32842398 -0.1856004 0.495345 0.5537511 0.10428345
0.54333794 0.21172845 0.15144473 -0.057734072 0.44276893 0.5035511 0.523839 -0.26252872
-0.44934878 0.5263276 0.57064736 -0.3102493 0.5077399 -0.20511064 0.08227855 0.2277757
0.14881736 -0.41428018 -0.042663813 0.2039457 0.104691505 0.377518 0.26486862 -0.42303967
0.42258203 -0.39697695 -0.33934447 0.45022655 -0.1925045 0.16868591 0.4691888 -0.46726647
-0.37112492 -0.12457183 0.254969 -0.009065449 -0.5139484 -0.153189 0.5684259 0.2862463
-0.09504798 -0.47550118 -0.10927731 -0.13823357 -0.2541857 -0.50079054 -0.10949293 0.25287235
0.07100308 -0.133782 -0.22253346 -0.17872202 0.25568032 -0.42315358 -0.10894054 -0.2381323
0.4239658 -0.43478793 -0.1692793 -0.10071945 -0.34865505 -0.3122412 0.40202552 -0.33149204
-0.3108397 -0.15823796 -0.39143857 -0.29296628 0.17222512 -0.35149217 -0.067599 -0.30373263
0.45923328 -0.4417117 -0.3926389 -0.48981756 -0.29902086 -0.41955876 0.03729832 0.5281162
-0.15351146 -0.11848354 0.0855332 -0.5218332 0.35918695 -0.48435593 0.46091294 0.41642678
0.03684324 0.14221174 0.11341274 0.23819453 0.115329444 0.5065768 0.22255588 -0.48976207
0.10924411 0.39729637 -0.12233046 -0.1320355 -0.5735596 0.15278983 0.20488232 -0.24455434
0.53715646 0.5477184 -0.41897237 -0.4471525 0.5055889 0.22096014 0.3746559 0.5619248
0.009758472 0.22494066 0.4563793 -0.29671547 0.27230752 0.069087625 -0.09308967 0.025865138
-0.037566543 0.20798439 -0.21720225 -0.41746226 -0.19982132 0.24058235 -0.31399018 0.036491573
-0.46971273 0.20873994 -0.13490742 0.3416776 0.096707165 -0.036988735 0.02469623 0.01970756
-0.38674104 0.1280728 0.5472677 0.35223466 -0.5699837 0.3123675 -0.47906888 -0.5421643
-0.49932462 0.36613357 -0.20485273 0.37691844 0.07829529 0.17720532 -0.031268656 0.32210284
0.5065985 0.08019978 0.319238 0.1128152 -0.48780337 0.50640094 -0.10879654 0.0278427
-0.4944628 -0.24395156 -0.56600976 -0.3994012 -0.024744809 0.116719425 0.3990143 -0.33506656
-0.47741362 -0.27328864 0.5282719 0.28585297 -0.27249426 -0.08726552 0.18693787 0.1022709

imagination.0.bias f4 [256]
00000000: 584a 9abe 6b33 97be 80a2 6a3d 84ba d33e
00000010: b4c7 04bf a83e 43be 0a10 0abf 08da 603e
00000020: 209d 07bd ea93 35be fbe9 89be 2817 3fbe
00000030: a6e7 c83e 62c7 2abe 09e3 0dbf 58c1 e93e
00000040: 3205 a5be ee92 c03e f825 f1be 940d b43e
00000050: 8428 cd3e 7293 9d3e 22f2 04bf 7b26 dfbe
00000060: be51 5bbe 2efd bd3e ce36 a9be 7478 b7bd
00000070: 5b6a 92be 004f 203b 920c 0b3f 005c 5aba
00000080: ae73 f2be 349e da3e 64be febe 6691 133f
00000090: 088b 4bbe d4c9 e53e 6028 043e d0be b33d
000000a0: 72fa b63e 6016 cd3e e07d 163e 1cb4 043f
000000b0: 727c ffbe 007f 95bb 88d7 963d b0e1 163d
000000c0: 00ae d73d d88f 133f 0c97 e5bd 4e23 41be
000000d0: c8c6 c03d 6836 a8be 7216 a93e 4047 17bc
000000e0: 4e36 bc3e 00ec 303b 1046 fa3e 8a1e acbe
000000f0: aced 4d3e 4877 e73e de57 0fbf b202 be3e
00000100: 82bd ab3e 1a47 d13e a84e de3d d382 a3be
00000110: b669 083f eb54 90be 2376 08bf d2cd 013f
00000120: 6036 a0be e0a6 3a3d 149b 02be d0b5 f63d
00000130: 2fc4 cdbe fab8 073f feba b2be dae8 933e
00000140: 2a1d 043f 3669 b73e 70ed cb3e ea1a c83e
00000150: c8d0 e13d e892 3a3e e457 9fbe 40ee ff3e
00000160: c066 f53e 101b 88be 3bb3 a5be d63f 0a3f
00000170: b03b d8bd 20d6 f93d bcc4 e93e 52ab 113f
00000180: 18a1 4c3e 00ca 3cbb 2289 90be c07c 043e
00000190: 7401 cbbe ae96 71be ac21 8e3e c575 04bf
000001a0: 1053 103f 1c4d 153e d0e3 243d a82f 873e
000001b0: 2411 d03e 84da 54be 1bef f4be 5c95 093e
000001c0: f638 993e e082 86bd e1bc 11bf ac07 dbbe
000001d0: b005 103f 4a3e b23e dc9f 95be 8067 703c
000001e0: 827b f0be 6623 8b3e 3060 f93d c70b 84be
000001f0: e4bd e63e f606 b93e b65a 0bbe 4ebf c43e
00000200: 000a 0ebf 94a8 023f e6ef 12bf c8d7 30be
00000210: 385b f63e 1c43 043e 1a75 28be e8d5 0d3f
00000220: 00dc f23b d2f4 88be a206 033f 8011 df3e
00000230: 1068 d33d 1ed1 8f3e 0c8e 0a3f 0429 6cbe
00000240: dc56 ea3e 5ee9 08bf 90cf aebe 000c cf3a
00000250: d09e 473e b068 6f3d 66ab 17be d8db d9be
00000260: a6a6 ccbe 0008 e73d 6093 123d e00a f43e
00000270: eed6 ddbe 207f b2be 1472 eebe 80e3 29bd
00000280: d076 cfbe 644f 3cbe ca4d c2be 706e 96bd
00000290: 8440 a1be aa71 0e3f 2ed1 b13e 9022 c43d
000002a0: 1c4b f0be 02d1 6abe fe4a 063f 58c8 fabd
000002b0: b842 d53d c45d cabe e016 8fbd 4eb6 8c3e
000002c0: 825e d9be 3449 d83e c435 81be 96ae 0abe
000002d0: d85e c23e c0d9 b13e 96c9 b23e 1896 c0be
000002e0: e451 243e a40f 453e 56ca 973e 58ed e93d
000002f0: 3ecd 82be 5411 973e 48d0 0c3f 5ecd 0cbf
00000300: 444d bdbe ee29 893e fda4 febe 9448 7e3e
00000310: 0607 1bbe 502f e83e 329c a8be c0e6 94bd
00000320: cc41 103f bc4d e6be 22ff b13e f0a5 1b3e
00000330: 7e98 e4be a24b a13e c6e3 dabe c645 9e3e
00000340: c03a e83c 9a1c 09be 9800 a3be 7f93 fdbe
00000350: 21b5 a9be 32d9 d8be ece7 693e a0d5 94bd
00000360: fc32 c23e f4d4 983e 1dbc 88be 7a28 ecbe
00000370: afa2 07bf aed8 973e 1c1f b6be 09f8 0abf
00000380: f4b0 013f fe2a 61be a834 c0be f83a 263e
00000390: d894 133f 024d 9c3e fcf6 ef3e 80e2 3abd
000003a0: 80c7 19bc b862 be3d 250c 12bf 9497 04be
000003b0: 2275 04bf 8c07 1b3e b6fd 813e 0cf7 543e
000003c0: 5418 21be 2834 e83e 00d2 013c 0a01 07bf
000003d0: b648 d33e c80f 163e 2e41 3cbe dc6a 8d3e
000003e0: a066 be3d 38f8 733e 180d f03e f9ab 82be
000003f0: 23d4 95be a0bf 92bd ae4a b2be 7aed c93e
-0.30134845 -0.29531416 0.05728388 0.41353238 -0.5186722 -0.1906687 -0.53930724 0.21958172
-0.03310883 -0.17732206 -0.26936325 -0.18661177 0.39239234 -0.16677621 -0.55424553 0.45655322
-0.32230526 0.37612098 -0.4709928 0.3516661 0.40069973 0.30776554 -0.51931965 -0.43584046
-0.21417901 0.37107223 -0.33049625 -0.089585215 -0.28596768 0.002446115 0.54316056 -0.0008329749
-0.47353882 0.42698824 -0.49754632 0.57643735 -0.19877255 0.44880545 0.12906027 0.08776629
0.3573795 0.40056133 0.14696455 0.51837325 -0.49899632 -0.0045622587 0.07365328 0.036836326
0.10531235 0.57641363 -0.112104505 -0.18861124 0.094129145 -0.3285401 0.33024937 -0.009233296
0.3676018 0.0026996136 0.48881578 -0.3361705 0.20110196 0.45208192 -0.5599345 0.3711143
0.3354302 0.4087456 0.10854846 -0.31935748 0.532863 -0.28189787 -0.5330526 0.5070468
-0.31291485 0.0455693 -0.1275447 0.12046397 -0.4018874 0.53016627 -0.3490829 0.2888859
0.51607 0.35822457 0.39829588 0.39083034 0.1102615 0.18220103 -0.31121743 0.49986458
0.47929955 -0.26583147 -0.32363304 0.54003656 -0.105582595 0.12199044 0.4565791 0.5690204
0.19983327 -0.0028806925 -0.28229624 0.12938213 -0.39649546 -0.23592636 0.27760065 -0.517422
0.56376743 0.14580196 0.04025632 0.26403546 0.40638077 -0.20786482 -0.47838673 0.13435882
0.2992627 -0.06567931 -0.5692883 -0.4277929 0.5625868 0.34813148 -0.29223526 0.014673114
-0.4696923 0.27175444 0.121765494 -0.25790235 0.4506675 0.36138123 -0.13608822 0.38427204
-0.5548401 0.5103848 -0.57397306 -0.17269814 0.4811647 0.12916225 -0.1645092 0.5540452
0.00741148 -0.26749283 0.51181996 0.4356804 0.10322583 0.2808923 0.54122996 -0.23062521
0.45769393 -0.5348109 -0.34142733 0.0015796423 0.19494176 0.058449447 -0.14811477 -0.4255054
-0.39970893 0.11280823 0.03578508 0.47664547 -0.4332804 -0.34862614 -0.4657141 -0.041476727
-0.40520334 -0.1838966 -0.37949973 -0.07345283 -0.31494534 0.5564219 0.34729904 0.09576905
-0.46932304 -0.22931293 0.5245818 -0.12245244 0.10413116 -0.39524662 -0.06986785 0.27482837
-0.42454916 0.4224335 -0.25236332 -0.13543162 0.37962985 0.34736443 0.34919423 -0.37614512
0.16046864 0.19244248 0.29646558 0.11422223 -0.25547212 0.29505408 0.5500531 -0.55000865
-0.36973011 0.26789802 -0.4973525 0.24832374 -0.15139398 0.45348597 -0.32931668 -0.072705746
0.563504 -0.44981182 0.34764963 0.15200019 -0.44647592 0.31503016 -0.42751902 0.30912608
0.028348327 -0.13389817 -0.3183639 -0.49526593 -0.33146003 -0.42353207 0.22842377 -0.07267308
0.37929523 0.2984997 -0.2670602 -0.4612463 -0.5298261 0.296575 -0.3557061 -0.5428472
0.50660634 -0.21989056 -0.37540174 0.16233432 0.5764899 0.30527502 0.46868122 -0.045626163
-0.009385943 0.09296173 -0.5704978 -0.12948447 -0.5174123 0.15139598 0.2538888 0.20797366
-0.15731937 0.45352292 0.007923603 -0.5273596 0.41266412 0.14654458 -0.18384239 0.2762059
0.09296918 0.23825157 0.4688499 -0.2552183 -0.2926341 -0.07165456 -0.348226 0.39438993

imagination.2.weight f4 [256, 256]
00000000: 22f6 2abd e052 8abb fc91 f63c 6282 7cbd
00000010: 1cda 7ebd c06f 953a c072 d3ba 20b3 8dbc
00000020: b8c4 5d3c 3622 3e3d 2e0a 093d fca1 963c
00000030: d0c9 de3c 0e3f 6d3d a403 a73c 94bd e8bc
00000040: e865 dc3c a06b 3a3b 205b 423c 78c7 293d
00000050: b0f0 25bd 7245 523d 8071 f1ba 02c8 0e3d
00000060: 2800 25bc 988f 57bc 24a0 dbbc 0896 cbbc
00000070: 90d4 47bc de3b 41bd 8057 7ebb 681f 3f3c
00000080: e493 65bd d072 223d 44a5 51bd b28d 72bd
00000090: e055 bbbc a8ca 02bd c029 54bd 583f ae3c
000000a0: a2d3 38bd f45e 2c3d 8022 80bc d45e e1bc
000000b0: 38d8 eb3c b811 ef3c baa2 0bbd f0d5 0bbc
000000c0: 40e8 533b 6cba 483d d0ac c3bb 8802 553c
000000d0: ba87 593d 1062 b9bc 14ad 90bc ce50 0c3d
000000e0: 80b8 04bc acba 533d aae6 4cbd 60cd 1d3d
000000f0: 8431 07bd 949c 2e3d 8004 69bb 40a0 223c
00000100: d03e cd3b fe03 20bd 6036 3ebc aa61 60bd
00000110: 305e b9bc 080c cbbc 0070 0b3d 408c da3c
00000120: dcaa 7a3d 7cd4 a93c a4d4 ec3c 3485 f8bc
00000130: c804 91bc 6015 2bbc 3e8f 1abd 94ac 383d
00000140: 1033 3bbc 68de 0a3d 3e52 003d 6a56 763d
00000150: e00e 05bd 542a e2bc 189f 87bc 3c41 afbc
00000160: 187e 413d 20e4 e93b 9407 e2bc 10f8 a23c
00000170: 0042 333c 3087 26bd 2016 19bc b850 1f3d
00000180: a0b6 cbbb d8fa 7abc c4fa 413d 80e9 83ba
00000190: a82f 66bc c893 433d d005 fcbb 20fd 703b
000001a0: 92a5 4b3d d6ed 463d b033 ea3b 6022 62bc
000001b0: 58bb be3c 605f 31bd aafd 7dbd e02f 083b
000001c0: bc16 91bc 4043 5ebb 4063 97bb c852 073c
000001d0: 4a56 3e3d 86f8 4fbd 1cff 103d 7afc 673d
000001e0: 88fd 74bc 104a d43c 64ac f73c 80bc b63c
000001f0: 3c62 e63c 18d0 e53c 98ed ffbc a842 5c3d
00000200: e4ec 28bd a4ff 9dbc 9c34 743d 58fd bf3c
00000210: f0df 38bd 083e fabc 4ec9 4e3d d0b8 213c
00000220: be52 153d 3069 40bd 4a71 2abd c6e7 343d
00000230: 3093 4c3c 805a 963c 981c ca3c d4d8 f2bc
00000240: bc57 c2bc 34fd c1bc a8a0 5d3d 565f 0dbd
00000250: b4c8 00bd 8c46 2b3d f802 6e3c 52ba 1abd
00000260: a62e 0c3d 80a5 4cbc 3af0 2dbd aa26 413d
00000270: 206d 653d 1032 743c 3686 163d 18b5 b4bc
00000280: 4e26 193d 408f 203c a693 1dbd 30c4 1bbd
00000290: 0c45 36bd c806 57bc 0871 a63c a03c e33b
000002a0: 985c 4f3d aae9 223d 4832 833c d0cd edbb
000002b0: c85f 30bd 40bf db3b c0f6 023c d40d e53c
000002c0: 202f 80bb a082 e43b be32 573d 5040 47bc
000002d0: e013 72bb 8426 5c3d 9c88 c53c c6c0 2dbd
000002e0: f832 36bd 60a7 9abb 9c27 d5bc 6635 3f3d
000002f0: 4031 e3ba 420d 1d3d 5c1c 9fbc aaf3 013d
00000300: 5abf 1dbd 2eda 21bd b0f5 97bb 5044 24bc
00000310: 200e a1bc 40ab c53c 463b 37bd 7ace 523d
00000320: e0df 133c d006 cf3c d61c 523d 288d 5bbd
00000330: c63a 7fbd 1492 f7bc 34d9 72bd 8ce7 bebc
00000340: f22a 79bd a259 743d a4e7 c93c 3470 07bd
00000350: e0da 75bd e404 ddbc d08a cc3c 787c a1bc
00000360: 740e 513d 8c2d c3bc 0037 bcbc e08c 81bc
00000370: 005c 1f3a c837 bb3c c036 133b d6d1 0bbd
00000380: 3066 b33b 3066 d9bc b0d8 c5bc f084 ea3c
00000390: d8e3 313c 4061 5e3b a8c0 253d 9a88 523d
000003a0: 186a 093d 80a0 683c 92d3 393d d073 dabc
000003b0: 48d8 383d aa82 0b3d 887a 2c3c 5c05 703d
000003c0: b661 27bd d6c2 79bd 20cc 55bc 4c65 893c
000003d0: f048 0d3c 20da e13c 447c 633d f8c8 e53c
000003e0: d4a9 fcbc 5488 bebc 742b 1b3d a0ab 2abd
000003f0: 28ac 923c 9278 243d e054 993b 84ee 7fbd
-0.041738637 -0.0042213053 0.030098908 -0.06164778 -0.062219724 0.0011401102 -0.0016132221 -0.017297328
0.013535671 0.046419345 0.033456974 0.018387787 0.027195841 0.05792146 0.020387478 -0.02841071
0.026904061 0.0028445497 0.011862546 0.041449994 -0.04051274 0.05133576 -0.0018420666 0.03485871
-0.010070838 -0.013156794 -0.02680976 -0.024851814 -0.012196675 -0.047176234 -0.0038809478 0.011665203
-0.056049243 0.039660275 -0.051183 -0.059217162 -0.022868097 -0.03193155 -0.05179763 0.021270439
-0.045123704 0.04208274 -0.01564145 -0.027511038 0.028789625 0.029183254 -0.034090735 -0.008534893
0.0032334477 0.04900591 -0.0059715286 0.013001092 0.053107955 -0.022629768 -0.017660655 0.03425675
-0.008100629 0.051691696 -0.050024666 0.03852594 -0.033006206 0.042629793 -0.003555566 0.009925902
0.0062635913 -0.039066307 -0.011609644 -0.05478064 -0.02262792 -0.02478601 0.03404236 0.026678205
0.0611981 0.020731203 0.028909989 -0.030336954 -0.017702475 -0.010442108 -0.037734263 0.04508646
-0.0114257485 0.03390351 0.031328432 0.060141005 -0.03248489 -0.027608074 -0.016555354 -0.02139341
0.047239393 0.0071377903 -0.027591504 0.019893676 0.010941029 -0.04065627 -0.009343654 0.03889534
-0.006216839 -0.015318595 0.04735829 -0.0010064095 -0.014049448 0.047748357 -0.0076911226 0.0036771968
0.049718447 0.04856666 0.007147275 -0.013802141 0.023282692 -0.043303847 -0.06200949 0.002078049
-0.017711036 -0.0033914596 -0.004619986 0.008259483 0.04646901 -0.05077412 0.03539954 0.056637265
-0.014953025 0.025914222 0.03023357 0.02230668 0.028123014 0.028053328 -0.031241223 0.053774506
-0.04124154 -0.019286938 0.059620485 0.023436233 -0.04513544 -0.030547157 0.050484948 0.009870723
0.036455862 -0.046975315 -0.041611947 0.04416635 0.012486264 0.0183537 0.024671838 -0.029644407
-0.023723476 -0.023680307 0.054108292 -0.034514748 -0.031441405 0.041815326 0.014527075 -0.037775345
0.034224175 -0.01249063 -0.042465426 0.047156014 0.056012273 0.014904514 0.036749087 -0.022059008
0.037390046 0.009799778 -0.038470887 -0.038028896 -0.044499442 -0.013124175 0.02031757 0.0069347173
0.050625414 0.03977362 0.016015187 -0.007257201 -0.043060094 0.0067061484 0.0079934 0.027960695
-0.0039118677 0.0069735795 0.052538626 -0.012161329 -0.0036938116 0.05374767 0.024112992 -0.04242017
-0.0444822 -0.0047196597 -0.026019864 0.046681784 -0.0017333403 0.03834272 -0.019422702 0.031726517
-0.038512565 -0.039514713 -0.0046374425 -0.010026053 -0.019660056 0.02412951 -0.044734262 0.051466443
0.009025544 0.025271803 0.05129703 -0.053601414 -0.06231191 -0.030221023 -0.059289172 -0.02330377
-0.06083197 0.059655793 0.024646588 -0.03306599 -0.06002319 -0.026979871 0.024968535 -0.019712672
0.051039174 -0.02382543 -0.022975445 -0.015814245 0.0006079078 0.022853747 0.0022463053 -0.034135662
0.005474828 -0.026537985 -0.024151176 0.028627843 0.010857545 0.0033932477 0.040466934 0.051399805
0.033548445 0.014198422 0.045367785 -0.026666552 0.045128137 0.034060158 0.010527261 0.05859886
-0.04086467 -0.060976826 -0.0130491555 0.016771935 0.008623347 0.02756983 0.05553843 0.02804993
-0.0308427 -0.023258366 0.037883237 -0.04166758 0.017904356 0.040154047 0.0046793073 -0.062483326

imagination.2.bias f4 [256]
00000000: 32ed 333d ceac 5ebd 46ab 043d c25f 13bd
00000010: 4640 193d d043 86bc 4a34 35bd da54 22bd
00000020: a039 5a3b 5613 5c3d 4000 7bbb e0b9 44bd
00000030: 00b8 883b 60de 25bb 120b 713d 84be fdbc
00000040: 56e9 7fbd 42fa 513d 9c61 f0bc 4095 a93c
00000050: 0024 49bd d021 063c 7084 b53c 9a63 3d3d
00000060: ecc5 2ebd 0ec2 053d 305c d73c dc25 b93c
00000070: 844f e03c 006b afbb 7ca5 d13c cecd 113d
00000080: c02b 8d3b 400e 393b 04ed dfbc 7afa 05bd
00000090: 64b9 7dbd c671 3bbd c8ed 05bd f881 c43c
000000a0: 74a5 603d 6c9e 42bd bc66 f7bc 0844 913c
000000b0: 38a2 0b3d c888 a33c 0873 843c ecab 0c3d
000000c0: 3a8d 3cbd e039 f33b c202 5abd 9cdb fc3c
000000d0: 0c4a f0bc 3e90 24bd 6a5d 723d 388f a7bc
000000e0: 68c2 513c 3c02 1b3d 00a6 d6bb 7ade 15bd
000000f0: 5c5b ccbc 400e 6cbd 80c6 b0bb 08a0 f13c
00000100: 8688 1dbd f0f3 5fbc c400 35bd 68a6 f43c
00000110: 865c 353d 0e79 08bd e69b 683d 0059 423a
00000120: b08d 453c 9033 95bb 56e2 4c3d f07b b7bb
00000130: 7e41 073d 2e0e 42bd 6814 013c e0c9 6abb
00000140: 4491 a83c ac0b 18bd 023a 153d 104d 22bc
00000150: 0064 e1b9 d866 663d a68c 52bd d470 b7bc
00000160: 2c54 40bd 5c54 093d 6c58 db3c 6477 f9bc
00000170: c468 f2bc 666f 3a3d 90b4 ab3c 9eb2 39bd
00000180: 204d d2bb 7013 f8bb 0ac3 35bd ae99 533d
00000190: c2f8 613d 7212 0f3d f4f9 37bd a4e9 c2bc
000001a0: 2a76 3bbd 70e0 27bc a092 473b 26b4 3cbd
000001b0: c46f d23c aa8a 57bd 4423 f33c 8c25 183d
000001c0: f033 e73b b0ba 7cbc 4e5c 5f3d 247d 6ebd
000001d0: 8043 25ba f07c 68bd 8847 7bbd 48e4 2c3d
000001e0: a0a0 6dbc dc56 7d3d 40a4 6e3c 40f7 2dbb
000001f0: bc01 333d f0af 9cbc a0e6 e6bc 1051 30bc
00000200: 344c c83c 70ce 3a3c 58e9 403c 7891 7fbd
00000210: 504e 503d 508a bd3b ac9e fa3c c8de d0bc
00000220: ce3e 47bd dc0f babc 6c00 c1bc 9c6f 043d
00000230: 24b9 3f3d 00b0 d03b 6acd 4c3d 364e 2a3d
00000240: 502f debb d0c3 fc3c 16b1 7bbd b8ba cf3c
00000250: 2040 7fbb 507e 93bb 101b 263c 46c5 0a3d
00000260: 509a 033c c014 e8bb a4af fcbc a82f 27bc
00000270: e4df c9bc 88ee 8a3c c45c 32bd 003b 24bd
00000280: acd5 aabc 70f2 46bd f451 7b3d 0634 1dbd
00000290: 3878 743c 40e1 063c 4614 6fbd 2a28 163d
000002a0: a0bb cd3c 046e 5fbd a898 083d 7038 c53c
000002b0: 1435 1f3d 60e9 20bc 241c 7b3d 20b8 a0bb
000002c0: 7407 39bd 2c1b 27bd a4d2 c83c 4067 96bc
000002d0: 9c43 ba3c 7a73 10bd e639 003d 064b 1fbd
000002e0: 62f9 323d 7018 6dbd 48d1 17bd 423c 6bbd
000002f0: e8bd fbbc dc90 753d 7063 c4bb 62f0 123d
00000300: a819 10bc 628c 35bd c27c 053d f04b 123d
00000310: 1623 3fbd 4293 62bd 28e0 4f3d 9407 69bd
00000320: 3cdd 4dbd 54f6 6bbd 4476 843c b812 44bd
00000330: d800 bcbc 88fc cfbc 2038 07bd c8a6 363c
00000340: d8a4 023d ccff eebc d0e5 3dbd 0a2c 663d
00000350: 7499 81bc 5c4a 25bd 1c5e 80bc f01f af3b
00000360: d250 133d 0071 613c e23a 363d 78f6 6bbd
00000370: 70c0 afbb d218 523d 4ed3 613d 181f bf3c
00000380: 48dd 883c 88c1 14bd 08aa 0cbc d644 3bbd
00000390: 30af 673c c034 153d 9e17 17bd f411 843c
000003a0: 1890 6c3c b0e6 bebb f47e 0a3d fc9f df3c
000003b0: ca7c 153d 40b4 c9bb 5ed2 7e3d e054 5c3c
000003c0: 2856 24bd 96e6 3abd 307d 033d 94c8 823c
000003d0: cedd 34bd 608e e63c 26d0 0d3d a63b 1d3d
000003e0: b02a 11bd 1058 d2bc 6a2d 6fbd c8ad 73bc
000003f0: a246 503d aebe 263d d0dd d33c 68e6 5d3c
0.04392738 -0.05436402 0.0323899 -0.035979994 0.03741481 -0.016389757 -0.04423932 -0.039631702
0.0033298507 0.053729378 -0.003829971 -0.048028827 0.004172325 -0.0025309548 0.058848448 -0.030974634
-0.062478386 0.051264055 -0.029343419 0.02070105 -0.049106598 0.0081867725 0.022157878 0.046237566
-0.04266922 0.032655768 0.026289076 0.02260106 0.027381666 -0.0053533316 0.025591604 0.03559666
0.004308194 0.0028237253 -0.027334698 -0.032709576 -0.06194438 -0.0457628 -0.03269747 0.023987755
0.05484529 -0.047514364 -0.030200355 0.017732635 0.03409025 0.019962683 0.016168132 0.034343645
-0.04603312 0.0074226707 -0.053225286 0.030866437 -0.029332183 -0.040176623 0.059171118 -0.020454034
0.012802698 0.037843928 -0.0065505505 -0.036589123 -0.024945907 -0.057630777 -0.005394757 0.029495254
-0.038460277 -0.013668999 -0.044190183 0.029864505 0.04427769 -0.03331857 0.0567893 0.0007413775
0.012057707 -0.004553266 0.05002054 -0.0055994913 0.033021443 -0.047376804 0.0078784 -0.0035825893
0.02057708 -0.037120506 0.036432274 -0.009906068 -0.0004298985 0.056250423 -0.051403664 -0.022392668
-0.046955273 0.033527717 0.026775561 -0.030452438 -0.029590972 0.045516394 0.020960122 -0.04533636
-0.0064178854 -0.0075706765 -0.044375457 0.051660232 0.055168875 0.0349297 -0.04491611 -0.02379305
-0.045766987 -0.010246381 0.0030452386 -0.04607024 0.02568806 -0.052622475 0.029679902 0.037145182
0.007055752 -0.015425369 0.054531388 -0.058224812 -0.0006304309 -0.056759775 -0.061347514 0.042209893
-0.014503628 0.061850414 0.014565527 -0.0026545078 0.043702826 -0.019126862 -0.028186142 -0.010761514
0.024450399 0.011401758 0.0117743835 -0.06239459 0.050855935 0.0057843104 0.030593239 -0.025496855
-0.04864388 -0.02271264 -0.023559771 0.032333 0.046807423 0.006368637 0.050000586 0.041578494
-0.0067805424 0.03085509 -0.06144818 0.02535759 -0.0038948134 -0.0045011416 0.010138288 0.03387954
0.008032396 -0.0070825517 -0.03084547 -0.010204233 -0.024642892 0.016959444 -0.0435455 -0.04009533
-0.02085384 -0.04857105 0.061357453 -0.03837969 0.0149212405 0.008232415 -0.058368944 0.036659397
0.02511388 -0.05454828 0.03334871 0.024074763 0.03886898 -0.009821266 0.061306134 -0.004904762
-0.045173123 -0.040797397 0.024514504 -0.01835978 0.022737317 -0.035266377 0.031305216 -0.038889907
0.04369486 -0.057884634 -0.03706482 -0.057430513 -0.030730203 0.0599526 -0.005993299 0.03587378
-0.008795179 -0.044323333 0.03258968 0.03571695 -0.04666432 -0.055316217 0.05075088 -0.056891993
-0.050259814 -0.057607964 0.016169675 -0.047869414 -0.022949621 -0.025388971 -0.03301251 0.011148162
0.03189549 -0.029174708 -0.046361744 0.056194343 -0.015820242 -0.040354118 -0.015669875 0.0053443834
0.035965748 0.013759851 0.04448975 -0.057608098 -0.0053635165 0.0512932 0.055133156 0.023330256
0.016707078 -0.03631738 -0.0085854605 -0.045719944 0.014140889 0.03642726 -0.036887757 0.016121842
0.0144386515 -0.00582584 0.03381248 0.027297966 0.03649596 -0.0061555207 0.06221234 0.01344797
-0.040121228 -0.04563006 0.03210181 0.015964784 -0.044156842 0.028144062 0.034622334 0.038386963
-0.0354411 -0.025676757 -0.05839292 -0.014872976 0.05084861 0.04070919 0.025862604 0.013543703
