MAI2A_TreasureFinder/agent_2_model.pth (torch, 848959 bytes, 30 tensors)

env_model.conv1.weight f4 [32, 14, 3, 3]
000000 72 2d f6 3c d3 03 47 bd 06 13 b1 bc a3 ff d3 bc
       0.030050967 -0.04858763 -0.021615516 -0.025878733
000010 30 02 b9 3b a9 5b 0d bd 62 7c 12 3d db 9e 56 3c
       0.0056460127 -0.034511242 0.035763152 0.0130993975
000020 32 e1 b0 bc 5e f0 5d bd 61 bf d1 bb a4 90 53 3c
       -0.021591756 -0.05418431 -0.006400988 0.012912903
000030 de 69 de 3b 61 07 ac bd d1 06 c9 bd a1 27 b7 bd
       0.0067875227 -0.08399845 -0.09815753 -0.089431055
000040 e3 50 9b bd ae d8 6a 3d a0 a4 25 bb 2d c3 94 ba
       -0.07583787 0.057335548 -0.0025275126 -0.0011349671
000050 0b 75 48 bd 01 9e c8 3b e6 ca 9b bd b1 f6 8c bc
       -0.048939746 0.006122351 -0.07607059 -0.017207475
000060 b1 2a c5 3c 55 22 e2 3c c3 87 ba bb ac 94 13 3e
       0.024068208 0.027604261 -0.0056924536 0.14412183
000070 4f 8d 1e 3e 41 94 8f bd ac 6a 9c 3c 73 06 14 bd
       0.15483592 -0.07010699 0.019093834 -0.036138963
000080 67 90 08 bc 1d 39 72 3d b4 8b 95 bd 08 7e 25 3e
       -0.008335209 0.0591365 -0.07302037 0.16161358
000090 0f 27 30 3d 3a 83 12 3e 91 40 47 bd a9 02 ca 3d
       0.043006 0.14307871 -0.04864556 0.09863789
0000a0 2d 77 d1 3b 17 3f 6f bc cd 73 27 3e 01 b2 8e 3e
       0.0063923807 -0.014602444 0.16352768 0.2787018
0000b0 cb b5 01 3e a0 49 aa 3d 8e b2 eb bd 20 4d 1a be
       0.12667005 0.08314824 -0.11508666 -0.15068483
0000c0 fb 4a 30 bb 3d 79 9d bc 84 43 3b 3d ee 91 a6 bd
       -0.002690016 -0.01922285 0.045718685 -0.08133303
0000d0 b6 fd ff 3d 59 e0 55 bd 00 c3 74 3c 63 94 bb bd
       0.124995634 -0.052215908 0.01493907 -0.09159162
0000e0 28 a6 21 bd d8 c9 0e 3b 22 92 d6 bd a1 10 82 bd
       -0.0394651 0.0021787789 -0.10477091 -0.06350828
0000f0 f0 ac 5b bd 82 79 4f be 0d 2a e0 bd c3 4f 10 bd
       -0.053631723 -0.20261195 -0.109455206 -0.035232317
000100 3d 4b 0b bc f5 67 59 bd 5b 35 2e 3d c4 77 0e 3d
       -0.008501825 -0.053077657 0.042531352 0.034782186
000110 be 38 90 3c 0e 83 80 b9 ae 87 71 bd 01 75 79 bd
       0.017605182 -0.00024511706 -0.058967285 -0.0609026
000120 0b fb e4 bc 9e e4 c9 3d 2e 2d 1b 3d 36 00 ad 3d
       -0.027951738 0.098580584 0.037884884 0.08447306
000130 b9 77 0e 3d 80 3a 8b 3d cb f1 52 3d 0a d7 71 3c
       0.034782145 0.06798267 0.051500123 0.014760742
000140 02 12 5c 3d 1d c1 fe 3d 9c ad 75 bc bf ea c2 bc
       0.05372811 0.12439177 -0.014995005 -0.023793576
000150 1a ec 33 3e bb 41 42 3e c1 1e 45 3e 8d ae ca 3d
       0.17570534 0.18970387 0.19250013 0.09896574
000160 82 1a 34 3e 28 f5 a7 3d db d1 9e 3d 54 c7 9c ba
       0.17588237 0.08201057 0.077548705 -0.001196126
000170 6f 92 89 bd 8b b2 b4 bc 26 b4 8f 3d b6 3f 9e 3d
       -0.06717383 -0.022057792 0.070167825 0.07726996
000180 8d 7f 61 3d 65 39 69 3d 48 4b b4 3c b0 4e ee 3c
       0.055053283 0.0569395 0.022008553 0.029090255
000190 4a 02 47 3d e6 30 c5 bd d9 62 5b 3d b3 bb 9d 3b
       0.048586167 -0.09628467 0.053561065 0.0048136353
0001a0 cf 11 2d 3d d9 64 b5 3d f8 6b 4d 3d a7 f0 88 3d
       0.04225331 0.08857126 0.050151795 0.06686526
0001b0 c9 21 b4 3c fe 50 3d 3d 9c 19 00 3d 25 56 8c bd
       0.021988766 0.04621982 0.031274423 -0.06852368
0001c0 0a 81 ac 3c d6 2c 0f 3c 8a 6b 90 b9 e4 87 a1 3a
       0.021057624 0.008738717 -0.00027545943 0.0012323824
0001d0 71 9c 47 3d 03 46 b6 bc 02 58 d8 bc 25 7c 5e 3d
       0.04873318 -0.022250181 -0.026409153 0.054317612
0001e0 8a d8 9f bd 97 72 9c bb 2b 8e 62 bd fa b0 3a bc
       -0.078049734 -0.0047744024 -0.055311363 -0.011394734
0001f0 2a 7b c8 3b d1 20 81 3d d5 ef 59 bc 62 cf 1d bc
       0.006118198 0.06305087 -0.013301809 -0.009631963
000200 db 4c 9e bb 5e 11 d3 3c e7 60 4e bc cf cf f5 3c
       -0.004830939 0.025765117 -0.0125963455 0.030006317
000210 b9 75 81 bd af 23 8e 3a 13 bb d2 3c 01 d4 dd bd
       -0.06321282 0.0010844375 0.02572397 -0.10831452
000220 22 db 51 3d 6b c4 cd bc fa e5 5d 3d 25 58 cf 3c
       0.051234372 -0.025118073 0.0541744 0.025310585
000230 0e 59 0e bc 2c 4c 15 bd a7 cc f1 3d e4 82 76 bd
       -0.0086882245 -0.036449596 0.118066125 -0.06018342
000240 8d c8 a2 3a 56 57 4b 3d f0 4b 8e bd f9 3d f9 bc
       0.0012419388 0.049643837 -0.06948078 -0.030425059
000250 d3 7f 34 3c d7 37 a4 ba 76 37 36 bd 86 fd 01 3d
       0.011016804 -0.0012528849 -0.044486485 0.03173592
000260 d0 8c 04 bb 8b 0e 45 be 4a 2c f5 3c 5b e8 04 bb
       -0.0020225532 -0.19243829 0.029928345 -0.0020280096
000270 bc 71 bc bd ea 00 56 3d 2d b6 71 3d d5 7a 3e 3d
       -0.092013806 0.052246965 0.059011627 0.04650386
000280 4d 5d 94 3c 78 ae 10 3e 1d c3 de 3d 46 91 99 3c
       0.018110896 0.14129055 0.10877059 0.01874603
000290 ad 74 49 bd b6 aa 50 3c 9a cb 1a 3e fb 8b fb 3d
       -0.049183536 0.012736013 0.1511673 0.122825585
0002a0 5d 84 3f 3e d3 7d e3 3d 51 09 10 be 13 e6 9b 3c
       0.18702836 0.111079834 -0.14066054 0.019030606
0002b0 af 9e a6 3d ed 50 5d 3d db bd 93 3c 12 a3 9f bd
       0.08135735 0.054032255 0.018034866 -0.07794775
0002c0 b6 30 d8 bc b7 de 44 bd 04 ad 1a bc 25 ed 1d be
       -0.026390415 -0.04806396 -0.009440664 -0.15422495
0002d0 80 6e dd bd b5 8a e9 bc 0e 66 19 be 47 91 a4 bd
       -0.10812092 -0.028508523 -0.14980337 -0.08035522
0002e0 0f 09 2c be ba bc d5 bd 3e 85 95 bd 06 b6 cc bd
       -0.1680033 -0.10436387 -0.073008046 -0.09995656
0002f0 b2 c5 04 be 7f 4a 07 bd 40 0e 6e bd ca da 1f bd
       -0.1296604 -0.03303003 -0.05811906 -0.039027013
000300 98 f1 86 3d 6a a8 21 bd fb 9b 66 3d 06 8d e6 bc
       0.06589049 -0.039467253 0.0563011 -0.028143417
000310 24 0f 87 bd 81 4a eb 3b ac 78 01 3d 41 df bb 3c
       -0.06594685 0.0071805124 0.031609222 0.022933604
000320 df da 96 3d 98 ce d7 3c c0 97 68 3d 2a 96 5c 3d
       0.07365965 0.026343629 0.056785345 0.053854145
000330 34 c1 b6 3d ae e2 62 3d be 0e d4 3d 04 40 6f 3d
       0.08923569 0.05539196 0.10354374 0.05841066
000340 ee 52 93 3d 4d 4a 77 3c b7 76 e3 3d 88 1c 24 3e
       0.07193552 0.015093398 0.111066274 0.16026509
000350 84 b6 a7 3d 12 9f 58 3e 00 46 27 3e c8 e8 31 3e
       0.08189109 0.2115443 0.16335297 0.17373955
000360 79 70 22 3e b8 71 29 3d 67 82 98 3d 24 17 86 3b
       0.15863217 0.041368216 0.07446747 0.004092114
000370 e3 c5 8b 3d d4 30 22 3e 0b 10 41 3d d8 e8 b8 3d
       0.06824853 0.15838939 0.04713444 0.090287864
000380 40 04 18 3d 8e 54 d5 3d 21 6d d2 3d 31 2d a7 3d
       0.037113428 0.10416518 0.10274721 0.081629165
000390 07 ed c6 3d 46 27 5d 3d 16 25 8b 3d b7 79 8c 3d
       0.09713178 0.053992532 0.06794183 0.06859153
0003a0 c4 73 bb 3d e8 05 cc 3d 0b 8d 3d bd 26 5f 4f 3d
       0.0915294 0.09962064 -0.046277087 0.05062785
0003b0 81 da 08 ba 4a 6d 2e bc 15 d1 01 3e b9 bb 7e 3d
       -0.0005220548 -0.010646174 0.12677415 0.062190745
0003c0 db b1 59 3d 5d 8f 59 3d 6b 64 1a 3e 42 32 0a 3e
       0.05314813 0.053115238 0.15077369 0.13495734
0003d0 fa ca aa 3d f2 69 81 bc 72 fb 6c 3c 66 a8 53 3c
       0.08339496 -0.015797589 0.014464246 0.012918567
0003e0 c2 fd 03 3e c3 2f 5c 3d 30 8a 25 3e c8 a6 cc 3d
       0.1288977 0.053756487 0.16165996 0.099927485
0003f0 29 09 52 3d a2 0c 66 bc 04 f6 2f 3d 7e 4a c4 bb
       0.051278267 -0.014041098 0.04295923 -0.0059903255

env_model.conv1.bias f4 [32]
000000 8c dd ed bc 17 aa e5 3c 4c 5d a2 3d 9b 86 c4 bd
       -0.029036306 0.028035207 0.07927951 -0.095959865
000010 ae df 79 3d 65 48 34 3c bd a9 76 bd 0b 3e 2a 3e
       0.061004333 0.011003588 -0.06022047 0.1662523
000020 26 e2 d2 3d e2 b0 54 bc 88 98 6a bd af 2e 81 bd
       0.10297041 -0.012981625 -0.05727437 -0.06307732
000030 68 9d df 3d 99 48 44 3d 7c 2b 90 3d 59 98 25 3d
       0.10918695 0.047920797 0.07039544 0.040428493
000040 59 33 14 3d 10 67 4e 3d 7d 8a 8c 3c b2 1f 82 3d
       0.03618178 0.050391257 0.01715588 0.06353702
000050 8c fa 98 bb 7b c5 07 3d a2 3c 80 bc 08 75 03 be
       -0.0046685394 0.033147316 -0.015653912 -0.12837613
000060 54 3d 15 3d 35 7c b0 3d 67 a2 68 3d 28 eb dc 3d
       0.03643544 0.086174406 0.056795504 0.1078704
000070 21 a8 b0 3d 50 a8 6a bd e5 b4 c7 3d 9b 2d 30 3e
       0.08625818 -0.05728942 0.097513 0.17204897

env_model.conv2_state1.weight f4 [3, 32, 3, 3]
000000 9d 42 4a bb 84 a6 27 bc d3 2f f4 bb 5d 25 9d bb
       -0.0030862459 -0.0102325715 -0.00745199 -0.004795714
000010 be 82 df 3b ef ce 1d bb 1b fa 27 ba ea 07 33 3c
       0.0068210056 -0.002407964 -0.0006407813 0.01092718
000020 f3 59 ab bb 32 29 69 bc 5a 21 af 3a 7a 4a 57 3c
       -0.0052292286 -0.014231013 0.001336138 0.013140315
000030 df 6d b2 b9 6c b1 80 3b 4f 3a c4 bb 5e f1 ce 3b
       -0.00034032666 0.0039274003 -0.0059883962 0.0063153943
000040 69 1d 28 bc 64 cd 0a ba 9d 34 7f bb e4 39 95 ba
       -0.010260918 -0.0005294888 -0.0038941272 -0.0011385051
000050 45 85 4d 3a 2f 09 5e ba f1 af f3 b9 56 18 99 38
       0.0007839988 -0.00084699964 -0.00046479658 7.3001414e-05
000060 00 15 15 ba 1b e5 b6 ba a8 4a 45 b9 1d de a6 ba
       -0.0005687028 -0.0013953777 -0.00018815196 -0.001273099
000070 82 d7 2d ba 50 98 bd 3b 0c 01 9f bb c0 0b 9c ba
       -0.00066315394 0.0057859793 -0.0048524197 -0.0011905357
000080 d9 76 3e 3b de 3e 86 3b f8 08 8a ba e1 b6 3a 3c
       0.0029062538 0.00409685 -0.0010531237 0.011396141
000090 3f 16 f9 39 8f 49 26 bc 9e c2 88 3c 28 39 14 bc
       0.00047509556 -0.010149374 0.016694363 -0.00904683
0000a0 75 14 9c 3b 7a 81 97 ba 0a 72 02 3b 9d 79 99 bb
       0.004763181 -0.0011558973 0.0019904398 -0.004683687
0000b0 9f e2 dd 3b 73 9a 6a ba 53 fe ea bb e2 84 27 3c
       0.0067714 -0.00089494063 -0.007171431 0.010224553
0000c0 9a ac 0e 3b 83 07 91 3b 28 9e 01 bc 40 3a 44 3b
       0.002177036 0.0044259443 -0.007911243 0.0029941946
0000d0 8f c9 24 3b a2 f1 6a bb eb 63 8e b8 c7 7d 04 3c
       0.0025144552 -0.003584959 -6.789699e-05 0.008086628
0000e0 34 d6 bf bb cf f6 93 b9 a8 f0 be 39 da 0a bc 3a
       -0.0058543924 -0.00028221912 0.00036418927 0.0014346496
0000f0 a0 66 00 bb 83 25 04 3b 79 81 72 3b 1c c3 01 bc
       -0.001959242 0.002016396 0.0037003441 -0.007920053
000100 35 da d7 ba b3 af dc 39 e2 09 2c bb de 0f 02 3b
       -0.0016468229 0.00042092576 -0.0026251008 0.0019845883
000110 70 bc 98 3b 0b 5b 80 3c 42 08 2c 3a ea 0f e8 3a
       0.0046611354 0.015668413 0.000656251 0.0017704938
000120 8f 9c 34 bb 95 3e ad 3b 67 fc 41 bb b5 e0 59 3a
       -0.0027559137 0.0052870014 -0.0029599906 0.0008311377
000130 63 4f 9c bb b2 26 1b bb fc e0 25 39 a9 ee 8f bb
       -0.004770206 -0.0023674187 0.0001581944 -0.004392464
000140 80 ad 97 39 3f 2c cf ba e6 10 3b 3c 48 07 a3 bc
       0.00028930232 -0.0015806033 0.011417603 -0.019900933
000150 15 6a a7 bb 17 b0 1d bb f9 16 33 3c 53 4b fe ba
       -0.0051090815 -0.0024061257 0.01093077 -0.001940111
000160 64 ef ff 39 51 6c c9 3a e2 83 26 bb 19 32 20 bc
       0.0004881575 0.0015367364 -0.0025408198 -0.009777569
000170 fe 81 19 3c 30 29 c5 3a 2a 27 86 3b 00 83 b9 ba
       0.009369371 0.0015042182 0.004094024 -0.0014153421
000180 00 57 79 3b fe 59 92 ba 69 83 0b 3c 97 23 e8 3a
       0.003804624 -0.0011165736 0.008515217 0.0017710802
000190 5b 6d b9 3c 96 23 51 3c c1 8b 4b 37 db fa a0 3b
       0.022635153 0.012764832 1.2132282e-05 0.004912717
0001a0 6c f0 4f bc 82 b5 cc 39 1d 6a 77 3a 16 cd 32 3b
       -0.012691598 0.00039045146 0.00094381144 0.0027282885
0001b0 8a 80 08 ba 85 f8 19 3c 45 20 1a bc 19 2f a1 3a
       -0.0005207142 0.009397631 -0.009407108 0.0012297361
0001c0 85 85 f9 3b 4a 9a b4 bb a2 f7 29 bc 47 2f 1f 3c
       0.0076147937 -0.0055115568 -0.010373982 0.009715862
0001d0 4f c5 7e 3c 7f d0 8f bc 9b 91 ec ba b6 2b 59 3c
       0.015549972 -0.017555473 -0.0018048765 0.01325505
0001e0 1b 6e 93 bc 13 fc 01 bc 9a 21 2c 3c 82 43 94 3c
       -0.017996838 -0.007933634 0.010506058 0.018098596
0001f0 92 60 69 bb 5e 07 58 ba 90 67 97 bb b8 49 4d bb
       -0.003561054 -0.0008240844 -0.0046205 -0.0031324457
000200 75 eb d5 3a 3e 88 14 bb 74 fb 71 3a 29 c6 83 3b
       0.0016320782 -0.0022664214 0.000923089 0.0040214253
000210 99 83 13 3a 19 82 b4 3b c3 7d b4 bb 25 58 43 3c
       0.00056272146 0.005508673 -0.005508156 0.011922871
000220 4c 20 9a ba bc 7e 49 3c 7f da 40 bc a7 46 14 bb
       -0.0011758893 0.012298282 -0.0117708435 -0.002262512
000230 f3 cb 71 3b 1a 7b fb 39 74 c9 8c 3c 8e 67 a2 bc
       0.0036895245 0.00047966168 0.017185904 -0.01982477
000240 7b 82 f7 3a af b6 5c bb 4d 54 09 3c 20 b5 ba ba
       0.0018883491 -0.0033678224 0.008381915 -0.0014244653
000250 1b a8 f5 3a bd 38 8b 3b 56 95 86 bb ac 9d 22 ba
       0.0018742116 0.004248707 -0.0041071577 -0.00062033045
000260 7f ec cd bc 1e e5 c9 3b 1e d4 69 bb 55 5e 51 3b
       -0.025137184 0.006161346 -0.003567941 0.0031947095
000270 62 79 6d bb 1a 96 d4 3b fc 83 81 bb d7 87 fd bb
       -0.003623568 0.00648762 -0.0039525013 -0.0077371406
000280 73 e1 4a bb 75 a9 fe bb 31 23 15 3d e2 83 2e bc
       -0.0030957132 -0.0077716657 0.036410514 -0.0106515605
000290 f7 e9 8a 3b d3 c3 49 bc 6f d6 04 3b ec 2f df bc
       0.0042393166 -0.012314755 0.0020269414 -0.02724453
0002a0 d9 3b 02 3c 60 f6 a7 37 bb 44 30 bd 34 60 80 bb
       0.007948839 2.0022679e-05 -0.043034296 -0.0039177183
0002b0 02 54 34 3a 8b 1b 1a 3c 2b 54 d2 ba 9d df 4c 3b
       0.0006878973 0.009405981 -0.0016046813 0.0031261214
0002c0 c7 0f b6 3a ba b5 82 3b 19 f0 52 3b 0f a4 63 bb
       0.00138902 0.0039889487 0.0032186566 -0.0034735238
0002d0 b8 ae e7 3a c8 88 6f 3b 94 c2 da 3b 90 04 d5 39
       0.0017675972 0.0036550034 0.0066760276 0.00040629925
0002e0 f1 39 b8 bb 05 e1 16 bc be 62 b8 ba 37 e4 00 3c
       -0.0056221415 -0.009208922 -0.0014067513 0.007866911
0002f0 1c bd 8d 3b 04 72 24 ba db 99 c8 3b 57 fb 0b bc
       0.004325522 -0.0006273093 0.0061218566 -0.008543811
000300 4f fa 70 39 59 ff 70 39 0a e8 70 39 00 dc 74 3c
       0.00022981431 0.00022983308 0.00022974625 0.01494503
000310 2b d2 3a bb f9 a3 bd b9 46 b5 63 bc 81 ef 00 3c
       -0.0028506618 -0.00036171058 -0.013898199 0.007869602
000320 47 48 ea 3b 1b 8e db 3b bc c2 1a bb ab 72 91 3c
       0.0071497294 0.00670029 -0.0023614606 0.017754873
000330 04 bc 94 3b 31 6a 50 bc 08 66 2a 39 44 0d 06 bd
       0.004539015 -0.0127206305 0.00016250473 -0.032727495
000340 49 62 c3 b9 2f 56 17 3d 31 89 60 bd 69 bb 80 39
       -0.00037266526 0.036947425 -0.054818336 0.00024553694
000350 44 84 de 38 a8 fe d8 ba ba bc 25 3a 18 b6 ae b9
       0.00010610421 -0.0016555386 0.0006322373 -0.00033323537
000360 8e 27 a1 3b c5 e6 90 bb 6f 5a a4 3b 71 92 8d 3b
       0.0049180454 -0.004422041 0.0050156633 0.0043204357
000370 5f 9e 54 bb 78 9a c3 3b 8f e5 b2 bc 24 a8 53 bc
       -0.003244303 0.005969342 -0.021837978 -0.012918506
000380 4a 5d ad bc 3f a5 03 3c b0 ac 40 bc 45 7c ac 3b
       -0.021162648 0.008035003 -0.011759922 0.0052638375
000390 34 e3 63 3c f6 f9 2c bc b4 cf 05 3c 2b b6 8b 3c
       0.01390915 -0.010557642 0.008167196 0.017054638
0003a0 20 0b a2 3b 57 bf 01 bc e1 84 bc bb c2 98 b6 3c
       0.004945174 -0.007919154 -0.005753145 0.022289637
0003b0 b0 99 22 bc de 3d 16 3b d9 62 73 bb c1 b6 1c 3c
       -0.009924337 0.002292506 -0.0037137775 0.009565056
0003c0 9d 52 7a ba 87 89 45 bb 53 fe c7 bb e2 29 1c 3b
       -0.00095490535 -0.0030141787 -0.006103316 0.0023828675
0003d0 3c 4b 46 3b 5c 90 13 bb c8 69 cc b9 fa 30 76 bb
       0.0030257246 -0.0022516465 -0.00038988725 -0.0037565813
0003e0 b7 06 97 3a b4 86 15 bd 6f ab f2 3a 30 c8 c1 39
       0.0011522387 -0.036505416 0.0018514226 0.0003696098
0003f0 47 ba b5 3b 3e 6c a4 3b 53 48 f3 bb a0 c1 eb 3b
       0.0055458876 0.0050177863 -0.007424393 0.0071947128

env_model.conv2_state1.bias f4 [3]
000000 90 fe d8 b8 2b ac 07 3b 6f d5 a6 b9
       -0.000103470986 0.0020701985 -0.00031821008

env_model.conv2_state2.weight f4 [3, 32, 3, 3]
000000 9f 3e 67 bc b5 c3 54 3d 97 84 10 3e b0 26 58 3d
       -0.014114051 0.051944453 0.14113079 0.05277127
000010 f2 66 52 bd 35 12 af be a0 09 33 bd 84 16 1b be
       -0.051367708 -0.34193578 -0.04371035 -0.15145308
000020 ba 60 9b be 6f ad 6c 3d 9e ee 82 bb 98 cb 1a 3e
       -0.30347234 0.057782587 -0.0039957305 0.15116727
000030 29 5a 6d bd cf fc e3 bd d7 27 11 bf 7c 5b 2a bd
       -0.05794731 -0.11132204 -0.56701416 -0.041591153
000040 b6 1e 3e be f1 6a d6 be d5 22 29 3e 59 7b 19 3e
       -0.18566403 -0.41878465 0.16517194 0.1498846
000050 0e f4 6e bc 83 24 9b 3d 68 ba 29 bd b1 09 9a be
       -0.014584554 0.075753234 -0.041437536 -0.3008552
000060 b0 fd 69 3d 4e db db bd a0 eb ea bc b3 0e 4a 3f
       0.0571267 -0.107351884 -0.028676808 0.7892868
000070 c7 49 8c 3e 83 44 10 be 6d d5 db 3c 64 47 98 3d
       0.27400038 -0.14088635 0.026835168 0.07435492
000080 68 44 91 40 75 79 8b bb 64 f0 8e 3e 19 35 71 bd
       4.5396004 -0.004256422 0.27917778 -0.05888853
000090 e1 23 3f 3e 72 d2 29 3e 7e 7b 30 3e 1c 72 98 bd
       0.1866603 0.16584185 0.17234609 -0.0744364
0000a0 77 a6 1f be 55 88 12 be 5e 07 a3 bd 47 05 09 be
       -0.15590845 -0.14309819 -0.079603896 -0.1338092
0000b0 64 8c 94 bd a9 6d c0 3d a5 ad aa 3d 30 a8 22 bd
       -0.0725334 0.09395916 0.08333901 -0.039711177
0000c0 c9 6b 93 3d f7 4c ec 3d e4 7b 16 3e 5f b3 77 3d
       0.07198293 0.115381174 0.14695698 0.060473796
0000d0 d3 a2 90 bd 2a cb ac bd bf 20 82 3d 18 06 ab 3e
       -0.07062306 -0.08437188 0.06353902 0.33403087
0000e0 cc 2e 5d bd c1 c1 ef 3c de 48 14 3c 3e fe 2e be
       -0.053999707 0.029267194 0.009050576 -0.17089173
0000f0 f6 16 fd 3b 8c 45 9f 3d d5 be 4b be b3 93 69 3d
       0.0077236844 0.07776937 -0.19897015 0.057025623
000100 64 2d 9b 3d f0 80 4b 3e ec 7c 4c bd 5e aa 00 be
       0.07577017 0.19873405 -0.049923822 -0.1256499
000110 ee d2 88 be d2 40 4a bd a9 60 1c be 19 31 95 be
       -0.26723427 -0.049378224 -0.15271248 -0.2913902
000120 9e e2 af 3d 38 ca 46 3e 8b f5 7c 3e 43 66 51 3d
       0.08588146 0.19413078 0.24703042 0.051122915
000130 3c b8 cf bd fa f9 a2 be b5 2c 3e bd de 35 e5 bd
       -0.10142562 -0.31831342 -0.046429355 -0.11191915
000140 d0 e3 7e be c7 09 ea 3a e3 58 80 3d ae 30 91 3e
       -0.24891591 0.0017855697 0.06266954 0.28357452
000150 32 2c bf 3d cd 7f 9d 3d 28 f6 bf bd f4 3d b8 bd
       0.093346015 0.07690392 -0.093731225 -0.089961916
000160 c0 6a f0 bd 29 a8 81 be a4 8f ba 3d 52 71 ab 3d
       -0.11739111 -0.2532361 0.091094285 0.083712235
000170 e1 6d 29 3e 0f 70 92 3c 3c 29 87 ba 5b 7f 0f bc
       0.16545822 0.0178757 -0.0010311971 -0.008758391
000180 14 ad 32 3c ab 7b 3f 3c 9e 2b fa 3d 9f 2e e3 3e
       0.010905523 0.0116872 0.122153506 0.44371507
000190 22 6a 8a 3e 01 21 bb 3d 4e 4c be 40 5f cd 27 3f
       0.27034098 0.09137154 5.9468145 0.65547746
0001a0 d1 1e ec 3f 9f b0 ef be ff 92 1f bf a9 f0 95 be
       1.8446904 -0.4681444 -0.62333673 -0.29285172
0001b0 08 49 7c be 75 e2 63 3e 13 96 36 3e 6e 7d 85 be
       -0.24637234 0.22254355 0.17830686 -0.26072258
0001c0 d5 41 94 be 72 c1 4f 3e 05 5d 79 3d 41 73 80 be
       -0.28956476 0.20288637 0.060879726 -0.25087932
0001d0 29 fd 2e bf 04 89 a3 3d 90 86 0f 3e 7e 9a 83 3e
       -0.6835504 0.07985118 0.14016175 0.25703806
0001e0 40 88 ef 3c 48 06 43 bd 12 2e d9 bd 22 a4 ff bc
       0.029239774 -0.047613412 -0.1060449 -0.031206194
0001f0 f5 a0 83 bb 76 34 00 3e 76 bd 23 3c 0f 39 46 3d
       -0.0040169903 0.12520012 0.0099939015 0.04839426
000200 24 d9 5e 3e 5f 97 99 3b 65 4c 0d bd 92 80 d7 bd
       0.2176252 0.0046872343 -0.034496684 -0.1052257
000210 48 7b a7 3c 1c 26 58 bd a9 2f 06 be 75 b4 9b 3d
       0.020444527 -0.05277072 -0.13104118 0.07602779
000220 d4 11 90 3d bb 43 3e 3e 4a 85 ea bc 2d ae b9 bc
       0.070346504 0.18580525 -0.02862801 -0.022666061
000230 ca d2 23 bd 2a c4 6b 3c 9b 31 a5 3d 43 ff 9c 3e
       -0.039995946 0.014390031 0.08066102 0.306635
000240 87 c6 7b 3e b8 b0 4b be f4 4b 7a be 5d 0f 80 be
       0.24587451 -0.19891632 -0.24443036 -0.2501172
000250 f2 b8 04 40 e1 bd 76 bd be 50 15 3e 2d 0a 8c be
       2.0737882 -0.060239676 0.14581582 -0.27351514
000260 6d 05 1a be 6b 94 26 be aa e8 8d 3c 61 17 7e 3e
       -0.15041132 -0.16267554 0.017322857 0.24813606
000270 b0 7a c4 bd 3c 59 36 bd 65 1f 89 3e 13 01 2c be
       -0.09593713 -0.044518694 0.26781765 -0.16797285
000280 ad 4d 3a 3d fe 93 8a 3e ec 8d a0 3e ad a7 e0 bd
       0.045484234 0.27066034 0.31358278 -0.109694816
000290 15 ef 4e 3e 5a 0e 60 bd a9 a8 d7 3d da f0 be 3e
       0.2020839 -0.054701187 0.10530216 0.3729313
0002a0 bb 6b 30 be 6e c4 23 bd cb 13 a8 3c c4 00 21 3d
       -0.17228596 -0.03998225 0.02051725 0.03930737
0002b0 68 11 8f 3c d0 c4 92 3e 82 28 cb bc f2 c6 41 bd
       0.017464355 0.2866578 -0.024799589 -0.04730887
0002c0 e7 ca 03 3e 47 8e b8 bd 07 24 97 bc b2 b7 d4 bb
       0.1287037 -0.09011512 -0.018449796 -0.0064916248
0002d0 4b 61 a7 bb f0 56 7d bb 66 f3 77 3e 11 5a 84 bd
       -0.005108034 -0.0038656555 0.24213943 -0.06462491
0002e0 ff 17 cd bd 6d c3 b8 bd a3 e2 08 bd 3c e0 a2 bd
       -0.100143425 -0.090216495 -0.033419263 -0.079529256
0002f0 56 eb 73 be d7 d4 a6 3d 26 55 18 3e 96 71 31 41
       -0.23820242 0.08146065 0.14876232 11.090231
000300 9b 9c 42 3d 10 a5 15 bd 06 be 83 bd 95 65 6f bd
       0.047512632 -0.03653437 -0.064327285 -0.058446486
000310 aa 63 9e 3c 3a 0c 0d 3f ef c0 c2 3d e5 1b 13 3d
       0.019334633 0.5509678 0.095094554 0.035915274
000320 ef 7f 95 3d b5 02 c2 3b 96 22 66 bc 8a 1f c4 be
       0.07299792 0.005920733 -0.014046332 -0.38305312
000330 93 f3 fb 3d 7e 61 9a 3d 8c 1a 48 be 88 01 f2 3e
       0.123023175 0.075381264 -0.19541377 0.47266793
000340 a7 97 20 3f 13 a7 08 be 35 7e 9c 3e ec 7a 95 40
       0.62731403 -0.13344984 0.30565038 4.671255
000350 a3 13 cd 3f 49 b4 6c be 95 5f d8 bc 09 5d 74 3e
       1.6021618 -0.23115648 -0.026412765 0.23863615
000360 eb 52 6b be 9b c8 82 3e 32 7c 95 3f 3e f1 8e 3d
       -0.2298085 0.25543675 1.1678526 0.06979607
000370 07 a9 48 3e 34 59 8e 3e 61 88 95 3e 15 34 3a be
       0.19595729 0.27802432 0.2920561 -0.1818393
000380 f9 28 8c 3e 10 ff b5 3d 11 0d 09 3e b8 5d 9d 3e
       0.2737501 0.0888654 0.1338389 0.30735564
000390 81 0d 4e 3e 28 bb 00 3e c6 31 de bd 7f 6a 32 3e
       0.20122339 0.12571394 -0.10849337 0.17423438
0003a0 1a ff 26 3c 7b b7 b1 bd ad 49 05 bd e3 2b 5c 3e
       0.010192657 -0.08677574 -0.032540966 0.21501116
0003b0 a7 e1 15 3e 58 42 f0 bd 18 20 2b bd eb b7 23 3d
       0.14636861 -0.11731404 -0.041778654 0.03997032
0003c0 41 c0 9d 3b 80 20 ec 3d f4 5e 0b 3e 04 8d 3b be
       0.004814178 0.115296364 0.1361044 -0.18315512
0003d0 a6 82 11 be 6f 00 e3 40 9c b6 1e 3b ee 86 e1 bd
       -0.14209995 7.093803 0.002421773 -0.11012064
0003e0 fd 7e fa bd a2 8c 5b 3d 5f 57 a7 bd 0a 99 9a 3d
       -0.12231252 0.053600915 -0.081709616 0.07548721
0003f0 e7 d1 31 3e 71 e8 61 3d a2 9e d3 3d 7c 60 81 bd
       0.17365228 0.055153314 0.10332991 -0.06317231

env_model.conv2_state2.bias f4 [3]
000000 4c f1 85 bd d9 31 77 bc ba 37 ea 3c
       -0.06540164 -0.015087568 0.028591026

imagination.0.weight f4 [256, 3]
000000 c8 ba e2 3d f0 df b3 3d 8e e2 c5 3e 30 8c 47 be
       0.11070782 0.08782947 0.3864941 -0.19487071
000010 3a c3 f5 be dc 5d 07 3f f4 a6 ce be 70 37 98 3e
       -0.4800051 0.52877593 -0.4036175 0.29729795
000020 1f af e7 be c0 50 8c 3c b6 83 e8 be f0 d9 31 3d
       -0.45250794 0.017128348 -0.45412987 0.043420732
000030 50 9d 6b bd 39 34 98 be 0a 40 af be e6 3a 10 3f
       -0.05752307 -0.29727343 -0.34228545 0.5633987
000040 bc 01 a5 be 80 2a 99 bb 2c 73 0d bf c8 97 24 3e
       -0.32227886 -0.004674256 -0.55253863 0.16073525
000050 c6 39 8e be 02 b9 ba 3e 68 00 fe 3e 68 8e e1 be
       -0.27778453 0.36469275 0.49609685 -0.4405396
000060 d4 25 26 3e 80 2f d2 bc e4 f2 0e bf 01 eb dc be
       0.16225368 -0.025657415 -0.5583937 -0.43148044
000070 42 44 aa be fe 2a b7 be c6 05 da be c0 66 ad bc
       -0.33255202 -0.35774988 -0.4258253 -0.02116716
000080 10 1f fb 3d 9e f0 1e be 14 95 56 3e 25 08 12 bf
       0.12261784 -0.15521476 0.20955306 -0.5704368
000090 22 6a a3 be 24 27 fe 3e 7c 75 dc 3e 8e bb 0c be
       -0.3191691 0.49639237 0.43058383 -0.13743421
0000a0 c0 a7 04 bf cc 88 e1 3e 6d 66 d7 be 78 58 39 3e
       -0.51818466 0.4404968 -0.42070332 0.18100154
0000b0 5a bb 7f be b6 cf f3 be 00 80 35 3a d6 a5 44 be
       -0.24973813 -0.47619408 0.00069236755 -0.19203886
0000c0 39 fb 92 be 84 94 b0 3e 38 a2 89 3e 74 70 01 3f
       -0.28707293 0.34488308 0.26881576 0.50562215
0000d0 2e 4c 34 be e0 11 b9 3e 8c 4e 42 3e f3 f3 bf be
       -0.17607185 0.3614645 0.18975276 -0.37490806
0000e0 a0 ee a0 3e aa 9d 06 bf ec 25 26 3e 20 db ab 3d
       0.31432056 -0.52584326 0.16225404 0.08391404
0000f0 80 c0 a5 bd da 93 90 3e a0 35 af 3d c0 50 c3 bc
       -0.08093357 0.28237802 0.0855515 -0.023842216
000100 6a 6b cb 3e f2 60 a2 3e 76 c6 03 bf c0 e8 52 3c
       0.39730388 0.31714588 -0.514747 0.012872875
000110 fc c4 33 3e 40 b7 bc bc 1e 76 8d 3e 8b d2 0f bf
       0.17555612 -0.0230366 0.2762918 -0.5618064
000120 8a bb 98 be 06 d2 cd be 6e 43 13 3f 90 4a 27 3e
       -0.2983058 -0.40199298 0.57524765 0.16337037
000130 36 af 51 be 1a 94 0e bf 86 c9 bc be 2a 3b 89 3e
       -0.20476994 -0.55694735 -0.368725 0.2680295
000140 78 60 dd 3e 50 25 07 bf 10 1d c9 3d 92 29 dc be
       0.43237662 -0.5279131 0.09819996 -0.43000466
000150 f8 c3 c8 3e 40 13 77 bd 3b eb a2 be de 2f bd be
       0.39212012 -0.060321093 -0.31820092 -0.36950582
000160 20 00 71 bd 31 1b d9 be 6e 32 ab 3e f0 a8 e3 be
       -0.05883801 -0.42403558 0.33436912 -0.44464827
000170 5e 80 b7 3e b0 b9 d6 be ee 72 1d be 80 27 e7 bb
       0.35840124 -0.41938543 -0.15375873 -0.0070542693
000180 28 f3 eb 3d 70 67 9b be dc e5 80 be 46 f6 86 be
       0.11520988 -0.30352354 -0.2517537 -0.26359767
000190 10 96 fc 3d d9 fb b9 be f8 29 f2 3e 38 a1 fd 3e
       0.1233331 -0.36324957 0.47297645 0.49537063
0001a0 88 e5 af 3e 04 20 dc bd 9c 6e f6 be 30 a2 94 bd
       0.34354806 -0.10748294 -0.48131263 -0.07257497
0001b0 74 ed 55 3e 72 5a 7e be 8c b2 15 be 1c 5d 5a be
       0.20891362 -0.2483919 -0.14618891 -0.21324581
0001c0 80 f0 a3 3e 49 14 86 be 26 ae 0f 3f d8 38 df 3d
       0.32019424 -0.2618735 0.56125104 0.10899514
0001d0 ae e4 75 be 84 c1 07 bf 28 f4 e7 3d ac 6b ab 3e
       -0.24013016 -0.53029656 0.11325866 0.33480585
0001e0 36 09 58 be 88 14 ab bd e4 0d e2 3e 44 4b f7 3e
       -0.21097264 -0.083535254 0.44151223 0.4829961
0001f0 b2 01 9b 3e b0 0e ea 3d 6c c3 54 3e ea ea b6 be
       0.3027473 0.11428583 0.20777673 -0.357261
000200 ee 62 ac 3e 44 a9 44 be 7c 09 08 3f 5b 9c 9d be
       0.33669227 -0.19205195 0.5313947 -0.30783352
000210 34 98 11 3e c4 3b 0f 3e 6b 06 09 bf 1c 53 32 3e
       0.14218217 0.13987643 -0.5352542 0.17414516
000220 9a c3 9c 3e b6 66 06 3f ba 67 e5 be d5 47 ac be
       0.30617982 0.52500474 -0.448057 -0.33648553
000230 04 6a e1 be b8 8c c7 3d aa 4e b3 3e 84 b7 b4 be
       -0.44026196 0.09743637 0.35020953 -0.3529626
000240 32 f2 93 3e 9c 0d d7 3e 71 c6 dc be 27 9b 89 be
       0.28895718 0.4200257 -0.4312015 -0.26876184
000250 8c 8b c8 3e 46 61 a3 be bc d4 f1 3e 4c 96 c2 be
       0.39168966 -0.3191015 0.47232616 -0.38005292
000260 b4 5f 3f 3e ed 76 01 bf 14 98 18 3e 74 fb 0d 3f
       0.18688852 -0.5057209 0.14901763 0.5546181
000270 16 f6 c9 be 8e d6 d1 be 44 39 a9 3e 10 3d f0 be
       -0.3944556 -0.40984005 0.33051503 -0.46921587
000280 70 1d 01 3f d0 61 d5 be c0 5d fe 3d 04 33 e8 3e
       0.50435543 -0.41676188 0.12420225 0.45351422
000290 4f e3 9c be ae 1b de be 68 4e 89 3e 1c 17 8b 3e
       -0.30642173 -0.43380493 0.26817632 0.2716607
0002a0 a8 26 0f 3f 49 69 03 bf be 62 83 3e 84 17 ef 3e
       0.5591836 -0.5133253 0.25661272 0.46697628
0002b0 e4 43 d6 bd 2c 00 fc 3e d3 5d 85 be 16 7d ff be
       -0.10462168 0.4921888 -0.26048145 -0.4990012
0002c0 18 aa db 3e 78 69 d1 be 5a 86 d5 3e 0b c0 9c be
       0.4290321 -0.4090078 0.41704065 -0.30615267
0002d0 d0 27 05 3f 9c c9 8c 3e aa ab 09 3f b8 c1 9b 3d
       0.52013874 0.27497566 0.53777564 0.07605308
0002e0 00 33 bf be 15 23 e1 be 02 3c 9c 3e 00 a5 36 be
       -0.37343597 -0.43972078 0.30514532 -0.1783638
0002f0 dc e8 ad be 3a 28 81 3e b8 84 fa bd 90 dd bf bd
       -0.3396672 0.25226003 -0.12232345 -0.093684316
000300 7a 5c 06 3f 56 ec d6 be 20 0b 0f 3f fe 82 96 3e
       0.5248486 -0.41977185 0.5587635 0.29396814
000310 18 fc cd be f8 d3 cd be 8e 8c ba be 78 67 67 3e
       -0.40231395 -0.40200782 -0.3643536 0.22598064
000320 7c 05 63 be 64 76 13 3f c4 0d 47 be 9a 65 06 be
       -0.22170061 0.57602525 -0.19438845 -0.13124695
000330 00 55 c5 3b ec 2a 1d 3e 68 21 03 3e 06 a4 d7 3e
       0.0060220957 0.15348405 0.12805712 0.42117327
000340 b2 75 c8 be b0 91 78 be 02 d9 d0 3e cc 3d ee bd
       -0.39152294 -0.24274325 0.40790564 -0.116328806
000350 6c c8 05 3e e7 7b eb be b0 aa 67 3d 14 b6 a1 bd
       0.13064736 -0.45992967 0.056559265 -0.07896057
000360 f0 cd 0b 3f 40 0f 5d bc f4 6c ac bd 14 f4 65 3e
       0.5461111 -0.013492405 -0.08419219 0.2245639
000370 2e c9 bb 3e 64 cb a8 bd e8 95 d6 3d c0 0e 3b 3e
       0.36676925 -0.08241919 0.10477811 0.18267345
000380 78 93 36 3e 96 97 a2 3e ee a1 d8 be 1c 58 1e 3e
       0.17829692 0.31756276 -0.42311043 0.15463299
000390 b6 cf 72 be 54 1a ec 3e 44 3f c1 bd a6 b3 0a 3f
       -0.23712048 0.46113837 -0.09435895 0.5418037
0003a0 c8 ae f8 3d 9c 32 42 3e 39 2d 9a be 50 c3 3c 3e
       0.12142712 0.18964618 -0.30112627 0.18433881
0003b0 00 9c 13 bb 2a b2 89 be a8 df 87 be 66 76 a1 be
       -0.0022523403 -0.2689374 -0.26537824 -0.31535643
0003c0 36 c9 de be f7 87 87 be 28 47 f0 3e 40 64 fc 3d
       -0.43512887 -0.2647092 0.46929288 0.12323809
0003d0 42 a0 23 be 40 24 61 3e 08 b5 e3 3e d0 84 22 bd
       -0.15979102 0.21986485 0.44474053 -0.03967744
0003e0 f8 78 82 3e 24 df 52 3e e4 0e 1e be 00 d2 8f 3c
       0.25482917 0.20592934 -0.15435368 0.01755619
0003f0 aa 10 27 be 5e 05 0e 3f 40 84 7a 3c 44 b3 d0 3e
       -0.1631495 0.5547694 0.01529032 0.4076177

imagination.0.bias f4 [256]
000000 fc 9b a5 be 0d 14 f7 be 2f 51 9b be 40 13 ff 3e
       -0.3234557 -0.48257485 -0.30335376 0.49819374
000010 6e 53 83 3e e4 fd d6 3e 4d 65 82 be a0 ec 13 3e
       0.2564959 0.41990578 -0.2546791 0.14445734
000020 9b 3f 86 be d2 d4 5d be 28 b2 86 3e cd df a2 be
       -0.26220402 -0.21663216 0.26307797 -0.3181137
000030 eb e9 8c be 32 f8 a2 be 42 44 0b 3f 20 f9 7e 3e
       -0.27522215 -0.31829983 0.5440103 0.24899721
000040 7c f8 96 3e 90 c1 41 3d c3 7d d5 be 50 46 76 3d
       0.29486454 0.047303736 -0.4169751 0.06012565
000050 20 fa 3c be b2 0b 02 bf b8 db f8 3d d8 3d 6c 3e
       -0.1845479 -0.50799096 0.12151283 0.23070467
000060 4a 25 63 be 24 10 d0 bd c8 08 fd 3e a6 5b f2 be
       -0.22182193 -0.101593286 0.49420762 -0.47335547
000070 38 70 cc 3d 0a be bf 3e 40 5b 0e be 5a 64 c0 3e
       0.099823415 0.37449676 -0.13901997 0.37576562
000080 0a a9 81 be f8 c7 8a 3d 56 73 8e 3e 04 b6 0a 3f
       -0.2532428 0.06776422 0.2782237 0.54183984
000090 0a e9 39 be 66 16 9e 3e 7a c3 55 be 86 b6 6d be
       -0.18155304 0.30876464 -0.2087535 -0.23214158
0000a0 b0 c8 61 3e 18 42 07 3e 00 58 96 bb a8 10 64 3e
       0.22049212 0.13208807 -0.004588127 0.22271979
0000b0 94 57 3b 3e 66 0c 0d 3f 70 5f 30 bd f8 ce 8e bd
       0.18295127 0.55097044 -0.043059766 -0.0697307
0000c0 60 46 80 3c b0 f2 17 3e c0 6f 01 bc 80 c7 08 3f
       0.015658557 0.14838672 -0.007900178 0.5342941
0000d0 c8 4a 01 bf 2e 56 5d be 60 fd ae bc c4 aa 0d bf
       -0.5050473 -0.21614906 -0.021361053 -0.5533869
0000e0 0c fc c7 3e ae 21 0a bf e0 e8 78 3d e0 02 22 be
       0.39059484 -0.5395764 0.060768962 -0.15821409
0000f0 d0 07 3b bd e8 6d d7 be 5a 17 cc 3e 28 d1 ed 3e
       -0.045661747 -0.4207604 0.39861566 0.46448636
000100 78 8c 12 3f c0 44 2c bd 56 f4 8a be 20 5b 00 bf
       0.5724559 -0.042057753 -0.2713954 -0.50139046
000110 a4 03 e6 3e bd a4 9e be c8 26 c4 3d 8c 44 67 be
       0.44924653 -0.3098506 0.095777094 -0.22584742
000120 68 8c 12 bf 2c ec e6 be ef ff 00 bf 04 22 ee be
       -0.5724549 -0.4510206 -0.50390524 -0.46510327
000130 62 81 0f bf 86 73 68 be 40 4c eb 3e cd 47 90 be
       -0.560568 -0.22700319 0.45956612 -0.2817978
000140 a0 5c c6 bd 3c 02 5c be 04 f8 0d 3f 4c 13 ca be
       -0.096856356 -0.21485227 0.55456567 -0.39467847
000150 c8 23 b2 be 90 e6 cf be 26 10 b0 be ea fa 83 3e
       -0.34792924 -0.40605593 -0.3438732 0.2577737
000160 40 70 72 3c c4 57 23 be 56 3c c5 be d0 b8 e4 3d
       0.01479727 -0.15951449 -0.38522595 0.11168063
000170 90 aa e4 be 1a 8a c9 3e 58 ea 9d bd aa 31 81 3e
       -0.4466138 0.39363176 -0.07710713 0.25233203
000180 70 cd 4b 3d fc 8d e2 be bc 1a fc bd 1a 4d 3b be
       0.049756467 -0.4424895 -0.12309787 -0.1829113
000190 ea 44 c2 be 44 f1 df 3e 5a f0 9a 3e 18 42 a9 3d
       -0.37943202 0.4373876 0.302615 0.082645595
0001a0 5e b1 c0 3e ec f1 5f be 90 90 02 3f 02 79 65 be
       0.3763532 -0.2186963 0.51001835 -0.22409442
0001b0 7c 10 ea bd b6 4e 0d be 00 a2 de bc 58 e5 de 3e
       -0.114289254 -0.13799557 -0.027176857 0.4353435
0001c0 a2 1c ed be 4e 3d 0b 3f d6 af 41 be 7c dc d9 3e
       -0.46310908 0.5439042 -0.18914732 0.4255103
0001d0 9e b5 b0 3e 10 9f 17 bd ba fc 04 3f b4 97 c6 be
       0.34513563 -0.03701693 0.5194813 -0.38787615
0001e0 b0 b2 df 3e e6 9b 86 be ba 6a 11 3f 28 6f 8e 3e
       0.43691015 -0.26290816 0.56803477 0.2781918
0001f0 e0 99 38 3e 40 79 87 3e 3e ab 91 be 98 f5 1d be
       0.18027449 0.26459694 -0.2845096 -0.15425718
000200 f8 1f eb 3e 6a 26 c1 be 79 05 86 be fe 00 8a 3e
       0.45922828 -0.3772462 -0.2617605 0.26953882
000210 a0 3d 24 be 9c 61 da be 7c 99 d7 be 90 db b3 3d
       -0.16039133 -0.42652595 -0.42109287 0.087821126
000220 e8 17 e7 3e 40 9f 7a 3c 0c 0e f3 be ea 83 0e 3f
       0.45135427 0.015296757 -0.47471654 0.55670035
000230 a0 f3 09 bd e0 d1 8a 3e 67 e8 ff be 28 0a 7b be
       -0.033679605 0.27113247 -0.49981996 -0.24515593
000240 00 20 3a 39 f6 f3 91 be 8c 78 dd be a0 53 57 bd
       0.00017750263 -0.2850644 -0.43256032 -0.052569985
000250 70 5f 9a bd 00 ec a1 bb f0 fa 55 3d e5 55 de be
       -0.075377345 -0.0049414635 0.052241266 -0.43424907
000260 d8 a1 8e 3e 1a 16 c1 3e 94 a1 4f 3e 00 40 90 3b
       0.27857852 0.37712175 0.20276481 0.0044021606
000270 c8 4b e4 3e b8 5f e5 3e 40 2b de be e8 aa 23 3e
       0.44589067 0.4479959 -0.43392372 0.15983164
000280 76 a1 aa 3e f6 03 98 3e 9c 0b 3d be 04 b2 84 be
       0.3332631 0.29690522 -0.1846146 -0.25917065
000290 f4 46 12 3f 04 92 32 be 80 20 1f bc 78 62 a9 3d
       0.57139516 -0.17438513 -0.009712338 0.082707345
0002a0 d7 2c 9d be c0 00 9e bc 60 8b de 3e 04 21 66 be
       -0.30698273 -0.019287467 0.4346571 -0.22473532
0002b0 ad df 0a bf 56 4a 0a 3f 80 a2 1a bc 00 87 59 bd
       -0.5424755 0.5401968 -0.009438157 -0.05310726
0002c0 e4 43 89 be 8e 95 d2 be 30 50 8c be c6 3a fe be
       -0.2680961 -0.41129726 -0.27404928 -0.49654216
0002d0 40 d6 0e 3f 2c 87 af bd 48 63 73 3e 80 ab 3f bd
       0.5579567 -0.08570704 0.23768342 -0.046794415
0002e0 20 79 b4 3c 40 71 dc bc 0e 0d 70 be 5e 83 8e be
       0.022030413 -0.02690947 -0.2344248 -0.278346
0002f0 30 65 04 3d 70 be 46 bd dc ce 67 3e 06 b2 da be
       0.032323062 -0.04852146 0.22637504 -0.42713946
000300 5c cc f2 3e 28 25 42 3e e2 8f 5e be 96 50 d6 be
       0.4742154 0.18959486 -0.21734574 -0.41858357
000310 b8 a7 63 3e a0 d1 94 bd e6 14 8e 3e 06 5f a8 be
       0.22231948 -0.07266545 0.2775032 -0.32884997
000320 16 2b bf 3e f0 b0 eb 3d 6c 08 f4 3e 7d 3a 11 bf
       0.3733756 0.115083575 0.47662675 -0.5672987
000330 b8 2c 04 3f 2c c4 16 3e 5e 07 12 bf 44 47 48 3e
       0.51630735 0.14723271 -0.5704249 0.19558436
000340 ac 74 a9 3e 36 7f ce 3e 90 a4 19 3e 65 68 04 bf
       0.33096826 0.4033143 0.15004182 -0.51721793
000350 b0 80 91 3d ea 99 c7 3e 67 34 a5 be ac 2e bb bd
       0.07104623 0.38984615 -0.32266542 -0.09139761
000360 50 dc 01 3f b0 0f 75 bd f1 d1 91 be 26 e5 aa be
       0.50726795 -0.059829414 -0.28480485 -0.3337795
000370 4a 28 d6 be c0 54 c3 3e a6 d2 20 be b6 73 3b be
       -0.41827613 0.38150597 -0.15705356 -0.18305859
000380 15 06 03 bf 20 13 d5 3d 6d 8a c7 be e6 ad ad be
       -0.51181155 0.104040384 -0.38972798 -0.33921736
000390 46 98 49 be d2 8f 20 be 2c be a2 bd 12 29 d0 3e
       -0.19686994 -0.15679863 -0.07946429 0.40656334
0003a0 8c 87 42 3e 10 d1 49 bd c2 8f 03 3f 78 c7 fc 3e
       0.1899702 -0.049271643 0.5139123 0.49370933
0003b0 da 10 c7 3e a0 7a e4 3c 66 d0 b8 3e e4 18 9a 3e
       0.38880044 0.027890503 0.36096495 0.30097115
0003c0 60 36 b4 be 02 98 89 3e 1e 72 cc be 04 28 32 be
       -0.35197735 0.26873785 -0.39930815 -0.17398077
0003d0 18 ee 6e 3e 50 45 a4 3e 29 ef 0d bf a4 d8 05 3e
       0.23333013 0.3208413 -0.55443054 0.13070923
0003e0 78 70 ef 3d 80 96 b4 be e8 9a 98 3d b4 d5 07 bf
       0.116913736 -0.35271072 0.07451421 -0.5306046
0003f0 c4 28 26 3e 98 86 76 3e 1d d6 93 be 40 b0 6f 3c
       0.16226488 0.24074781 -0.28874293 0.014629424

imagination.2.weight f4 [256, 256]
000000 fc 23 ea 3c 00 c5 47 3a 9a 15 1b 3d 20 6d ab 3c
       0.028581612 0.0007620603 0.037862398 0.020926058
000010 e8 84 9d 3c 68 87 0e bc 4a f3 10 bd e0 0d 7a 3c
       0.019228414 -0.008699276 -0.03538827 0.015262097
000020 02 01 4a bd 16 ee 73 3d 68 54 f2 3c 6c 07 4d bd
       -0.049317367 0.05955323 0.029581264 -0.050055906
000030 9c 73 c2 bc 68 ea ab 3c 52 e3 24 3d 00 40 de bb
       -0.023736767 0.020985797 0.040255852 -0.0067825317
000040 84 46 96 3c 58 65 11 3c 94 93 9a bc 80 36 41 bc
       0.018344171 0.00887426 -0.018869199 -0.011792779
000050 e0 24 64 3b c8 1f 37 bc 92 05 34 3d c8 46 3f 3d
       0.0034812018 -0.011177011 0.043950625 0.04669836
000060 d0 8a 48 3d a0 d8 d9 3b fa 44 65 3d 28 1f c0 3c
       0.048960507 0.006648138 0.055973984 0.023452356
000070 b0 6c 01 3d 32 a2 50 bd e8 41 ea bc f4 ad 77 3d
       0.031597793 -0.05093593 -0.02859588 0.06046863
000080 d2 5c 1f bd 10 9b 8a bc 8e 87 2e bd 8a b8 12 bd
       -0.03890688 -0.016919643 -0.042609744 -0.03582052
000090 40 aa 5e 3b c8 3c b7 bc a8 c9 ca bc 78 30 c5 bc
       0.0033975989 -0.02236785 -0.02475436 -0.024070963
0000a0 16 ba 67 3d 00 77 9d ba ca 38 64 3d 1a cb 26 bd
       0.05657395 -0.0012013614 0.05571822 -0.040721036
0000b0 e8 a0 26 bc 60 e7 e5 bb 1a df 36 3d c2 63 54 bd
       -0.010170199 -0.0070161074 0.04464636 -0.05185295
0000c0 50 c4 99 bc 38 3a 65 3c 00 8e 75 39 b0 f1 5c bd
       -0.018770367 0.013990931 0.0002341792 -0.05394143
0000d0 c8 29 ef 3c a2 61 01 3d 60 cd c7 bb 5c 6b f2 3c
       0.029194728 0.03158725 -0.0060974807 0.029592209
0000e0 f8 ad 5c 3c c0 a7 91 3a 98 49 47 3d 40 cf cc ba
       0.013469212 0.0011112615 0.04865417 -0.001562573
0000f0 ac 27 96 bc b8 7c 99 bc 78 42 63 3d 78 ac ad bc
       -0.018329464 -0.018736228 0.05548331 -0.021200404
000100 cc 52 71 3d dc 49 4f bd 2a 38 39 bd 88 7e 85 bc
       0.058916852 -0.050607547 -0.045219578 -0.016295686
000110 b0 d2 a1 bc 2c 4b fa 3c ae 6c 0f bd d4 39 a2 3c
       -0.019753784 0.030553423 -0.035015754 0.019802965
000120 8c 13 3d bd 32 1d 02 bd 10 1b 8e 3c 80 5a a3 3c
       -0.04616122 -0.031766124 0.017346889 0.019940615
000130 e0 e7 02 3c 78 6b 24 3d e0 da 3d bd 90 c8 ee 3c
       0.007989854 0.040141553 -0.046351314 0.02914837
000140 f0 21 31 bc 4a b3 3f 3d 80 e0 df 3a 40 47 07 bd
       -0.010811314 0.046801843 0.0017080456 -0.033026934
000150 e0 f0 6c 3c 60 45 c9 bb 94 3e c1 bc a0 87 73 3d
       0.014461726 -0.0061423033 -0.02358941 0.059455514
000160 b0 69 88 3b f0 f7 a4 bc 5c 80 fe 3c 18 fe 23 bd
       0.0041629896 -0.020137757 0.031067066 -0.040037245
000170 82 12 1b 3d 60 46 2b 3c 62 ac 20 bd 4c 30 6f bd
       0.037859447 0.01045379 -0.039226897 -0.05839567
000180 40 4c 22 bc f0 c6 89 3c 88 82 37 bd 20 84 88 bc
       -0.009905875 0.016818494 -0.04480222 -0.016664565
000190 e4 cf c5 bc ec 88 af bc 88 d9 56 3d 20 f1 dc 3c
       -0.024146982 -0.021427594 0.052453548 0.026970446
0001a0 68 95 0d 3d d0 74 ba 3b 20 4f f6 bb 00 64 8c 3b
       0.034566313 0.0056901947 -0.0075167567 0.004284382
0001b0 80 eb 4a 3a 28 51 c8 3c 04 78 f7 bc 84 47 9d 3c
       0.0007740781 0.02445276 -0.030208595 0.01919914
0001c0 d0 94 08 3c f2 21 46 bd 8c df f3 bc 3c f8 60 bd
       0.008336261 -0.048372217 -0.029769681 -0.054924235
0001d0 10 46 85 bc 88 83 72 bc f8 c8 29 bc 98 fb 93 3c
       -0.01626876 -0.014801867 -0.010362856 0.018064305
0001e0 3a 02 07 bd 38 f9 07 3c 5c c1 66 3d 4a 6d 18 bd
       -0.032961108 0.0082991645 0.056336746 -0.0372136
0001f0 24 6b 53 3d 8a bc 7b 3d ac 56 c2 3c 0c 25 c7 3c
       0.05161585 0.0614591 0.023722969 0.024309658
000200 a4 fb ea bc 28 53 2b 3d 4c 60 4c bd de 94 4d 3d
       -0.028684445 0.04182735 -0.049896523 0.0501908
000210 2c 37 51 bd 50 62 c1 3b 74 0f 5a 3d a0 10 c2 3c
       -0.051078007 0.0059016123 0.053237393 0.023689568
000220 18 dc 6d bc ba ad 02 bd 66 3d 04 bd 64 fe d6 bc
       -0.0145178065 -0.03190396 -0.032285117 -0.02624435
000230 f6 f1 13 3d 68 db 23 3c 3a 9c 33 bd c0 96 cd 3b
       0.036119424 0.010001041 -0.04385016 0.0062740743
000240 18 1a 71 bc a2 6b 33 bd 06 82 16 bd 14 51 f6 3c
       -0.014715694 -0.04380382 -0.036745094 0.030067958
000250 06 f3 5c 3d 62 b3 41 3d 0c 0d 8b 3c 0c 42 8a 3c
       0.053942703 0.047290213 0.016973995 0.016877197
000260 98 57 33 3d 38 53 e5 3c 60 01 15 3b 64 c7 a9 3c
       0.043784708 0.027993783 0.0022736415 0.02072496
000270 50 7d 1f 3c 70 20 13 bd d0 15 ca bc 38 18 45 3d
       0.009734467 -0.035919607 -0.024668604 0.0481188
000280 04 23 ff 3c 88 0f 0a bd 58 32 2e 3c b2 00 37 bd
       0.031144626 -0.033706218 0.01063212 -0.044678397
000290 38 64 7d bc d4 e7 66 3d f8 de 63 3c 30 69 8d 3c
       -0.015465789 0.056373432 0.01390814 0.017262071
0002a0 00 54 70 39 58 f7 da 3c 7c 68 4a 3d 40 c0 4c bd
       0.00022919476 0.02672927 0.04941605 -0.04998803
0002b0 90 8a 90 bc fa 5f 6e 3d dc 0a 42 3d 70 db 2b 3d
       -0.017644197 0.058197 0.047373638 0.04195732
0002c0 76 7a 72 3d 58 cd ce 3c a8 32 1a 3c 5c 30 27 bd
       0.05919882 0.0252444 0.009411491 -0.040817603
0002d0 d8 b8 0d bc 1c f4 24 3d c8 8c 53 bd 1c 49 9d bc
       -0.008650027 0.040271863 -0.05164793 -0.0191999
0002e0 c0 f8 b6 3b 70 0a ce bc 06 bb 2c 3d e0 1f 1d bd
       0.0055838525 -0.025151461 0.042170547 -0.038360476
0002f0 98 dc 1b bc 18 7b 01 3d 24 77 55 bd d2 d7 17 bd
       -0.009513043 0.031611532 -0.052115574 -0.037071057
000300 e2 97 50 bd 64 ba 62 bd 96 a8 3c 3d 2c 7e 71 3d
       -0.050926097 -0.055353537 0.046059214 0.058958218
000310 dc b6 ed 3c 30 57 96 bc e0 ce c7 3c c0 a8 72 bb
       0.029017858 -0.018352121 0.024390638 -0.0037026852
000320 48 30 76 bd cc 32 49 3d a2 cf 2c bd 4c 36 4a bd
       -0.06010464 0.04912071 -0.0421902 -0.049368188
000330 ba 0c 3e bd e4 37 d9 3c 20 b2 71 bd 92 c3 62 bd
       -0.046398856 0.026515909 -0.059007764 -0.05536229
000340 5c bd 92 bc 0e 07 15 3d 74 a4 e4 3c e0 f2 aa 3b
       -0.01791256 0.03638368 0.027910449 0.0052169412
000350 7c 66 6e bd d8 83 c5 bc 4c e2 23 3d ae 04 40 bd
       -0.058203205 -0.02411072 0.040010735 -0.046879463
000360 04 8d d5 3c 10 dc ca 3b 06 a8 7f 3d d4 a7 89 3c
       0.026068218 0.0061907843 0.0624161 0.01680366
000370 66 55 0e 3d 72 52 3f bd c0 24 44 bc f2 61 5e 3d
       0.03474941 -0.046709485 -0.0119716525 0.054292627
000380 f0 f0 7d 3c 30 2d d3 3c b0 81 7e 3d f0 cc 46 bd
       0.0154993385 0.025778383 0.0621354 -0.048535287
000390 3c 82 df 3c 5c 47 b7 bc a8 04 59 bd d8 e3 84 3c
       0.02728378 -0.022372894 -0.052982956 0.016221926
0003a0 44 48 e2 3c e0 2a 4e bc 90 03 0b bd d2 d3 38 bd
       0.02762235 -0.012583464 -0.033938944 -0.045123883
0003b0 74 f8 12 3d a4 6a 12 bd 40 64 73 3d 96 fe 3e 3d
       0.035881475 -0.03574623 0.059421778 0.04662951
0003c0 12 07 3c bd 10 70 ef bb d0 e1 09 bd aa ff 43 bd
       -0.04590518 -0.00730706 -0.033662617 -0.047851242
0003d0 24 f5 56 3d b0 25 3b 3c f8 7e 17 3c 74 13 87 bc
       0.052479878 0.01142256 0.00924658 -0.016488768
0003e0 3c 9c a3 3c f0 32 21 3c 46 e3 1d 3d 64 e9 6e 3d
       0.01997196 0.009838805 0.038546823 0.058328047
0003f0 08 4e 1b bd 00 06 19 3c a4 cb e4 3c 3c 52 9e bc
       -0.037916213 0.009339809 0.027929135 -0.019326322
