MAI2A_TreasureFinder/agent_2_model.pth (torch, 836729 bytes, 28 tensors)

env_model.conv1.weight f4 [32, 7, 3, 3]
-0.58078647 -0.037321925 0.6544286 -0.23432598 -0.94304895 -0.38509506 -0.5963062 -0.6801616
-0.20731024 -0.23501907 -0.18909542 -0.18711963 -0.19234183 -0.15934323 -0.37722325 0.8694361
-0.710624 -0.27446264 0.16531186 0.082254924 -0.3788575 -0.13512738 0.13617422 -0.4870758
0.0036458343 0.3103011 -0.42327258 -0.09301764 -0.23375691 -0.15340601 -0.09118535 -0.10880644
0.07813546 -0.022783227 -0.052871216 -0.1188402 0.02952358 0.115065865 0.09228957 0.12128119
0.015684083 0.016198155 0.13009767 0.14061512 -0.049850754 -0.6356393 -0.7980381 -0.20462702
-0.87444246 -1.0382736 -0.53042144 -0.9389637 -0.9263959 -0.74311674 -0.260669 -0.20873916
-0.061116546 -0.31703264 -0.17635036 0.089177385 -0.42934024 -0.37492645 -0.18208735 0.43251434
0.16641513 0.18150967 0.19126396 -0.057516992 -0.2742236 -0.5843124 -0.044001095 0.21297894
0.18333417 0.30275208 0.10149165 -0.44328398 -0.25428888 0.37676516 -0.4026783 0.06841035
-0.5590492 0.46991503 0.3299909 0.1973146 0.29012367 0.16862418 -0.7998608 -0.10179205
-0.15083437 -0.12612274 0.057401937 -0.120628774 0.19426343 -0.048816334 -0.13661745 0.12302857
-0.0039679613 -0.18917102 0.0018010604 -0.08419903 -0.041175805 0.07649843 -0.046492774 -0.050395437
0.111983515 0.072124854 0.03347382 -0.096522056 -0.009595768 -0.084669776 -0.02041895 -0.19183397
-0.09707442 0.048032124 0.08502425 0.4056535 0.24090351 0.15947293 0.1122135 0.08175035
0.12532179 0.0877254 -0.24835014 0.078221194 -0.09469211 -0.3209233 -0.1071839 -0.71524656
-0.9516383 -0.5864274 -0.39754963 -0.109024495 0.13801195 -0.36485422 -0.3103698 -0.12746637
-0.39466888 -0.08348023 0.044961367 -0.0869307 0.06399162 -0.08341529 0.2501577 0.36717004
-0.4769301 -0.26696706 -0.28854072 -0.06086613 -0.1381902 -0.18087195 0.33159196 -0.265936
-0.14302354 0.29033068 0.063127294 0.06549278 0.53941005 0.2669485 0.445369 0.44972447
0.28777152 0.36775124 -0.0073443935 -0.024065115 0.09751475 0.06748931 -0.009261448 -0.0125042265
0.050844617 0.06795664 0.108289145 0.13633345 0.37605008 0.40407637 0.23987535 0.1670908
0.21256062 -0.008751767 0.082980044 0.07278716 0.4798222 0.2300258 -0.24590874 0.32309666
0.07711711 0.105158135 0.32464948 0.19013757 0.24984086 0.03299603 -0.1374158 0.016071117
0.02643656 -0.13139337 0.09926972 0.47742423 0.06718392 0.50039244 0.055855926 -0.4890178
-0.110868484 -0.38184443 -0.5975115 0.23002598 0.33947402 0.108482815 0.23143873 -0.35474342
-0.24705246 -0.3494408 -0.038581852 -0.14404133 -0.006287076 0.5406847 0.3897783 -0.15764591
0.14375843 -0.011829552 0.005988054 -0.01650672 -0.2653584 0.06306658 0.11932669 0.03186523
0.15719111 0.12996103 0.11999915 -0.026286572 0.09690235 0.037636813 0.12337855 0.022326104
-0.013755956 0.15375184 0.15889928 0.025829831 0.25033477 0.31473476 0.121919565 0.08792167
0.19107805 0.33705854 0.19500037 0.24256179 -0.051317602 0.06374505 0.19217885 0.27408478
0.31390056 0.30219328 0.23297803 0.43039182 0.26009238 0.09424569 0.06621743 0.21121822
00000000: 6cae 14bf e0de 18bd a288 273f 26f3 6fbe
00000010: a86b 71bf 2e2b c5be 86a7 18bf 121f 2ebf
00000020: 2349 54be d7a8 70be 3ba2 41be 4a9c 3fbe
00000030: 42f5 44be df2a 23be 6823 c1be 5d93 5e3f
00000040: 74eb 35bf 5e86 8cbe 8347 293e 4575 a83d
00000050: 9cf9 c1be d55e 0abe 4171 0b3e 0062 f9be
00000060: f3ee 6e3b c9df 9e3e 2fb7 d8be 0880 bebd
00000070: f95d 6fbe 7716 1dbe 63bf babd e9d5 debd
00000080: 7c05 a03d e4a3 babc 7d8f 58bd 7e62 f3bd
00000090: 6fdb f13c a7a7 eb3d 5002 bd3d 4662 f83d
000000a0: e87b 803c feb1 843c 5338 053e 69fd 0f3e
000000b0: 4e30 4cbd 42b9 22bf 3a4c 4cbf bf89 51be
000000c0: 76db 5fbf 26e6 84bf b3c9 07bf ed5f 70bf
000000d0: 4828 6dbf e63c 3ebf 6876 85be b8bf 55be
000000e0: 5855 7abd 1a52 a2be 3095 34be a2a2 b63d
000000f0: 7cd2 dbbe 5cf6 bfbe 1b75 3abe 8572 dd3e
00000100: ba68 2a3e acdd 393e b3da 433e f096 6bbd
00000110: 0967 8cbe 7f95 15bf 7e3a 34bd 2717 5a3e
00000120: f4bb 3b3e 5202 9b3e dbda cf3d 1ef6 e2be
00000130: 2732 82be 5de7 c03e da2b cebe ba1a 8c3d
00000140: d91d 0fbf b498 f03e 91f4 a83e d70c 4a3e
00000150: 178b 943e d1ab 2c3e adc3 4cbf 5a78 d0bd
00000160: 5374 1abe 5226 01be 4b1e 6b3d 380c f7bd
00000170: feec 463e a3f3 47bd 72e5 0bbe 67f6 fb3d
00000180: ac05 82bb 0cb6 41be 8f11 ec3a 8b70 acbd
00000190: f6a7 28bd 35ab 9c3d 356f 3ebd 726b 4ebd
000001a0: 9d57 e53d 32b6 933d d81b 093d 5bad c5bd
000001b0: 9137 1dbc 5967 adbd a445 a7bc 2070 44be
000001c0: f4ce c6bd 55bd 443d 3221 ae3d d1b1 cf3e
000001d0: 69af 763e df4c 233e 31d0 e53d ba6c a73d
000001e0: 5b54 003e 60a9 b33d 804f 7ebe 6f32 a03d
000001f0: f0ed c1bd 0f50 a4be 3c83 dbbd 661a 37bf
00000200: 919e 73bf 1b20 16bf a08b cbbe 3c48 dfbd
00000210: 0153 0d3e 2cce babe cae8 9ebe 8b86 02be
00000220: 0a12 cabe aff7 aabd 6929 383d b908 b2bd
00000230: 0a0e 833d a3d5 aabd ac14 803e b6fd bb3e
00000240: 2f30 f4be e8af 88be 9cbb 93be c34e 79bd
00000250: bb81 0dbe 7f36 39be 6cc6 a93e c328 88be
00000260: c374 12be 39a6 943e e248 813d 1421 863d
00000270: c716 0a3f 79ad 883e 6807 e43e 4942 e63e
00000280: ca56 933e e449 bc3e 3da9 f0bb 3424 c5bc
00000290: d0b5 c73d d637 8a3d 54bd 17bc 87de 4cbc
000002a0: 7242 503d da2c 8b3d b3c6 dd3d ff9a 0b3e
000002b0: a389 c03e 19e3 ce3e e2a1 753e da19 2b3e
000002c0: 7ea9 593e 9263 0fbc 71f1 a93d 6f11 953d
000002d0: 41ab f53e e28b 6b3e 80cf 7bbe ed6c a53e
000002e0: 93ef 9d3d 265d d73d 7538 a63e 6cb3 423e
000002f0: 48d6 7f3e d826 073d bab6 0cbe 93a7 833c
00000300: 7c91 d83c fc8b 06be ec4d cb3d f370 f43e
00000310: b997 893d b819 003f 2fc9 643d 8b60 fabe
00000320: 040f e3bd 1d81 c3be 83f6 18bf ee8b 6b3e
00000330: 8acf ad3e 3d2c de3d 46fe 6c3e eea0 b5be
00000340: 52fb 7cbe e8e9 b2be 0108 1ebd 927f 13be
00000350: d103 cebb 506a 0a3f 0591 c73e ee6d 21be
00000360: 6935 133e bdd0 41bc 7037 c43b 1a39 87bc
00000370: 0edd 87be 0d29 813d 8d61 f43d 1e85 023d
00000380: b5f6 203e 8114 053e 1dc2 f53d f056 d7bc
00000390: bd74 c63d 0f29 1a3d e5ad fc3d 3ce5 b63c
000003a0: a960 61bc 1f71 1d3e 7eb6 223e 1599 d33c
000003b0: e12b 803e ea24 a13e f7b0 f93d 4710 b43d
000003c0: f7a9 433e f092 ac3e 2dae 473e 1e62 783e
000003d0: 6832 52bd c48c 823d 88ca 443e d754 8c3e
000003e0: 93b7 a03e 14b9 9a3e cb91 6e3e 515c dc3e
000003f0: d42a 853e e203 c13d 019d 873d 9749 583e

env_model.conv1.bias f4 [32]
0.12697847 0.017031034 0.17868292 -0.18943794 0.15982623 -0.3026666 0.34044808 -0.10078824
0.22728395 -0.09042315 0.25595194 0.25198418 0.07115961 -0.16725102 -0.070694245 -0.2201502
-0.06417236 -0.042957004 0.03898087 -0.23142819 0.47553664 -0.006553714 -0.1527247 0.02392647
0.065739214 0.37518287 -0.2199403 0.24610554 0.097973324 -0.36649758 0.042825337 -0.018032143
00000000: a506 023e ab84 8b3c a8f8 363e 05fc 41be
00000010: 7da9 233e 1ef7 9abe 364f ae3e 116a cebd
00000020: 20bd 683e c62f b9bd 220c 833e 1204 813e
00000030: 21bc 913d da43 2bbe 25c8 90bd 0e6f 61be
00000040: cc6c 83bd aff3 2fbd 68aa 1f3d 83fb 6cbe
00000050: 8a79 f33e 8ac0 d6bb dd63 1cbe 7201 c43c
00000060: 48a2 863d f817 c03e 0838 61be 1703 7c3e
00000070: 3da6 c83d 92a5 bbbe 9f69 2f3d 25b8 93bc

env_model.conv2.weight f4 [3, 32, 3, 3]
-0.40708753 -0.9752553 1.1167771 0.07034875 -0.7950612 -0.11365238 0.41987708 -1.0482051
0.69262683 -0.4574949 0.09300511 0.39910161 -0.18708521 -0.07087042 -0.12635733 0.37719703
0.42637834 0.27236906 0.24321681 0.093395814 1.6217744 0.065652244 -0.48725322 0.24747232
0.32897708 0.30225706 0.85332346 0.202775 0.09435737 0.66414726 -0.43771592 -0.38939142
0.09104459 0.6261236 0.89302784 0.35359773 -0.08414743 -0.06460132 0.0071909213 0.29670656
0.42278123 0.13450445 0.6350091 0.8722635 0.5003104 -0.23724201 -0.16743423 0.9272211
-0.17786239 -0.11362714 -0.2435605 0.24513239 -0.4313457 0.24020217 0.5629138 -0.092605695
0.19207224 0.029745188 1.0062941 -0.003785438 -1.5173609 -0.6479558 -0.3335223 -0.530807
0.4792357 0.21242063 0.33588716 -0.19866912 -0.110337876 0.7431596 0.11069443 -0.13635533
-0.1882773 -0.17748617 0.5525959 0.32494187 -0.120635815 -0.058294192 0.4433064 0.569174
0.6491299 -0.17984362 -0.033051133 -0.42299682 -1.0750718 0.15763426 0.24255769 -1.181239
0.105986156 0.1449553 -0.360703 -0.040601093 -0.42611995 -0.49457332 0.46481675 0.0774309
0.50061405 0.29971105 0.5126173 -0.15164998 0.2243574 0.34380028 -0.27279556 0.19031532
0.052419282 0.52899 0.55378103 0.53532386 0.1183772 0.17153063 1.1601433 0.026276998
0.21342058 -0.013618572 0.14152355 0.04204407 -0.13669714 -0.10509543 -0.082024455 0.029452829
-0.33410063 0.09573452 0.009333511 0.44498584 0.021805128 0.27773926 0.07180337 0.6832973
0.7613021 -0.21233661 0.30233195 -0.27589467 -0.15467079 -1.4976603 1.2241447 -0.20710105
0.059601612 0.15919302 0.2997228 -0.10640695 0.04760161 -0.47781387 0.23169397 1.0115392
-0.42319703 -0.03193425 0.0961052 -0.2861438 0.106784634 -0.053209767 0.43872038 0.029032715
0.05317011 0.9820049 1.2225859 -0.039534684 0.3032355 0.5794029 0.16235639 0.80909675
-0.86457765 -0.39030963 -0.22372013 -0.27727985 -0.29531896 -0.008177499 0.0166394 -0.15530802
0.80187774 0.11659912 0.61460364 -0.0032203195 0.44699663 1.1436933 -0.4745202 -0.62099344
-0.4069738 -0.66628605 -0.6732902 0.5224061 -0.5643475 -0.61419255 -0.54413867 0.54109365
0.36086917 0.82084787 0.8653896 0.5704167 0.028967565 0.014180895 -0.19492973 0.011515001
-0.19903068 0.16042039 -0.03644482 0.61340034 0.7128105 -0.14001359 0.12006039 -0.15802385
-0.009336238 0.22974682 -0.06693663 0.50404584 0.529808 -0.05075171 -0.58357733 -0.07297754
0.5334758 0.59472895 0.0003859657 0.25487372 0.4633039 0.73652786 -0.0036760992 0.08033566
-0.5706935 0.477335 0.22533603 0.007091531 0.24788886 0.022907805 0.9444389 0.07684513
-0.022796903 0.1072119 -0.0028813917 -0.04999287 0.2704196 0.46874428 0.08597487 1.0331483
0.35074088 0.520825 0.01836248 0.07363447 0.17891207 0.55281526 -0.040491555 -0.17962171
-0.5982137 0.02921698 0.27261955 0.09826415 -0.3521445 0.09264238 0.17912276 -0.23421599
0.029532198 0.33545795 0.50123274 0.45679057 0.16100463 -0.11354371 -1.1614298 -0.34221825
00000000: c76d d0be 55aa 79bf 8df2 8e3f 0113 903d
00000010: 2189 4bbf 94c2 e8bd 21fa d63e 962b 86bf
00000020: fe4f 313f c63c eabe 7779 be3d 0c57 cc3e
00000030: 4493 3fbe 8324 91bd d163 01be f81f c13e
00000040: 434e da3e f573 8b3e d40d 793e 4e46 bf3d
00000050: 4e96 cf3f af74 863d 4179 f9be 6269 7d3e
00000060: af6f a83e 70c1 9a3e 6873 5a3f 40a4 4f3e
00000070: 703e c13d 8e05 2a3f 4d1c e0be 505e c7be
00000080: 9675 ba3d a349 203f 799d 643f c30a b53e
00000090: 7d55 acbd b24d 84bd d2a1 eb3b ece9 973e
000000a0: c876 d83e 89bb 093e f58f 223f a94c 5f3f
000000b0: 5814 003f 92ef 72be e173 2bbe 5d5e 6d3f
000000c0: 8f21 36be 59b5 e8bd ec67 79be fc03 7b3e
000000d0: 58d9 dcbe 8ff7 753e 1e1b 103f 0ea8 bdbd
000000e0: 96ae 443e 2eac f33c 3fce 803f 1c15 78bb
000000f0: e238 c2bf 6ee0 25bf 6fc3 aabe f8e2 07bf
00000100: 625e f53e cb84 593e 67f9 ab3e eb6f 4bbe
00000110: d3f8 e1bd b53f 3e3f c3b3 e23d bba0 0bbe
00000120: c4cb 40be efbe 35be ed76 0d3f c85e a63e
00000130: e90f f7bd e4c5 6ebd 0ef9 e23e 63b5 113f
00000140: 612d 263f ed28 38be a060 07bd 0a93 d8be
00000150: f49b 89bf e06a 213e 0b61 783e d732 97bf
00000160: 450f d93d 2a6f 143e 10ae b8be 554d 26bd
00000170: 652c dabe b738 fdbe 76fc ed3e 1794 9e3d
00000180: 3e28 003f ba73 993e e33a 033f 224a 1bbe
00000190: f2bd 653e 9706 b03e dcab 8bbe 05e2 423e
000001a0: 9ab5 563d e36b 073f 98c4 0d3f fc0a 093f
000001b0: bf6f f23d baa5 2f3e 937f 943f dc42 d73c
000001c0: ed8a 5a3e 6e20 5fbc 8deb 103e 6736 2c3d
000001d0: 56fa 0bbe 463c d7bd 70fc a7bd 0f47 f13c
000001e0: 3d0f abbe 7610 c43d 95eb 183c 2fd5 e33e
000001f0: aba0 b23c d733 8e3e a50d 933d 92ec 2e3f
00000200: b2e4 423f c56e 59be 41cb 9a3e 1142 8dbe
00000210: 0562 1ebe 55b3 bfbf c6b0 9c3f 4c12 54be
00000220: d220 743d 7f03 233e 4475 993e e3eb d9bd
00000230: e8f9 423d 05a4 f4be 2f41 6d3e 1e7a 813f
00000240: 48ad d8be 7dcd 02bd ced2 c43d 7181 92be
00000250: e7b1 da3d 7cf2 59bd f59f e03e 04d6 ed3c
00000260: e7c8 593d ac64 7b3f b27d 9c3f 1fef 21bd
00000270: af41 9b3e c053 143f c140 263e f720 4f3f
00000280: f654 5dbf aad6 c7be e416 65be a0f7 8dbe
00000290: 0c34 97be ebfa 05bc 5a4f 883c 1109 1fbe
000002a0: dc47 4d3f 85cb ee3d aa56 1d3f ff0b 53bb
000002b0: bedc e43e 8b64 923f 50f4 f2be 6df9 1ebf
000002c0: df5e d0be b991 2abf bf5c 2cbf 68bc 053f
000002d0: 1479 10bf b93b 1dbf ac4c 0bbf 1d85 0a3f
000002e0: d8c3 b83e 1623 523f 2c8a 5d3f d406 123f
000002f0: 634d ed3c fc56 683c a99b 47be 6aa9 3c3c
00000300: b3ce 4bbe 3e45 243e 2a47 15bd ce07 1d3f
00000310: c07a 363f b95f 0fbe 39e2 f53d 01d1 21be
00000320: 05f7 18bc c042 6b3e 1216 89bd 2609 013f
00000330: 7fa1 073f 06e1 4fbd 5365 15bf 4075 95bd
00000340: df91 083f 2840 183f 705b ca39 cf7e 823e
00000350: 2b36 ed3e 178d 3c3f b6ea 70bb 0687 a43d
00000360: f818 12bf 4165 f43e 7dbe 663e 1360 e83b
00000370: 94d6 7d3e 26a9 bb3c bfc6 713f fb60 9d3d
00000380: 92c0 babc ea91 db3d bbd5 3cbb 53c5 4cbd
00000390: 7074 8a3e 40ff ef3e 9813 b03d 343e 843f
000003a0: 4f94 b33e ca54 053f e96c 963c abcd 963d
000003b0: ba34 373e 4d85 0d3f 79da 25bd c1ee 37be
000003c0: 8824 19bf 7358 ef3c ca94 8b3e b73e c93d
000003d0: 494c b4be 4abb bd3d f56b 373e 51d6 6fbe
000003e0: 82ed f13c 25c1 ab3e ca50 003f 74e0 e93e
000003f0: 66de 243e 9b89 e8bd bba9 94bf 3b37 afbe

env_model.conv2.bias f4 [3]
0.1837723 -0.2622372 -0.104291625
00000000: ce2e 3c3e f443 86be d996 d5bd

imagination.0.weight f4 [256, 3]
-0.5144353 -0.25287023 -0.07206851 -0.18855554 0.3781523 -0.21385786 -0.5555157 0.32366526
-0.21500796 0.07251215 -0.116343886 0.33168858 -0.35435897 -0.009858489 0.040008545 -0.12248856
-0.27712882 -0.43975684 0.03714776 -0.057807267 -0.387459 -0.05838585 0.57362926 -0.20221046
0.53673565 -0.20021671 0.46831965 -0.018549502 0.37934345 -0.31339568 0.51464176 0.52157545
-0.3902313 0.396981 0.023896575 0.014750183 0.48226345 -0.30179238 -0.36259407 -0.4543066
-0.4944824 -0.11230302 -0.42830318 0.54773736 -0.11331344 0.34293526 0.38951248 -0.405248
-0.09098458 -0.5017789 0.12760901 -0.34801424 0.25875932 0.5651181 -0.08557454 -0.001966536
0.0890941 -0.5350815 0.35861558 0.41509837 -0.05222082 0.53982127 0.29542243 0.08073777
-0.42205465 -0.4955101 0.55014575 0.51888525 0.21698946 0.2138974 -0.53321713 -0.5485161
0.14561713 0.039538264 0.46774995 -0.56504667 0.45395613 0.46001196 -0.3165897 0.2572599
0.42233318 0.30193865 0.29490113 -0.010442853 0.19183177 -0.25072032 0.4459933 -0.48501003
0.5434818 0.36068916 0.27204865 -0.2663087 -0.017374516 0.21600914 -0.042335868 0.45244968
-0.30525643 -0.18162194 -0.479579 0.4922446 -0.44689494 0.13342243 -0.075226605 0.10004586
-0.19618982 0.057794034 0.1967656 0.32698512 -0.2296651 0.08303082 0.4970994 -0.306862
-0.5405302 0.19952708 -0.53212726 -0.1068545 -0.50881284 0.15023386 -0.46554893 -0.11562309
-0.008379221 0.34996933 0.3453744 -0.19222876 0.26586133 0.3853879 -0.27651304 -0.3662624
0.039529502 -0.49170077 0.4123109 -0.11814311 0.336545 -0.22130403 0.20603013 -0.28476068
-0.16946101 0.50532925 -0.31914172 -0.56272626 -0.46938023 -0.12729865 -0.5233808 -0.14607865
0.05850655 0.05196941 0.5098188 -0.542848 0.42490602 -0.20964354 -0.18530864 0.123230696
-0.5178716 -0.023418248 0.52680004 -0.55785835 0.20270187 0.17846513 -0.46245688 0.074878514
-0.2914969 0.4904747 -0.42071348 0.48045707 -0.27280232 0.5067252 0.27997708 -0.05409032
0.2801029 0.14032483 -0.33031833 0.40742344 -0.4658077 -0.34974703 -0.54508054 -0.55351
0.2969849 -0.572423 -0.5391219 -0.16953114 -0.38511807 0.5552374 -0.23893473 0.4415114
0.018838763 -0.535937 0.4945197 0.37473422 -0.33876964 0.53642416 0.24931037 0.34665382
-0.15339777 0.14114422 -0.3992714 -0.4595607 0.41092014 0.50764143 0.13289523 -0.023928106
0.37267286 0.15494472 0.36650026 0.39703262 -0.5605648 0.13858867 -0.56701106 0.5087683
0.47643483 0.33344495 0.016224265 -0.45440194 -0.48420691 0.21423793 -0.16731477 -0.032729626
0.06885916 0.30762947 -0.012844622 0.094848394 -0.09520984 -0.023284554 -0.31608772 0.27833605
0.034775138 0.23500347 -0.3028521 0.21553755 -0.47362345 0.529546 -0.35189778 0.33804554
0.300007 -0.42985952 0.27926874 0.049924254 -0.37509623 0.4895624 -0.036281765 -0.19205499
-0.22007874 0.20454305 -0.5285958 0.26467693 -0.48782182 -0.10397807 0.5265095 -0.45200193
-0.5662056 0.35663587 0.19573665 0.4160009 -0.3085125 -0.5067973 0.11614585 -0.4216414
00000000: 08b2 03bf 3578 81be a898 93bd b414 41be
00000010: 2e9d c13e 8efd 5abe 4736 0ebf 74b7 a53e
00000020: 0c2b 5cbe 4081 943d b445 eebd 16d3 a93e
00000030: 8a6e b5be 8085 21bc 00e0 233d 48db fabd
00000040: d4e3 8dbe cf27 e1be 4028 183d 50c7 6cbd
00000050: 0761 c6be 0026 6fbd 5ed9 123f 4210 4fbe
00000060: 8267 093f 9c05 4dbe 98c7 ef3e 20f5 97bc
00000070: 4e39 c23e 6675 a0be 90bf 033f f885 053f
00000080: 66cc c7be 1841 cb3e c0c2 c33c c0aa 713c
00000090: 3ceb f63e 8884 9abe eea5 b9be e09a e8be
000000a0: cc2c fdbe 20ff e5bd 8e4a dbbe 8438 0c3f
000000b0: e010 e8bd 3695 af3e 2e6e c73e aa7c cfbe
000000c0: 2056 babd 9574 00bf f0ab 023e ec2e b2be
000000d0: 1a7c 843e 94ab 103f b441 afbd 00e1 00bb
000000e0: f876 b63d 1afb 08bf 769c b73e c687 d43e
000000f0: 80e5 55bd ba31 0a3f 9c41 973e d859 a53d
00000100: 8c17 d8be 80b3 fdbe 5ad6 0c3f aad5 043f
00000110: 7c32 5e3e ec07 5b3e eb80 08bf 8d6b 0cbf
00000120: a81c 153e e0f2 213d ec7c ef3e e6a6 10bf
00000130: f06c e83e b086 eb3e 0c18 a2be 92b7 833e
00000140: 0e3c d83e b497 9a3e 48fd 963e 8018 2bbc
00000150: 8c6f 443e 6a5e 80be 3c59 e43e 3c53 f8be
00000160: a021 0b3f 40ac b83e f649 8b3e 9d59 88be
00000170: 0055 8ebc 8031 5d3e 6068 2dbd 7ca7 e73e
00000180: 924a 9cbe 1afb 39be 618b f5be 7c07 fc3e
00000190: 6acf e4be e49f 083e 6810 9abd d8e4 cc3d
000001a0: fce5 48be 70b9 6c3d ec7c 493e 986a a73e
000001b0: 542d 6bbe 100c aa3d d083 fe3e 041d 9dbe
000001c0: 3060 0abf d450 4c3e 7e39 08bf 88d6 dabd
000001d0: 8f41 02bf e8d6 193e 6e5c eebe cccb ecbd
000001e0: 0049 09bc 2e2f b33e ead4 b03e 9ed7 44be
000001f0: fa1e 883e 9051 c53e 1e93 8dbe bf86 bbbe
00000200: b0e9 213d 34c0 fbbe 6a1a d33e 04f5 f1bd
00000210: a04f ac3e 869d 62be 90f9 523e 27cc 91be
00000220: 3087 2dbe 425d 013f 8b66 a3be d40e 10bf
00000230: 9b52 f0be 945a 02be 49fc 05bf a495 15be
00000240: 90a4 6f3d e0dd 543d 7c83 023f 16f8 0abf
00000250: 488d d93e ccac 56be 8cc1 3dbe 6060 fc3d
00000260: 3c93 04bf a0d7 bfbc 5edc 063f cecf 0ebf
00000270: 1491 4f3e 90bf 363e 26c7 ecbe e859 993d
00000280: 153f 95be 801f fb3e c267 d7be 78fe f53e
00000290: bfac 8bbe beb8 013f 2859 8f3e d08d 5dbd
000002a0: a669 8f3e 50b1 0f3e 7c1f a9be ce99 d03e
000002b0: 597e eebe 0b12 b3be 668a 0bbf d5b2 0dbf
000002c0: 680e 983e 508a 12bf e503 0abf 9299 2dbe
000002d0: 322e c5be 0a24 0e3f 4eab 74be c80d e23e
000002e0: c053 9a3c 2b33 09bf b031 fd3e 2add bf3e
000002f0: 3773 adbe 1853 093f 384b 7f3e 9c7c b13e
00000300: 4e14 1dbe 1c88 103e 4d6d ccbe 8a4b ebbe
00000310: 2064 d23e caf4 013f b015 083e e004 c4bc
00000320: face be3e d4a9 1e3e eca5 bb3e dc47 cb3e
00000330: 2d81 0fbf 30ea 0d3e a327 11bf a43e 023f
00000340: 44ef f33e 4cb9 aa3e c0e8 843c 5fa7 e8be
00000350: f8e9 f7be 3061 5b3e 9054 2bbe 800f 06bd
00000360: 0806 8d3d 9c81 9d3e 4072 52bc e03f c23d
00000370: 60fd c2bd 40bf bebc 40d6 a1be 1082 8e3e
00000380: 6070 0e3d c0a4 703e 6e0f 9bbe e0b5 5c3e
00000390: c67e f2be 5490 073f f22b b4be 4e14 ad3e
000003a0: 849a 993e 8c16 dcbe 50fc 8e3e 607d 4c3d
000003b0: 9d0c c0be eca7 fa3e 309c 14bd 10aa 44be
000003c0: 525c 61be bc73 513e 0e52 07bf bc83 873e
000003d0: c8c3 f9be 74f2 d4bd 54c9 063f cc6c e7be
000003e0: daf2 10bf fa98 b63e 306f 483e 12fe d43e
000003f0: 5af5 9dbe 78bd 01bf e0dd ed3d 62e1 d7be

imagination.0.bias f4 [256]
0.1635356 -0.011237025 0.42143536 0.18076265 -0.43055555 0.0025924444 -0.5695564 0.4361198
0.36818266 -0.52226156 -0.47444516 0.49185014 -0.562077 0.2685606 -0.19424611 0.3451562
0.29655463 0.42794085 -0.5344771 0.34968996 -0.37676424 0.08351028 -0.3392616 -0.3135366
-0.115900785 0.13318294 -0.2367855 0.20643342 -0.56498295 -0.41114956 0.22292012 0.19355917
-0.3694749 -0.22822732 0.33643568 -0.32858306 -0.22789153 -0.0709213 0.33730477 -0.20607075
-0.29953304 -0.37682533 0.38939613 -0.55877984 0.26949227 -0.030822694 -0.5350306 0.5772518
0.31210542 -0.52972156 0.18782508 -0.18947107 0.057514668 0.04777634 0.056762576 -0.5562746
-0.25953427 -0.31182885 -0.3916063 0.37061423 -0.36277708 0.17534119 0.3556316 0.012721837
-0.37415174 0.0001667738 0.44434988 -0.38628948 -0.19205031 -0.35459965 -0.3914703 -0.07525718
0.19990933 -0.46419278 0.22290903 -0.37148267 -0.18659484 0.077221274 0.21965909 0.075915754
-0.058165073 -0.5157125 0.086970806 -0.06239772 -0.56694967 -0.33971 0.025054991 -0.51911765
-0.5085761 -0.28828838 0.54040384 0.5257504 -0.11027086 -0.4941762 -0.47238696 0.31832373
0.3904677 0.2407108 0.49184263 0.35641944 -0.17448673 0.284361 -0.46482778 0.3634928
-0.4165864 -0.48445413 0.5326922 -0.15466338 0.5601406 0.24500841 0.0066854954 0.48836172
-0.5121948 -0.4584919 0.40836048 -0.24257827 0.43103302 0.28504026 0.479743 0.5562701
0.28845483 0.45577478 0.37274837 0.05526203 0.07402927 -0.53652406 -0.001496315 -0.5411294
0.0974201 0.3494388 0.19057924 -0.34198105 0.28988647 0.5166211 -0.21949083 -0.36769772
0.004246056 0.034349382 -0.3329363 -0.35629365 0.38130355 0.101649284 0.24887925 0.06778228
0.13525689 0.13571352 0.08700043 0.5558975 -0.027732372 0.060668886 0.40048867 0.43306017
0.28649563 -0.4046208 -0.017614543 -0.4042015 -0.12046605 0.51734304 -0.39070365 -0.040994525
-0.40510195 -0.4074247 0.2999711 0.026031315 0.18006223 0.059224308 -0.30022892 0.4470414
0.22608668 -0.18603331 0.43042576 0.2556156 0.44398928 -0.221369 0.48196197 -0.42307732
0.4840498 0.053111076 -0.17983136 -0.23752967 -0.11612922 -0.00651896 -0.24949077 0.37164378
0.24742496 0.53795445 0.22727615 0.050843835 -0.5391664 -0.28260645 0.13636178 -0.37508205
0.36397672 -0.35621402 -0.47636554 0.2478736 0.26645786 -0.33945602 -0.4575436 0.27666944
0.22819203 -0.10556078 0.3157227 0.36139786 0.5401412 -0.23122221 -0.21006158 0.19511694
0.14960283 -0.26931417 0.17635477 0.036201477 0.5729228 0.29596502 -0.40932214 -0.10074687
0.4075662 0.1137265 0.15752107 0.43908513 -0.49891195 -0.4207232 -0.15157533 0.2063762
-0.5445429 -0.5011641 0.2873308 -0.25081015 0.5251303 -0.43613464 -0.07416016 0.4554478
0.44710612 0.031133711 -0.52416253 0.23011261 0.44787908 0.2965625 -0.38504365 0.1698457
0.08510947 -0.16914123 0.50922036 -0.13224906 0.57718587 -0.41307902 0.20163596 -0.0894894
-0.55295104 -0.16607651 0.29387742 -0.061870098 0.21133846 0.5529567 -0.014228463 0.0021383166
00000000: e075 273e 801b 38bc 60c6 d73e d819 393e
00000010: c771 dcbe 00e6 293b 73ce 11bf 184b df3e
00000020: 7082 bc3e efb2 05bf 7aea f2be c8d3 fb3e
00000030: 47e4 0fbf c680 893e 74e8 46be 50b8 b03e
00000040: 02d6 973e 101b db3e 7ed3 08bf 900a b33e
00000050: 3ee7 c0be 7007 ab3d b2b3 adbe df87 a0be
00000060: 645d edbd 1c61 083e e677 72be 4863 533e
00000070: b9a2 10bf 3282 d2be 2c45 643e 6034 463e
00000080: d02b bdbe 6cb4 69be 4c41 ac3e 0a3c a8be
00000090: 665c 69be 303f 91bd 36b3 ac3e 3604 53be
000000a0: 655c 99be 40ef c0be ee5e c73e 320c 0fbf
000000b0: e4fa 893e e07f fcbc c4f7 08bf c6c6 133f
000000c0: 48cc 9f3e d59b 07bf 3855 403e b404 42be
000000d0: 8094 6b3d 20b1 433d e07f 683d 0368 0ebf
000000e0: ade1 84be 08a8 9fbe 9f80 c8be 26c1 bd3e
000000f0: ebbd b9be a48c 333e 5815 b63e 406f 503c
00000100: d190 bfbe 00e0 2e39 d481 e33e bcc7 c5be
00000110: d6a8 44be 168e b5be cc6e c8be 7020 9abd
00000120: 08b5 4c3e adaa edbe 4442 643e fa32 bebe
00000130: b812 3fbe 3026 9e3d 50ee 603e b879 9b3d
00000140: 803e 6ebd bc05 04bf c01d b23d c094 7fbd
00000150: 9d23 11bf 78ee adbe 2040 cd3c e5e4 04bf
00000160: 0b32 02bf 899a 93be e857 0a3f 9497 063f
00000170: b0d5 e1bd aa04 fdbe b4dc f1be 54fb a23e
00000180: 62eb c73e e47c 763e ccd2 fb3e 9c7c b63e
00000190: a6ac 32be c497 913e e8fd edbe ba1b ba3e
000001a0: d04a d5be 5f0a f8be 845e 083f 1460 1ebe
000001b0: 6065 0f3f 7ce3 7a3e 0012 db3b 8c0a fa3e
000001c0: 331f 03bf 73bf eabe a014 d13e 7066 78be
000001d0: 5cb0 dc3e ccf0 913e e0a0 f53e b867 0e3f
000001e0: 5ab0 933e 505b e93e e0d8 be3e 705a 623d
000001f0: a89c 973d a459 09bf 0020 c4ba 7587 0abf
00000200: 3084 c73d a4e9 b23e 3427 433e 2418 afbe
00000210: 006c 943e 4841 043f 34c2 60be e042 bcbe
00000220: 8022 8b3b f0b1 0c3d a076 aabe 1f6c b6be
00000230: 383a c33e 802d d03d 34da 7e3e 70d1 8a3d
00000240: c880 0a3e 7cf8 0a3e 482d b23d 4c4f 0e3f
00000250: 002f e3bc f07f 783d da0c cd3e 10ba dd3e
00000260: 8eaf 923e 752a cfbe 604c 90bc 80f3 cebe
00000270: e8b6 f6bd 9870 043f 4f0a c8be e0e9 27bd
00000280: 8669 cfbe f899 d0be d095 993e a03f d53c
00000290: 3c62 383e 3095 723d 9bb7 99be 9ce2 e43e
000002a0: 4483 673e 847f 3ebe c460 dc3e 0ce0 823e
000002b0: 9052 e33e 8eae 62be b8c3 f63e 979d d8be
000002c0: 60d5 f73e 008b 593d b625 38be fa3a 73be
000002d0: 28d5 edbd 009d d5bb 827a 7fbe 1848 be3e
000002e0: f85c 7d3e 62b7 093f 14bb 683e a041 503d
000002f0: cf06 0abf cbb1 90be 6ca2 0b3e c10a c0be
00000300: 285b ba3e af61 b6be 2fe6 f3be 94d2 7d3e
00000310: 2a6d 883e 2ecd adbe 2843 eabe 9ea7 8d3e
00000320: 2cab 693e 4030 d8bd 68a6 a13e 2409 b93e
00000330: b246 0a3f 84c5 6cbe 621a 57be bccc 473e
00000340: 7c31 193e 8ce3 89be 5896 343e 0048 143d
00000350: 12ab 123f ba88 973e ac92 d1be 6054 cebd
00000360: 84ac d03e 70e9 e83d 344d 213e c4cf e03e
00000370: 6371 ffbe 0869 d7be 9036 1bbe 4854 533e
00000380: 2a67 0bbf 4a4c 00bf 061d 933e 306a 80be
00000390: f06e 063f 0a4d dfbe 48e1 97bd 7430 e93e
000003a0: 18eb e43e 200c ff3c 842f 06bf a4a2 6b3e
000003b0: 6850 e53e 0ad7 973e 7124 c5be 08ec 2d3e
000003c0: e04d ae3d 5c33 2dbe 445c 023f 4c6c 07be
000003d0: 74c2 133f 187f d3be a879 4e3e 3846 b7bd
000003e0: 338e 0dbf f60f 2abe 1a77 963e 806b 7dbd
000003f0: 1c69 583e 928e 0d3f 801e 69bc 0023 0c3b

imagination.2.weight f4 [256, 256]
-0.04794482 -0.049046457 0.051132582 -0.047947086 0.043957062 0.03302376 0.053393103 -0.014553025
0.007012494 0.02459833 0.025572315 0.04680334 -0.014586255 -0.008012123 0.06129346 -0.01023224
0.028507888 -0.013277747 0.05079361 -0.030385204 0.037610777 -0.045678884 0.04967747 -0.051033773
-0.019098207 -0.059901312 0.03201139 0.029957436 0.018256135 0.062126346 0.005470492 0.022880666
0.05172746 -0.041065954 -0.039856635 -0.04759205 -0.0048528537 -0.027119264 0.0035062134 0.012575328
0.011606321 -0.060695462 0.045454934 0.04811418 0.03280887 0.062310897 0.03426546 -0.008324824
0.03294097 0.05904302 0.056463458 -0.054906487 0.047294818 0.04445011 -0.0048483387 0.04792568
0.02988021 -0.05840666 0.03761956 0.021299817 0.03131093 0.0031485558 0.057461828 -0.02487167
0.048277967 0.01415956 -0.032581657 0.0280734 0.042745784 -0.004783593 -0.049081042 0.030818306
-0.054947153 0.014877185 0.0095862225 -0.042198963 -0.01453571 -0.03135959 0.0066763386 -0.037415706
-0.047911473 -0.017257042 0.04024473 0.050768018 0.00868272 0.048804805 -0.0015957728 -0.040937774
0.040457144 -0.027543277 -0.00088843703 0.03979151 0.018230237 0.01656542 0.022926942 -0.03280054
-0.018059425 0.037111335 -0.050720394 0.052119292 -0.054372855 0.014514588 0.05844111 -0.019114666
-0.034361355 0.007595435 -0.049547985 0.02455043 -0.051642083 -0.05031596 -0.056778505 -0.05275841
0.02729804 -0.052506745 0.006875068 -0.059330627 -0.057287745 0.01883132 0.052304305 -0.02689267
0.04619529 -0.049641795 -0.027760975 -0.05338251 0.0014633983 0.024831958 0.0362003 -0.017129757
-0.06191966 0.003676556 0.01504299 0.041989848 0.016224168 -0.0492675 -0.057550162 -0.048031695
-0.023387268 -0.060427837 0.0239909 -0.011468761 0.051634587 0.026562296 0.034105264 0.013708003
-0.020353012 -0.05279149 -0.003752537 0.0009310916 0.021123163 0.055076353 -0.049438536 0.0118519515
0.029109634 -0.060348853 -0.016513608 -0.027403615 0.015838683 0.04056406 0.006301105 -0.04933855
0.052781567 -0.008751243 0.059441887 0.011110112 -0.0566072 -0.020118974 -0.037337504 0.02025199
0.008451112 -0.020937026 0.0547098 0.061504796 0.009950183 0.010155238 0.05770921 -0.05293931
-0.05131711 0.037619464 0.04596463 -0.0042796433 0.031745628 -0.034279257 0.027220838 0.021029375
0.056920007 0.035079002 -0.014217816 0.02445525 -0.030181281 0.049350247 -0.033322185 -0.04700227
0.039960362 -0.023209676 0.0278463 0.06082537 -0.048744805 -0.025894329 -0.03907264 0.05869718
0.03003294 -0.03926312 0.0514479 0.02879157 0.021550775 -0.05081679 0.014752619 -0.04226976
0.03356582 0.028050125 -0.017061777 0.03745085 0.025235109 -0.0066578686 0.013782278 0.05125139
-0.009773299 -0.015880235 -0.015937865 0.0019539222 -0.02792675 -0.013284579 -0.06037058 -0.03934905
-0.05601587 -0.052277505 0.040243603 -0.051301777 -0.061448798 -0.022986129 -0.04713217 -0.014107436
0.005006887 0.0010212213 0.0053079575 0.04179249 0.021340922 0.020844325 0.017937794 0.0324988
-0.05117417 -0.055624448 0.01182574 -0.050180458 -0.061103724 0.022622295 -0.0037805215 -0.028523356
0.0065038055 0.017947838 0.05903586 -0.024919651 -0.04085722 0.05701241 0.04670573 -0.03164027
00000000: ca61 44bd f0e4 48bd 6670 513d 2a64 44bd
00000010: 520c 343d ec43 073d bab2 5a3d d06f 6ebc
00000020: 10c9 e53b 7082 c93c 087d d13c dcb4 3f3d
00000030: 30fb 6ebc 4845 03bc da0e 7b3d 20a5 27bc
00000040: 6089 e93c e88a 59bc f60c 503d 64ea f8bc
00000050: c20d 1a3d c819 3bbd 9a7a 4b3d ca08 51bd
00000060: d873 9cbc 145b 75bd 601e 033d 4c69 f53c
00000070: e48d 953c 3278 7e3d d041 b33b 3c70 bb3c
00000080: 2ce0 533d c634 28bd b640 23bd e2ef 42bd
00000090: b004 9fbb 3829 debc 80c8 653b c008 4e3c
000000a0: 7028 3e3c ce9b 78bd f42e 3a3d 6013 453d
000000b0: 9862 063d b639 7f3d f059 0c3d d864 08bc
000000c0: 1ced 063d 18d7 713d 3a46 673d a0e5 60bd
000000d0: 36b8 413d 5211 363d d0de 9ebb b84d 443d
000000e0: 58c7 f43c d23b 6fbd f816 1a3d f47c ae3c
000000f0: e43f 003d 0058 4e3b 185d 6b3d acbf cbbc
00000100: 1ebf 453d 80fd 673c 5874 05bd 30fa e53c
00000110: 3416 2f3d b0bf 9cbb 3409 49bd ac76 fc3c
00000120: 4410 61bd 70bf 733c 880f 1d3c d2d8 2cbd
00000130: 3027 6ebc ea72 00bd 30c5 da3b 3641 19bd
00000140: d23e 44bd a45e 8dbc a8d7 243d 20f2 4f3d
00000150: f841 0e3c 8ce7 473d 4029 d1ba 5eae 27bd
00000160: 64b6 253d 70a2 e1bc 00e6 68ba 6cfc 223d
00000170: 9457 953c 34b4 873c 48d1 bb3c dc59 06bd
00000180: 5cf1 93bc 0e02 183d 30c0 4fbd 0a7b 553d
00000190: 12b6 5ebd 98ce 6d3c f25f 6f3d 5c96 9cbc
000001a0: 7ebe 0cbd 20e3 f83b d4f2 4abd fc1d c93c
000001b0: a686 53bd 1c18 4ebd 9490 68bd 3419 58bd
000001c0: 24a0 df3c 5011 57bd 4048 e13b ac04 73bd
000001d0: 8ea6 6abd 2444 9a3c 0a3d 563d 044e dcbc
000001e0: 4637 3d3d 3255 4bbd fc6a e3bc 9ea7 5abd
000001f0: 80cf bf3a 646c cb3c c446 143d b453 8cbc
00000200: 789f 7dbd 60f2 703b e076 763c 8cfd 2b3d
00000210: 8ce8 843c b8cc 49bd b8b9 6bbd e2bc 44bd
00000220: a896 bfbc 2e83 77bd 9088 c43c 78e7 3bbc
00000230: ca7e 533d 2c99 d93c f6b1 0b3d 8897 603c
00000240: 5cbb a6bc e43b 58bd 20ed 75bb 8014 743a
00000250: 7c0a ad3c be97 613d 1080 4abd b02e 423c
00000260: 5477 ee3c 5c30 77bd 8c47 87bc 8c7d e0bc
00000270: 20c0 813c 8026 263d 8079 ce3b 3817 4abd
00000280: 7c31 583d 6061 0fbc 5679 733d 3007 363c
00000290: f4dc 67bd 8cd0 a4bc 36ef 18bd 80e7 a53c
000002a0: 8876 0a3c 2084 abbc 6217 603d 74ec 7b3d
000002b0: 1806 233c 2862 263c 7e60 6c3d e4d6 58bd
000002c0: e431 52bd de16 1a3d 6845 3c3d 403c 8cbb
000002d0: b407 023d 6868 0cbd 3cfe de3c cc45 ac3c
000002e0: f424 693d 00af 0f3d d8f1 68bc 6056 c83c
000002f0: bc3e f7bc 7c23 4a3d d87c 08bd 7485 40bd
00000300: 7aad 233d 3822 bebc ec1d e43c 0624 793d
00000310: a2a8 47bd 5820 d4bc a20a 20bd 746c 703d
00000320: a407 f63c 5ed2 20bd 08bb 523d 4cdc eb3c
00000330: 408b b03c 4425 50bd f8b4 713c 0e23 2dbd
00000340: 507c 093d 60c9 e53c 24c5 8bbc 1066 193d
00000350: dcb9 ce3c 402a dabb 10cf 613c faec 513d
00000360: 3020 20bc 4417 82bc 2090 82bc 600d 003b
00000370: a4c6 e4bc 90a7 59bc 2447 77bd 782c 21bd
00000380: e670 65bd f020 56bd 7ad6 243d d021 52bd
00000390: bcb1 7bbd 684d bcbc aa0d 41bd e022 67bc
000003a0: d010 a43b 80da 853a 60ee ad3b 9a2e 2b3d
000003b0: 28d3 ae3c b8c1 aa3c 48f2 923c 761d 053d
000003c0: 029c 51bd 76d6 63bd c0c0 413c 068a 4dbd
000003d0: e647 7abd 6452 b93c a0c2 77bb d0a9 e9bc
000003e0: e01d d53b 5807 933c 96cf 713d 4c24 ccbc
000003f0: e659 27bd d885 693d 824e 3f3d 3a99 01bd

imagination.2.bias f4 [256]
-0.034758985 -0.010891311 -0.029268228 0.04529898 -0.0006765276 -0.052087247 0.012189046 0.032171264
0.029051706 -0.016975515 0.0005446449 -0.0397276 -0.0621908 0.052668758 -0.051996224 -0.050747678
0.03742408 -0.012459569 -0.01674793 0.055329368 0.050536 0.05636905 -0.02809482 -0.04439336
0.061092675 0.045810834 -0.051943056 -0.03425671 -0.058044285 -0.050847642 -0.048785508 -0.031299606
-0.012831561 0.033286862 -0.020210415 -0.031198658 0.04157401 -0.033291265 -0.022588648 0.0469217
-0.036345877 0.047075287 0.024543226 0.027983487 0.02307956 -0.04147514 -0.06248554 -0.051530667
-0.025181346 -0.034540586 0.053411804 -0.033934645 0.046060972 -0.040854536 0.049779035 -0.009279408
-0.04163599 0.046007425 0.032415465 0.02787821 0.044335388 0.0010481551 0.05353745 0.01843723
-0.016202249 -0.043802597 -0.008954994 -0.020206727 -0.028953008 0.007331699 0.024187535 0.042392552
0.027712628 -0.036995433 -0.041201256 -0.034288943 -0.030342907 -0.0024852678 6.1780214e-05 0.04256513
-0.057836257 0.041248105 -0.049300775 0.026607275 -0.01106146 -0.03165958 -0.057343945 0.031226613
0.033183895 0.004675396 -0.017032199 -0.027452908 -0.03405592 0.042031586 -0.01649791 0.0053384975
0.017976083 0.021407172 -0.023727082 0.062155522 -0.03735187 0.04815553 -0.017181471 -0.02955097
0.028689213 -0.027991332 -0.014935009 -0.026753955 -0.012142681 -0.04100749 0.0049992353 -0.04537595
-0.05611649 -0.030201957 -0.034864463 0.050120182 0.026950672 -0.061960176 -0.057494104 -0.05864174
0.0532611 0.0213985 -6.841123e-05 -0.03337492 0.036811247 0.01316531 -0.019158982 0.028824471
0.03486322 0.03936655 0.008972757 -0.0059068277 0.01213789 -0.016732208 -0.0438914 0.049778007
0.014611743 -0.019721597 -0.055127755 -0.011852726 -0.052375376 -0.052763753 -0.044778682 0.061835803
0.0017610565 -0.061231874 0.009324111 -0.020388499 -0.022586942 -0.047680013 0.016878165 0.023459159
0.05978039 0.0071459264 -0.039932847 -0.005597353 -0.030280113 0.038669735 -0.029313385 0.02997458
0.061473884 -0.038670868 -0.005922854 -0.044248484 0.012876503 0.013779916 -0.06158051 -0.042288624
-0.008805767 0.039556414 0.051135696 -0.037339434 0.0055224 0.010961145 0.04747446 0.052690983
-0.030669771 -0.0114154145 -0.00767228 0.006574154 0.004712768 -0.045218043 0.015902445 0.044730857
0.01523117 -0.034428827 -0.051697873 0.027003631 -0.0054519624 0.048366904 -0.037467018 -0.0091355145
0.051193558 0.06235779 -0.038949564 0.034429967 -0.03375963 0.0052069277 -0.04422459 -0.02535922
-0.02268149 -0.03743118 -0.0085961 0.060941637 -0.03715697 0.0059851184 0.055910192 -0.009490579
-0.038811892 0.0344394 -0.03486093 -0.008915022 0.0549277 0.03957632 0.023142979 0.03398276
-0.0027813613 -0.040226184 -0.04038401 0.04218089 0.05053623 0.038006105 0.020064704 0.012418285
0.034893222 -0.034029342 0.047136113 -0.013712041 -0.008213595 0.0441797 0.057778284 -0.05542846
0.039477326 -0.014101885 -0.0061572567 -0.042341962 0.046192393 0.053488098 0.037182525 -0.020576037
-0.013930544 -0.046384268 0.012138583 -0.0054768175 0.01801505 0.017763525 0.0097574815 0.009049177
0.007841781 -0.043017074 0.053866796 -0.040663935 -0.01733093 0.008766055 -0.05039116 0.014044523
00000000: 705f 0ebd 7871 32bc ecc3 efbc 6c8b 393d
00000010: 0059 31ba 7059 55bd 90b4 473c 04c6 033d
00000020: d8fd ed3c 3c10 8bbc 80c6 0e3a 68b9 22bd
00000030: c8bb 7ebd 32bb 573d fef9 54bd ccdc 4fbd
00000040: fe49 193d 3823 4cbc f432 89bc 0ca1 623d
00000050: d6fe 4e3d 3ce3 663d 1c27 e6bc d0d5 35bd
00000060: 503c 7a3d 24a4 3b3d 3ec2 54bd c450 0cbd
00000070: d8bf 6dbd 9e45 50bd 50d3 47bd 0434 00bd
00000080: 783b 52bc ce57 083d 5090 a5bc 5494 ffbc
00000090: 8249 2a3d 6c5c 08bd d40b b9bc f830 403d
000000a0: 6adf 14bd 04d2 403d e00e c93c a03d e53c
000000b0: 5811 bd3c d6e1 29bd d6f0 7fbd d211 53bd
000000c0: 1c49 cebc 6e7a 0dbd 56c6 5a3d 0eff 0abd
000000d0: 6eaa 3c3d 1657 27bd 1ae5 4b3d a808 18bc
000000e0: 808a 2abd 4872 3c3d 14c6 043d d860 e43c
000000f0: 0699 353d 4062 893a 164a 5b3d ac09 973c
00000100: 94ba 84bc 5a6a 33bd f8b7 12bc 9488 a5bc
00000110: dc2e edbc c03e f03b f024 c63c d0a3 2d3d
00000120: 9805 e33c 8688 17bd a6c2 28bd 9072 0cbd
00000130: b091 f8bc e0df 22bb 0090 8138 c658 2e3d
00000140: b6e5 6cbd c6f3 283d 9cef 49bd 80f7 d93c
00000150: 203b 35bc 7aad 01bd 7ce1 6abd f4ce ff3c
00000160: d6eb 073d 1034 993b 1c87 8bbc ece4 e0bc
00000170: 387e 0bbd 5029 2c3d a026 87bc 90ee ae3b
00000180: 9442 933c 185e af3c 4c5f c2bc ca96 7e3d
00000190: 46fe 18bd bc3e 453d 28c0 8cbc e014 f2bc
000001a0: a405 eb3c 144e e5bc f8b1 74bc 1c2b dbbc
000001b0: 18f2 46bc 78f7 27bd a0d0 a33b 22dc 39bd
000001c0: 68da 65bd 186a f7bc 0ace 0ebd d24a 4d3d
000001d0: a8c7 dc3c f4c9 7dbd f07e 6bbd 5232 70bd
000001e0: 5028 5a3d e84b af3c 0078 8fb8 24b4 08bd
000001f0: 64c7 163d 50b3 573c 4cf3 9cbc 4c21 ec3c
00000200: bccc 0e3d d23e 213d 7802 133c 108e c1bb
00000210: 00de 463c fc11 89bc 78c7 33bd 06e4 4b3d
00000220: 1866 6f3c 308f a1bc a4cd 61bd f031 42bc
00000230: 9087 56bd ce1e 58bd da69 37bd 8a47 7d3d
00000240: 40d3 e63a 46ce 7abd 28c4 183c c805 a7bc
00000250: 4008 b9bc 1e4c 43bd 1444 8a3c 6c2d c03c
00000260: 48dc 743d 6028 ea3b a090 23bd 006a b7bb
00000270: 000e f8bc 2864 1e3d a022 f0bc 408d f53c
00000280: 0acc 7b3d 5865 1ebd 8014 c2bb e63d 35bd
00000290: f8f7 523c 28c5 613c d83b 7cbd d636 2dbd
000002a0: 1046 10bc e805 223d aa73 513d 3cf1 18bd
000002b0: 40f5 b43b 6096 333c 9474 423d 80d2 573d
000002c0: 2c3f fbbc b807 3bbc c067 fbbb 006c d73b
000002d0: 906d 9a3b 8e36 39bd d845 823c b437 373d
000002e0: 288c 793c 3e05 0dbd 26c1 53bd b836 dd3c
000002f0: 60a6 b2bb 601c 463d 0477 19bd 20ad 15bc
00000300: 56b0 513d e26a 7f3d 9489 1fbd 7006 0d3d
00000310: 8a47 0abd e09e aa3b d824 35bd 24be cfbc
00000320: 88ce b9bc 7051 19bd a8d6 0cbc f09d 793d
00000330: e831 18bd d01e c43b 1602 653d 607e 1bbc
00000340: 38f9 1ebd 5410 0d3d 56ca 0ebd 5010 12bc
00000350: defb 603d c81a 223d 5896 bd3c 8231 0b3d
00000360: 8047 36bb 36c4 24bd b469 25bd dec5 2c3d
00000370: 14ff 4e3d 4aac 1b3d bc5e a43c 1076 4b3c
00000380: 32ec 0e3d 5a62 0bbd cc11 413d 78a8 60bc
00000390: 5092 06bc c6f5 343d eca8 6c3d f408 63bd
000003a0: fab2 213d 980b 67bc d0c2 c9bb c46e 2dbd
000003b0: 3c34 3d3d 5616 5b3d b44c 183d 148f a8bc
000003c0: f03c 64bc 6efd 3dbd e8e0 463c e076 b3bb
000003d0: 4c94 933c d084 913c d8dd 1f3c 0043 143c
000003e0: d07a 003c ac32 30bd 6ea3 5c3d 3a8f 26bd
000003f0: 98f9 8dbc 809f 0f3c f666 4ebd 001b 663c

model_free_agent.conv1.weight f4 [32, 3, 3, 3]
0.18889175 0.050376922 0.13545682 0.083351955 -0.15442167 0.019153565 -0.14380386 0.110231504
-0.08085023 -0.13893355 -0.11113956 0.038908556 -0.040698543 0.043358564 0.023919567 -0.18163288
0.15394582 0.13522874 -0.16901797 0.14456184 0.0029313862 -0.1015727 -0.077074 -0.16731656
0.16890173 -0.09736074 -0.14175865 0.07574029 0.1634254 0.059393957 0.15289332 0.013035759
-0.04469472 -0.1788737 -0.10660054 0.1514952 -0.13985936 -0.06505372 0.10930808 -0.13932608
-0.03590022 0.062076643 0.08543359 -0.15299357 -0.0103414655 0.07574879 -0.08274945 0.1495293
-0.037082955 0.002243191 -0.12585783 -0.16531149 0.14352076 0.025459573 -0.1040787 -0.0027120262
0.14140497 -0.086314954 -0.13478413 0.13811497 0.1922607 -0.021971807 -0.1811993 -0.0008325428
-0.03809896 -0.111668825 0.09163667 -0.055536866 -0.17537579 0.10346137 0.10188107 -0.06745582
-0.108999476 0.15800007 0.005044982 0.025675222 -0.022889093 -0.15546492 0.011023581 -0.021925882
0.029523373 0.060745344 0.02794534 -0.13558124 -0.012445584 0.13830785 -0.063282534 -0.12608618
0.055651456 0.15270944 -0.10182313 0.13134961 -0.1867699 -0.087257445 -0.13144882 -0.046309426
-0.10798051 0.16538943 -0.022557154 -0.028043136 0.0024607629 0.066035345 -0.07940523 0.14477389
-0.09642987 0.035438 -0.110689506 0.058041826 -0.15600932 -0.10773272 -0.091655925 -0.01286149
0.055752635 0.079345986 0.15115856 0.1690235 0.1695626 0.025309756 -0.03621693 -0.10770787
0.00015884638 -0.18599066 0.104401305 -0.16229607 -0.13147151 0.059650972 0.004561484 -0.08143566
-0.1148844 0.10180546 -0.047087297 -0.06528105 0.17187138 -0.099183306 -0.066486225 -0.14971185
0.040544286 0.16727291 0.15447576 0.07231404 -0.19198954 -0.020903662 0.1435977 -0.04858452
0.0328788 0.17145662 -0.027252033 0.09979169 -0.1088627 -0.028982326 -0.026474744 -0.11610172
0.005396843 -0.13272384 -0.07739842 -0.06552072 -0.009081781 -0.00014278293 0.11107321 0.08392422
0.09192185 0.09901254 0.051902726 -0.11273803 0.18258552 -0.004453331 -0.124616764 -0.15328383
0.016203552 0.13139193 0.12806843 0.11103599 0.042392522 -0.020620748 -0.17870814 -0.016540036
0.15095325 -0.052701563 -0.12058281 -0.105213314 -0.023294821 -0.06930312 -0.19037235 0.18313767
0.123074695 -0.077692606 0.089964435 0.0970424 -0.07887562 0.09830086 0.058617577 0.021316245
-0.12627912 -0.08452859 -0.11034669 0.1204495 0.13195284 0.05595672 0.18158023 0.17675214
-0.04629509 -0.060939506 -0.05023597 0.16758282 0.0011215359 -0.058845907 -0.067615636 -0.06332682
-0.060721144 -0.19144292 -0.034876436 0.010842353 -0.14827321 -0.17805758 0.10188769 -0.18249524
0.16175617 0.12453745 -0.03506933 -0.0009544194 0.13455091 -0.090073854 0.16295727 0.036840647
0.083332196 -0.024931654 0.07180475 -0.13183862 -0.020733088 -0.19197717 -0.10995195 -0.06496255
-0.11046417 0.12064727 0.1367384 0.14895286 0.13250227 0.09271328 -0.117695004 -0.06306897
-0.0175094 0.115521684 -0.02090314 0.043715492 0.04431811 0.025952429 -0.17053382 -0.13274163
-0.028851077 -0.12361331 0.09985222 0.15198423 0.05132085 -0.10329696 0.06136264 0.01950635
00000000: d76c 413e 0858 4e3d 31b5 0a3e 6eb4 aa3d
00000010: b720 1ebe f0e7 9c3c 5241 13be 0ec1 e13d
00000020: ce94 a5bd 9944 0ebe 239d e3bd 945e 1f3d
00000030: 84b3 26bd c098 313d f8f2 c33c f8fd 39be
00000040: f9a3 1d3e 6779 0a3e 0c13 2dbe 0508 143e
00000050: 801c 403b 5905 d0bd f9d8 9dbd 0855 2bbe
00000060: 93f4 2c3e 1165 c7bd 2e29 11be ba1d 9b3d
00000070: fd58 273e 1447 733d 1190 1c3e f093 553c
00000080: d011 37bd ab2a 37be 6251 dabd 8f21 1b3e
00000090: 4b37 0fbe e23a 85bd eadc df3d 7fab 0ebe
000000a0: 1c0c 13bd 1444 7e3d cef7 ae3d 59aa 1cbe
000000b0: 406f 29bc 2e22 9b3d 8b78 a9bd 351e 193e
000000c0: 4ce4 17bd 8002 133b e0e0 00be 6a47 29be
000000d0: 1bf7 123e 9890 d03c 3727 d5bd 40bc 31bb
000000e0: 77cc 103e e5c5 b0bd da04 0abe 036e 0d3e
000000f0: fddf 443e 38fe b3bc 4f8c 39be 003f 5aba
00000100: a80d 1cbd a0b2 e4bd 02ac bb3d a07a 63bd
00000110: b695 33be 8ee3 d33d 06a7 d03d 4726 8abd
00000120: 1e3b dfbd c5ca 213e 6050 a53b d854 d23c
00000130: e881 bbbc 3232 1fbe 409c 343c e89d b3bc
00000140: 00db f13c 1cd0 783d a0ed e43c cfd5 0abe
00000150: 90e8 4bbc 93a0 0d3e 469a 81bd bc1c 01be
00000160: c8f2 633d dd5f 1c3e a588 d0bd 8380 063e
00000170: 9c40 3fbe 08b4 b2bd 859a 06be f4ae 3dbd
00000180: e324 ddbd d95b 293e c8c9 b8bc b8ba e5bc
00000190: c044 213b 8a3d 873d 369f a2bd 9b3f 143e
000001a0: 067d c5bd 7027 113d 2eb1 e2bd 44bd 6d3d
000001b0: e8c0 1fbe f9a2 dcbd 1ab6 bbbd 00b9 52bc
000001c0: e05c 643d 2680 a23d 4fc9 1a3e 7f14 2d3e
000001d0: d1a1 2d3e 6856 cf3c 3458 14bd f295 dcbd
000001e0: 0090 2639 5674 3ebe 5ad0 d53d f130 26be
000001f0: 78a0 06be 9454 743d 8078 953b bdc7 a6bd
00000200: 8348 ebbd 627f d03d 9cde 40bd 12b2 85bd
00000210: 0dff 2f3e 9e20 cbbd ee29 88bd 104e 19be
00000220: c411 263d 9749 2b3e e52e 1e3e 6219 943d
00000230: e898 44be 283e abbc 470b 133e 9000 47bd
00000240: ecab 063d 5392 2f3e a83f dfbc 965f cc3d
00000250: 68f3 debd 586c edbc 90e1 d8bc bdc6 edbd
00000260: 00d8 b03b c2e8 07be 1083 9ebd ba2f 86bd
00000270: c0cb 14bc 00b8 15b9 5a7a e33d 76e0 ab3d
00000280: 8641 bc3d 16c7 ca3d f497 543d 32e3 e6bd
00000290: b3f7 3a3e 40ed 91bb 1337 ffbd 70f6 1cbe
000002a0: 50bd 843c 9b8b 063e 5f24 033e d666 e33d
000002b0: c8a3 2d3d d8ec a8bc 44ff 36be f87e 87bc
000002c0: 7d93 1a3e 98dd 57bd 1ff4 f6bd 147a d7bd
000002d0: c8d4 bebc cbee 8dbd f8f0 42be 7188 3b3e
000002e0: 960e fc3d 4d1d 9fbd 463f b83d 2abe c63d
000002f0: 8b89 a1bd f651 c93d fc18 703d 689f ae3c
00000300: 504f 01be 531d adbd 72fd e1bd 3aae f63d
00000310: a51e 073e e032 653d 2bf0 393e 83fe 343e
00000320: ec9f 3dbd b49b 79bd 3cc4 4dbd d59a 2b3e
00000330: 8000 933a 6808 71bd 117a 8abd 7eb1 81bd
00000340: bcb6 78bd 9d09 44be 98da 0ebd 20a4 313c
00000350: efd4 17be ba54 36be 7eaa d03d 08e0 3abe
00000360: 69a3 253e 7e0d ff3d dca4 0fbd 0032 7aba
00000370: b7c7 093e a478 b8bd 45de 263e 38e6 163d
00000380: 12aa aa3d 783d ccbc 5e0e 933d b400 07be
00000390: 70d8 a9bc aa95 44be 7d2e e1bd 160b 85bd
000003a0: 0a3b e2bd ea15 f73d 2705 0c3e 1987 183e
000003b0: adae 073e 76e0 bd3d 140a f1bd 4e2a 81bd
000003c0: e06f 8fbc a296 ec3d 103d abbc 040f 333d
000003d0: e886 353d 309a d43c 6ba0 2ebe 6ced 07be
000003e0: 1859 ecbc fa28 fdbd 527f cc3d c1a1 1b3e
000003f0: d035 523d 5b8d d3bd 6457 7b3d c8cb 9f3c

model_free_agent.conv1.bias f4 [32]
0.12842055 -0.0012962371 0.1604038 0.15300296 0.0029824674 0.03744106 0.073591605 0.14609234
-0.13766462 0.10113628 -0.17600538 -0.11161294 0.07208623 -0.035700858 0.10100727 0.18595393
-0.11259955 0.15391885 -0.009866819 -0.06507696 -0.03509383 -0.18904641 0.05805783 0.058585957
-0.039144695 0.18163188 -0.10378842 0.1523153 -0.12826517 0.11952035 -0.10017719 0.07599811
00000000: ad80 033e 80e6 a9ba e540 243e cfac 1c3e
00000010: 8075 433b cc5b 193d 32b7 963d 3b99 153e
00000020: f4f7 0cbe 8a20 cf3d c13a 34be 5395 e4bd
00000030: f2a1 933d 103b 12bd e6dc ce3d b56a 3e3e
00000040: 989a e6bd e79c 1d3e 70a8 21bc 1247 85bd
00000050: 8cbe 0fbd 6295 41be 0cce 6d3d d4f7 6f3d
00000060: 3056 20bd b5fd 393e 068f d4bd 8bf8 1b3e
00000070: f257 03be 16c7 f43d b329 cdbd e6a4 9b3d
