MAI2A_TreasureFinder/agent_1_model.pth (torch, 848959 bytes, 30 tensors)

env_model.conv1.weight f4 [32, 14, 3, 3]
00000000: 5c37 a63d 3785 75bd aa33 093d 5007 9fbc
00000010: 5697 853d 6fb5 22be 7a46 9e3c 153a fa3c
00000020: ad13 663c 1026 d33a dce8 643c 1f3e 67be
00000030: 278a 05be 634d 263e 65b0 633c 4513 e8bd
00000040: fc2d ef3d 2b6d d8bd a935 813d dba6 093d
00000050: cc9d b8bd 4aff 73bd faee 9c3d 706e 2dbe
00000060: 86aa 03be 7cc3 7c3d d413 95bd d526 fe3e
00000070: ee51 8b3d 1b4f febe 0883 413f 9831 643e
00000080: 0caa 5e3f 27fb 0bbf 4f7b 043f ad32 c73e
00000090: 3bfc c9be fc0e 363e 255f a0bd 69be cfbe
000000a0: 5ec9 163e 2edb adbf e6c7 c1bf 946b f7bf
000000b0: 71a4 05bf 3eff b03e 73ca 10be 7fbb 833e
000000c0: 3626 413e 4035 9fbf f958 a2bf c7dd 23bf
000000d0: b41c c93c 2aaf c6be 3d73 0e3d 5122 23bd
000000e0: e6f6 6a3c e12c b73d 8a05 b03c 590a 713d
000000f0: da0f e83d 6f21 16bd 0ec8 42bd 3792 bebc
00000100: f003 303b f624 12be e91f ba3c c9bd 1e3d
00000110: 07d7 c6bd be66 a73d 962a 423d 4424 653d
00000120: e8ce 68bd 51f9 6d3d 20b1 6f3c e055 823d
00000130: 2f09 aebb 5acd 003d 4b89 863c a9ee 47bd
00000140: e950 a1bb 41f1 573d 0c17 d1bc 41c6 3e3b
00000150: dae3 633d 118b 433d 1c32 543d 9625 6a3c
00000160: 426e 703d 1c3c abbc d8a0 ebbe abe4 5fbf
00000170: 9d36 1bbe 546e 1dbf 9365 82bf 230e bdbe
00000180: df94 86bf 1cd0 4ebf ee61 11bf 2917 a9bc
00000190: 0905 19be a7b1 9abf d6b9 413c 0dcc 8abe
000001a0: 2b1a 85bf 2f07 a4be 6c8e 96be 5d2e 13bf
000001b0: c738 31bf 1e76 1ebf ac13 b4be 3d74 42bf
000001c0: c72a 89bf efd2 29bf 7ab2 0bbe e563 4dbf
000001d0: 4f1e 23bf 7371 a93e 4e9a 223f 27ec 963e
000001e0: 252e 8d3d 88c7 e23e 66de 01bd b5a7 89be
000001f0: 3dad 97bd c0a6 bbbe 155a b33e e628 0dbe
00000200: ee1c f2bd f33c 8c3e be36 90be 24d0 f3bd
00000210: c8b4 383f f2da 363e d08f bebd ed7c 953e
00000220: 969e b6bd c107 de3d 89e7 fd3e bd50 a8be
00000230: ded6 0e3e 9aa5 ac3d 6ce2 803d c71d 443e
00000240: 1098 e93d e168 253e 1882 cbbe 6816 15bd
00000250: 2715 98bd 4292 613c e606 db3d 0397 89be
00000260: 526d be3e 871f 113f afea 20bf 1238 a73e
00000270: 56f1 8abf a5e4 093f 3bfb 2fbf 06c6 d5be
00000280: 936a d2be 2b6c ec3e 2da7 21bf b353 0bbe
00000290: 0055 1fbe dd76 3bbf 4fbc 07bf 6258 9dbe
000002a0: 5057 e0be 284b 0cbe 4145 8dbe 304e 473f
000002b0: c146 12bf eb53 ad3e fbf3 e7bd 1f09 0cbd
000002c0: 815b b3bc 1f2b 60bf 4784 823c 1c68 45bd
000002d0: 3c75 27be c9a7 3a3d cb08 5bbd cecf 183b
000002e0: 6cc3 c3bd fe8a 4b3c 206e 1b3d f4e2 aabc
000002f0: 8ce1 31bc a254 573e 8b2d cd3d 9aa9 21be
00000300: f2f4 653e 880b 103e 98c8 863d 8d4b 3f3d
00000310: 11c4 0cbd 9bed 5f3d 502b 8539 29cc 48bd
00000320: cd2d 003b 2639 7e3c b68f 2ebc 45f8 d2bb
00000330: b521 3e3d ddcd abbc 8806 0d3d f8f1 a93d
00000340: b98a e63d 508b 713d 591d eb3b e4cc c33d
00000350: ddf3 fa3d b217 f13c 9120 8e3d 1bb6 1b3e
00000360: 1f7a 0b3f 5acb afbe b952 a13e bd87 f83e
00000370: f40d 183d 2c22 283f f543 993e 5d74 7c3e
00000380: 7666 8b3f f9bd 04bf d41d 44bf 3e96 2abf
00000390: f466 c3be 3314 97be e2d2 aabd e4e3 9abe
000003a0: 80fb ba3d e97d 583e 192e d4be c33b 84bf
000003b0: 40f1 92bf 2228 28be 6546 15be f669 febe
000003c0: c293 3bbe 15ab f03d 4ea1 183e f665 82be
000003d0: d71a ebbe bb18 0fbf a01f 9fbe f085 0fbf
000003e0: 6358 f0be 511f 30be 3251 9fbc 99fb c3bd
000003f0: a8a9 423e 085e 62be 7b99 9dbd 7d20 2d3e
0.08116028 -0.059941497 0.033496536 -0.019412667 0.06523006 -0.15889524 0.019320715 0.030545274
0.014042777 0.0016109366 0.013971534 -0.22582291 -0.13040982 0.16240458 0.013897036 -0.113318
0.11678693 -0.10567697 0.06309063 0.03360639 -0.09014472 -0.059569634 0.07662769 -0.1693666
-0.12858018 0.061709866 -0.072791725 0.49639 0.06802736 -0.49669728 0.7559056 0.22284544
0.8697822 -0.54680103 0.51750654 0.3890585 -0.3945025 0.17779154 -0.078306474 -0.4057496
0.14725253 -1.3582513 -1.5139129 -1.9329705 -0.5220404 0.34569734 -0.14139728 0.25728986
0.18862233 -1.2438126 -1.2683402 -0.6401028 0.02454982 -0.38805515 0.03477787 -0.03982765
0.014341092 0.08944107 0.021487016 0.05884776 0.113311484 -0.03665298 -0.04755407 -0.02326308
0.0026857816 -0.14271912 0.022720294 0.038755212 -0.09708982 0.081738934 0.047403894 0.05594279
-0.056837946 0.058099095 0.014629632 0.063640356 -0.0053111534 0.03144584 0.016422888 -0.04881159
-0.0049229753 0.052720312 -0.025523685 0.0029109868 0.055637218 0.047740046 0.0518056 0.014291188
0.0586989 -0.020902686 -0.46021152 -0.87458295 -0.15157552 -0.6149647 -1.0187248 -0.36924848
-1.0514182 -0.807863 -0.56790054 -0.020640926 -0.14943327 -1.2085465 0.011824092 -0.27108803
-1.0398611 -0.3203673 -0.29405534 -0.5749262 -0.6922726 -0.6189898 -0.35171258 -0.75958616
-1.071618 -0.66337484 -0.13642302 -0.8023055 -0.6371812 0.33094367 0.635167 0.29477045
0.06893567 0.44292855 -0.031706236 -0.26885763 -0.074060895 -0.36650658 0.35029665 -0.13785133
-0.11821924 0.2739025 -0.28166765 -0.11904934 0.7215085 0.17856959 -0.09304774 0.29196873
-0.089169666 0.10841323 0.4959071 -0.32874098 0.13949153 0.084300235 0.062931865 0.19151984
0.11405957 0.1615329 -0.3974769 -0.03639832 -0.074259095 0.013767781 0.10694675 -0.26873025
0.3719278 0.5668873 -0.628581 0.32659966 -1.08549 0.5386451 -0.6874272 -0.41752642
-0.41096935 0.46176276 -0.63145715 -0.13606147 -0.15559769 -0.73228246 -0.5302171 -0.30731493
-0.43816614 -0.13700545 -0.275919 0.7785368 -0.5713921 0.33853087 -0.113258325 -0.034188386
-0.021894218 -0.875658 0.015932215 -0.04819499 -0.16353315 0.04557017 -0.053475183 0.002331722
-0.09558758 0.012423275 0.03794682 -0.020860173 -0.010856997 0.21028379 0.10018452 -0.15787354
0.2245672 0.14066899 0.06581229 0.04670291 -0.03436667 0.054669958 0.00025400007 -0.049022827
0.001955855 0.015516555 -0.010654381 -0.0064382874 0.046418864 -0.020972187 0.034430057 0.08298105
0.11256928 0.05897075 0.0071751294 0.09560564 0.122535445 0.029430244 0.06939805 0.15206186
0.54483217 -0.34334832 0.31508425 0.4854106 0.03712268 0.6567714 0.2993466 0.24653764
1.0890644 -0.51852375 -0.76608014 -0.666355 -0.38164485 -0.29507598 -0.08341004 -0.30251992
0.09130001 0.21141781 -0.4144142 -1.0330738 -1.1479874 -0.1642156 -0.14577635 -0.49690217
-0.18318084 0.11751381 0.14905283 -0.25468415 -0.45918915 -0.5589711 -0.31078815 -0.5606375
-0.46942434 -0.17199446 -0.019447897 -0.09569473 0.19010031 -0.22106183 -0.0769529 0.16906925

env_model.conv1.bias f4 [32]
00000000: 6a25 003e 5c04 dabe d6fe b4be 2039 09bf
00000010: 2ada 89be ded9 93be bee5 153c 5ac6 f3be
00000020: 321c 033e c00a b2be f6ad 8abe 43aa 53be
00000030: 3f4b c23d 8a5a 24bf 1012 1fbf cd3d 09bf
00000040: 99e0 29bf 25f0 33be bb2a ddbe 49a9 f6be
00000050: 4272 d2be 9da2 07bf 05c9 6ebe 394d b9be
00000060: 9041 17bf 4170 e3bd 288c 2fbe 56ca 0bbd
00000070: feb7 a03e 69f6 2cbf d189 fabd 7f62 e9be
0.12514272 -0.4258145 -0.35350674 -0.5360279 -0.26924258 -0.28877157 0.009149013 -0.47612268
0.12803724 -0.34773827 -0.27085847 -0.20670418 0.09487008 -0.6420065 -0.62136936 -0.53609926
-0.66358334 -0.17572077 -0.43196663 -0.4817603 -0.41102797 -0.52982503 -0.2331887 -0.3619173
-0.59084415 -0.11105395 -0.17143309 -0.03412851 0.31390375 -0.6756349 -0.12233318 -0.4558296

env_model.conv2_state1.weight f4 [3, 32, 3, 3]
00000000: a07a 23bf 48b0 b6bc b375 b63d a1ce 123f
00000010: d76b 82ba 2a85 093f 6716 3dbf 909d 793e
00000020: 7906 ea3e f97a 4cbe 26b9 ac3d 8d59 78be
00000030: b196 773e b7dc 5dbe 8b4b 663e b03c db3e
00000040: 102d 6f3f 3665 343e 9f82 8dbe e99f 8dbe
00000050: 8750 ef3e 6e37 4c3f c622 213e efe3 89bf
00000060: fae9 0940 f1d0 5b3f ab7d 533f 01b7 abbf
00000070: 2310 edbc ec4b 1dbe 7744 893e a656 0abe
00000080: a110 2fbe 550f 00bf cfe5 c73e cf40 f13e
00000090: 9ebe bdbc 2b43 bf3d ae68 61bd 6478 6cbc
000000a0: 39b2 55bd 0391 933e 9e9d 873f 7e5a 183e
000000b0: 4455 2f3f 6f78 1abe b882 1b3e 637c e3be
000000c0: f896 9dbd fb1a c0bd 12d8 153e 3f46 67bf
000000d0: 4f16 6b3f 96cf 07bf c980 6bbe 0915 32bd
000000e0: 008e 1b3d 618d 27be eeb6 adbe c843 3a3e
000000f0: 5ca8 3dbb ee3d bfbd e602 36bd 91f6 a4bf
00000100: 822f b6bd 9ff9 6abd f59e 853e d681 b5be
00000110: 7075 643e f9ed 6a3e 2ea7 0fbe 1eb6 6cbe
00000120: af73 0abf 9c81 7c3c c11a 063d 6374 da3e
00000130: a441 7fbe 80bf f9bc 8215 cebe 1722 c0bd
00000140: 13bf df3f 09fe 593e 11b4 e63e 0379 8dbe
00000150: 61b8 8abe 4f75 193f 51e1 8b3e da7b 59bd
00000160: 46d8 72be 62aa b83c 9ec7 0dbf 5c45 d83d
00000170: e489 823f 233a ffbe 9cd1 003e 825e fb3e
00000180: f761 95be 6cc6 06be a819 13bf ab11 6dbe
00000190: 3356 b73e d24e d13d f4bf 363d 40b3 d03d
000001a0: ba2b 9e3d 4cdd 823c 7175 c33d 3471 01bc
000001b0: 5b49 9dbd fb72 6bbd eb9c 3f3d 73db 313e
000001c0: e512 75bd 3a77 f3be 9da7 94bd 349d 87be
000001d0: 8145 953e d994 36bd 79d2 0c3d 23fd 6cbe
000001e0: cfb7 193f 1197 bf3d c7f5 8cbf 0789 03be
000001f0: 1f09 113e bdd6 39be e2f3 b2bf ca60 b13e
00000200: 2873 b9be 1637 49bf e275 f8be 0037 163f
00000210: f118 513e 5841 4f3f eabf fa3f 6cdc 923e
00000220: e283 593c a02f 0e3e 89ef 5ebf b481 733f
00000230: 978b 86bd eb33 853e 2500 7e3d 3b84 023f
00000240: f206 373f d03f e7be dc49 85be 0d20 b93e
00000250: 01dc 9e3e 10ed a63e ce48 94be fa7f edbe
00000260: e9f5 b7be 1dda 233f 873e 9bbd 7eab e1bd
00000270: 0807 e73e ca5e e9be 5756 063d d2e8 903e
00000280: 72bc dfbd 8e31 113f 38bb c0be ff3e 423f
00000290: 7b2e a2bd 9391 66be fae5 36be 63ca 263f
000002a0: b339 70bf e410 3dbe 975c f83d 2efc e0bb
000002b0: 7dfa c83e d76a 443e 0d12 14be 4b91 8cbd
000002c0: 279e afbd 9374 f33d 1401 0f3d 926e 9f3e
000002d0: 88ae 873f 8c21 16be 3ebe acbd 7365 ecbd
000002e0: 80e9 d0bd 46fe c53d abf5 923e b785 fe3c
000002f0: a683 0dbe 1a63 f5bd 7559 0c3f 4cd3 833d
00000300: 5b46 2f3e e7ba 823e f392 523e a82a 43bf
00000310: 44d0 09be 8b6a 503e 4c2a 14bf dd43 3bbe
00000320: 07e2 acbd 0bc5 a6bd e6e1 31be 5de6 6c3e
00000330: 4194 5dbe cfb7 483e 7d90 023e e8ef 5b3f
00000340: 1fa2 18bf c555 f2bd cca5 d93e 0838 f8be
00000350: 1910 3040 bef9 5abe 399c b73d 26cb f8bc
00000360: 42eb 9a3e 7994 23bf 0564 e93e a317 d2be
00000370: eca4 41bd 8ede 593e e221 72bf 146a 093f
00000380: 6397 ae3f ba7f df3e b6be 223b 3cf4 d03d
00000390: 6174 cf3e dc97 0abe 9da9 603e ef2e b3be
000003a0: 1412 d13d 94c6 d73e 8784 0fbe 61d6 0ebe
000003b0: 71f4 2f3d 5e20 f83e abd4 eb3d 7c63 f0be
000003c0: 8f53 8dbe 1b26 6c3f 46ec f5be 4eee 00bd
000003d0: c146 afbd ab4e 923d 6f90 e33c 9f46 6a3c
000003e0: 1014 e23d e534 c8bc 7d86 863c abf3 17bd
000003f0: b1cd b83f 90d3 3ebf 8d78 b73e 60ee 1cbe
-0.63858986 -0.022300854 0.08909168 0.5734654 -0.0009950352 0.5371882 -0.7386231 0.24376512
0.45708063 -0.19968785 0.08433752 -0.24252911 0.24178578 -0.21666227 0.22489755 0.42819738
0.93428135 0.17616734 -0.27638718 -0.27661064 0.46741125 0.7977208 0.15735921 -1.0772685
2.1549058 0.85865694 0.8261363 -1.3415223 -0.028938359 -0.15360993 0.26810047 -0.13509616
-0.17096187 -0.50023395 0.39042518 0.47119758 -0.023162182 0.09338983 -0.05503147 -0.014433
-0.05217192 0.28821573 1.0594976 0.1487827 0.6848948 -0.15085004 0.15186584 -0.44430837
-0.07694811 -0.09380146 0.14633206 -0.9034156 0.91830915 -0.53051126 -0.22998346 -0.043477092
0.03797722 -0.16362526 -0.33928627 0.18189919 -0.0028939461 -0.09337984 -0.044436358 -1.2887746
-0.0889578 -0.057366963 0.26097837 -0.3545062 0.22310424 0.22942342 -0.14028618 -0.23116347
-0.5408277 0.015411761 0.03274036 0.4266692 -0.24927384 -0.030486822 -0.40250784 -0.09381502
1.7480186 0.21288313 0.45059255 -0.27631387 -0.27093795 0.59944624 0.2732034 -0.05309663
-0.23715314 0.022542182 -0.55382717 0.10560104 1.0198331 -0.49849042 0.1257996 0.4909554
-0.29176304 -0.1316163 -0.57461023 -0.23151271 0.35807952 0.10220112 0.044616655 0.10190439
0.07723184 0.015974663 0.095438845 -0.007900525 -0.07680007 -0.0574827 0.046780508 0.1736887
-0.059832472 -0.475519 -0.07258532 -0.26487124 0.2915459 -0.044575546 0.03438041 -0.23143439
0.60046095 0.093549855 -1.1012505 -0.1284524 0.14163636 -0.18148322 -1.3980677 0.34644157
-0.3622067 -0.7859968 -0.48527437 0.58677673 0.2041967 0.8095908 1.9589818 0.28683794
0.013276072 0.13885355 -0.8708425 0.95119786 -0.065695934 0.26016173 0.062011857 0.5098302
0.7149497 -0.45165873 -0.26032913 0.36157265 0.31027225 0.3260274 -0.28961796 -0.463867
-0.35929802 0.6400469 -0.075802855 -0.11019038 0.45122552 -0.4558013 0.032797184 0.28302628
-0.10924615 0.5671624 -0.37642837 0.75877374 -0.07919022 -0.2251647 -0.17861167 0.6515257
-0.9383804 -0.18463475 0.12127035 -0.0068659997 0.39253607 0.19181381 -0.14460011 -0.0686365
-0.08575087 0.11887469 0.034913138 0.31139046 1.0600138 -0.14661235 -0.08434723 -0.115427874
-0.102007866 0.096676394 0.28703055 0.03106962 -0.13819751 -0.11981793 0.54824 0.06436786
0.17116682 0.2553322 0.20563869 -0.76236963 -0.13458353 0.20353143 -0.5787704 -0.18287607
-0.08441549 -0.08143052 -0.1737133 0.23134752 -0.21638586 0.19601367 0.1275043 0.8591294
-0.5962238 -0.118327655 0.42509305 -0.48480248 2.7509825 -0.21384332 0.08965344 -0.030370306
0.30257612 -0.63898426 0.4558412 -0.41033658 -0.047276422 0.21276304 -0.9458295 0.5367749
1.363995 0.43652135 0.002483291 0.10202834 0.40518478 -0.13534492 0.21939702 -0.34996745
0.10208526 0.4214369 -0.14015399 -0.13948967 0.042957727 0.48462194 0.115151726 -0.469509
-0.27602813 0.92245644 -0.48031825 -0.031477265 -0.08558417 0.07143911 0.027778832 0.014299064
0.11038983 -0.024439285 0.01642155 -0.037097614 1.4437772 -0.7454157 0.3583416 -0.15325308

env_model.conv2_state1.bias f4 [3]
00000000: 3801 033f 2013 393e 8914 b03e
0.51173735 0.18073702 0.34390667

env_model.conv2_state2.weight f4 [3, 32, 3, 3]
00000000: 81a0 03bb 0b5b d13b 756f 48bc 5254 2bbb
00000010: 5bb9 113c 97ff f1b9 f7b3 bd3b 94ff b23a
00000020: 8dd8 033d da3c 053c b0be 593b 80c0 023d
00000030: 285a b33a ba74 33bb 78e6 30bb 1177 08b8
00000040: ee73 23bc e31e 2fbb f5a8 1b3c b0df 3dbc
00000050: 2ba9 9c3d 6670 14ba 21a4 6dbb 4711 0fbc
00000060: efb0 383b 164a 92ba 0936 893b d360 173f
00000070: 496f eb3e 3359 1d3e b3d1 4e3b f528 27bc
00000080: 0a77 8b40 d78f 193c a1d8 45bb ed98 fb3b
00000090: 6ef0 5abb a839 0a3d 926c d4bb a73e e83a
000000a0: ad7e 75bb aaf7 7aba a802 79bb cc13 3cbc
000000b0: 0238 1e3c ea8b b13a 20ee de3b 1444 803c
000000c0: 558c 173a 523e ae3a 8109 553c c72c cf3a
000000d0: e767 e73a 4120 90ba 1a74 22bc 7da3 7a3c
000000e0: ebc7 0dbd 6198 47bb febc 6cb9 dbdb 963c
000000f0: 503b 923b 8ff8 783b 3755 a3b7 6dbb c6bb
00000100: ad14 df3a ad3b 5dbc ed30 823c abf0 663a
00000110: 9b05 883b a54b b0bb 5370 20bc e626 19bb
00000120: 6383 edbb 75e4 f1ba cf4e 4e3b 309b 253b
00000130: 28be e7ba 59aa 3bba ab76 d2bb 436e 183c
00000140: a0da 5bbb d6cb c6bb 4cb9 81bc 94be e43c
00000150: ef58 b4ba 424e ca39 d777 393c 1669 073b
00000160: 0ec1 98ba 6fb1 c23b 659f 52bc 1629 ceba
00000170: 812c 32bb a542 cbba 4b17 323c 0320 94bb
00000180: d4db f43b 4a82 14bb 6a8e 43bc 0d7e f93c
00000190: 1887 48bc 2718 8dbb a6fe be40 5947 173f
000001a0: 2e34 9c3f 40c1 073b 971a 22bb 205f 8a3e
000001b0: 6f95 bfbc e225 353b e13b a43b 0862 a1b9
000001c0: f6dd 3abc b728 c83a a8d2 cb3b e968 05bc
000001d0: a036 0f3b 6fd7 6d3c 7f5e a5bb f885 b83c
000001e0: 4c97 d43b 84bd 91ba 1a2c ecbb 3037 27ba
000001f0: 1376 d83b 96d1 883b 2148 44bc 7d81 bbbb
00000200: 9a46 c33b 0188 07bc 1da8 f53b 0d17 cbbb
00000210: 1af4 ebbb 830d 3cbb ec81 f8bb a673 623c
00000220: e998 1c3c b0cd 363c c288 3fbb 2526 8f3c
00000230: 85b6 03bb c2a1 9d3b 1df0 8c3c 7a17 6fbb
00000240: b6a5 ed3e b5aa 9d3d 69f3 7fbb b042 c2b9
00000250: bda2 1440 0904 8d3d d1dd 5a3b 9161 bbba
00000260: cf44 d9bb f430 983a e3c2 caba 362f c4bc
00000270: c1fc adbb e610 963a 42ff 313c 0673 1a3c
00000280: 57ff 40bb 602f b1bb fc82 fa39 25f0 1b3b
00000290: 1f8e 5fbc d010 873c 0067 813c c1f2 8dbb
000002a0: 29c9 a73b 7575 c13c 3521 423b 67f4 d9bb
000002b0: 8d3e 8d3d 7265 4a3d 2826 1bbb 2a1c c03a
000002c0: b735 793d 6601 85bb 0ec5 e339 9c9e 7abb
000002d0: 8006 6fbc 13d2 b53b 936f 1a3c dea7 83ba
000002e0: f125 16bc e439 0dbc e676 16bb f115 143b
000002f0: 717a 25bc 83d3 b83a e02f 94ba f746 3441
00000300: 70ce d4b9 017e d4b9 a1fa d6b9 c0c7 2a3d
00000310: fc0f 7abc 56c2 b13e 6da6 e8ba d66c 2c3c
00000320: 1703 463c 51da 433b 757d 503c 2c69 033a
00000330: 66b1 043b 822a c53a 24da c8bb 1e41 d8bc
00000340: adad f03b ad2f 853d cab9 8dbd 2ddf 9940
00000350: 5fb0 da3f ed95 c6bc 6f10 ce3b fdbb e9bb
00000360: 52cc c2bb 2b36 26bb 1c67 903f ac7e 803b
00000370: cd9b 12bc 60ce 1fba 417b 4d3b 598e 4ebd
00000380: 88ba 5c3c 6eff c939 60d8 803b 74bf 8dbc
00000390: e76f 3dbc b397 6a3c d3b5 5fbb 498d 1f3d
000003a0: 03e6 243d ff04 a83d 85b6 90bb 7ace a0bb
000003b0: 8a65 92bc 4d13 623b 2bf8 543b e10d 8c3b
000003c0: 2181 acba 1689 2c3d 56a0 313c 8aec b43a
000003d0: 814f a1bb a5d8 e640 e64b 30bb 06e3 a53b
000003e0: f1df 39bb 1d94 a2bb bdc1 40bc 2af2 04bb
000003f0: f86c ea3c 9d4c a03c e8de ec3a 7816 63bb
-0.0020084681 0.006389027 -0.012233605 -0.0026142788 0.00889429 -0.0004615753 0.0057892757 0.001365649
0.03218894 0.008132184 0.003322523 0.031921864 0.0013683485 -0.0027382807 -0.0026992839 -3.2535816e-05
-0.00997637 -0.002672129 0.009500732 -0.011588976 0.07649454 -0.00056625006 -0.0036261159 -0.008732147
0.0028181633 -0.0011160995 0.0041873497 0.5913212 0.4598334 0.15366058 0.0031558096 -0.010202636
4.358281 0.009372673 -0.0030188935 0.0076781423 -0.0033407467 0.03374639 -0.006482669 0.0017718867
-0.0037459538 -0.0009573648 -0.0037995968 -0.011479329 0.009656908 0.0013545726 0.006803289 0.015657462
0.0005781104 0.0013293719 0.013002754 0.0015806191 0.0017654867 -0.001099594 -0.009915376 0.015297768
-0.034614485 -0.0030455815 -0.00022577119 0.018415382 0.004462637 0.003798995 -1.9470795e-05 -0.0060648234
0.0017019712 -0.013502997 0.01589247 0.0008809666 0.004151059 -0.0053801113 -0.009792405 -0.0023369133
-0.0072483285 -0.0018454926 0.003148008 0.00252695 -0.0017680572 -0.00071588677 -0.0064228377 0.009303632
-0.0033547059 -0.0060667796 -0.015835427 0.027922906 -0.0013759414 0.0003858675 0.011320076 0.0020662001
-0.0011654214 0.005941562 -0.012855385 -0.0015728797 -0.002718717 -0.0015507533 0.010869811 -0.0045204177
0.0074724946 -0.0022660666 -0.01193581 0.030455614 -0.01223924 -0.0043058577 5.968585 0.5909324
1.2203424 0.0020714551 -0.0024735087 0.270257 -0.023386685 0.0027640988 0.005012021 -0.00030781352
-0.011405459 0.0015270923 0.0062201805 -0.008142688 0.0021852627 0.014516695 -0.005046665 0.022524819
0.0064877626 -0.0011119102 -0.0072074058 -0.0006378768 0.0066058724 0.004175375 -0.0119800875 -0.0057222233
0.005959344 -0.008272172 0.0074968473 -0.006197816 -0.00720073 -0.0028694577 -0.0075838473 0.013821518
0.009557941 0.011157438 -0.00292258 0.017474243 -0.0020097804 0.004810543 0.017204339 -0.00364825
0.4641549 0.076985754 -0.0039054996 -0.0003705225 2.3224328 0.06885535 0.0033396373 -0.0014296045
-0.006630517 0.0011611269 -0.0015469458 -0.023948293 -0.0053096716 0.0011449128 0.010864081 0.009426838
-0.002944907 -0.005407259 0.00047781307 0.002379426 -0.013644724 0.016487509 0.015796185 -0.004331917
0.0051204157 0.023615578 0.0029621844 -0.0066514495 0.06896696 0.049413152 -0.0023673866 0.0014656831
0.060842242 -0.0040590046 0.0004344363 -0.0038241511 -0.014588952 0.0055487244 0.009426015 -0.0010044535
-0.009164319 -0.008619759 -0.0022959053 0.0022596086 -0.010099993 0.0014101121 -0.0011305772 11.267325
-0.000405896 -0.0004052967 -0.00041003994 0.041694403 -0.0152626 0.3471858 -0.0017749794 0.010523995
0.012085698 0.0029884765 0.012725224 0.0005012925 0.002024734 0.0015042576 -0.00612952 -0.026398238
0.0073449225 0.06503234 -0.06920202 4.808493 1.7085074 -0.024241412 0.00628858 -0.0071330057
-0.005944767 -0.0025361876 1.1281466 0.0039213505 -0.008948279 -0.0006096121 0.0031353983 -0.050428722
0.013472207 0.00038528017 0.003932044 -0.017303206 -0.011562324 0.0143183945 -0.0034135475 0.0389531
0.04025842 0.08204078 -0.0044162893 -0.0049074264 -0.017870683 0.0034496367 0.0032496552 0.0042741154
-0.0013161042 0.042122923 0.01084145 0.0013803404 -0.0049228077 7.213946 -0.0026900708 0.0050624637
-0.002836224 -0.004961504 -0.011764941 -0.0020285943 0.028616413 0.019567782 0.0018071802 -0.0034650844

env_model.conv2_state2.bias f4 [3]
00000000: 64d5 6739 5227 37b9 7e99 3ab8
0.00022109371 -0.00017466888 -4.4488806e-05

imagination.0.weight f4 [256, 3]
00000000: 669b 003f e05f 6a3d 807a 313d b030 f5bd
00000010: 4047 de3d ecbc b8bd 5c9e ea3e 2c73 e23e
00000020: 000d 22bb 6437 023e 006d f5bc 0cfa ccbe
00000030: 083b c43d f05a 36bd b0c3 2fbe 2ca0 bebe
00000040: 1a0c b43e 2a1f a83e 54a0 203e 026e 9cbe
00000050: 40a8 1dbc 64c8 ed3e f8c3 b3bd 529e 0fbf
00000060: b427 da3e 39d4 ffbe 042c 433e 4ca1 c73e
00000070: e68a 8bbe 43d0 97be c09b afbe d825 1a3e
00000080: 6b66 05bf b059 513d 44c1 103f c84e f1bd
00000090: 1d5f abbe 123c a53e c814 5bbe 00ef 3abc
000000a0: dc67 0bbf 30a0 783e 1058 99bd 0211 f5be
000000b0: fe2c 27be 6447 30be 1b4b 0bbf 36a6 a83e
000000c0: d0c3 e73e 402d 0dbd c03a 4b3c 3489 2d3e
000000d0: e064 733d 44c9 e83e 76b7 88be 4454 3a3e
000000e0: a2aa 053f 2c09 cabe d00a 073f a0db fb3d
000000f0: ed49 a3be e038 1abd 4868 843d ce67 6fbe
00000100: 6578 03bf 5deb 02bf 04fb 623e 5b5f 02bf
00000110: 5064 df3e 1a96 ab3e 12c3 65be 1632 febe
00000120: 0829 833e 7877 fc3e 76f7 d0be 1034 c93d
00000130: 9c80 a13e a802 4f3e c04e 803e ac33 babe
00000140: a408 2bbe 5691 083f 1d40 0cbf 908c 84be
00000150: da3d 0c3f 047d 7bbe 57de 95be 48f0 943d
00000160: 20f1 ea3e 9086 493d b0ea e33d b1e4 fabe
00000170: c0fa 7bbd b2fa bb3e fa68 d3be 2421 5ebe
00000180: f6b7 c23e fc18 173e 40df fc3d b8d7 a6bd
00000190: ea89 cabe 78b8 afbd 100c 9b3e 9a93 a33e
000001a0: 188c debd 7c1f 143e 4607 debe 488d 82be
000001b0: 2f53 f0be 4eb0 cebe 40c6 ea3e 74bc fb3e
000001c0: 9cdb e6be 78f4 d03d b41b 56be 10dd e93e
000001d0: 4892 06bf e448 00be 9029 1c3d 98d0 cd3d
000001e0: 9611 9bbe 241d cfbd ac20 bdbe b65b ce3e
000001f0: 889b f1bd d804 55be 58d7 8a3e 407a f4bc
00000200: ce60 20be ac23 acbd a8ba b03e ffd5 dfbe
00000210: 58fe 223e 587a 973d b2c4 d13e 2a55 e9be
00000220: 5827 ea3e 6643 a63e 74fb 2c3e 00b6 61bb
00000230: 211e bcbe d447 0b3e d814 a13e 9aab 933e
00000240: b46a de3e 1e6d c8be 4486 c6be 7025 5b3d
00000250: b473 b2be 98ec e73e 5065 a53d 3c60 7d3e
00000260: 40c0 823e 4e00 d6be 807a e3bb d01f 603e
00000270: 34a3 973e fef9 bf3e d8ca e23e 8062 b3bb
00000280: 1e22 853e 205d dd3e 2cd1 0c3f 1092 a5bd
00000290: 0e71 c93e 9298 103f b073 023f 33c9 c1be
000002a0: c08e cbbe 0020 c038 9294 0b3f 6e76 af3e
000002b0: 984e 823e 803c e13b c26b 0e3f 6098 dbbd
000002c0: 06fb 62be ac5a 753e 384d 4e3e 8ac8 b2be
000002d0: feb0 b1be e0ba 7fbd 8e6e 013f ce60 99be
000002e0: 28fa 0fbf 8006 703d 0e87 cbbe 40f6 5f3d
000002f0: a045 72bd faaa 41be dc09 6ebe 4eb0 0cbf
00000300: a842 f9bd 363c 8e3e 9474 07bf d820 003f
00000310: 8e0c 913e d80b cabe 40f0 433c a8d7 e93d
00000320: b8c2 3c3e 005c 643a a02f df3e ec8e c83e
00000330: 7235 06bf fe63 983e 9e0a d83e f88d 3fbe
00000340: 7225 e2be f478 ecbe 09bb 8cbe 5489 abbd
00000350: 7703 e4be 8a5c c23e 2c5c 70be c3db 03bf
00000360: 5adc 8d3e 40d9 f9be e084 17bd ac4e e0be
00000370: a45f d8be ea51 9abe 54f1 d1be 40a3 023f
00000380: 2bc8 fabe e46b eebe c56b 0ebf 549f 06bf
00000390: 100c 9b3e b8fb c8bd 6001 033e e0f7 e33e
000003a0: c649 e0be 8083 d6bc b48c 9c3e ea12 70be
000003b0: 8cf6 c83e 3800 a5be 9854 e7be d046 2e3e
000003c0: 4864 e03d a670 ce3e c00c 493e 3a8d 10be
000003d0: c624 8ebe 7de0 93be d0fa 1f3e a09d a03e
000003e0: a014 723d 981c c2be a016 ed3d 419f f8be
000003f0: fef8 a73e ce40 5dbe a4af 2d3e cca8 703e
0.5023712 0.05722034 0.043329716 -0.11972177 0.108534336 -0.09020409 0.45823944 0.44228494
-0.0024726987 0.12716442 -0.029959202 -0.4003452 0.09581572 -0.04452032 -0.17164493 -0.37231576
0.35165483 0.32836276 0.1568616 -0.3055268 -0.009622633 0.46441948 -0.087776124 -0.5610095
0.42608416 -0.499666 0.1905976 0.38990247 -0.2725441 -0.2965108 -0.34298515 0.15053499
-0.521094 0.051110923 0.565449 -0.117826045 -0.33471003 0.32272393 -0.21394646 -0.011409521
-0.5445535 0.24279857 -0.074875 -0.47864538 -0.16325757 -0.17214733 -0.54411477 0.3293931
0.4526658 -0.034466982 0.012404144 0.1694687 0.059422374 0.45466053 -0.2670247 0.18196207
0.5221349 -0.39460123 0.52750874 0.122977495 -0.31892338 -0.037651896 0.064652026 -0.23379442
-0.5135558 -0.51140386 0.22166067 -0.5092675 0.4363122 0.33512956 -0.22437695 -0.49647588
0.25617242 0.49309897 -0.40813798 0.09824383 0.31543434 0.20215857 0.2506008 -0.36367548
-0.16702515 0.53346765 -0.5478533 -0.2588849 0.5478188 -0.24559408 -0.29271194 0.072723925
0.4588709 0.049200594 0.111287475 -0.49002603 -0.06151843 0.36714703 -0.41291028 -0.2169233
0.38030976 0.14755625 0.12347269 -0.08146614 -0.39558345 -0.085801065 0.3028264 0.3194855
-0.108665645 0.14465135 -0.43364924 -0.25498414 -0.46938464 -0.40368885 0.45854378 0.49167216
-0.45089424 0.10202879 -0.20909005 0.4567647 -0.5256696 -0.12527806 0.038125575 0.10049552
-0.30286855 -0.1011298 -0.3693899 0.40304345 -0.11797243 -0.20802629 0.2711742 -0.02984345
-0.15661928 -0.08405241 0.34517407 -0.43717954 0.15917337 0.07396382 0.4097038 -0.45572788
0.45733142 0.32473296 0.16892797 -0.0034440756 -0.36741737 0.13601619 0.31461215 0.2884186
0.43440783 -0.3914575 -0.38774312 0.0535025 -0.348539 0.45297694 0.080759645 0.24743742
0.255373 -0.41797107 -0.0069420934 0.21887136 0.29616702 0.37495416 0.44295382 -0.0054743886
0.26002592 0.4323511 0.5500667 -0.080845 0.39344066 0.56482804 0.50957775 -0.37848815
-0.39757347 9.161234e-05 0.54523575 0.34270042 0.25450587 0.0068736672 0.55633175 -0.107224226
-0.2216607 0.2396037 0.20146644 -0.34918624 -0.34705347 -0.062434077 0.5055932 -0.2995667
-0.56241083 0.05859995 -0.39751476 0.0546782 -0.05914843 -0.18912879 -0.23245949 -0.5495652
-0.12170917 0.27780312 -0.5291226 0.50050116 0.2832989 -0.3946216 0.0119591355 0.11418086
0.18433654 0.0008711219 0.43591022 0.3917154 -0.524253 0.29763788 0.421956 -0.187065
-0.44169194 -0.4618603 -0.27486446 -0.08375803 -0.44533893 0.37961227 -0.23472661 -0.51507205
0.27707177 -0.4879856 -0.036991954 -0.43810022 -0.42260468 -0.3014062 -0.4100443 0.5103035
-0.4898084 -0.4656669 -0.55633193 -0.52586865 0.3028264 -0.098136365 0.12793493 0.4452505
-0.43806285 -0.026185751 0.30576098 -0.23444715 0.392506 -0.3222673 -0.45181727 0.170192
0.10956627 0.4032032 0.1963377 -0.14116374 -0.2776243 -0.28882208 0.15623021 0.31370258
0.0591017 -0.3791244 0.11576581 -0.48559 0.32807153 -0.21606752 0.16961533 0.23501891

imagination.0.bias f4 [256]
00000000: 7b20 f6be 185a 743e bb1d eebe 2422 2d3e
00000010: d2d7 01be 44d5 96be 905c 1bbd dcc3 59be
00000020: 3e0c a03e db9d 11bf 0016 01bf e2d7 aebe
00000030: 77c3 94be de3d bd3e 9eed 9e3e 985d e5be
00000040: 21bb c5be 10ae a33d 5f1c 05bf a5bd 8dbe
00000050: 6c0d 18be ece1 c4be 180e 6cbe b0c4 543e
00000060: f873 88bd d444 e0bd 4cbf e33e 4a16 aa3e
00000070: 7003 ad3d 248f 6c3e fc84 13bf 34de 7bbe
00000080: fcc1 43be 3439 59be ec58 703e 642d 353e
00000090: be43 cc3e ced8 b1be 001e a73a 6450 f83e
000000a0: 2058 0bbf 0ec3 a43e 3056 2e3e 0081 11bd
000000b0: 2ac3 b53e 0062 aa3e f04e 903e 3427 a6bd
000000c0: 2422 f5bd 605b 623e 907a 4c3d f22e 8d3e
000000d0: 4c6c 513e f447 053f 2cd5 883e 0540 84be
000000e0: 0c82 fcbd 4ebb 88be 3411 123f 4f6d e3be
000000f0: 489d a63e 8881 f13e 0619 f1be f420 603e
00000100: 20bc fbbe 08a1 b8be a470 723e 5a11 923e
00000110: 009b c93e 9c48 37be 6cc5 413e f1a9 e8be
00000120: 08df abbe 64f9 c0be 3c57 e4bd a04d af3d
00000130: c043 51be f0f7 e9bd 626c d03e 2e43 3dbe
00000140: 2820 923e b8e2 ae3d dc3d fa3e b074 22bd
00000150: de2e 8fbe dc6f 0d3f 3be7 f3be f433 fa3e
00000160: 6025 b83c 9e25 0d3f 304e ddbd 083e 163e
00000170: cc76 013e 9a51 913e 5041 2abd a0d5 32bd
00000180: 4f14 dabe 5c9d e33e 98a5 963e 707f db3d
00000190: ccfe 1fbe e0f8 47be 2caf b53e 803b 10bc
000001a0: 0017 edbc 0a8c b33e 04a9 28be 00ea 123f
000001b0: f43f f7be 54f8 fe3e b79d afbe 4c59 e33e
000001c0: 12e3 05bf 4006 b4bc baff 2bbe e02b 99bd
000001d0: 7239 34be 1009 4f3d ba05 3fbe 4850 563e
000001e0: ec17 f43e 9ea6 d7be a43e 30be a46b d9be
000001f0: 3ca9 da3e 9c81 0cbf e402 f7be c4f3 043e
00000200: 6422 2c3e 6e65 833e 39d4 8ebe 7323 12bf
00000210: aed4 ba3e 47bf 8fbe d226 e9be 8aec 05bf
00000220: 38b7 99be 228b 56be 882b aabe 200a e73c
00000230: e458 ad3e b416 cf3e 3009 fc3d e839 10be
00000240: d0c6 b03e a069 7f3e 20f8 683e 6c2d 843e
00000250: f860 98be 0092 f7bb 8027 a73d 706c 6c3d
00000260: 618e c8be 484d 24be 60eb 33bd b824 02be
00000270: 9c54 12bf 506e 4cbe 269d d13e b67b 44be
00000280: 8015 d8bb a482 a83e ec52 dfbd 7c41 2a3e
00000290: 5ee3 8abe 373c b0be 0cf3 df3e 6874 95be
000002a0: c86f 9b3d f2d8 96be 3c7a a73e 57cc dabe
000002b0: 33ce 91be 02e5 94be 81c3 08bf ecef e03e
000002c0: 10df 003f ea1f d03e 0055 5bbd 380c b6bd
000002d0: f8c8 fb3d f031 a73d a88a c73d 8af4 ce3e
000002e0: dceb 1f3e 7c1d 06be eccc 513e a405 f23e
000002f0: 0047 5c3b 7437 273e 7658 9d3e 44a0 bcbe
00000300: 913a 0dbf 487f ef3e 26d3 033f 4c0e 013f
00000310: 4465 61be dc8a 433e 766d d7be f2c7 103f
00000320: 44eb 77be 766a 9bbe 68a4 3ebe 9004 3abd
00000330: 68e0 babe 9084 79bd 00d2 e43a 883d 3a3e
00000340: e8e0 f0be f0e5 a03e c6f5 913e f20d 96be
00000350: 9ca8 503e d8b6 8dbd 1b78 bcbe b2ae c23e
00000360: cc03 323e 4848 c03d b5f5 bdbe b216 09bf
00000370: 46d0 9abe c8df b6bd b07d 5abd 22de 00bf
00000380: d5e9 c5be d533 f9be a45e dc3e b04c 343e
00000390: 7405 cf3e b2d3 b1be 7b0e 13bf 6867 c83d
000003a0: 9973 dabe 4ccf 073e 11cb 01bf 18ff a9be
000003b0: 72fa 8b3e d010 b53d e4eb 573e a464 cdbe
000003c0: 224a c7be 0833 cd3d 10a0 a73d aefb 5bbe
000003d0: c04b 053c 0077 98bd 266a 85be c4a8 04bf
000003e0: 0678 08bf d8ae 03bf f0ae 05bd de5f c8be
000003f0: d018 06be ca17 07bf f0ea 0b3f 7801 d3bd
-0.48071656 0.23862493 -0.46507058 0.16907555 -0.12679985 -0.29459584 -0.03793007 -0.2126612
0.3125934 -0.56881493 -0.50424194 -0.3414908 -0.29055378 0.36961263 0.31040663 -0.4479797
-0.3861933 0.07992184 -0.51996416 -0.2768375 -0.1484887 -0.38453615 -0.23052251 0.20778155
-0.06662744 -0.10950628 0.44481885 0.3322013 0.08447921 0.23101479 -0.57624793 -0.24596483
-0.19116968 -0.21213228 0.23471421 0.17693096 0.39895433 -0.3473572 0.001275003 0.48498833
-0.54431343 0.32180065 0.17025065 -0.035523415 0.3550046 0.33277893 0.28185225 -0.08112946
-0.119694024 0.2210517 0.049921572 0.2757488 0.20451468 0.52062917 0.26725137 -0.25830093
-0.12329492 -0.26705402 0.570575 -0.44419333 0.3254187 0.47169137 -0.47089404 0.2188757
-0.49166965 -0.36060357 0.23675781 0.28528863 0.39376068 -0.17898792 0.18922967 -0.45442155
-0.33568597 -0.3769027 -0.11149451 0.08559728 -0.20436001 -0.114242435 0.4070769 -0.18482658
0.28540158 0.08539337 0.4887532 -0.039662063 -0.27965444 0.5524881 -0.47637352 0.48867762
0.02247876 0.55135524 -0.10805929 0.146721 0.12642974 0.2838257 -0.041566193 -0.04366076
-0.4259362 0.44455993 0.29423213 0.10717666 -0.15624541 -0.19528532 0.35485208 -0.008803248
-0.028941631 0.3506778 -0.16470724 0.57388306 -0.4829098 0.49798834 -0.34300014 0.44404066
-0.52299607 -0.021975636 -0.1679677 -0.074790716 -0.17600039 0.050545752 -0.18654528 0.20929062
0.476745 -0.42119306 -0.17211396 -0.42464936 0.4270724 -0.5488527 -0.48244393 0.12983614
0.16809994 0.25663322 -0.27896288 -0.5708534 0.36490387 -0.2807562 -0.4553743 -0.52314055
-0.30022597 -0.20951512 -0.33236337 0.02820307 0.3385688 0.4044701 0.1230644 -0.1408459
0.34526682 0.24942636 0.22750902 0.25815904 -0.2976148 -0.0075552464 0.08161831 0.0577206
-0.39171126 -0.16045105 -0.043925643 -0.1270932 -0.57160354 -0.19963956 0.40940207 -0.19187817
-0.00659436 0.3291217 -0.10904488 0.16626543 -0.27126592 -0.3442094 0.43740118 -0.29190373
0.0758968 -0.2946239 0.32710445 -0.42734024 -0.2847763 -0.2908097 -0.53423315 0.43933046
0.50340366 0.40649348 -0.05354786 -0.08889049 0.12294191 0.08163822 0.097432435 0.40420943
0.15617317 -0.13097185 0.20488328 0.47269928 0.0033611655 0.16329747 0.30731553 -0.36841023
-0.5516749 0.46776795 0.5149406 0.5041244 -0.22011286 0.1909594 -0.420757 0.5655509
-0.2421084 -0.3035466 -0.18617404 -0.045414507 -0.36499333 -0.060917437 0.0017457604 0.18187535
-0.4704659 0.31425428 0.28507823 -0.29307514 0.2037682 -0.0691964 -0.36810383 0.38023907
0.17384261 0.093887866 -0.37101522 -0.53550255 -0.30237025 -0.08929402 -0.05334252 -0.5033895
-0.38654962 -0.48672357 0.43040955 0.17607379 0.40433848 -0.34731823 -0.5744397 0.09785348
-0.4266632 0.13262671 -0.5070048 -0.33202434 0.27339512 0.08841097 0.21086079 -0.40115845
-0.38923746 0.10019499 0.081848264 -0.21482727 0.008135736 -0.074445724 -0.26057547 -0.51820016
-0.5330814 -0.51438665 -0.032637537 -0.3913564 -0.13095403 -0.52770674 0.5465536 -0.103030145

imagination.2.weight f4 [256, 256]
00000000: d017 bf3b d8d5 5abc 88d7 753d 8a9e 4abd
00000010: fcb8 81bc a459 3b3d 20d6 ee3c 6e26 13bd
00000020: 68d4 00bc d296 423d 3a63 6d3d f064 963c
00000030: 440e 9c3c 1cb2 a53c 2a7e 0dbd f4ee 73bd
00000040: 22e9 08bd 78b2 06bc 5cc3 243d 1c0b ad3c
00000050: f6df 4fbd 4c83 4dbd c0ed 76bc 0830 af3c
00000060: bc59 d03c 2c48 603d 6e48 3d3d 18da 693c
00000070: a023 253d f8b7 39bc a43c a1bc f695 0f3d
00000080: 50e8 b93b e423 fc3c ccdd 44bd e49a 573d
00000090: 1240 1bbd f055 1c3d 6017 6dbc 685e fd3c
000000a0: 6873 973c 9430 e3bc 340c d33c 04d4 6fbd
000000b0: ac80 33bd a8d7 3c3c 84b8 e3bc 6e73 6cbd
000000c0: 78f2 9dbc 2cce 38bd 5ecc 373d d4c2 dbbc
000000d0: e09c 083b 6e94 5cbd 30d5 813c a25a 6b3d
000000e0: b218 4c3d 0054 f839 ea72 463d b0c2 243c
000000f0: 00b1 18bb cc29 84bc d45b 133d 8026 023b
00000100: 70d9 d3bc 3c64 4a3d 6691 683d faae 243d
00000110: ec4c 26bd a048 a83b d4df 73bd b86f ec3c
00000120: ec3e 163d 2c42 313d 60f5 1d3d 5a75 273d
00000130: ac2d 723d 1078 be3b 80e7 f0ba 9273 7cbd
00000140: 54c0 5d3d f491 503d c8f7 e4bc 401b 083d
00000150: d6f9 183d 38ed 083d c472 72bd 00c0 2b3c
00000160: a85f 66bc ea28 6bbd 288c 38bd 08d1 08bc
00000170: a2f3 3ebd 203f 9a3c 50ae af3b 9606 64bd
00000180: 7c2f 02bd 80d3 2ebd 00f1 0bbc 8051 f13a
00000190: f0eb d13c 08af 7f3d b0d9 1dbd c863 c5bc
000001a0: 2e49 51bd a434 f93c 0014 07bb 16ea 2ebd
000001b0: 8089 cfbc c86c 7fbc e002 a3bc f82e b93c
000001c0: 0a9a 27bd 8006 b2bb d09a 7e3d 702d c7bb
000001d0: a09d 11bd de5a 0abd 50b2 023c a043 75bd
000001e0: 402f c53c c086 963b 903e fdbb a855 6c3c
000001f0: 82d0 053d 403a 9fba 2833 6dbc b05f 02bd
00000200: 6832 7a3c a47f 65bd fc56 d93c 6ae2 01bd
00000210: f07d c4bc c612 0cbd ba43 6abd a8cc f43c
00000220: 862c 73bd 448b 50bd 8004 c73a b6f2 003d
00000230: 50d1 9cbc e0d4 ab3c 4009 29bd 92ee 233d
00000240: 34d4 4abd 6e42 78bd a2cb 0dbd 5255 46bd
00000250: 8865 33bc d0e5 4abc 1849 7a3d 5afe 383d
00000260: 7475 183d c009 ddbc d010 7e3d e8b6 42bd
00000270: f6a6 063d b64b 733d 3016 73bd 32b3 70bd
00000280: 24c7 aa3c 6661 7cbd 9086 093d 6a02 6d3d
00000290: e88c 743c 0099 11bc d63d 653d 6066 b7bc
000002a0: a82a fbbc 4229 62bd 8c66 dd3c 4865 193d
000002b0: 64d8 8f3c 902e 07bc c2e7 06bd a469 9f3c
000002c0: 8a86 75bd 10e8 f63b 40e7 48bd d014 aabc
000002d0: 4c1b 42bd eca5 c0bc f0cd 0b3c 4084 5d3d
000002e0: 2606 13bd 201a 093b 40ad d2bb ea11 11bd
000002f0: 305b bfbc a0d7 113b f04f 51bc 9231 0bbd
00000300: 16a9 03bd 809d 1b3b 3c73 3fbd 1ac9 3ebd
00000310: 885f 00bc 00e1 52ba a01c 483c 9afb 443d
00000320: 6431 953c f8df 63bc 00b5 463c 9e4a 52bd
00000330: a488 cfbc e80b 103d d8ae c43c f8c1 2e3d
00000340: 98e1 d6bc b073 47bc 2674 3f3d 1c89 afbc
00000350: 4c47 38bd c065 df3a dc4d acbc 34e5 2b3d
00000360: 4c06 873c b01d d33b f093 d93b fe24 1c3d
00000370: 1cc2 383d 9051 ae3c de82 463d f02e 3dbc
00000380: 683e 7d3d aee6 343d 48a3 f63c 7c19 1abd
00000390: c039 ba3a f85c e1bc 8c0c af3c 6820 5dbd
000003a0: f0f8 ad3b 70b9 803b 009c acbb 5ccd 583d
000003b0: 7820 5bbc 1877 473d 246f 05bd 40c5 a9bc
000003c0: dab3 373d def4 6ebd 707e 39bc c0f7 35bc
000003d0: 1020 b6bb 7c31 003d 2677 0f3d 6af0 45bd
000003e0: c03a 303b 286f 65bd 302f 4dbd 9c5b 663d
000003f0: 0000 4737 e0b8 f9bb d293 2f3d 48fa ebbc
0.005831696 -0.013356648 0.06002 -0.0494676 -0.015835278 0.045739785 0.029154837 -0.03592532
-0.007863142 0.047507115 0.057955958 0.018358678 0.019049771 0.02022653 -0.034544148 -0.059554055
-0.033425458 -0.008221261 0.04022537 0.021123461 -0.050750695 -0.050174043 -0.015071332 0.021385208
0.025433414 0.05475633 0.046211652 0.014273189 0.040317178 -0.0113353655 -0.019682236 0.035055123
0.0056734458 0.030778833 -0.048063084 0.05263795 -0.0379029 0.038167894 -0.014470905 0.030928805
0.018487647 -0.027733125 0.025762655 -0.058551803 -0.043823883 0.011526026 -0.027797945 -0.05772727
-0.019280657 -0.045118496 0.044872634 -0.0268263 0.0020845458 -0.05385249 0.015848726 0.05745948
0.04982824 0.0004736483 0.048449434 0.010056183 -0.002329886 -0.016133212 0.035976246 0.0019859374
-0.025860518 0.049411997 0.056779288 0.040205933 -0.040600702 0.0051356107 -0.05953963 0.028861865
0.0366811 0.043275997 0.038564086 0.0408834 0.059125587 0.0058126524 -0.0018379539 -0.061633654
0.054138497 0.05092044 -0.027950183 0.033229113 0.037347637 0.033429354 -0.05919148 0.010482788
-0.014060892 -0.057412066 -0.04505554 -0.008350618 -0.046619065 0.018828928 0.005361356 -0.055670343
-0.031783566 -0.04268217 -0.008541346 0.001841113 0.0256252 0.062422782 -0.03853768 -0.024095431
-0.05109518 0.030420609 -0.0020611286 -0.04270371 -0.02533412 -0.0155899 -0.019898832 0.022605404
-0.040918387 -0.0054329038 0.06215936 -0.0060784146 -0.035550714 -0.033778064 0.007977083 -0.059878945
0.024070382 0.0045937 -0.0077284053 0.014424719 0.03266955 -0.0012148097 -0.014477529 -0.031829536
0.015270807 -0.05602993 0.026530735 -0.031710066 -0.023985833 -0.03419759 -0.057193495 0.029882744
-0.059368633 -0.050914064 0.0015183836 0.031481467 -0.019142777 0.02097553 -0.041268587 0.04002244
-0.04951878 -0.060610227 -0.034618028 -0.04842121 -0.0109495 -0.012383893 0.061104864 0.045164444
0.037221387 -0.026982188 0.062027752 -0.047537714 0.03287407 0.059398375 -0.05934733 -0.058764644
0.02084691 -0.061616324 0.033575594 0.05786363 0.014926173 -0.008886576 0.055967174 -0.022387683
-0.030659989 -0.055215128 0.027026437 0.037450105 0.017559238 -0.008250847 -0.032935865 0.019459553
-0.05994276 0.007534988 -0.049048662 -0.020761877 -0.047389314 -0.023516618 0.008532986 0.0540812
-0.035894535 0.0020920113 -0.0064293444 -0.035417475 -0.023358911 0.0022253767 -0.012775406 -0.03398282
-0.032143675 0.0023745 -0.046740755 -0.046578504 -0.007835276 -0.0008044392 0.012213856 0.04809151
0.018212028 -0.013908379 0.012128115 -0.05134069 -0.02533371 0.035167605 0.024009153 0.04266545
-0.026230618 -0.012173578 0.046741627 -0.021427684 -0.04498987 0.0017043874 -0.02103322 0.041966632
0.016482495 0.006442748 0.00663995 0.038121216 0.045106992 0.021279126 0.04846465 -0.011546835
0.061827093 0.044165306 0.030107155 -0.03762196 0.0014207885 -0.027510151 0.021368288 -0.053985983
0.0053092167 0.003928356 -0.00526762 0.05293022 -0.01337444 0.04869756 -0.032576695 -0.020723939
0.044849254 -0.058338992 -0.011321649 -0.0111064315 -0.0055580214 0.031297192 0.03502574 -0.04832498
0.0026890486 -0.05601421 -0.05009383 0.05623971 1.1861324e-05 -0.007620916 0.04286558 -0.028805867

imagination.2.bias f4 [256]
00000000: 4c91 583d c610 733d b84d 693c 8e7c 4d3d
00000010: 4065 4ebd 78af 4c3c 5008 0b3c b0f9 8b3b
00000020: cc70 383d 685a 573d cc2b 71bd d89c 2b3c
00000030: 06f3 7ebd 20a8 383b ccad c63c 8ab3 313d
00000040: c076 b1bb 6033 14bb ea06 403d 00ac d2b8
00000050: 00fc 4bb9 6018 48bd f046 2e3d f0a6 82bc
00000060: d0fa f6bb 468c 3dbd 68ad 7dbc e43f b2bc
00000070: aa76 63bd ce58 57bd d867 b2bc a0a0 adbc
00000080: 287f 933c 30bb ed3c 4c84 c23c c8bf 4c3d
00000090: 788b 0d3d e05c 61bb 3aa8 653d 6070 0a3d
000000a0: 8074 45bb e28e 403d c066 953c 6a6b 083d
000000b0: 3620 44bd a092 ca3b 44d2 293d 6815 ebbc
000000c0: b02d 3b3d 005b 20bd 48f8 383c 4675 753d
000000d0: 4cce adbc c625 3fbd 300b 673d 32d1 4c3d
000000e0: b007 dcbb 1498 c0bc cc8c 0ebd dc6e d8bc
000000f0: 8815 483d 4c5a 6c3d 3292 21bd d008 40bd
00000100: 1826 1abc 7412 d8bc ccab d73c 2268 543d
00000110: b2e3 663d 067b 15bd b6d9 53bd 4072 ae3b
00000120: cc6c 94bc e07a 2b3b 484f 613d d0a0 d6bc
00000130: 9071 a5bc 14b9 d2bc 4688 29bd d075 8abc
00000140: 10b9 de3b 6497 bc3c 8471 aebc 7096 983c
00000150: b8fd 4ebd e2b2 2cbd aa78 583d 4408 98bc
00000160: 906a 373c 04a9 ff3c 0847 5dbd 1048 c23b
00000170: 20a9 463c 80c0 d5ba c064 1e3b 20ff d43c
00000180: 80f8 3abb 00f0 ea39 78c4 76bd 6037 d4bb
00000190: 5c22 723d 6ceb 5c3d 7266 533d 5c06 fe3c
000001a0: 202b 62bc 98a3 043d 3c99 a5bc 349c 88bc
000001b0: f21a 7cbd f439 fd3c 18ff 483c 762d 483d
000001c0: f694 7c3d 60c8 3d3b 7423 90bc 1abf 31bd
000001d0: 801b 0fbc ba76 623d aa1e 72bd c8e6 ec3c
000001e0: d2f6 27bd 70b2 a8bc 804a ab3a f624 123d
000001f0: b0b1 f13b 488f 263d f680 633d 9001 a13c
00000200: 001e 873b d68f 48bd f69c 7fbd 543b 653d
00000210: 407d 453b a87c e9bc 0a32 263d a60b 07bd
00000220: ac2e 24bd 5050 49bc f011 d03c 0040 a9ba
00000230: d839 b4bc d46a 833c c261 5b3d a82e 08bc
00000240: 18ac 44bc 0c6a 333d 4ee1 743d 009e 243c
00000250: 4eb7 623d 8873 723c 986a 443c f0d5 a9bb
00000260: d4b9 babc c0e5 4fbd 0864 003c 28b3 c8bc
00000270: 6ece 723d a008 0fbb 7cbb e5bc 1097 33bc
00000280: a627 253d f096 c2bb 50cb 0dbd 18c7 3abc
00000290: 885a 693c 00af 2c3b 4051 0a3b d453 8e3c
000002a0: 0896 043c c095 8d3b 6402 593d 343f 0e3d
000002b0: 1012 7f3c fea1 0bbd 9804 8fbc 00dc 233a
000002c0: 1e25 29bd fed8 443d bc1f 933c f4c4 983c
000002d0: 30ed 2cbc a0b5 23bb 0cc3 b3bc fa46 3bbd
000002e0: b0f2 0e3c 0cba 8cbc 3e5e 77bd 2ae9 2abd
000002f0: fe53 6d3d 2010 423c c412 553d 4c4a 143d
00000300: ac6f 20bd 54df e13c 8071 1eba 22e1 513d
00000310: e26f 4f3d 6cea 7b3d 1462 1ebd 3205 563d
00000320: 4e71 033d 002d 233a caf7 19bd a0f0 64bd
00000330: 9647 463d 949e 2bbd ee56 7d3d e660 38bd
00000340: d8fb 793c 4aa6 5ebd 103f 0bbd 20d6 6dbd
00000350: b0a5 5bbd 02c3 393d c0d2 ba3b 3828 7f3d
00000360: 7054 acbb b884 613d 70be dcbc f0c9 b5bc
00000370: 489b 403c 20b2 68bd 1c05 a83c 88ca 2c3d
00000380: 3039 62bd f079 693d ec56 7b3d 98b7 04bc
00000390: 44bb 983c c899 07bc f810 28bc 2832 56bc
000003a0: 602e 51bd 481f 5f3d 603f 64bb d8f9 23bd
000003b0: f8fe 1bbc 204d 77bd e860 99bc 8007 033c
000003c0: f259 46bd 1c7d a53c b0fa 3abd f055 e8bc
000003d0: 989d ed3c 6c90 9f3c 18a6 d0bc b0af 2dbc
000003e0: 449f 853c 94ee a83c 808a dc3a 34e3 d1bc
000003f0: 2c9f 483d c01d 11bc 922e 003d 1ab3 323d
0.05287294 0.05934217 0.014239721 0.050167613 -0.05038953 0.012493007 0.008485869 0.0042717084
0.045029446 0.052576452 -0.05887966 0.010474406 -0.062243484 0.0028176382 0.024252795 0.043384112
-0.0054157674 -0.002261363 0.046881594 -0.00010045618 -0.00019453466 -0.04885137 0.04254812 -0.015948743
-0.0075372234 -0.046276353 -0.015483238 -0.021758981 -0.05553309 -0.052574925 -0.021778032 -0.021194756
0.018004969 0.029019922 0.023744725 0.049987584 0.034556836 -0.0034387633 0.056068636 0.033798575
-0.0030129254 0.047011264 0.018237472 0.033305563 -0.04788228 0.00618203 0.04146029 -0.02869673
0.045697868 -0.039149284 0.011289664 0.059926294 -0.021216534 -0.046666883 0.056407154 0.05000419
-0.0067147836 -0.023510017 -0.034802243 -0.02642005 0.04884866 0.0577033 -0.039446063 -0.046883404
-0.009408496 -0.026375987 0.026327036 0.05185712 0.05636949 -0.036494277 -0.051721297 0.0053236783
-0.018118285 0.0026165769 0.05500725 -0.026199728 -0.020195752 -0.025723018 -0.041389726 -0.01690188
0.0067969635 0.023021407 -0.021294363 0.018626422 -0.050534934 -0.042162783 0.05284945 -0.018558629
0.01119484 0.031208523 -0.05402282 0.0059290007 0.0121252835 -0.001630798 0.0024168938 0.02600056
-0.0028529465 0.00044810772 -0.06024596 -0.006476328 0.0591148 0.053935453 0.05161137 0.031008892
-0.013804227 0.032382578 -0.02021467 -0.016676046 -0.061549135 0.030911423 0.01226785 0.04887148
0.061665498 0.0028958544 -0.01759503 -0.04339514 -0.008734584 0.055289008 -0.059111275 0.028918639
-0.04100687 -0.020592898 0.0013068467 0.03567978 0.0073759183 0.040663987 0.05554291 0.019654065
0.0041234493 -0.048965298 -0.06240555 0.055964783 0.003013447 -0.028501824 0.040575065 -0.032970093
-0.040083572 -0.012287214 0.025399178 -0.001291275 -0.022000238 0.01604215 0.053560026 -0.008311905
-0.012003921 0.043802306 0.05978518 0.010047436 0.055350594 0.014798053 0.011988305 -0.005182974
-0.022793688 -0.050756216 0.007836349 -0.02449949 0.059278898 -0.002182521 -0.028043501 -0.010961309
0.040321015 -0.0059384033 -0.034617722 -0.011400007 0.014242776 0.0026349425 0.0021105558 0.017373957
0.008092411 0.00432083 0.052980796 0.034728244 0.015568271 -0.034090035 -0.017458245 0.0006250739
-0.041295163 0.048058502 0.017959468 0.018648602 -0.010554597 -0.0024980083 -0.021943592 -0.045721985
0.008724853 -0.017178558 -0.06039261 -0.04172627 0.05794143 0.011844665 0.05201985 0.036203668
-0.039169 0.027572311 -0.00060441345 0.051240094 0.05064381 0.06150286 -0.038667753 0.05225105
0.032090478 0.0006224662 -0.037589826 -0.05589354 0.048408113 -0.04189928 0.06185048 -0.045014285
0.015257798 -0.054357804 -0.033995688 -0.058065534 -0.05362481 0.04535199 0.005701393 0.062294215
-0.005259089 0.05505821 -0.026946276 -0.022191018 0.011755772 -0.0568105 0.020510249 0.042185336
-0.05523032 0.057001054 0.061362192 -0.008100413 0.018643983 -0.00827641 -0.010257952 -0.013073482
-0.051069617 0.05447319 -0.0034827814 -0.04003319 -0.0095212385 -0.060376287 -0.018722966 0.007997394
-0.048425622 0.020201258 -0.04564923 -0.02836129 0.02900581 0.019478045 -0.025469825 -0.010600969
0.016311295 0.020621575 0.0016825944 -0.025621034 0.048979923 -0.008857191 0.031294413 0.043627836
