MAI2A_TreasureFinder/agent_2_model.pth (torch, 848959 bytes, 30 tensors)

env_model.conv1.weight f4 [32, 14, 3, 3]
-0.049339112 -0.07265734 -0.037953567 -0.2773262 -0.095324986 -0.1770118 -0.13497563 -0.014074861
-0.12663536 -0.32978973 -0.20763737 -0.23161231 -0.13250329 0.033958554 -0.28970113 -0.29750475
-0.12599245 0.067363024 -0.19349357 -0.14735523 -0.18338425 -0.09548797 -0.20367014 -0.13263537
-0.13252689 0.009647279 0.006608191 0.06770036 0.02032989 -0.04909507 -0.23331036 -0.1948895
-0.34108987 -0.13492517 -0.16396053 0.17686878 -0.094655655 -0.039956655 -0.35505292 0.055239856
-0.36490425 -0.18114756 -0.14652905 0.17437571 0.20888904 0.14477614 -0.40486953 -0.10934432
-0.1996782 -0.046240434 -0.27677554 -0.25021106 0.05050448 -0.43406165 0.009827291 -0.09551323
-0.04879592 0.06944138 0.0092613725 0.062498786 0.019253848 -0.059113402 0.035658993 -0.063860394
-0.0376983 -0.06999878 0.0068189567 -0.00075450545 0.031954374 -0.030896915 -0.056693424 -0.057718866
-0.049131155 0.042586423 -0.042984672 0.060156308 -0.027442383 -0.025777353 0.014845941 -0.059262455
-0.010873152 0.021513743 -0.083338365 -0.13063852 -0.02394427 -0.08190655 -0.04003452 -0.18324423
-0.111075886 -0.22234066 0.033430345 0.09645075 0.08524608 -0.20639014 -0.008788326 0.04494226
-0.20376837 0.16386975 0.1194778 -0.20999984 0.12134584 0.05409237 -0.275883 -0.029641919
0.113841504 -0.12078233 0.0042343414 0.052898437 -0.009042889 0.11794411 0.097855836 -0.14812012
0.040856145 0.027642827 -0.15735787 0.1376473 0.13207027 -0.16578074 0.09356564 0.15404256
-0.19501697 0.0051568593 -0.051443543 -0.1527067 0.06336486 0.06706337 -0.100500196 -0.030302867
-0.041429173 -0.10180413 -0.06868036 0.016475143 -0.08323519 -0.050286453 -0.00916466 -0.102336966
-0.04945521 0.10157314 -0.09313296 -0.0076796263 -0.04918345 -0.26771432 0.014707622 0.06616727
0.016961167 0.07161583 -0.04525334 -0.12545688 -0.047970377 -0.007965606 -0.042691037 0.01165945
0.022038711 -0.1878576 -0.25497392 -0.2224825 -0.27667612 0.19476046 0.16705154 -0.29313338
0.08671822 -1.5635523 -0.05943668 -0.45454577 -0.39717576 -0.20276278 -0.0666684 0.061117128
-0.047980536 0.14361835 0.044967618 -0.05585974 -0.24077973 -0.14995776 -0.015192706 -0.6762508
-0.6285133 -0.25249752 -0.47266567 -0.23939645 -0.08856054 0.05227156 -0.041284006 0.024486093
-0.033100627 0.063498445 0.047919124 0.039661355 0.048238177 -0.058532044 -0.08701733 -0.06265108
0.03833906 -0.07673927 0.058864288 -0.022831304 -0.06483647 0.012146471 -0.040492393 -0.05815315
0.005163207 -0.0014030394 0.010756174 0.027619751 0.058842454 0.012256442 0.07377426 -0.3014312
-0.1323903 -0.1191707 -0.19089743 0.096575215 0.11544563 -0.06328855 0.16658174 0.24925652
0.102271274 0.087241195 0.12994117 -0.10785541 -0.116640344 -0.024297098 -0.0781933 -0.054373514
-0.06823013 0.06456347 0.09773319 0.106272824 -0.08833242 -0.06525829 -0.0038677931 -0.10690177
0.0042149755 0.07812826 0.07981095 0.086091265 0.045919128 -0.08013941 -0.09648356 -0.06277127
-0.069995366 -0.14120074 0.091042176 -0.049322516 0.10820838 -0.0070134075 -0.18710873 -0.16541702
-0.04537262 -0.14091597 0.057984885 0.03261017 0.0048172083 -0.031948574 -0.03313063 -0.0055850344
00000000: cf17 4abd 5fcd 94bd 3375 1bbd b3fd 8dbe
00000010: bf39 c3bd 9542 35be 0d37 0abe 3f9a 66bc
00000020: b3ac 01be 33da a8be e49e 54be c72b 6dbe
00000030: f1ae 07be 2018 0b3d b553 94be 8b52 98be
00000040: 2a04 01be a0f5 893d 2e23 46be 4ae4 16be
00000050: 15c9 3bbe 328f c3bd e88e 50be 91d1 07be
00000060: 21b5 07be 9f0f 1e3c 8689 d83b 7da6 8a3d
00000070: df8a a63c ea17 49bd e9e8 6ebe 1d91 47be
00000080: 55a3 aebe d329 0abe 45e5 27be 171d 353e
00000090: d3da c1bd 97a9 23bd 7fc9 b5be 3043 623d
000000a0: bbd4 babe bf7e 39be b60b 16be 8c8f 323e
000000b0: 02e7 553e 3240 143e 0f4b cfbe eaef dfbd
000000c0: 7178 4cbe 9c66 3dbd 86b5 8dbe aa1b 80be
000000d0: c9dd 4e3d 543d debe a502 213c 719c c3bd
000000e0: 3bde 47bd 4837 8e3d 03bd 173c bafe 7f3d
000000f0: 3fba 9d3c e520 72bd 2a0f 123d 3dc9 82bd
00000100: 8869 1abd 855b 8fbd 8e71 df3b 01ca 45ba
00000110: 97e2 023d 871b fdbc 5d37 68bd 9e6a 6cbd
00000120: c03d 49bd 1a6f 2e3d b210 30bd 7666 763d
00000130: d9ce e0bc 072b d3bc 643c 733c 30bd 72bd
00000140: 4e25 32bc 973d b03c 4ead aabd 1bc6 05be
00000150: c626 c4bc 9fbe a7bd 3dfb 23bd 60a4 3bbe
00000160: c17b e3bd 45ad 63be 42ee 083d f987 c53d
00000170: 7f95 ae3d f057 53be e9fc 0fbc 6015 383d
00000180: a8a8 50be 79cd 273e c7b0 f43d 330a 57be
00000190: 2b84 f83d f68f 5d3d 8940 8dbe 9cd3 f2bc
000001a0: bc25 e93d ba5c f7bd 3bc0 8a3b 08ac 583d
000001b0: a028 14bc ae8c f13d a468 c83d cdac 17be
000001c0: c658 273d 3673 e23c 6c22 21be 6af3 0c3e
000001d0: 6e3d 073e 6dc2 29be 589f bf3d 55bd 1d3e
000001e0: 87b2 47be dffa a83b 77b6 52bd 255f 1cbe
000001f0: 70c5 813d 8558 893d 0cd3 cdbd b83d f8bc
00000200: a3b1 29bd af7e d0bd 4aa8 8cbd e1f6 863c
00000210: 3677 aabd 2bf9 4dbd 5f27 16bc 0b96 d1bd
00000220: 8c91 4abd 9405 d03d 7ebc bebd 60a5 fbbb
00000230: 9674 49bd da11 89be 3df8 703c b582 873d
00000240: 25f2 8a3c 52ab 923d 915b 39bd c577 00be
00000250: 967c 44bd 2c82 02bc ccdc 2ebd 4707 3f3c
00000260: 878a b43c be5d 40be f18b 82be 74d2 63be
00000270: 7ea8 8dbe 496f 473e 8f0f 2b3e 9415 96be
00000280: 5299 b13d 7b22 c8bf e073 73bd 39ba e8be
00000290: 9f5a cbbe 0ca1 4fbe 7189 88bd f455 7a3d
000002a0: 3d87 44bd b010 133e f72f 383d 2fcd 64bd
000002b0: f68e 76be 878e 19be d4ea 78bc c61e 2dbf
000002c0: 3fe6 20bf 5b47 81be 3c01 f2be 5824 75be
000002d0: 3a5f b5bd b41a 563d 6b19 29bd 0f97 c83c
000002e0: 8694 07bd 790b 823d d846 443d f273 223d
000002f0: 6595 453d 4cbf 6fbd 2436 b2bd 364f 80bd
00000300: 6b09 1d3d 7a29 9dbd ae1b 713d b708 bbbc
00000310: fcc8 84bd fe01 473c 5adb 25bd ff31 6ebd
00000320: 1f30 a93b 31e6 b7ba aa3a 303c d142 e23c
00000330: c904 713d 3ecf 483c f616 973d 3155 9abe
00000340: 5391 07be c50f f4bd 9e7a 43be 3ac9 c53d
00000350: c26e ec3d 6d9d 81bd 6794 2a3e 1a3d 7f3e
00000360: 9a73 d13d 83ab b23d 4c0f 053e 4ce3 dcbd
00000370: 22e1 eebd b50a c7bc cf23 a0bd c3b6 5ebd
00000380: 3dbc 8bbd da39 843d 5728 c83d 91a5 d93d
00000390: a1e7 b4bd 23a6 85bd cd7a 7dbb 51ef dabd
000003a0: c71d 8a3b b601 a03d ec73 a33d 9e50 b03d
000003b0: b215 3c3d 2220 a4bd 2c99 c5bd 398e 80bd
000003c0: bb59 8fbd ed96 10be 5274 ba3d 6806 4abd
000003d0: 5b9c dd3d bad0 e5bb 6e99 3fbe 1463 29be
000003e0: a4d8 39bd 474c 10be 8f81 6d3d 3e92 053d
000003f0: acd9 9d3b 82dc 02bd fcb3 07bd aa02 b7bb

env_model.conv1.bias f4 [32]
-0.1575642 -0.26983675 0.14264826 -0.15711084 -0.087283514 0.030152189 -0.11950451 -0.1193974
0.22409202 0.00051721785 -0.13356173 -0.12619166 -0.25883362 -0.003673874 -0.14994882 -0.03617278
-0.08162398 0.014377508 0.11735239 -0.1437223 -0.000451783 -0.30417034 -0.2914057 -0.20942764
-0.0026753508 0.037453514 0.05446241 0.08090083 0.23057657 -0.04924167 0.07127901 0.10355848
00000000: 8258 21be 0b28 8abe 6312 123e aae1 20be
00000010: b3c1 b2bd b901 f73c c8be f4bd a086 f4bd
00000020: 6178 653e e795 073a 68c4 08be 6338 01be
00000030: d785 84be 61c5 70bb 2f8c 19be e929 14bd
00000040: 792a a7bd a48f 6b3c 7356 f03d f02b 13be
00000050: 4add ecb9 37bc 9bbe 2133 95be 3374 56be
00000060: f054 2fbb db68 193d fa13 5f3d 56af a53d
00000070: 441c 6c3e a2b1 49bd bbfa 913d 7816 d43d

env_model.conv2_state1.weight f4 [3, 32, 3, 3]
-0.0030862459 -0.0102325715 -0.00745199 -0.004795714 0.0068210056 -0.002407964 -0.0006407813 0.01092718
-0.0052292286 -0.014231013 0.001336138 0.013140315 -0.00034032666 0.0039274003 -0.0059883962 0.0063153943
-0.010260918 -0.0005294888 -0.0038941272 -0.0011385051 0.0007839988 -0.00084699964 -0.00046479658 7.3001414e-05
-0.0005687028 -0.0013953777 -0.00018815196 -0.001273099 -0.00066315394 0.0057859793 -0.0048524197 -0.0011905357
0.0029062538 0.00409685 -0.0010531237 0.011396141 0.00047509556 -0.010149374 0.016694363 -0.00904683
0.004763181 -0.0011558973 0.0019904398 -0.004683687 0.0067714 -0.00089494063 -0.007171431 0.010224553
0.002177036 0.0044259443 -0.007911243 0.0029941946 0.0025144552 -0.003584959 -6.789699e-05 0.008086628
-0.0058543924 -0.00028221912 0.00036418927 0.0014346496 -0.001959242 0.002016396 0.0037003441 -0.007920053
-0.0016468229 0.00042092576 -0.0026251008 0.0019845883 0.0046611354 0.015668413 0.000656251 0.0017704938
-0.0027559137 0.0052870014 -0.0029599906 0.0008311377 -0.004770206 -0.0023674187 0.0001581944 -0.004392464
0.00028930232 -0.0015806033 0.011417603 -0.019900933 -0.0051090815 -0.0024061257 0.01093077 -0.001940111
0.0004881575 0.0015367364 -0.0025408198 -0.009777569 0.009369371 0.0015042182 0.004094024 -0.0014153421
0.003804624 -0.0011165736 0.008515217 0.0017710802 0.022635153 0.012764832 1.2132282e-05 0.004912717
-0.012691598 0.00039045146 0.00094381144 0.0027282885 -0.0005207142 0.009397631 -0.009407108 0.0012297361
0.0076147937 -0.0055115568 -0.010373982 0.009715862 0.015549972 -0.017555473 -0.0018048765 0.01325505
-0.017996838 -0.007933634 0.010506058 0.018098596 -0.003561054 -0.0008240844 -0.0046205 -0.0031324457
0.0016320782 -0.0022664214 0.000923089 0.0040214253 0.00056272146 0.005508673 -0.005508156 0.011922871
-0.0011758893 0.012298282 -0.0117708435 -0.002262512 0.0036895245 0.00047966168 0.017185904 -0.01982477
0.0018883491 -0.0033678224 0.008381915 -0.0014244653 0.0018742116 0.004248707 -0.0041071577 -0.00062033045
-0.025137184 0.006161346 -0.003567941 0.0031947095 -0.003623568 0.00648762 -0.0039525013 -0.0077371406
-0.0030957132 -0.0077716657 0.036410514 -0.0106515605 0.0042393166 -0.012314755 0.0020269414 -0.02724453
0.007948839 2.0022679e-05 -0.043034296 -0.0039177183 0.0006878973 0.009405981 -0.0016046813 0.0031261214
0.00138902 0.0039889487 0.0032186566 -0.0034735238 0.0017675972 0.0036550034 0.0066760276 0.00040629925
-0.0056221415 -0.009208922 -0.0014067513 0.007866911 0.004325522 -0.0006273093 0.0061218566 -0.008543811
0.00022981431 0.00022983308 0.00022974625 0.01494503 -0.0028506618 -0.00036171058 -0.013898199 0.007869602
0.0071497294 0.00670029 -0.0023614606 0.017754873 0.004539015 -0.0127206305 0.00016250473 -0.032727495
-0.00037266526 0.036947425 -0.054818336 0.00024553694 0.00010610421 -0.0016555386 0.0006322373 -0.00033323537
0.0049180454 -0.004422041 0.0050156633 0.0043204357 -0.003244303 0.005969342 -0.021837978 -0.012918506
-0.021162648 0.008035003 -0.011759922 0.0052638375 0.01390915 -0.010557642 0.008167196 0.017054638
0.004945174 -0.007919154 -0.005753145 0.022289637 -0.009924337 0.002292506 -0.0037137775 0.009565056
-0.00095490535 -0.0030141787 -0.006103316 0.0023828675 0.0030257246 -0.0022516465 -0.00038988725 -0.0037565813
0.0011522387 -0.036505416 0.0018514226 0.0003696098 0.0055458876 0.0050177863 -0.007424393 0.0071947128
00000000: 9d42 4abb 84a6 27bc d32f f4bb 5d25 9dbb
00000010: be82 df3b efce 1dbb 1bfa 27ba ea07 333c
00000020: f359 abbb 3229 69bc 5a21 af3a 7a4a 573c
00000030: df6d b2b9 6cb1 803b 4f3a c4bb 5ef1 ce3b
00000040: 691d 28bc 64cd 0aba 9d34 7fbb e439 95ba
00000050: 4585 4d3a 2f09 5eba f1af f3b9 5618 9938
00000060: 0015 15ba 1be5 b6ba a84a 45b9 1dde a6ba
00000070: 82d7 2dba 5098 bd3b 0c01 9fbb c00b 9cba
00000080: d976 3e3b de3e 863b f808 8aba e1b6 3a3c
00000090: 3f16 f939 8f49 26bc 9ec2 883c 2839 14bc
000000a0: 7514 9c3b 7a81 97ba 0a72 023b 9d79 99bb
000000b0: 9fe2 dd3b 739a 6aba 53fe eabb e284 273c
000000c0: 9aac 0e3b 8307 913b 289e 01bc 403a 443b
000000d0: 8fc9 243b a2f1 6abb eb63 8eb8 c77d 043c
000000e0: 34d6 bfbb cff6 93b9 a8f0 be39 da0a bc3a
000000f0: a066 00bb 8325 043b 7981 723b 1cc3 01bc
00000100: 35da d7ba b3af dc39 e209 2cbb de0f 023b
00000110: 70bc 983b 0b5b 803c 4208 2c3a ea0f e83a
00000120: 8f9c 34bb 953e ad3b 67fc 41bb b5e0 593a
00000130: 634f 9cbb b226 1bbb fce0 2539 a9ee 8fbb
00000140: 80ad 9739 3f2c cfba e610 3b3c 4807 a3bc
00000150: 156a a7bb 17b0 1dbb f916 333c 534b feba
00000160: 64ef ff39 516c c93a e283 26bb 1932 20bc
00000170: fe81 193c 3029 c53a 2a27 863b 0083 b9ba
00000180: 0057 793b fe59 92ba 6983 0b3c 9723 e83a
00000190: 5b6d b93c 9623 513c c18b 4b37 dbfa a03b
000001a0: 6cf0 4fbc 82b5 cc39 1d6a 773a 16cd 323b
000001b0: 8a80 08ba 85f8 193c 4520 1abc 192f a13a
000001c0: 8585 f93b 4a9a b4bb a2f7 29bc 472f 1f3c
000001d0: 4fc5 7e3c 7fd0 8fbc 9b91 ecba b62b 593c
000001e0: 1b6e 93bc 13fc 01bc 9a21 2c3c 8243 943c
000001f0: 9260 69bb 5e07 58ba 9067 97bb b849 4dbb
00000200: 75eb d53a 3e88 14bb 74fb 713a 29c6 833b
00000210: 9983 133a 1982 b43b c37d b4bb 2558 433c
00000220: 4c20 9aba bc7e 493c 7fda 40bc a746 14bb
00000230: f3cb 713b 1a7b fb39 74c9 8c3c 8e67 a2bc
00000240: 7b82 f73a afb6 5cbb 4d54 093c 20b5 baba
00000250: 1ba8 f53a bd38 8b3b 5695 86bb ac9d 22ba
00000260: 7fec cdbc 1ee5 c93b 1ed4 69bb 555e 513b
00000270: 6279 6dbb 1a96 d43b fc83 81bb d787 fdbb
00000280: 73e1 4abb 75a9 febb 3123 153d e283 2ebc
00000290: f7e9 8a3b d3c3 49bc 6fd6 043b ec2f dfbc
000002a0: d93b 023c 60f6 a737 bb44 30bd 3460 80bb
000002b0: 0254 343a 8b1b 1a3c 2b54 d2ba 9ddf 4c3b
000002c0: c70f b63a bab5 823b 19f0 523b 0fa4 63bb
000002d0: b8ae e73a c888 6f3b 94c2 da3b 9004 d539
000002e0: f139 b8bb 05e1 16bc be62 b8ba 37e4 003c
000002f0: 1cbd 8d3b 0472 24ba db99 c83b 57fb 0bbc
00000300: 4ffa 7039 59ff 7039 0ae8 7039 00dc 743c
00000310: 2bd2 3abb f9a3 bdb9 46b5 63bc 81ef 003c
00000320: 4748 ea3b 1b8e db3b bcc2 1abb ab72 913c
00000330: 04bc 943b 316a 50bc 0866 2a39 440d 06bd
00000340: 4962 c3b9 2f56 173d 3189 60bd 69bb 8039
00000350: 4484 de38 a8fe d8ba babc 253a 18b6 aeb9
00000360: 8e27 a13b c5e6 90bb 6f5a a43b 7192 8d3b
00000370: 5f9e 54bb 789a c33b 8fe5 b2bc 24a8 53bc
00000380: 4a5d adbc 3fa5 033c b0ac 40bc 457c ac3b
00000390: 34e3 633c f6f9 2cbc b4cf 053c 2bb6 8b3c
000003a0: 200b a23b 57bf 01bc e184 bcbb c298 b63c
000003b0: b099 22bc de3d 163b d962 73bb c1b6 1c3c
000003c0: 9d52 7aba 8789 45bb 53fe c7bb e229 1c3b
000003d0: 3c4b 463b 5c90 13bb c869 ccb9 fa30 76bb
000003e0: b706 973a b486 15bd 6fab f23a 30c8 c139
000003f0: 47ba b53b 3e6c a43b 5348 f3bb a0c1 eb3b

env_model.conv2_state1.bias f4 [3]
-0.000103470986 0.0020701985 -0.00031821008
00000000: 90fe d8b8 2bac 073b 6fd5 a6b9

env_model.conv2_state2.weight f4 [3, 32, 3, 3]
-0.18353266 0.18193808 0.3499228 -0.024977848 0.036221217 0.049138688 0.022041261 0.053083457
0.085277565 -0.094772324 0.11463776 0.31437585 -0.47879404 -0.32776827 -0.062467046 -0.2140614
-0.2026667 0.18423817 -0.053731944 -0.5334749 1.1972657 0.42422706 -0.11381815 -0.09609275
0.40409285 -0.13285814 -0.29300064 0.5945261 0.47731674 0.16002269 -0.012310492 0.008787311
4.3504577 0.0032285654 -0.00848734 -0.00019697595 -0.12559292 -0.27656448 0.102963835 0.08996173
-0.49702162 0.914601 -0.20199232 0.091353334 0.5218028 0.06848166 -0.1153338 0.9122354
-0.16018304 -0.34470785 0.1397185 0.40866825 -0.2396106 -0.27255774 0.56239825 0.19688286
0.35061806 0.17784077 0.016960451 0.2996993 0.1842033 -0.5085327 0.085759014 0.086872734
0.13340971 0.41915143 -0.022489818 0.07845531 0.2179877 0.137791 -0.10746873 -0.20820922
-0.10064909 0.03001306 0.077249676 0.43169534 0.5146297 -1.1244754 0.037926313 0.63297707
-0.2274973 0.10339441 0.22653769 0.4968312 -0.018302767 0.04839543 0.015086609 -0.09741454
-0.07195048 0.059861694 0.057359565 0.07813993 0.050106965 -0.057593137 -0.0553805 -0.06590063
0.0064306497 0.009665782 0.04540721 0.048823673 -0.026400948 -2.1110996e-05 5.977045 0.62930214
1.2091185 0.029318796 0.014285856 0.26086256 -0.8456916 0.4895317 -0.21866246 -0.5435853
-0.5359675 0.7135092 0.06093272 0.2729548 -0.02905974 0.08774085 0.15530136 0.0736595
-0.2105595 0.14307229 -0.0064785704 0.039004084 -0.08445545 -0.033448838 0.10919239 0.31229886
1.3092898 -0.031269994 -0.03784675 -0.2916062 -0.037507508 -0.17501684 0.24748679 0.030969257
0.4176108 0.2732582 -0.5463333 -0.031801924 0.43756154 -0.61986 -0.06862924 0.10486621
2.2838964 0.043670874 0.101732045 -0.11785176 2.3954062 -0.20080663 0.08510694 0.30789056
0.29379436 0.11490806 -0.19447152 -0.1946397 1.1558646 0.24646689 -0.48045018 -0.29043427
-0.08924183 0.2090179 0.24961618 0.2038079 0.6710927 -0.03457331 -0.010376743 -0.010354669
-0.22212529 0.06866066 -0.14383568 0.13885961 -0.025430957 -0.049555175 0.077557564 -0.018744148
-0.009410268 -0.15257603 -0.0068010436 -0.070609346 0.07683672 0.13935265 -0.21841176 -0.3540656
0.32406053 -0.58465946 -0.38961753 -0.078919016 0.06125178 0.06023799 0.10796395 11.15926
-0.003850452 -0.039514855 -0.09417508 -0.13523243 -0.088200144 0.19963609 0.15100259 0.03443281
0.2952551 -0.42361596 -0.07226431 -0.17274174 -0.59309816 -0.077711575 0.0052282824 0.07656335
0.36760023 -1.4762756 0.052560724 4.768075 0.029380761 0.012449331 1.4496404 -0.52256936
-0.0065191532 0.09042759 1.7896608 -0.21122171 0.083942354 0.43263137 -0.54060197 -0.22322671
-0.7911723 0.024868902 0.16823375 0.39099544 0.03201218 -0.18084912 -0.07393299 0.09011641
-0.38082007 0.061019197 -0.011511216 0.38662943 -0.7044911 -0.013494198 -0.05515247 0.1993593
-0.07572769 0.13402903 -0.06803691 0.088165306 0.0012174065 8.107914 -0.03153778 -0.0073337727
-0.016905872 0.040379234 -0.013677778 -0.020769091 0.06817351 0.1741593 -0.12562034 -0.10810946
00000000: fcef 3bbe fa4d 3a3e 1529 b33e 589e ccbc
00000010: b35c 143d a645 493d e08f b43c 0a6e 593d
00000020: 01a6 ae3d fe17 c2bd 34c7 ea3d dff5 a03e
00000030: 7e24 f5be 3ed1 a7be 72dd 7fbd e932 5bbe
00000040: dc87 4fbe eea8 3c3e 0716 5cbd d091 08bf
00000050: 0140 993f 4a34 d93e 7d19 e9bd 47cc c4bd
00000060: 42e5 ce3e f70b 08be 2e04 96be dd32 183f
00000070: dc62 f43e fddc 233e f2b1 49bc a7f8 0f3c
00000080: f336 8b40 5796 533b 7c0e 0bbc 548b 4eb9
00000090: 6e9b 00be dc99 8dbe b4de d23d db3d b83d
000000a0: 9e79 febe 4b23 6a3f 13d7 4ebe 7517 bb3d
000000b0: de94 053f 1d40 8c3d 2134 ecbd 4288 693f
000000c0: 0607 24be 8c7d b0be 5e12 0f3e f73c d13e
000000d0: 7b5c 75be b08c 8bbe 55f9 0f3f a99b 493e
000000e0: 3684 b33e e41b 363e a5f0 8a3c 3072 993e
000000f0: ca9f 3c3e 332f 02bf 6ca2 af3d 55ea b13d
00000100: 8e9c 083e 049b d63e 913c b8bc 2dad a03d
00000110: 2b38 5f3e 1519 0d3e 9118 dcbd cc34 55be
00000120: 1c21 cebd f3dd f53c 1435 9e3d 2c07 dd3e
00000130: c6be 033f cfee 8fbf 9f58 1b3d c90a 223f
00000140: 0df5 68be 73c0 d33d 7ff9 673e a960 fe3e
00000150: afef 95bc 493a 463d d32d 773c 4681 c7bd
00000160: c65a 93bd 8931 753d ddf1 6a3d d407 a03d
00000170: f63c 4d3d c8e6 6bbd aad6 62bd e9f6 86bd
00000180: 33b8 d23b 3a5d 1e3c e9fc 393d 55fb 473d
00000190: cd46 d8bc 8517 b1b7 f443 bf40 f219 213f
000001a0: 65c4 9a3f f92d f03c 390f 6a3c c78f 853e
000001b0: 3f7f 58bf e6a3 fa3e 0de9 5fbe 6828 0bbf
000001c0: 2b35 09bf 8aa8 363f 9694 793d bbc0 8b3e
000001d0: b10e eebc 7ab1 b33d 5207 1f3e cbda 963d
000001e0: e99c 57be 8b81 123e 304a d4bb bfc2 1f3d
000001f0: fbf6 acbd a601 09bd 43a0 df3d a3e5 9f3e
00000200: cf96 a73f f714 00bd 3205 1bbd 684d 95be
00000210: 79a1 19bd 9d37 33be 2d6d 7d3e 3db3 fd3c
00000220: 15d1 d53e 80e8 8b3e 80dc 0bbf bc42 02bd
00000230: 1108 e03e 25af 1ebf 7d8d 8cbd 18c4 d63d
00000240: 5c2b 1240 3be0 323d e458 d03d 435c f1bd
00000250: 564e 1940 41a0 4dbe 8c4c ae3d d5a3 9d3e
00000260: 376c 963e eb54 eb3d 8b23 47be a14f 47be
00000270: 5ff3 933f d161 7c3e 91fd f5be cdb3 94be
00000280: 6cc4 b6bd ca08 563e 629b 7f3e 05b3 503e
00000290: bbcc 2b3f be9c 0dbd 3703 2abc a1a6 29bc
000002a0: d074 63be f69d 8c3d a949 13be 3731 0e3e
000002b0: 9554 d0bc 5efa 4abd 80d6 9e3d 548d 99bc
000002c0: 862d 1abc e43c 1cbe 4adb debb a29b 90bd
000002d0: 925c 9d3d 76b2 0e3e 55a7 5fbe 1648 b5be
000002e0: 43eb a53e 3eac 15bf f37b c7be 4ba0 a1bd
000002f0: 25e3 7a3d 1cbc 763d 341c dd3d 548c 3241
00000300: dd57 7cbb 54da 21bd ddde c0bd 5f7a 0abe
00000310: 47a2 b4bd 676d 4c3e 6ca0 1a3e 6b09 0d3d
00000320: ad2b 973e 31e4 d8be 50ff 93bd 36e3 30be
00000330: 48d5 17bf 3f27 9fbd 0352 ab3b 3fcd 9c3d
00000340: 1936 bc3e 99f6 bcbf ea49 573d 1294 9840
00000350: ecaf f03c 47f8 4b3c d18d b93f 1bc7 05bf
00000360: 9f9e d5bb 1a32 b93d 9b13 e53f 814a 58be
00000370: f8e9 ab3d dc81 dd3e e464 0abf 8b95 64be
00000380: 458a 4abf deb9 cb3c 7845 2c3e 8e30 c83e
00000390: 341f 033d 8330 39be 2e6a 97bd f48e b83d
000003a0: d9fa c2be 44ef 793d 8a99 3cbc 4bf4 c53e
000003b0: 8759 34bf c516 5dbc 8ee7 61bd d824 4c3e
000003c0: 1e17 9bbd e83e 093e ef56 8bbd 0390 b43d
000003d0: 6291 9f3a 04ba 0141 c22d 01bd 2550 f0bb
000003e0: 2f7e 8abc b264 253d c218 60bc f123 aabc
000003f0: 8e9e 8b3d d156 323e 9ea2 00be 7e68 ddbd

env_model.conv2_state2.bias f4 [3]
-0.100508705 0.07891019 0.082951166
00000000: 82d7 cdbd aa9b a13d 4de2 a93d

imagination.0.weight f4 [256, 3]
0.38202524 0.561828 0.42470443 0.19314843 0.5518365 0.098911464 0.082585275 0.48544395
0.2131378 0.5568768 -0.4674876 0.08519071 -0.15968868 0.3234275 -0.0858219 0.5717945
-0.08197257 0.46152997 -0.009904861 0.4309517 -0.13570216 0.46327722 0.2569021 0.3048972
0.13936335 -0.04245335 0.4358226 0.23625398 0.039882004 -0.5106788 -0.046043634 -0.17337835
0.15967566 -0.06370473 -0.37646687 0.36213058 0.43742323 0.5690446 0.31647068 -0.021350205
-0.49835414 -0.12423873 0.048604608 0.10559356 -0.5319085 -0.098228455 -0.30265188 -0.29345575
-0.5430137 0.08870959 -0.048547804 0.056845725 0.56572235 0.017282963 0.020492375 -0.18599826
0.46680546 0.0067349076 -0.23338795 -0.12493807 -0.30716255 0.5632262 0.074308574 0.2764184
-0.28838462 -0.3622059 0.061494768 0.5139035 0.54934716 -0.10818985 -0.56167006 0.48179686
-0.39513388 -0.3233173 0.45429194 0.24291682 -0.32016605 0.22448236 0.3500201 -0.26068798
0.20062822 -0.41479188 -0.48459935 -0.19724423 -0.5175806 -0.29915679 0.35633034 -0.37293318
0.08182019 0.041695118 0.18637723 -0.0039747953 -0.14075512 0.54707706 -0.06616044 0.4519626
-0.54526275 0.07686561 0.3821184 0.5215572 -0.19924733 0.51150465 0.18666613 0.21937424
0.097087264 0.25884408 0.08556783 -0.11467433 -0.16915941 -0.23676947 -0.5751641 -0.08215943
-0.5421939 0.4507984 -0.45353302 -0.09878415 -0.48912495 -0.39224273 0.20571792 -0.33766383
-0.019831717 0.42175585 0.085480094 -0.21746501 0.13885444 0.41899878 -0.39866504 -0.17188898
0.4432286 -0.22692248 0.26182818 -0.03966379 -0.083286375 0.55209553 -0.4165777 -0.23313776
0.42226213 -0.53532875 -0.3255471 0.43910563 -0.43690854 -0.5286562 0.41233546 -0.2848028
0.42448962 0.33702904 -0.5508822 0.07507473 -0.15046048 0.49041808 0.20207626 0.47007346
0.11603361 -0.20581335 -0.47524625 0.35472995 0.41144377 -0.05454135 -0.2817855 -0.2017282
0.5657785 0.57365966 0.27085602 0.18739772 0.2654717 0.41632307 0.011365354 -0.31589314
0.38222343 0.03747928 -0.5579618 0.09939939 0.21348548 0.49611008 -0.43023986 0.47632432
0.30472547 0.24049091 0.43966997 -0.31668463 0.19268143 -0.39159605 0.32139802 -0.18313926
-0.2944712 0.52838206 0.42802238 0.35229522 -0.3270503 -0.34365413 0.41996765 -0.22166434
0.02977717 0.44350147 -0.12583774 -0.5484005 -0.48646775 -0.26106942 -0.1896553 0.53814936
0.21417046 0.45159173 0.18618244 0.47346997 -0.068716764 0.31432968 0.007971466 -0.5282546
-0.43652067 0.20844376 0.06861472 -0.34777325 0.1121425 -0.1373674 -0.27802452 -0.5030918
0.23610795 0.5349293 -0.5601056 -0.2887392 -0.3832087 -0.071490645 0.55427456 -0.52825785
0.23715222 -0.31163898 0.46608853 0.26798242 0.45209134 -0.16885921 0.10432708 -0.2728356
-0.35817927 -0.43182766 0.020335197 -0.25779945 -0.062713444 0.48123682 -0.22611481 -0.4492671
-0.55375874 -0.12119174 -0.47734556 -0.19013903 0.068436086 -0.18828285 0.09073645 0.35731256
-0.34645182 -0.47135967 -0.47376972 -0.08133805 0.15494537 0.3558303 -0.44054517 0.15129745
00000000: d098 c33e f6d3 0f3f dc72 d93e b4c8 453e
00000010: 2845 0d3f 1892 ca3d 7822 a93d 1c8c f83e
00000020: cc40 5a3e 7a8f 0e3f 895a efbe 7878 ae3d
00000030: 6e85 23be 4a98 a53e 64c3 afbd 2061 123f
00000040: 3ce1 a7bd a84d ec3e 0048 22bc b4a5 dc3e
00000050: 82f5 0abe ac32 ed3e ac88 833e 7c1b 9c3e
00000060: 44b5 0e3e 90e3 2dbd 2424 df3e 90ec 713e
00000070: 505b 233d d9bb 02bf 4098 3cbd 188a 31be
00000080: 0482 233e a077 82bd 44c0 c0be 2e69 b93e
00000090: f0f5 df3e e8ac 113f 7208 a23e a0e6 aebc
000000a0: 4628 ffbe e070 febd a015 473d 7041 d83d
000000b0: 282b 08bf 002c c9bd 30f5 9abe d53f 96be
000000c0: f202 0bbf 60ad b53d 10da 46bd 10d7 683d
000000d0: 2ed3 103f 0095 8d3c a0df a73c 5476 3ebe
000000e0: 2001 ef3e 80b0 dc3b 40fd 6ebe 88df ffbd
000000f0: 6944 9dbe 982f 103f 182f 983d b686 8d3e
00000100: 26a7 93be 0d73 b9be f0e1 7b3d 2e8f 033f
00000110: 04a2 0c3f a492 ddbd 9cc9 0fbf 14ae f63e
00000120: fd4e cabe d889 a5be f498 e83e 30bf 783e
00000130: ceec a3be b4de 653e d635 b33e e578 85be
00000140: 7c71 4d3e 9a5f d4be 681d f8be 64fa 49be
00000150: 2a80 04bf 142b 99be ee70 b63e 19f1 bebe
00000160: 5891 a73d 80c8 2a3d acd9 3e3e 003f 82bb
00000170: 1c22 10be 3e0d 0c3f 207f 87bd a467 e73e
00000180: 5796 0bbf b86b 9d3d 06a5 c33e c684 053f
00000190: 7e07 4cbe f8f1 023f 6825 3f3e a4a3 603e
000001a0: b0d5 c63d 3687 843e 303e af3d 60da eabd
000001b0: 2038 2dbe b273 72be f43d 13bf 3443 a8bd
000001c0: 38cd 0abf 0ccf e63e 7b35 e8be 584f cabd
000001d0: 966e fabe 0ad4 c8be b8a7 523e 46e2 acbe
000001e0: 2076 a2bc 62f0 d73e 3010 af3d 26af 5ebe
000001f0: dc2f 0e3e 0287 d63e d31d ccbe aa03 30be
00000200: dcee e23e 5e5e 68be 580e 863e 8076 22bd
00000210: 0c92 aabd 2256 0d3f ac49 d5be aabb 6ebe
00000220: be32 d83e 4e0b 09bf 1cae a6be 74d2 e03e
00000230: 7ab2 dfbe 0356 07bf a21d d33e acd1 91be
00000240: b456 d93e 128f ac3e 9e06 0dbf c8c0 993d
00000250: 5012 1abe 1418 fb3e 14ed 4e3e 78ad f03e
00000260: 08a3 ed3d bcc0 52be 7a53 f3be 2a9f b53e
00000270: c2a8 d23e c066 5fbd 3046 90be d691 4ebe
00000280: dcd6 103f 5cdb 123f a4ad 8a3e 30e5 3f3e
00000290: e8eb 873e 4c28 d53e c035 3a3c bfbc a1be
000002a0: cab2 c33e e083 193d 96d6 0ebf e891 cb3d
000002b0: f09b 5a3e 2402 fe3e 6648 dcbe c8e0 f33e
000002c0: fa04 9c3e 4043 763e 6c1c e13e 7d24 a2be
000002d0: 484e 453e 477f c8be 488e a43e dc88 3bbe
000002e0: eec4 96be 0c44 073f c025 db3e 0a60 b43e
000002f0: 2373 a7be 6ff3 afbe 0006 d73e fafb 62be
00000300: 40ef f33c a012 e33e 9cdb 00be fa63 0cbf
00000310: 4d12 f9be e4aa 85be 0035 42be 28c4 093f
00000320: 804f 5b3e 0837 e73e 9ca6 3e3e a86a f23e
00000330: 60bb 8cbd d2ef a03e c09a 023c b23b 07bf
00000340: a37f dfbe 4872 553e e085 8c3d 560f b2be
00000350: f8aa e53d 0aaa 0cbe 3b59 8ebe a0ca 00bf
00000360: 48c6 713e 20f1 083f 1563 0fbf a0d5 93be
00000370: ee33 c4be b069 92bd f0e4 0d3f e83b 07bf
00000380: 08d8 723e 258f 9fbe 28a3 ee3e fe34 893e
00000390: 8478 e73e 6ee9 2cbe 70a9 d53d 1cb1 8bbe
000003a0: 4663 b7be 8418 ddbe 0096 a63c 4afe 83be
000003b0: e86f 80bd ac64 f63e a48a 67be 5606 e6be
000003c0: 22c3 0dbf 6033 f8bd a366 f4be ceb3 42be
000003d0: 3828 8c3d 38cd 40be 08d4 b93d acf1 b63e
000003e0: 2262 b1be 0e56 f1be f291 f2be 9094 a6bd
000003f0: 00aa 1e3e 642f b63e 238f e1be b8ed 1a3e

imagination.0.bias f4 [256]
0.090625584 -0.24362925 -0.21589512 -0.5250343 -0.42808402 0.37165266 -0.54596215 0.4698851
-0.4152703 0.1084761 -0.25991225 -0.49328312 -0.10513076 -0.5680095 0.24838376 -0.048932552
0.116855145 -0.2501653 -0.41887057 -0.03526169 0.35828078 0.14612216 -0.541925 -0.4462641
0.086992264 -0.07784256 0.06077665 0.024727225 -0.0756675 0.29292965 -0.43664783 0.27839494
0.26143426 0.07410258 0.116912365 -0.5092193 -0.13805118 -0.46790186 0.48365116 0.094598114
0.36335534 0.2647336 0.56159854 0.24673235 -0.5648312 0.1486826 -0.23186249 -0.32063156
0.24713331 0.17498124 -0.29817897 0.56964326 0.3482988 -0.30484816 0.5158844 -0.45385414
0.5234903 0.12855792 0.52785087 0.092610896 -0.25318524 0.5655769 0.26305777 0.103241205
-0.42733914 -0.1918335 0.42967677 0.116954386 -0.0031716824 0.037958503 0.36387968 -0.13272107
-0.07601625 0.39052367 0.00095522404 -0.52982956 0.09067005 0.04900211 0.20412487 0.554515
0.46462464 0.22127986 -0.40222448 0.38904393 0.04743266 0.3252005 0.20959294 -0.2674285
0.41740465 0.5689881 -0.574249 -0.4464925 0.54540265 0.22741902 -0.2580058 0.42247528
-0.15597755 0.32500893 -0.3317361 0.39083803 0.38367128 -0.36481246 0.3212145 0.15503693
0.52364886 0.02757889 -0.50140953 0.38780653 0.13452685 0.5215496 0.48028636 -0.15282354
0.45503545 -0.47283155 0.46529377 0.51309085 -0.37464866 0.42564952 -0.52193296 -0.49319565
0.07501835 0.090571165 -0.01560384 0.4539845 0.3613003 -0.24386379 0.56325567 -0.18083635
0.07296902 0.23239583 0.23845989 0.44800782 0.31290406 0.19362497 0.20862246 -0.5653645
0.19119895 -0.32949245 -0.4165585 -0.10459456 0.30315787 0.39237094 -0.31592804 -0.32998997
-0.4362042 0.40855837 -0.122452855 0.026772201 -0.57550967 0.31092978 0.4399315 -0.0053163767
-0.25540206 -0.56324786 0.4896437 0.27578825 -0.26386732 0.50848794 -0.16170245 -0.27651063
-0.565089 0.26223606 -0.3391852 0.45910084 0.037043393 -0.47944707 -0.14617631 0.35178584
-0.186982 0.4081704 -0.15653855 -0.09171179 -0.14898151 -0.33881775 -0.52746654 -0.12143788
0.17806941 -0.2700939 -0.3371727 -0.05258435 0.23817056 0.07485211 -0.1443792 -0.55180913
-0.11845726 0.5192592 -0.46522015 -0.2646213 -0.50548726 -0.48638812 0.10519284 -0.44586772
-0.27657884 0.3266428 -0.37850475 0.35271877 -0.00046020746 0.3524772 0.18900889 0.46977484
0.4675932 0.14391619 0.2752387 -0.2099545 0.4988563 0.5013218 -0.3245293 -0.4933359
0.012961984 0.3099705 0.033044696 -0.23808789 -0.54539275 -0.4745427 -0.3642347 0.06068164
-0.34247637 -0.043094814 0.33889633 0.2760486 0.033570766 -0.47589868 -0.12713978 0.16702229
-0.4968412 -0.3689292 -0.54112864 -0.5655639 -0.5229621 0.36386377 -0.49260223 0.013620853
0.009716332 0.02132684 -0.24564081 -0.3646995 -0.42172456 -0.3514047 -0.15380618 0.061828077
0.19234538 -0.5282445 -0.3552795 0.31537312 0.20847237 -0.43330044 -0.17767286 0.5733167
0.49811542 -0.31050673 -0.07291329 -0.37293327 -0.5712404 -0.13544929 0.4698913 -0.41474593
00000000: e899 b93d f279 79be 9c13 5dbe a668 06bf
00000010: d42d dbbe 4249 be3e 2dc4 0bbf c894 f03e
00000020: 4f9e d4be b828 de3d 3813 85be 9b8f fcbe
00000030: cc4e d7bd 1269 11bf 5058 7e3e 806d 48bd
00000040: c051 ef3d ab15 80be 3476 d6be 906e 10bd
00000050: 9470 b73e 0ca1 153e 99bb 0abf ba7c e4be
00000060: 0029 b23d ec6b 9fbd f0f0 783d c090 ca3c
00000070: 90f7 9abd e0fa 953e 4e90 dfbe c889 8e3e
00000080: b6da 853e 18c3 973d c06f ef3d 325c 02bf
00000090: 4a5d 0dbe d590 efbe 20a1 f73e a8bc c13d
000000a0: b609 ba3e 2a8b 873e ecc4 0f3f 68a7 7c3e
000000b0: c798 10bf 4040 183e 5c6d 6dbe d229 a4be
000000c0: 8410 7d3e 482e 333e eaaa 98be 24d4 113f
000000d0: 3854 b23e 0f15 9cbe 0011 043f 925f e8be
000000e0: 7603 063f b0a4 033e 3c21 073f c8aa bd3d
000000f0: 7fa1 81be a6c9 103f 82af 863e 2070 d33d
00000100: 32cc dabe 0070 44be 98fe db3e c885 ef3d
00000110: 00dc 4fbb 607a 1b3d 704e ba3e 08e8 07be
00000120: 68ae 9bbd b8f2 c73e 0068 7a3a e9a2 07bf
00000130: 38b1 b93d 70b6 483d 1c06 513e b2f4 0d3f
00000140: 48e3 ed3e 3097 623e 5ef0 cdbe c430 c73e
00000150: c048 423d ae80 a63e 889f 563e 63ec 88be
00000160: 10b6 d53e 34a9 113f fc01 13bf aa9a e4be
00000170: 829f 0b3f 88e0 683e 5619 84be ae4e d83e
00000180: 94b8 1fbe 9267 a63e 50d9 a9be ec1b c83e
00000190: 9070 c43e b3c8 babe 3a76 a43e 00c2 1e3e
000001a0: da0d 063f 20ed e13c 605c 00bf 948e c63e
000001b0: 68c1 093e 4684 053f 18e8 f53e c67d 1cbe
000001c0: 68fa e83e fa16 f2be fc3a ee3e ec59 033f
000001d0: f3d1 bfbe bcee d93e 669d 05bf 2484 fcbe
000001e0: 38a3 993d 607d b93d 40a7 7fbc a870 e83e
000001f0: 5afc b83e 6eb7 79be 8631 103f 2a2d 39be
00000200: c870 953d 2cf9 6d3e d42e 743e 4861 e53e
00000210: f634 a03e a045 463e 20a1 553e babb 10bf
00000220: a8c9 433e 3cb3 a8be 2847 d5be ac35 d6bd
00000230: 8237 9b3e d8e4 c83e 52c1 a1be 72f4 a8be
00000240: 2856 dfbe 902e d13e 90c8 fabd 6051 db3c
00000250: 9a54 13bf 3032 9f3e b43e e13e 0035 aebb
00000260: 0fc4 82be 0331 10bf 94b2 fa3e 1e34 8d3e
00000270: 9e19 87be 442c 023f 5495 25be cd92 8dbe
00000280: aca9 10bf ce43 863e afa9 adbe 440f eb3e
00000290: d0ba 173d 167a f5be 3eaf 15be 461d b43e
000002a0: 3678 3fbe b6fb d03e a44b 20be 64d3 bbbd
000002b0: 9c8e 18be 8579 adbe 0c08 07bf 6cb4 f8bd
000002c0: d457 363e bf49 8abe e6a1 acbe b062 57bd
000002d0: fce2 733e 104c 993d 24d8 13be 5d43 0dbf
000002e0: b899 f2bd 2cee 043f 5631 eebe 717c 87be
000002f0: 9d67 01bf dd07 f9be 586f d73d c648 e4be
00000300: be9b 8dbe ba3d a73e 60cb c1be 8e97 b43e
00000310: 0048 f1b9 e477 b43e 8c8b 413e 5486 f03e
00000320: 6068 ef3e c45e 133e 16ec 8c3e 50fe 56be
00000330: 186a ff3e a056 003f b428 a6be 8696 fcbe
00000340: 805e 543c 74b4 9e3e e059 073d 50cd 73be
00000350: dc9e 0bbf 43f7 f2be f87c babe 508d 783d
00000360: 1059 afbe 3084 30bd d283 ad3e 3e56 8d3e
00000370: 8081 093d fea8 f3be ee30 02be e407 2b3e
00000380: f861 febe 4ae4 bcbe 6887 0abf ccc8 10bf
00000390: d8e0 05bf 5a4c ba3e 5c36 fcbe 002a 5f3c
000003a0: 4031 1f3c a0b5 ae3c 4489 7bbe e5b9 babe
000003b0: 48ec d7be 51eb b3be 5e7f 1dbe 703f 7d3d
000003c0: 30f6 443e 083b 07bf 32e7 b5be 9678 a13e
000003d0: c879 553e 8ed9 ddbe e0ef 35be e2c4 123f
000003e0: fc08 ff3e bdfa 9ebe 9053 95bd 1cf1 bebe
000003f0: d03c 12bf 38b3 0abe 9895 f03e 9459 d4be

imagination.2.weight f4 [256, 256]
0.014257267 0.045330353 0.05623933 -0.011258319 0.04401631 -0.023539454 -0.028584987 0.0014220029
-0.010528833 0.034057774 0.041703314 -0.054588236 -0.051710226 -0.0052215084 0.00172887 -0.058415294
0.009986512 -0.026552655 -0.029751897 0.020949453 -0.0178167 0.038537398 -0.043203875 -0.0065802783
0.0023859367 0.04455109 0.039308697 0.05488731 0.04288272 -0.04531876 -0.01357834 0.049397573
-0.05234334 -0.03003098 0.0075385794 -0.008347228 0.009279937 0.061513208 -0.02936893 0.028585307
0.021560378 -0.0040094107 0.02111093 -0.058788605 0.03343886 0.0117750615 -0.034562364 -0.023237288
0.023423195 0.0056150705 -0.02520255 0.049004763 -0.012847334 0.0542624 -0.0023786575 -0.02296523
-0.05687826 0.01665654 0.04087913 0.00046164542 -0.015251502 -0.018213987 0.025543727 -0.06077858
-0.008236565 0.003166467 0.031582035 -0.028791778 0.04740975 0.00030673295 0.058108523 0.05407258
0.004568875 -0.0022405759 0.051532216 -0.06135056 0.02156037 -0.04287383 -0.03986939 0.00175073
0.0016705543 0.023758993 0.024024077 -0.061550945 0.05505289 -0.041441076 -0.05730024 0.009641767
0.0060813352 0.0059179515 0.0118082985 0.034979694 0.057436213 -0.021152519 -0.039031215 -0.027714327
-0.03430163 0.050007142 0.0076610744 -0.008751072 5.1289797e-05 0.002993524 0.03021019 0.051615544
-0.015603341 -0.015406519 -0.0013128445 -0.056826256 0.052422516 -0.007984757 -0.00760334 0.036292627
-0.037492782 -0.039800443 -0.018368602 -0.055418245 -0.015596472 0.026785113 -0.020229906 0.051571548
-0.047446705 0.016894773 0.019509993 -0.018445253 -0.050250277 -0.013334319 0.019438185 0.037700213
-0.053367734 -0.013752617 0.004789196 -0.014873885 0.03655298 0.05693984 -0.010629438 0.06049621
-0.049244814 -0.005030386 0.0059439987 -0.023281261 0.05358441 0.0297556 -0.029312335 -0.040749356
0.05129481 -0.049084164 0.03625241 0.059242576 0.026885286 0.059509493 -0.05462443 -0.024207234
-0.033748 -0.021039113 0.023830414 -0.016309977 -0.010284536 -0.062057704 0.044756643 0.017209403
-0.012601964 -0.04811068 0.0057011843 0.014353231 -0.056622155 0.005010411 0.034146994 -0.04233402
0.053930856 -0.018159606 -0.0018609986 -0.000986807 -0.039681517 0.06066008 -0.04802811 0.036786385
0.05654124 0.040169135 0.048546046 -0.050004713 -0.034519166 0.048091702 -0.0060480535 0.04316663
0.037468046 0.009116933 0.037093632 -0.012767099 -0.042925492 -0.026787505 0.040897153 0.027111895
0.051802687 0.025067024 0.038345277 0.01639422 -0.032178596 0.046090715 0.055065446 -0.021920994
0.017746978 -0.014298409 0.023217559 0.002552025 -0.040851593 -0.056866698 0.019099556 -0.018628538
-0.03243968 0.009483039 -0.017575078 -0.015453853 0.03678506 -0.00015617162 0.029717773 0.04276403
-0.04493293 -0.028236218 0.056961507 -0.019354805 -0.03709978 -0.0613868 0.040151447 -0.013501659
-0.031977184 -0.020780869 0.008736886 -0.019301556 0.021740548 -0.0060497075 0.001989007 -0.046871886
0.043885984 0.025548622 -0.043943197 0.02543956 -0.044598244 0.046550818 0.043479964 -0.016565315
-0.028572626 -0.058313325 0.02636242 -0.027431421 0.0017475113 -0.045164265 0.027754739 0.05328223
0.012074254 -0.0050597414 -0.042393923 0.04922156 0.012917854 -0.05116255 -0.04226388 -0.013462938
00000000: 5097 693c 52ac 393d 365b 663d d074 38bc
00000010: 724a 343d d0d5 c0bc 102b eabc 8062 ba3a
00000020: 2081 2cbc 2a80 0b3d 18d1 2a3d ea97 5fbd
00000030: 1ace 53bd 3019 abbb 409b e23a e044 6fbd
00000040: 789e 233c f484 d9bc 40ba f3bc 309e ab3c
00000050: 54f4 91bc 64d9 1d3d 8cf6 30bd 609f d7bb
00000060: 605d 1c3b 347b 363d 2802 213d 84d1 603d
00000070: caa5 2f3d 2aa0 39bd b077 5ebc 1c55 4a3d
00000080: f865 56bd 8803 f6bc 3006 f73b d0c2 08bc
00000090: e00a 183c 46f5 7b3d 1c97 f0bc bc2b ea3c
000000a0: 649f b03c 6061 83bb d4f0 ac3c 52cc 70bd
000000b0: 30f7 083d 30ec 403c 4491 0dbd 205c bebc
000000c0: 00e2 bf3c a0fe b73b 9475 cebc 38b9 483d
000000d0: a07d 52bc 4042 5e3d 40e3 1bbb 9421 bcbc
000000e0: 2ef9 68bd 4c73 883c e070 273d 0009 f239
000000f0: 70e1 79bc 8035 95bc 1441 d13c f6f2 78bd
00000100: a8f2 06bc 8084 4f3b 2a5c 013d bcdc ebbc
00000110: ba30 423d 00d1 a039 3403 6e3d 367b 5d3d
00000120: 80b6 953b a0d6 12bb 7213 533d ba4a 7bbd
00000130: 609f b03c 789c 2fbd 164e 23bd c078 e53a
00000140: 80f6 da3a 38a2 c23c 24ce c43c d81c 7cbd
00000150: 247f 613d 1ebe 29bd a8b3 6abd 80f8 1d3c
00000160: f045 c73b 60eb c13b 9877 413c de46 0f3d
00000170: 3c42 6b3d 0c48 adbc 32df 1fbd 2809 e3bc
00000180: de7f 0cbd 4ad4 4c3d c009 fb3b a860 0fbc
00000190: 0020 5738 002f 443b 5c7b f73c d26a 533d
000001a0: 28a5 7fbc a06b 7cbc c013 acba a6c2 68bd
000001b0: feb8 563d 80d2 02bc 7025 f9bb 94a7 143d
000001c0: 0892 19bd ca05 23bd c079 96bc 3efe 62bd
000001d0: 5888 7fbc 746c db3c 30b9 a5bc b03c 533d
000001e0: 7a57 42bd e866 8a3c 6cd3 9f3c 801a 97bc
000001f0: 3cd3 4dbd 3078 5abc d43c 9f3c 8a6b 1a3d
00000200: 2098 5abd a852 61bc b0ee 9c3b 98b1 73bc
00000210: 94b8 153d c039 693d 1827 2ebc e0ca 773d
00000220: eeb4 49bd f0d5 a4bb e0c5 c23b 58b8 bebc
00000230: 547b 5b3d 04c2 f33c 6c20 f0bc cce8 26bd
00000240: 821a 523d 7a0c 49bd 687d 143d 58a8 723d
00000250: 883e dc3c 3ac0 733d debd 5fbd 404e c6bc
00000260: 583b 0abd 385a acbc 0038 c33c 809c 85bc
00000270: 7880 28bc 3830 7ebd be52 373d bcfa 8c3c
00000280: 7878 4ebc b40f 45bd 00d1 ba3b d029 6b3c
00000290: a2ec 67bd 602e a43b b8dd 0b3d 7066 2dbd
000002a0: 9ae6 5c3d 74c3 94bc c0ec f3ba c057 81ba
000002b0: 1689 22bd b476 783d 20b9 44bd 52ad 163d
000002c0: ca97 673d 6488 243d 38d8 463d bed1 4cbd
000002d0: f863 0dbd cefb 443d c02e c6bb 7ecf 303d
000002e0: 1878 193d 305f 153c 7eef 173d 182d 51bc
000002f0: a4d2 2fbd 7871 dbbc c683 273d c419 de3c
00000300: 0e2f 543d 5c59 cd3c f00f 1d3d 2c4d 863c
00000310: b4cd 03bd 9ec9 3c3d 4e8c 613d a893 b3bc
00000320: 1c62 913c e043 6abc c032 be3c e03f 273b
00000330: 0054 27bd 0eed 68bd ac76 9c3c e09a 98bc
00000340: 78df 04bd c05e 1b3c 9cf9 8fbc 2832 7dbc
00000350: eeab 163d 00c2 23b9 b072 f33c 5629 2f3d
00000360: 980b 38bd a44f e7bc 7850 693d f88d 9ebc
00000370: f0f5 17bd ba70 7bbd d875 243d 1036 5dbc
00000380: 82fa 02bd a43c aabc 2825 0f3c 4c1e 9ebc
00000390: 3c19 b23c a03c c6bb 005a 023b bcfc 3fbd
000003a0: cac1 333d 584b d13c c8fd 33bd a066 d03c
000003b0: a6ac 36bd 12ac 3e3d 0c18 323d fcb3 87bc
000003c0: 2411 eabc f4d9 6ebd 00f6 d73c dcb7 e0bc
000003d0: c00c e53a 2afe 38bd e85d e33c 783e 5a3d
000003e0: 18d3 453c 30cc a5bb 40a5 2dbd 8c9c 493d
000003f0: 68a5 533c d28f 51bd e41c 2dbd a893 5cbc

imagination.2.bias f4 [256]
-0.0061112046 0.018599592 0.051174164 -0.014608249 -0.053982116 0.027380876 -0.03159269 -0.05169697
-0.049754627 0.022008643 -0.03428776 -0.008595593 0.007815085 0.04118137 0.037232094 -0.023554027
0.045785114 -0.061084375 0.035742745 -0.030442752 0.04279185 0.032343358 -0.026552051 -0.03717926
0.02323082 0.03263174 -0.06158381 -0.015530847 -0.010334231 -0.0521423 0.04157105 -0.022443764
-0.0033282042 0.006615706 0.051695235 0.040889315 0.0056672767 -0.0518684 0.05453057 0.0505116
-0.05888874 0.05033908 -0.029567502 -0.025565632 0.02083376 -0.023505516 -0.03043592 0.05839967
-0.018648297 0.017990433 -0.034046456 0.0059403256 -0.040021867 -0.053753734 0.020651586 -0.033295773
0.03461489 -0.019285642 0.044277363 -0.0031673536 -0.014229119 0.02475281 -0.0105085075 0.033221386
0.060166366 -0.0141989365 0.043768853 0.020068139 0.028282285 0.04943542 -0.05728142 0.061683133
0.012777552 0.055095434 -0.023186587 0.02302277 0.058529466 0.05956777 -0.033512488 -0.01210586
0.054839566 0.008375257 -0.0015467703 -0.021730103 -0.050214455 0.036502965 0.0068753883 -0.03459666
0.049734205 0.023652352 -0.026441261 0.011369899 -0.02254963 -0.030939028 -0.016014978 0.039679967
-0.0071549565 0.060693987 0.04398019 -0.049817026 -0.016767405 -0.05583307 -0.03907331 0.0011061877
0.045192778 0.042509556 -0.011483289 0.046782516 -0.0042891502 0.03934066 -0.014273666 -0.0074308068
-0.056585565 -0.035660908 0.035035163 0.005124718 -0.056823835 0.055798396 -0.03946849 -0.04655771
-0.052775957 -0.012269549 -0.019150548 0.055869788 0.055780992 0.027610198 -0.008321866 -0.009963013
0.010748573 0.02470275 -0.007325664 0.0215834 0.016507052 0.04009416 0.034587592 -0.05423297
-0.004316449 0.058916792 -0.009412453 0.03880997 0.050439022 -0.0076823384 -0.037682302 0.028287016
-0.04693652 -0.019500911 0.059309445 0.008393906 -0.01727891 -0.01688677 -0.02190777 0.039465018
-0.0012506247 -0.038157173 -0.04564619 0.021433003 -0.03479042 -0.02681908 0.0009082332 0.001756385
-0.001091294 -0.0028188303 0.037707813 0.050192274 -0.052269176 0.014518626 0.040964685 0.03714958
0.0379685 0.0393169 -0.030850723 -0.043148167 0.053548038 0.022428133 0.046326585 0.020195432
0.049072035 0.054545715 -0.056982495 -0.058452882 0.03955841 0.047591172 0.02225209 0.028870218
0.050453536 -0.03552001 -0.009490646 0.03761246 0.01492814 0.045957685 0.04205487 0.01687526
-0.04768811 0.030069955 0.048177242 0.0115066245 -0.032349452 0.011104427 -0.028735265 0.024144843
0.012942128 -0.046176173 -0.045405194 0.028813764 0.054473527 0.028458104 0.030011237 0.04572054
-0.0047972053 0.0045804456 -0.036923103 0.009557277 0.05054325 -0.010572493 0.051236026 -0.050590172
0.0020554438 -0.010729231 0.026651949 -0.058831543 -0.036359586 -0.04581573 -0.04849857 0.051097445
-0.035642296 0.03894981 -0.011411205 -0.00752718 0.05966986 -0.052481726 -0.062001072 -0.0077232867
0.046886772 0.04569213 -0.015445113 -0.052190207 0.04644288 -0.016112298 0.037478924 -0.027780518
-0.022999503 -0.061741993 0.05868885 -0.040596552 -0.029711865 -0.04159467 -0.029281609 0.054027982
-0.051602706 0.046384074 0.048306927 0.0071656555 -0.03873054 0.03396949 0.013214819 -0.013717443
00000000: 8040 c8bb 2c5e 983c 009c 513d 7057 6fbc
00000010: 5a1c 5dbd dc4d e03c 5667 01bd 34c0 53bd
00000020: 82cb 4bbd 784b b43c 5271 0cbd 88d4 0cbc
00000030: d80a 003c ccad 283d ae80 183d 60f4 c0bc
00000040: 2c89 3b3d 9c33 7abd fc66 123d 1463 f9bc
00000050: 8246 2f3d 787a 043d b083 d9bc 4849 18bd
00000060: 904e be3c dca8 053d 4e3f 7cbd 1875 7ebc
00000070: e850 29bc 2a93 55bd 6846 2a3d fcdb b7bc
00000080: 001e 5abb 90c8 d83b 62be 533d 8e7b 273d
00000090: 90b4 b93b f673 54bd 725b 5f3d 40e5 4e3d
000000a0: 5235 71bd 5a30 4e3d 8c37 f2bc 046f d1bc
000000b0: 90ab aa3c a48e c0bc c054 f9bc 7e34 6f3d
000000c0: 50c4 98bc ac60 933c 4c74 0bbd 10a7 c23b
000000d0: f8ed 23bd e02c 5cbd 842d a93c 2661 08bd
000000e0: 58c8 0d3d ecfc 9dbc 2e5c 353d 6093 4fbb
000000f0: 4021 69bc 68c6 ca3c e02b 2cbc 2613 083d
00000100: 0271 763d a8a2 68bc f846 333d f065 a43c
00000110: 40b0 e73c cc7c 4a3d ec9f 6abd 74a7 7c3d
00000120: f058 513c c0ab 613d ccf1 bdbc 409a bc3c
00000130: 98bc 6f3d 56fd 733d 6444 09bd a857 46bc
00000140: 749f 603d 6038 093c 00bd caba 5403 b2bc
00000150: acad 4dbd 2284 153d f04a e13b 3ab5 0dbd
00000160: 18b6 4b3d 94c2 c13c 589b d8bc d048 3a3c
00000170: 00ba b8bc d873 fdbc d831 83bc 7687 223d
00000180: 2074 eabb 429a 783d 9224 343d f00c 4cbd
00000190: cc5b 89bc 38b1 64bd 560b 20bd 80fd 903a
000001a0: 101c 393d 801e 2e3d 6824 3cbc 069f 3f3d
000001b0: 008c 8cbb ac23 213d 18dc 69bc 207e f3bb
000001c0: 44c6 67bd 2c11 12bd 0881 0f3d 40ed a73b
000001d0: 1cc0 68bd dc8c 643d b6a9 21bd 4cb3 3ebd
000001e0: 9a2b 58bd 3806 49bc 9ce1 9cbc b8d7 643d
000001f0: 9c7a 643d c82e e23c 7058 08bc e83b 23bc
00000200: c81a 303c 6c5d ca3c 200c f0bb accf b03c
00000210: cc39 873c c639 243d b8ab 0d3d 6423 5ebd
00000220: 0071 8dbb bc52 713d b036 1abc 34f7 1e3d
00000230: 2699 4e3d 20bc fbbb c258 1abd 2cba e73c
00000240: 8240 40bd 60c0 9fbc 76ee 723d 9886 093c
00000250: 808c 8dbc 2056 8abc ec77 b3bc 12a6 213d
00000260: 00ec a3ba b24a 1cbd 80f7 3abd 4494 af3c
00000270: 6680 0ebd b0b3 dbbc 8016 6e3a 8036 e63a
00000280: c009 8fba 20bc 38bb 8273 1a3d 6a96 4d3d
00000290: 3418 56bd 88df 6d3c 96ca 273d 282a 183d
000002a0: dc84 1b3d c20a 213d a8ba fcbc 22bc 30bd
000002b0: 3055 5b3d 34bb b73c f2c0 3d3d e470 a53c
000002c0: c2ff 483d 546b 5f3d 7a66 69bd 4a6c 6fbd
000002d0: 0008 223d f6ee 423d 044a b63c 3c81 ec3c
000002e0: 5ea8 4e3d 6e7d 11bd a87e 1bbc 860f 1a3d
000002f0: 2895 743c 203e 3c3d ba41 2c3d fc3d 8a3c
00000300: 9c54 43bd 4455 f63c 8055 453d 4886 3c3c
00000310: dc80 04bd 58ef 353c 3866 ebbc 68cb c53c
00000320: 380b 543c 3a23 3dbd ccfa 39bd d80a ec3c
00000330: a21f 5f3d f820 e93c 20da f53c 7645 3b3d
00000340: e031 9dbb 9017 963b ae3c 17bd 2096 1c3c
00000350: 7006 4f3d 4038 2dbc dedc 513d a437 4fbd
00000360: a0b4 063b a8c9 2fbc 3055 da3c 58f9 70bd
00000370: caed 14bd 46a9 3bbd 70a6 46bd 8e4b 513d
00000380: a8fd 11bd d689 1f3d 10f6 3abc 90a6 f6bb
00000390: 6268 743d 14f7 56bd d6f4 7dbd a013 fdbb
000003a0: 580c 403d ac27 3b3d 800d 7dbc 66c5 55bd
000003b0: e43a 3e3d f0fd 83bc 8083 193d f893 e3bc
000003c0: 7469 bcbc 2ce5 7cbd b863 703d 9248 26bd
000003d0: 4c66 f3bc 2c5f 2abd fcdf efbc 724c 5d3d
000003e0: 5c5d 53bd 3afd 3d3d 7cdd 453d e0cd ea3b
000003f0: eaa3 1ebd 9823 0b3d f882 583c 20bf 60bc
