MAI2A_TreasureFinder/agent_1_model.pth (torch, 848959 bytes, 30 tensors)

env_model.conv1.weight f4 [32, 14, 3, 3]
00000000: 5c50 d4bd fc19 aebc cd84 b93d 5b77 6dbe
00000010: 8b5c 163d 4907 f93c 299c 9f3d effa 2d3e
00000020: fdb5 5e3d d660 433d 2325 ec3c f229 593c
00000030: 17ff 7cbc c748 f13b a973 84bc e219 9ebc
00000040: 3cca d5bb 33a7 d93d 5a48 7f3c d827 e9bc
00000050: 4e25 8dbd 476f 72bd f28a 86bd da36 343d
00000060: 2136 183e 134e a13d 649b 453a 8c28 febb
00000070: 23b8 ddb7 a245 84bd c715 c43d 540e 0a3d
00000080: ec62 afbd b302 183e 15e1 87bd 642b 013e
00000090: 1c7f 8fbe 4d1e c0bd 94c3 7d3d 5694 a33c
000000a0: d82d debd 346d 5dbd 3af5 2dbd 186f 263d
000000b0: 569c 4c3e 8361 6e3d 02a0 1fbe eea9 bdbc
000000c0: 2931 06bd c2d9 bcbd 9feb 473d f266 4c3c
000000d0: f6ba 9d3d b24d 1ebe 4b7c 803d 5c01 46be
000000e0: 616c ebbd 3f45 103b d2a6 04be 9ab3 bebd
000000f0: b1e8 033d d640 0cbe 92a8 d5bd fc56 07bd
00000100: 2c8a 543b 0ff9 21bd 084f 073e 1e08 c23d
00000110: e6e2 583d 5d11 ca3c 2a46 42bd 60ec b3bd
00000120: daad 8bbd d32e 203d 454d 30bb c91c 363d
00000130: 202f e9bc 870e 793c 367a 723c 54bc 3dbd
00000140: 375c d2bb 23ba 9e3d 16b9 293d 95cd b13d
00000150: 9076 e13d 22be a43d 9ce9 1c3e 73b8 85bb
00000160: 214f 343d 7b07 0b3b 4eb3 193e 8a5a d03d
00000170: 403f 613d 81db 2abd 9c6d 063e d17a 0f3e
00000180: be03 823c ca28 bc3d 4bb6 5b3d fd03 ed3c
00000190: 3d16 003e 8a7f 96bc 6aef b93d b544 693d
000001a0: 8c96 a93d 16c2 48be d79e 8abc ba68 463d
000001b0: a263 413e 41f7 143e 07b0 5f3d 19da af3d
000001c0: 0128 1c3e f06b cc3d 1f99 3e3e c97b 563e
000001d0: 4677 313e bef7 56be 340a c5bd 40af 92bc
000001e0: 292e cdbd 4d95 51bd 2a40 99bd 35d9 c4bc
000001f0: e664 a7bd f66f d6bc de17 a1bd 8fc8 5ebc
00000200: c8ba a83c eb75 cf3c 5118 2cbc c8ee 253d
00000210: 01ff 4b3d a1ca aa3d aeea 083e 3ad8 b7bd
00000220: b9f6 993d 7e6b f5bd 4cda 863d 7040 b7bb
00000230: dc65 80bb 0928 3e3d 7981 edbc 3d26 89bd
00000240: 8c5e f0bc eec2 9f3d 3fa1 43bd 438a 8ebd
00000250: 766a de3c 7283 713d 4ceb aabd 37fd ce3c
00000260: f735 7e3d 576c 07bf 67d6 873e 44da 813d
00000270: 2a9b 3bbd c716 203e 967e 66bc a366 063e
00000280: 1be6 823d 9cff 8f3d 2ba0 9bbe c47a 01bd
00000290: 3828 8cbd b40b cebd 3273 f83c 9559 1c3d
000002a0: e691 1ebe bf32 533d 8308 30bd d9b8 d9be
000002b0: d9b6 09be 97d4 a7be 999a 7abb 4a0f 83bc
000002c0: 8a54 47bd 52da 863c 748b e0bd 6155 f6bd
000002d0: b6e8 c9be b5a8 c33d c7fc b83c 7cfb fabc
000002e0: 3425 dbbd c56a 04bd ea8b ebbc 6e30 ddbc
000002f0: 457c e3bc abb0 06bf 2e72 11be 6206 00be
00000300: b194 453e 9b50 a43d 2fbf c93d df80 b13d
00000310: df96 08bd 0cb6 4fbd c471 e7bc 8d11 72bd
00000320: 1384 c7bb 3204 d4bc 6e0a f2bc c4b6 d1bc
00000330: 03d4 cf3c 6b1b 02bd e76c ac3c 2b9e 63be
00000340: a361 32bd c7bd 87bd b07a 923c bd64 c23d
00000350: f79b 733d 6311 8a3d 6cb7 87bc 7c77 0cbb
00000360: 4172 16bc 708c 1bbe 11d4 b4bd 81c5 de3a
00000370: 34fa 133c 66e8 883d 54a7 3e3d 36bd ed3a
00000380: 8c54 0cbe ca9a bcbe 9de5 b5bd a9c9 13bd
00000390: e0f1 e03c af60 843c 6d0a 383d b2df d4bb
000003a0: e1aa f0bc 2a54 aebd 4879 6fbe 650c a73d
000003b0: a120 dc3c 080f ce3d f6ff 0b3e 3b03 ec3d
000003c0: 5e5c b33d 27f4 f43d e5de 553e f640 1dbe
000003d0: c450 c6ba 61d9 b3bd 0386 cbbd 4089 c1bd
000003e0: 1e53 243d 1089 62bd ab86 b13c f829 b6bc
000003f0: 1bb4 f13b fb25 623b 488b 6f3d 023f 11bc
-0.1036689 -0.021252625 0.09058533 -0.23190062 0.03670935 0.030398982 0.07793457 0.16990255
0.054372776 0.04769977 0.028826302 0.013254629 -0.0154416775 0.007363412 -0.016168432 -0.019299451
-0.0065243524 0.10627594 0.015581215 -0.028461382 -0.06891881 -0.059188154 -0.065694705 0.043997623
0.14864399 0.078762196 0.00075381086 -0.0077562984 -2.6430998e-05 -0.06458594 0.09574466 0.03370507
-0.0856379 0.1484478 -0.06634728 0.12614208 -0.28026664 -0.093807794 0.061954096 0.019968193
-0.10848588 -0.054059222 -0.042470194 0.04063329 0.19981512 0.058198463 -0.15588382 -0.023152318
-0.032761727 -0.092212215 0.04880869 0.012475716 0.077016756 -0.15459326 0.06273707 -0.19336456
-0.11495281 0.002201393 -0.12954262 -0.093116 0.032204334 -0.13696608 -0.10432543 -0.03304194
0.003243099 -0.03954416 0.13213742 0.094742045 0.052950762 0.024666483 -0.047430195 -0.08785319
-0.06820269 0.039107155 -0.0026901525 0.044461045 -0.028464854 0.0152012175 0.014799645 -0.04632218
-0.0064196843 0.077503465 0.041436277 0.0868179 0.11008942 0.080440775 0.1532349 -0.004080826
0.044020776 0.0021214176 0.15009806 0.10173519 0.05499196 -0.04171324 0.1312775 0.14011694
0.015870925 0.091874674 0.053640645 0.028932566 0.12508483 -0.018371362 0.09078868 0.05695029
0.08280668 -0.19605288 -0.016921444 0.04843972 0.18885663 0.14547445 0.054611232 0.08586521
0.15249635 0.09981525 0.18613099 0.20945658 0.17330655 -0.20992944 -0.09621087 -0.017905831
-0.1001857 -0.051167775 -0.074829414 -0.024029354 -0.08173542 -0.026176434 -0.078658804 -0.013597622
0.020596877 0.025324782 -0.010503844 0.040510923 0.049803738 0.0833943 0.13370773 -0.08976789
0.07517762 -0.11983393 0.065846056 -0.0055923983 -0.0039183926 0.0464249 -0.028992401 -0.066967465
-0.029341958 0.07800852 -0.047761198 -0.06959965 0.027150374 0.058963247 -0.083456606 0.025267227
0.062063184 -0.5289969 0.26530764 0.06340459 -0.045802273 0.15633689 -0.014068266 0.1312509
0.063915454 0.070311755 -0.30395636 -0.03161122 -0.068436086 -0.10060826 0.030328367 0.03817137
-0.15485343 0.051562067 -0.042976867 -0.4252384 -0.13448657 -0.3277938 -0.003823912 -0.015998501
-0.048664607 0.016461525 -0.109640986 -0.120280035 -0.39435357 0.09553663 0.022581471 -0.030637495
-0.10700455 -0.032328386 -0.02875324 -0.027000632 -0.027769217 -0.52613324 -0.14203712 -0.12502435
0.19295003 0.08023187 0.098509185 0.08667158 -0.033347007 -0.050710723 -0.02825249 -0.05909877
-0.0060887425 -0.025880907 -0.029545989 -0.025599845 0.02536965 -0.03176443 0.021048022 -0.22228305
-0.043550145 -0.06627994 0.017880768 0.094918706 0.05947491 0.067415975 -0.016566955 -0.0021433523
-0.009182514 -0.15190291 -0.08829511 0.0016996117 0.009031821 0.066849515 0.046546295 0.0018138054
-0.13704127 -0.36836845 -0.08881686 -0.03608099 0.027459085 0.016159384 0.044931818 -0.006496393
-0.029378356 -0.08512147 -0.23386109 0.08156661 0.026871027 0.10061461 0.1367186 0.11524054
0.08757852 0.11960631 0.20885809 -0.15356812 -0.0015130271 -0.08781696 -0.0993767 -0.094500065
0.04011833 -0.055306494 0.02167066 -0.02223681 0.0073762066 0.0034507501 0.05848244 -0.00886512

env_model.conv1.bias f4 [32]
00000000: 64a0 303c 71dc 5bbc 3abe 2abc 8a57 64be
00000010: 5bae bc3d ce7f 0dbc 5e5f 8ebc 1523 7e3d
00000020: 4fb2 a53b 785b 94bb d763 d0bc 3e6c d6bd
00000030: 3354 a9bb e324 9ebc a0d6 b43c 744e 3abd
00000040: 5617 f7bb eef5 223d 8211 8c3d e47c 533b
00000050: f057 f53b 0e53 93bd 141a 92bd 8053 3ebe
00000060: fe43 9a3c 05a2 ee3d 2574 fa3c f251 df3c
00000070: a3be cd3d 8f05 b1bd db1e 3f3e 4eab 2d3c
0.010780428 -0.013419257 -0.01042133 -0.22299019 0.09212943 -0.008636428 -0.017379459 0.062045176
0.0050566564 -0.0045275055 -0.025438232 -0.10469864 -0.005167508 -0.019304698 0.022074997 -0.045484975
-0.0075406237 0.039785318 0.06839277 0.0032270486 0.0074872896 -0.07193576 -0.0713388 -0.1858654
0.01883125 0.116519965 0.03057296 0.027260754 0.10046127 -0.08643638 0.18664114 0.010599924

env_model.conv2_state1.weight f4 [3, 32, 3, 3]
00000000: 2578 763d f961 373d 433f 97bc 8360 4f3d
00000010: 731d 3c3d 8e00 dbbd d942 11be 8e8f 9ebc
00000020: 8cc1 d93c b414 1ebb 6b2c 563d 9055 703d
00000030: 867d a83d 121d a9bc e609 f8bd 4cc8 003f
00000040: 1f91 8b3e fb2e 913e c77b c43d 7572 d03d
00000050: 0d1c 0b3d 6d13 db3a 42fb 83bd 5a47 a1bd
00000060: cdaf 96bd ed2b edbd e414 f7bd e438 c23f
00000070: 45a3 bf3f 5051 bb3f 38a2 063e 4021 9e3e
00000080: 836a 0e3f 5cd5 d4be f41c dabe e590 6ebe
00000090: c4e8 933d 86fa 2fbd 111d d2bd d466 f13d
000000a0: 4842 17bd beed c3bd 23ef 3c3e 29e4 1b3e
000000b0: 8764 d93d e56f 903d 55d8 3d3d df2d 4a3d
000000c0: 45eb 82bd cfcb 2cbd 1e1a ecbc 0286 27bf
000000d0: 6d87 12bf dec5 7cbe a272 a13c d55c c43c
000000e0: fa68 89bc a932 1fbe 33a3 dbbd 91e6 d6bd
000000f0: aee2 e0be e526 e0be 642a aebe 4c17 673d
00000100: 8fcc 083d b4e4 c9bb 09e8 c53d d7dd 473e
00000110: 1067 4e3e 601c 6c3a c995 4a3d 65cd 0d3e
00000120: b518 06bc df4e a1bc 2ce5 43bd 5535 833d
00000130: 0b58 653d df70 5d3c 1ecc 863a 1a08 38bc
00000140: 8bfa cfbd 16bc 4537 26ae 353c c4f3 85bd
00000150: 7566 383d 63f0 623d 20a4 633d 92c0 bdbd
00000160: ad69 1b3d 280b 3d3e d827 093c 23b2 2c3d
00000170: 3c7b 953d 3141 e0bc 287f 39bc 9fa3 64bd
00000180: 65cf cb3d 0079 90bd a61e acbe 1f77 04be
00000190: 92e2 1bbe c5c0 26be 1b4d 493f a204 153f
000001a0: c9f3 c13e 3c79 813f b6e3 373f ca5e 9c3e
000001b0: 1608 003d d64b e03c 2113 d23c 2b56 3bba
000001c0: 4a75 a93d b473 0f3e 31fd abbd 3ae4 2cbd
000001d0: d869 02bd 20f5 873d 4703 aabc 44d0 9b3c
000001e0: 5551 a13d e018 1f3d 339b d5bd 9dcc 033e
000001f0: 1610 503d 98ce ff3c 8f3a 0ebd cce0 00bd
00000200: 24bd f2bc 914b b33c a6dd 52bb 1350 07bd
00000210: c19b 803e 62f2 2e3e cedf cc3d 4f38 533c
00000220: 83e4 1abc 5bdb c93d 7617 993d 5923 903a
00000230: e9f7 ffbd 6762 debc 3db6 acbd 7909 febd
00000240: 2b99 383d 43e0 babc c6dd 45bd cbed 483e
00000250: b481 c13d b134 033e eb67 2dbe ed69 2ebe
00000260: d174 cbbd 7f35 6a3d 2a6e 103d 7564 973c
00000270: e7f1 3abd c4a5 a5bd 57c7 09be 17de 0c3d
00000280: d0ae ec3c a31b dc3d dbc2 993d c6a0 c93b
00000290: 45be 96bb 19cb 36bc abbd 1bbd ef3a 09be
000002a0: 9493 05bd acef afbd d366 1fbe 625e 923d
000002b0: f703 753d 4987 073d e5e8 da3d 206f 053e
000002c0: 589a 523c 4ccc 0dbd d25e 4abe b3db 21be
000002d0: 0b6a 87bc b2b7 b43d ac86 843d df2a 6dbd
000002e0: e1c6 bebd 4265 17be 1960 49be 4f4b 6f3d
000002f0: 9220 243e 5882 2abd 8f72 72bc de4c 44bc
00000300: 08b1 5c3e 5dc0 763d 99f0 2b3d d5c4 673e
00000310: 1328 623e 8883 1c3e 0fda e13c 6212 8e3d
00000320: 18ca f23c 218c b33d 99bf 063d 984a e93c
00000330: 6749 08be 491a 1fbe 1a80 8fbd 9d80 6cbd
00000340: ca82 fcbd b29a 53bd 5391 d0bc 8e3d 44be
00000350: 13ce 74be 15b0 d93d 5f8e fabc 16ba bdbd
00000360: 031c bcbd 33e2 98bd 5fd3 53bd 43e3 2dbe
00000370: 526c 4bbe a214 59be 9384 42bd 965d d33c
00000380: e8b6 853c d954 c2bb ab8f bcbc f389 4ebd
00000390: 3689 1a3e 23ce 263e 3438 0d3e 060a 0e3f
000003a0: bb3c bc3e 7db0 913c 0337 873d 52de de3d
000003b0: 885e 1e3d 207e c4bd c8b4 043c cd25 e43c
000003c0: 584f 99bd 08b3 debc 6141 dcbd 1e35 403d
000003d0: 852b b9bc ed5c 0a3d 75df 423e 4dfa c33b
000003e0: 4c0b 85bd 718f d23d ddbd 6a3d 4729 083e
000003f0: 0c52 e8bc 7538 d6bc 4f37 93bd 985e a3bc
0.060173173 0.04477117 -0.018462783 0.05062915 0.045926522 -0.10693465 -0.14185657 -0.019355562
0.026581548 -0.0024121227 0.052288454 0.05867535 0.08227067 -0.020643745 -0.12111263 0.5030563
0.27259156 0.28356156 0.09593921 0.10178081 0.0339623 0.0016714163 -0.06444408 -0.07874937
-0.0735775 -0.11580644 -0.120645314 1.5173612 1.4971701 1.463419 0.13147819 0.30884743
0.55631274 -0.4156903 -0.42600214 -0.2329746 0.07222131 -0.042963527 -0.1025945 0.11787191
-0.036928445 -0.0956683 0.18450598 0.15223755 0.10614877 0.07052592 0.04634889 0.049360152
-0.0639253 -0.042186555 -0.028821047 -0.65438855 -0.57237893 -0.24684855 0.019707981 0.023970047
-0.01677369 -0.15546669 -0.10724487 -0.10493196 -0.43922943 -0.43779674 -0.34016716 0.056418702
0.033398207 -0.0061612967 0.09663398 0.19518219 0.20156503 0.0009006914 0.049459253 0.13847883
-0.008184602 -0.019690929 -0.047825977 0.06406657 0.055992167 0.01351568 0.001028422 -0.0112324
-0.10155209 1.1785907e-05 0.0110888835 -0.06540635 0.045019586 0.055405032 0.055576444 -0.092652455
0.037942577 0.18461287 0.008371316 0.042162072 0.07298896 -0.027374836 -0.01132182 -0.055820104
0.09951667 -0.07054329 -0.33617133 -0.12936066 -0.15223148 -0.16284473 0.7863328 0.58210194
0.37881306 1.0115123 0.71831834 0.30541068 0.03125771 0.027379911 0.025643887 -0.0007146324
0.08274324 0.14008981 -0.08397902 -0.04220984 -0.03183922 0.06638551 -0.020753516 0.019020207
0.07876841 0.038842082 -0.104299925 0.12871023 0.05079659 0.031226441 -0.034723815 -0.031464383
-0.029631205 0.021886619 -0.003217557 -0.03303535 0.2511883 0.17084649 0.10003625 0.012891843
-0.0094538955 0.09856292 0.07475178 0.0010996863 -0.12498457 -0.027146531 -0.08433197 -0.124041505
0.045067947 -0.022812014 -0.048307203 0.19621961 0.09448567 0.12813069 -0.16934173 -0.17032595
-0.0993439 0.057179924 0.03526131 0.018480519 -0.045640852 -0.08088258 -0.13454948 0.03439149
0.02889195 0.10747459 0.07507869 0.006153199 -0.0046003186 -0.011156821 -0.03802268 -0.13401388
-0.032611445 -0.08590636 -0.15566568 0.07146908 0.059818234 0.033088002 0.10688952 0.13030672
0.012854181 -0.03461866 -0.19762734 -0.15806465 -0.016530057 0.088240996 0.06470999 -0.057902213
-0.09315277 -0.1478472 -0.19665565 0.05842143 0.1602805 -0.04162821 -0.014797821 -0.011981217
0.21551907 0.060242046 0.0419775 0.22633679 0.220856 0.1528455 0.027569799 0.069371
0.029637381 0.08766962 0.032897566 0.028477952 -0.13309251 -0.1553737 -0.07006855 -0.057739843
-0.123296335 -0.0516612 -0.025459921 -0.19164106 -0.23906736 0.10629288 -0.030585466 -0.09264009
-0.0918503 -0.07465019 -0.05171525 -0.16981225 -0.1986554 -0.21199277 -0.047489714 0.025801461
0.016322568 -0.005930525 -0.023017725 -0.050424527 0.15091404 0.16289572 0.13790971 0.55484045
0.36765084 0.017784351 0.066022895 0.10882248 0.03866437 -0.09594369 0.008099742 0.027850056
-0.07485837 -0.027184978 -0.107546575 0.046925656 -0.02260376 0.033780027 0.19030555 0.005980766
-0.06496295 0.102812655 0.057309974 0.13296996 -0.028359435 -0.026149968 -0.07188284 -0.019942567

env_model.conv2_state1.bias f4 [3]
00000000: f3d0 99bb e8d0 4ebc 305e da3b
-0.004694098 -0.012623049 0.00666406

env_model.conv2_state2.weight f4 [3, 32, 3, 3]
00000000: 81a0 03bb 0b5b d13b 756f 48bc 5254 2bbb
00000010: 5bb9 113c 97ff f1b9 f7b3 bd3b 94ff b23a
00000020: 8dd8 033d da3c 053c b0be 593b 80c0 023d
00000030: 285a b33a ba74 33bb 78e6 30bb 1177 08b8
00000040: ee73 23bc e31e 2fbb f5a8 1b3c b0df 3dbc
00000050: 2ba9 9c3d 6670 14ba 21a4 6dbb 4711 0fbc
00000060: efb0 383b 164a 92ba 0936 893b d360 173f
00000070: 496f eb3e 3359 1d3e b3d1 4e3b f528 27bc
00000080: 0a77 8b40 d78f 193c a1d8 45bb ed98 fb3b
00000090: 6ef0 5abb a839 0a3d 926c d4bb a73e e83a
000000a0: ad7e 75bb aaf7 7aba a802 79bb cc13 3cbc
000000b0: 0238 1e3c ea8b b13a 20ee de3b 1444 803c
000000c0: 558c 173a 523e ae3a 8109 553c c72c cf3a
000000d0: e767 e73a 4120 90ba 1a74 22bc 7da3 7a3c
000000e0: ebc7 0dbd 6198 47bb febc 6cb9 dbdb 963c
000000f0: 503b 923b 8ff8 783b 3755 a3b7 6dbb c6bb
00000100: ad14 df3a ad3b 5dbc ed30 823c abf0 663a
00000110: 9b05 883b a54b b0bb 5370 20bc e626 19bb
00000120: 6383 edbb 75e4 f1ba cf4e 4e3b 309b 253b
00000130: 28be e7ba 59aa 3bba ab76 d2bb 436e 183c
00000140: a0da 5bbb d6cb c6bb 4cb9 81bc 94be e43c
00000150: ef58 b4ba 424e ca39 d777 393c 1669 073b
00000160: 0ec1 98ba 6fb1 c23b 659f 52bc 1629 ceba
00000170: 812c 32bb a542 cbba 4b17 323c 0320 94bb
00000180: d4db f43b 4a82 14bb 6a8e 43bc 0d7e f93c
00000190: 1887 48bc 2718 8dbb a6fe be40 5947 173f
000001a0: 2e34 9c3f 40c1 073b 971a 22bb 205f 8a3e
000001b0: 6f95 bfbc e225 353b e13b a43b 0862 a1b9
000001c0: f6dd 3abc b728 c83a a8d2 cb3b e968 05bc
000001d0: a036 0f3b 6fd7 6d3c 7f5e a5bb f885 b83c
000001e0: 4c97 d43b 84bd 91ba 1a2c ecbb 3037 27ba
000001f0: 1376 d83b 96d1 883b 2148 44bc 7d81 bbbb
00000200: 9a46 c33b 0188 07bc 1da8 f53b 0d17 cbbb
00000210: 1af4 ebbb 830d 3cbb ec81 f8bb a673 623c
00000220: e998 1c3c b0cd 363c c288 3fbb 2526 8f3c
00000230: 85b6 03bb c2a1 9d3b 1df0 8c3c 7a17 6fbb
00000240: b6a5 ed3e b5aa 9d3d 69f3 7fbb b042 c2b9
00000250: bda2 1440 0904 8d3d d1dd 5a3b 9161 bbba
00000260: cf44 d9bb f430 983a e3c2 caba 362f c4bc
00000270: c1fc adbb e610 963a 42ff 313c 0673 1a3c
00000280: 57ff 40bb 602f b1bb fc82 fa39 25f0 1b3b
00000290: 1f8e 5fbc d010 873c 0067 813c c1f2 8dbb
000002a0: 29c9 a73b 7575 c13c 3521 423b 67f4 d9bb
000002b0: 8d3e 8d3d 7265 4a3d 2826 1bbb 2a1c c03a
000002c0: b735 793d 6601 85bb 0ec5 e339 9c9e 7abb
000002d0: 8006 6fbc 13d2 b53b 936f 1a3c dea7 83ba
000002e0: f125 16bc e439 0dbc e676 16bb f115 143b
000002f0: 717a 25bc 83d3 b83a e02f 94ba f746 3441
00000300: 70ce d4b9 017e d4b9 a1fa d6b9 c0c7 2a3d
00000310: fc0f 7abc 56c2 b13e 6da6 e8ba d66c 2c3c
00000320: 1703 463c 51da 433b 757d 503c 2c69 033a
00000330: 66b1 043b 822a c53a 24da c8bb 1e41 d8bc
00000340: adad f03b ad2f 853d cab9 8dbd 2ddf 9940
00000350: 5fb0 da3f ed95 c6bc 6f10 ce3b fdbb e9bb
00000360: 52cc c2bb 2b36 26bb 1c67 903f ac7e 803b
00000370: cd9b 12bc 60ce 1fba 417b 4d3b 598e 4ebd
00000380: 88ba 5c3c 6eff c939 60d8 803b 74bf 8dbc
00000390: e76f 3dbc b397 6a3c d3b5 5fbb 498d 1f3d
000003a0: 03e6 243d ff04 a83d 85b6 90bb 7ace a0bb
000003b0: 8a65 92bc 4d13 623b 2bf8 543b e10d 8c3b
000003c0: 2181 acba 1689 2c3d 56a0 313c 8aec b43a
000003d0: 814f a1bb a5d8 e640 e64b 30bb 06e3 a53b
000003e0: f1df 39bb 1d94 a2bb bdc1 40bc 2af2 04bb
000003f0: f86c ea3c 9d4c a03c e8de ec3a 7816 63bb
-0.0020084681 0.006389027 -0.012233605 -0.0026142788 0.00889429 -0.0004615753 0.0057892757 0.001365649
0.03218894 0.008132184 0.003322523 0.031921864 0.0013683485 -0.0027382807 -0.0026992839 -3.2535816e-05
-0.00997637 -0.002672129 0.009500732 -0.011588976 0.07649454 -0.00056625006 -0.0036261159 -0.008732147
0.0028181633 -0.0011160995 0.0041873497 0.5913212 0.4598334 0.15366058 0.0031558096 -0.010202636
4.358281 0.009372673 -0.0030188935 0.0076781423 -0.0033407467 0.03374639 -0.006482669 0.0017718867
-0.0037459538 -0.0009573648 -0.0037995968 -0.011479329 0.009656908 0.0013545726 0.006803289 0.015657462
0.0005781104 0.0013293719 0.013002754 0.0015806191 0.0017654867 -0.001099594 -0.009915376 0.015297768
-0.034614485 -0.0030455815 -0.00022577119 0.018415382 0.004462637 0.003798995 -1.9470795e-05 -0.0060648234
0.0017019712 -0.013502997 0.01589247 0.0008809666 0.004151059 -0.0053801113 -0.009792405 -0.0023369133
-0.0072483285 -0.0018454926 0.003148008 0.00252695 -0.0017680572 -0.00071588677 -0.0064228377 0.009303632
-0.0033547059 -0.0060667796 -0.015835427 0.027922906 -0.0013759414 0.0003858675 0.011320076 0.0020662001
-0.0011654214 0.005941562 -0.012855385 -0.0015728797 -0.002718717 -0.0015507533 0.010869811 -0.0045204177
0.0074724946 -0.0022660666 -0.01193581 0.030455614 -0.01223924 -0.0043058577 5.968585 0.5909324
1.2203424 0.0020714551 -0.0024735087 0.270257 -0.023386685 0.0027640988 0.005012021 -0.00030781352
-0.011405459 0.0015270923 0.0062201805 -0.008142688 0.0021852627 0.014516695 -0.005046665 0.022524819
0.0064877626 -0.0011119102 -0.0072074058 -0.0006378768 0.0066058724 0.004175375 -0.0119800875 -0.0057222233
0.005959344 -0.008272172 0.0074968473 -0.006197816 -0.00720073 -0.0028694577 -0.0075838473 0.013821518
0.009557941 0.011157438 -0.00292258 0.017474243 -0.0020097804 0.004810543 0.017204339 -0.00364825
0.4641549 0.076985754 -0.0039054996 -0.0003705225 2.3224328 0.06885535 0.0033396373 -0.0014296045
-0.006630517 0.0011611269 -0.0015469458 -0.023948293 -0.0053096716 0.0011449128 0.010864081 0.009426838
-0.002944907 -0.005407259 0.00047781307 0.002379426 -0.013644724 0.016487509 0.015796185 -0.004331917
0.0051204157 0.023615578 0.0029621844 -0.0066514495 0.06896696 0.049413152 -0.0023673866 0.0014656831
0.060842242 -0.0040590046 0.0004344363 -0.0038241511 -0.014588952 0.0055487244 0.009426015 -0.0010044535
-0.009164319 -0.008619759 -0.0022959053 0.0022596086 -0.010099993 0.0014101121 -0.0011305772 11.267325
-0.000405896 -0.0004052967 -0.00041003994 0.041694403 -0.0152626 0.3471858 -0.0017749794 0.010523995
0.012085698 0.0029884765 0.012725224 0.0005012925 0.002024734 0.0015042576 -0.00612952 -0.026398238
0.0073449225 0.06503234 -0.06920202 4.808493 1.7085074 -0.024241412 0.00628858 -0.0071330057
-0.005944767 -0.0025361876 1.1281466 0.0039213505 -0.008948279 -0.0006096121 0.0031353983 -0.050428722
0.013472207 0.00038528017 0.003932044 -0.017303206 -0.011562324 0.0143183945 -0.0034135475 0.0389531
0.04025842 0.08204078 -0.0044162893 -0.0049074264 -0.017870683 0.0034496367 0.0032496552 0.0042741154
-0.0013161042 0.042122923 0.01084145 0.0013803404 -0.0049228077 7.213946 -0.0026900708 0.0050624637
-0.002836224 -0.004961504 -0.011764941 -0.0020285943 0.028616413 0.019567782 0.0018071802 -0.0034650844

env_model.conv2_state2.bias f4 [3]
00000000: 64d5 6739 5227 37b9 7e99 3ab8
0.00022109371 -0.00017466888 -4.4488806e-05

imagination.0.weight f4 [256, 3]
00000000: ccbd 733e 26a7 dfbe 7062 f23d 4cfb 703e
00000010: 0c20 e6be e0ae 09bd 1e43 80be 782c df3e
00000020: f87f 0ebe 1847 c3bd 905f 323e 66ec 9a3e
00000030: 9a0e aa3e c8a1 e33e 6c3a 0d3f aca6 4e3e
00000040: 20d5 043e f8e9 873d e048 22bd 1cb9 493e
00000050: 1c5c d93e e05a 583e 6e5d 0dbf f2e4 23be
00000060: dfa0 bbbe c82a a03e 10ba 303d 1ce3 b2be
00000070: c02c 9c3d d603 e3be af38 0dbf da28 9f3e
00000080: 503b 7d3d d0d8 b0be 3422 9d3e fcef 173e
00000090: 6846 da3d 50b4 79bd 00ee 1d3e 50fb 40bd
000000a0: 9169 e7be 6c18 7b3e b850 bf3d b089 f33e
000000b0: 8018 57bd cc95 313e f977 9cbe fc7c 133f
000000c0: a37e a1be de04 113f a98e 04bf 7029 de3e
000000d0: 6874 f9be 457c 12bf 1080 32be 639d 07bf
000000e0: a0fb 0bbf a0a2 96bc 349a e43e 053e fbbe
000000f0: 0623 9e3e 573e abbe 877c 89be eacc 0cbf
00000100: 30e9 70be 3cc6 dbbe beda 2ebe 1c85 fb3e
00000110: 3311 b8be d21b 943e e80e b7be ecf4 013f
00000120: f8dd 86bd d0dc 883d 3067 09be 3ae4 0dbe
00000130: 7078 5b3e c09f 0abe 6076 fc3e 8684 c63e
00000140: 63d9 ecbe 1296 28be a2af 09be 5c9b 87be
00000150: afde e1be 67d5 f0be a808 c7be 4846 1c3e
00000160: f267 85be 4c09 273e ac8a 773e 361a 11be
00000170: 24a5 123e de88 853e e46a b4be 1c23 e73e
00000180: 806e 3d3e c232 d4be 2f1f ebbe 1863 b63e
00000190: a00f 413d b014 9b3e ccec 393e 8c89 e4be
000001a0: 7070 eebe ca65 43be 4339 c5be 003f a63b
000001b0: dcfa a4be d0ee 193e 84b3 9a3e f761 abbe
000001c0: dd8f 93be 0472 aa3e f0a0 19bd db19 12bf
000001d0: a46e 3d3e 004d e33d 8252 07bf f5c9 01bf
000001e0: e604 98be 20cd 0c3e 287a 213e b017 bdbe
000001f0: 301d 823d a8a5 dd3d 9e97 833e 0662 e4be
00000200: 80dc 8bbc 583c d4bd 2809 3dbe b84a e93e
00000210: c073 3bbe 303f 713e f02a afbd e8fb f83e
00000220: a51b 9dbe 2033 18bd 06fe 993e 1666 f4be
00000230: 688a e03e 6fdc d0be 5408 42be 1eab 37be
00000240: a8e9 97be 18e0 8dbe d998 05bf 58bd bcbe
00000250: 803f a83b 543d fc3e 8943 dcbe c06f fc3e
00000260: e28f 0b3f fa58 3dbe e838 f3be a460 fc3e
00000270: 4098 a3bc cc57 313e b697 febe f0f3 813d
00000280: e8ab 053e e477 7bbe e02f 383e 4e39 10bf
00000290: 889e 5e3e b0d0 013d 14ce 213e 1c36 f53e
000002a0: 180e 9d3e f036 f23e f884 2cbe d230 e5be
000002b0: ca7c 06be 64f9 113f ecfb 183e 00bf c03e
000002c0: 38dd a13d 190e edbe 5a28 9b3e 3c97 e13e
000002d0: 7a72 8abe 9609 af3e 08cb 033f 23eb e6be
000002e0: 08a5 bb3e 7439 003f d207 003f 009a de3c
000002f0: a8c8 cdbd bc21 f6be 106c 333e 7254 09be
00000300: 8e41 8e3e 50e5 4a3d 9cd9 ca3e 8407 9d3e
00000310: 8cad 953e 8446 413e 5628 eabe 633c e3be
00000320: 34a0 10bf 7286 00bf 72a3 c33e bc1b fa3e
00000330: 90ae 063f b8a6 56be 28e7 d83d 3673 dabe
00000340: e0bc a3bc 47e0 9dbe 5c9b 77be 0872 a8bd
00000350: 84d2 c8bd a09e 873d 2ddb a2be 22b8 e8be
00000360: f853 363e d044 60bd 2a80 44be b63c 19be
00000370: 8c98 99be 00d6 8ebb 1025 533d 9362 a3be
00000380: 98f4 9fbe b1ea bcbe 4ea1 50be 004e ecbe
00000390: 6457 f03e 408a f93d d275 b83e 405f 2e3c
000003a0: 4830 c2bd b9ca 10bf ec4e 863e f460 ccbd
000003b0: 5c15 8c3e 5231 42be a0cd cc3d 6a0a 063f
000003c0: b015 4ebd de07 843e 5481 8c3e 6cad 313e
000003d0: e660 053f 9396 f4be 0069 013c 046e 913e
000003e0: 80b4 dcbc b8ce 9f3d 0a84 9fbe cc0a ff3e
000003f0: 885e 743e e824 053f a818 f53e 8c4f bebe
0.2380287 -0.43682212 0.11835182 0.23533362 -0.44946325 -0.03361404 -0.25051206 0.43588614
-0.13916004 -0.095350444 0.17419267 0.30258483 0.33214265 0.44459367 0.5516727 0.20180768
0.12971926 0.06636423 -0.03962028 0.1969952 0.42453086 0.21128416 -0.5522069 -0.16005304
-0.36646172 0.3128264 0.043146193 -0.34938896 0.07625723 -0.44338864 -0.5516462 0.31085855
0.061824143 -0.34540415 0.30690157 0.1483764 0.1065796 -0.060962975 0.15422821 -0.04711467
-0.45197728 0.24521035 0.09341568 0.47565985 -0.0525136 0.17342299 -0.30560282 0.57612586
-0.3154193 0.5664805 -0.5178018 0.4339099 -0.48721623 -0.5722087 -0.17431664 -0.5297453
-0.54680824 -0.018388093 0.44648898 -0.49070755 0.30886096 -0.33446 -0.2685282 -0.55000174
-0.23526454 -0.42924678 -0.17075631 0.49124992 -0.35950622 0.28927475 -0.3575356 0.50764346
-0.06585306 0.06682742 -0.13418269 -0.13856593 0.21432662 -0.13537502 0.49309063 0.38772982
-0.46259603 -0.16463497 -0.13445905 -0.26485717 -0.44115207 -0.47037813 -0.38873792 0.15261185
-0.26055866 0.1631214 0.24173993 -0.14170155 0.14320809 0.26080984 -0.352378 0.45143974
0.18499184 -0.41444975 -0.4592223 0.35622478 0.04713404 0.3028922 0.18156737 -0.4463619
-0.46570158 -0.19081798 -0.3852025 0.005073428 -0.3222264 0.15032506 0.30215085 -0.3347318
-0.28820696 0.33290112 -0.037506998 -0.570707 0.18499237 0.11098671 -0.5286027 -0.50698787
-0.29691237 0.13750124 0.15769255 -0.36932135 0.06353223 0.10822612 0.25701612 -0.44606036
-0.017072916 -0.10363072 -0.18460524 0.45564818 -0.18305874 0.2355926 -0.085531116 0.4862969
-0.30685154 -0.03715813 0.30076617 -0.47734135 0.43855596 -0.40793177 -0.1894849 -0.1793637
-0.29670453 -0.27710032 -0.5218635 -0.36863208 0.005134523 0.4926554 -0.43020275 0.49304008
0.5451642 -0.18490973 -0.47504354 0.4929248 -0.01997006 0.17318648 -0.4972512 0.063453555
0.13053858 -0.24557453 0.17987013 -0.5633744 0.21740162 0.03169316 0.15801269 0.47892845
0.30674815 0.4730754 -0.16847599 -0.4476381 -0.13133541 0.57021165 0.1493985 0.3764572
0.07903522 -0.46299818 0.30304223 0.44060695 -0.27040464 0.34187 0.51481676 -0.4510127
0.36649346 0.50087667 0.5001193 0.027173042 -0.10048038 -0.48072612 0.17521691 -0.1341112
0.2778439 0.049535096 0.39619148 0.30669796 0.29233968 0.18874556 -0.457339 -0.4438201
-0.5649445 -0.5020515 0.38210636 0.48849285 0.5261011 -0.20962036 0.105909646 -0.42666024
-0.019987524 -0.30835173 -0.24180359 -0.08224875 -0.09805778 0.06622052 -0.31807843 -0.45452982
0.17805469 -0.054753125 -0.19189516 -0.14964566 -0.29999197 -0.004359007 0.051549017 -0.31911144
-0.31241298 -0.36897805 -0.20374033 -0.4615326 0.46941674 0.12184572 0.3602739 0.010642827
-0.09481865 -0.5655933 0.26232088 -0.0997943 0.27360046 -0.18964127 0.10000157 0.5235964
-0.05031365 0.25787252 0.2744242 0.17351311 0.5210098 -0.4777113 0.007898569 0.28404248
-0.026941538 0.078031 -0.31155425 0.49812925 0.23864186 0.5200944 0.47870374 -0.37170064

imagination.0.bias f4 [256]
00000000: f8ea a7bd aac4 803e 4684 a93e 268d f4be
00000010: a139 c2be 4884 303e e20a 133f c445 913e
00000020: d88c aa3d b0cf 9f3d 3ad2 88be 88c5 083f
00000030: 34c8 86be 54f3 8a3e 6a7e 0d3f 5632 fdbe
00000040: 483a 793e 7eac d43e 7649 8b3e d281 113f
00000050: 58be 583e 2815 1d3e b21c 9c3e ace9 8b3e
00000060: 806e 0d3e d43a dc3e 7477 e03e 4e7b 01bf
00000070: a08d b83e 3b7b c1be c4ee 62be 18a1 d4be
00000080: dada 113f cbd9 9ebe 98dc ea3d 063b 083f
00000090: 508c ccbe 061b 0e3f 8c1e 09bf 7c02 91be
000000a0: 0627 893e f365 82be 5490 243e ebc3 bbbe
000000b0: 7e85 0e3f 300e 3dbe 22b6 123f 8a88 a33e
000000c0: a011 383e a9a5 f9be 80c8 c3bd b027 663d
000000d0: d693 07bf b85e c23d a4a7 f93e 806c f73b
000000e0: 96eb 74be 9cff 9ebe 0027 363d a47d be3e
000000f0: 2685 c9be 2c7a 08be 04c9 cdbd d0f9 38bd
00000100: a0fb ca3e 600c 9cbd 0055 02be faae f3be
00000110: 4c5e 023e 4017 593d b07b 00bf 701b 03bd
00000120: 0052 d7be 22a9 57be a81b 8c3d 2e8b 8b3e
00000130: 0016 b73b 7c10 0e3f f431 e13e 18e4 bc3e
00000140: ecb9 13bf 243b d43e a892 bdbd f0a4 0cbd
00000150: 9aee 5abe 62da 8b3e 0f59 99be c8e2 a3be
00000160: 0052 403b 33ca 10bf f273 07bf 9920 94be
00000170: 0c22 753e 401e 8bbc 1868 843d 3022 7dbe
00000180: 58ca a63d 6aca 4abe b017 b33e 00f6 4cbb
00000190: 2a45 42be 745e b13e abb3 85be 8cbf 603e
000001a0: 061a b53e a0b9 b8bc 00b7 3cbd 3c82 bb3e
000001b0: 7ef5 42be 643a e13e f0a6 203d bc79 1abe
000001c0: 9834 f83e 2285 c0be e8fd a23e 069a 093f
000001d0: 0aaa 73be 9cd1 0d3e cb20 12bf 834a 93be
000001e0: 001a e1ba 0886 fb3e 27b3 11bf b89a 1f3e
000001f0: 7206 abbe ba70 77be 3c6f b5be 0050 89bb
00000200: c225 cc3e c0bd e53c 8ce4 b93e 806c 0f3e
00000210: dc85 153e 08b6 fd3d 1cfc 643e f026 c33d
00000220: 18ce 8c3d f807 083f 2915 0cbf e458 313e
00000230: 9a14 d5be 1cd0 febe 7251 0abf 56ed 0ebe
00000240: e806 603e 08b3 d7be 68e1 163e c5f1 00bf
00000250: c01d 1a3c f263 41be 1c89 333e 1ca7 383e
00000260: f84b 763e 8c3e e6be 282a e93d a07c 393d
00000270: 9caa 033f 12cf d3be 6eab 05bf 08aa 63be
00000280: 5c39 c33e 0691 48be 70f6 563d da7e a23e
00000290: 3874 0c3f f04a 1e3e 88b2 0a3e 7843 063e
000002a0: a0f7 963e d8d9 0b3e d447 b43e 76c9 2fbe
000002b0: 508b 0fbe 48ad 893e 1c8d bc3e b4f5 013f
000002c0: a8d0 2f3e a050 7e3d f41a e2be 6e80 923e
000002d0: 2c11 5bbe 08e3 7d3e 6b52 12bf e127 08bf
000002e0: 16eb d43e 4062 613e 6878 e43e 0cf0 91be
000002f0: 4a3b dabe 4124 e1be be4a a53e dff9 09bf
00000300: ead6 ab3e 40a4 1f3d 039a b7be 1c4f 4b3e
00000310: 12bd 38be 28fe b9be 169e 63be 907b 2abd
00000320: ac45 8c3e 60de 9e3c ecd6 92be 8053 f9bc
00000330: 1e21 ce3e 604a eabc 9219 9e3e 7003 a93e
00000340: 0887 0e3f 4482 e03e e1c9 91be c08e 00bc
00000350: 18e5 a5bd 9ece 083f 586b 9c3d 6846 0f3f
00000360: 3613 053f e0cb 893d fe89 b03e d857 003e
00000370: e237 013f 42a7 08bf d8eb 863d 287c 533e
00000380: 7495 f63e 648d 75be 6ac7 2cbe 0cca 233e
00000390: d027 cabe d045 90bd 64fc be3e d034 ca3d
000003a0: 3c88 453e bba8 8bbe 44b9 df3e b83b 49be
000003b0: 28dc 2e3e a69a c03e 8c5f 323e a81b 503e
000003c0: 7c95 d83e 73ab 02bf a094 49bd 5492 67be
000003d0: 20a0 0d3f f6d6 0cbf 18b7 113f 267d fcbe
000003e0: 70ef c83e 9d80 bdbe e8d2 ef3e 30eb 37be
000003f0: 4061 653e 90d0 873e ca9d 25be 0024 60bd
-0.081991136 0.25150043 0.3310873 -0.47763938 -0.37934592 0.17237961 0.5743848 0.2837354
0.08327645 0.07803285 -0.2672289 0.5342641 -0.26324618 0.2713877 0.5527102 -0.49452466
0.24338639 0.4153785 0.27204484 0.56838715 0.2116636 0.15340102 0.30490643 0.27326715
0.13811684 0.43013632 0.43841136 -0.50578773 0.3604555 -0.3778933 -0.22161394 -0.41529155
0.56974566 -0.31025538 0.11467856 0.5321506 -0.399508 0.55509984 -0.53562236 -0.28322208
0.26787585 -0.25468406 0.16070682 -0.3667291 0.5567244 -0.18462443 0.5730916 0.3194011
0.17975473 -0.487592 -0.09559727 0.056190193 -0.52959955 0.094907224 0.48760712 0.007550776
-0.23917994 -0.3105439 0.044470787 0.3720523 -0.39359397 -0.13327855 -0.10048106 -0.045160115
0.396451 -0.07619548 -0.12727737 -0.47594434 0.12731284 0.05300069 -0.5018873 -0.03200859
-0.4205475 -0.21060613 0.068412125 0.27254623 0.0055873394 0.55493903 0.43983424 0.36892772
-0.5770557 0.4145137 -0.09256488 -0.034336984 -0.21380082 0.2731505 -0.2995076 -0.32008958
0.002934575 -0.5655853 -0.52911294 -0.2893112 0.23938769 -0.016982198 0.06465167 -0.24720073
0.08144063 -0.19803777 0.3497901 -0.0031274557 -0.18971696 0.34642375 -0.26113638 0.2194807
0.35371417 -0.02254945 -0.04607296 0.36622798 -0.1903896 0.4398986 0.039221704 -0.150855
0.48477626 -0.37601572 0.3183434 0.53750646 -0.23795334 0.13849491 -0.5708129 -0.28767785
-0.0017173886 0.49125695 -0.5691399 0.15586364 -0.33403355 -0.24164096 -0.35436428 -0.004190445
0.39872557 0.028044581 0.3630718 0.14006233 0.14601845 0.12388235 0.22361797 0.09528911
0.06875247 0.5313716 -0.5471979 0.17319065 -0.4161728 -0.4976815 -0.54030526 -0.13957724
0.21877635 -0.42128778 0.14734423 -0.5036891 0.009406507 -0.18885782 0.17532772 0.18032497
0.24052417 -0.44969594 0.11384994 0.045284867 0.51432204 -0.4136892 -0.52214706 -0.2223283
0.381297 -0.19586572 0.052481115 0.31737405 0.54864836 0.15458274 0.13544667 0.13111675
0.29485798 0.1365732 0.3521105 -0.17166695 -0.14017987 0.26890016 0.36826408 0.5076554
0.1716944 0.06208861 -0.4416119 0.2861361 -0.2139327 0.24793637 -0.5715701 -0.5318585
0.41585606 0.22010136 0.44623113 -0.28503454 -0.4262336 -0.43972972 0.32283586 -0.538969
0.33562404 0.038975 -0.3585969 0.19854397 -0.18040875 -0.36326718 -0.22228274 -0.041621745
0.27396905 0.019393146 -0.28679597 -0.030435324 0.4025964 -0.028599918 0.30878884 0.33010435
0.5567479 0.43849385 -0.28474334 -0.007846534 -0.08100337 0.5344027 0.07637662 0.55966806
0.5198244 0.06728339 0.3448028 0.1253351 0.50475895 -0.53380215 0.065879524 0.2065283
0.481609 -0.23979717 -0.16872945 0.15995044 -0.394835 -0.07044566 0.37301934 0.098733544
0.1929025 -0.2727717 0.43696034 -0.19651687 0.1707617 0.37617987 0.1741926 0.2032305
0.42301548 -0.5104286 -0.049214005 -0.22614413 0.55322456 -0.55015504 0.56920004 -0.4931423
0.39245176 -0.37012187 0.46840596 -0.1796081 0.22400379 0.26526308 -0.16173473 -0.054721832

imagination.2.weight f4 [256, 256]
00000000: c062 bfbb bad2 74bd 9e57 173d 40c2 bebb
00000010: b8d5 653d 623e 11bd 684e 20bc 9839 9c3c
00000020: 7e80 273d 9674 703d 508d fb3b d858 75bd
00000030: c630 1c3d 3020 a63b f04e ed3b 481c bd3c
00000040: 2283 173d 40af f9ba 08b9 673d 3a73 3b3d
00000050: 3c4b 233d 68e9 fcbc d45e b13c 6cd8 65bd
00000060: 1001 53bd 5844 acbc 587c c63c c415 1abd
00000070: 0003 a7bc 20fe 6dbd 0045 503c 744e fcbc
00000080: 0c75 b63c 9ae8 59bd 4c09 383d 30c4 6dbc
00000090: 50d0 603d e6c4 173d 309e cbbc 70ff e1bc
000000a0: c0c6 45bc 2844 2e3d b81d ad3c 4e74 4b3d
000000b0: 44c6 ee3c 14ce 1fbd 0eb6 643d 3ec6 0fbd
000000c0: 40ec c5ba 5e03 05bd 1814 cc3c 24c2 5e3d
000000d0: 54bc d33c d01f 08bd e023 813c c85e 53bd
000000e0: 9a26 1a3d 9080 083d a864 48bd 3c94 fa3c
000000f0: 6c79 c83c 80af c83a 7c46 d3bc 9c84 aabc
00000100: d49f 443d e20e 393d 12d4 0fbd e8e6 22bc
00000110: 44cd a83c 0423 003d fcae 4b3d 60a0 53bd
00000120: fa9f 553d d8ef 97bc 7857 eb3c a47d 11bd
00000130: d4ff 0c3d 2a6d 16bd 9ec7 7d3d 2015 b0bb
00000140: bcac 2dbd a0e5 b23b 0452 ee3c f049 933b
00000150: 3e0e 22bd 808e 533b aabc 7e3d c835 0ebc
00000160: 92ce 55bd f601 2dbd 62ff 0ebd c002 be3b
00000170: 3884 eb3c 0c29 f4bc 4209 00bd bc2f 81bc
00000180: f8ab 313c bc97 c73c 70e5 403d 6c0b 533d
00000190: 86f4 713d bed7 483d ce48 063d 207f 65bd
000001a0: 28d9 2cbc fee4 39bd 90da bd3b 1a7f 23bd
000001b0: b835 5ebd 84a1 16bd a07c a1bb d47c 5b3d
000001c0: aa65 26bd 30da 35bc 8257 3b3d 9e7d 6a3d
000001d0: 9859 4c3d 2087 523d da53 1e3d 1e78 593d
000001e0: d0a9 ebbb f8ac be3c bec5 133d c071 273c
000001f0: e8d4 473d 0066 2cb9 f0c8 e53c 163f 233d
00000200: 441d ce3c e8ca 353d 1a70 79bd 00cd 82b9
00000210: b45a 033d a46b 33bd 8ce4 a8bc 10c3 11bd
00000220: 40d2 ac3a 50e5 9dbb 40e2 07bb 40c8 713c
00000230: f8e3 57bc a49a e7bc c4c1 9cbc 4816 6dbd
00000240: 80d5 58ba 7083 86bb 38a3 67bc c01f 823b
00000250: d882 083d b438 473d a6c6 283d 9c39 523d
00000260: 3043 c83b aced 9dbc c461 a7bc f02f d13b
00000270: bc44 5b3d 9032 b03b 2620 6dbd ba63 48bd
00000280: 5ed9 59bd b89f 2fbc 96aa 4cbd e4da dbbc
00000290: 84b0 f83c 7cff cd3c 2068 a43c 9008 cfbb
000002a0: 8e41 443d 94a4 213d 90bb aabb fce8 02bd
000002b0: a8ed 18bc 6e12 6ebd 0017 e9b9 9e8e 29bd
000002c0: 24dd 5b3d 2cc6 41bd f49b a33c 06fb 4a3d
000002d0: 58a4 d03c ac04 06bd 5c3c fa3c 64e5 fdbc
000002e0: 0637 1dbd 98e8 53bc 46da 133d c280 023d
000002f0: d4f7 063d a0c0 c3bb c8a1 94bc b890 0ebd
00000300: 50be 78bc 8a94 40bd 420e 723d 344e 5e3d
00000310: 68df 103c e0dc 5dbb 601b 9a3c 0485 ae3c
00000320: b09e 033c 2c94 713d 200b b83c 2caa 7c3d
00000330: badb 39bd b08f f43b 0a88 41bd 7c77 f23c
00000340: 82e9 28bd 363e 78bd 6078 50bb 88f7 22bc
00000350: 2601 27bd 8086 d83c 4846 2bbc 9c92 cb3c
00000360: 1cbd 073d 30d4 eabc acb2 103d 2ce5 debc
00000370: 2063 253b d4a7 51bd 8054 133a acf1 e6bc
00000380: 489c 3a3c 1c0f a9bc d899 6dbd 6c42 3f3d
00000390: 4a2c 25bd 7084 623d 5c2b 053d ea14 22bd
000003a0: dc45 293d b860 9cbc 40cf 46bc 08cd 79bc
000003b0: 36f0 113d 4026 8eba 5660 203d f855 073c
000003c0: f8c7 23bc 0027 19bc e881 9fbc d696 593d
000003d0: 86d3 32bd b8ba 393d 404a 2d3b c02f 56bc
000003e0: 5210 0abd 1083 5d3d 602a 103b 0896 0f3c
000003f0: 408a cfbb ccc5 d63c bc96 dc3c 7ef5 503d
-0.0058406293 -0.059771277 0.036948793 -0.0058214962 0.05611202 -0.035459884 -0.0097843185 0.019070432
0.040894024 0.058704935 0.007676758 -0.05989918 0.03813245 0.005069755 0.007242076 0.023084775
0.036990292 -0.0019049421 0.056572944 0.045764185 0.03986667 -0.030873016 0.021651663 -0.0561146
-0.051514685 -0.021028683 0.024229214 -0.037618414 -0.020387173 -0.05810368 0.012711763 -0.030799128
0.02227261 -0.05320034 0.04493074 -0.014512107 0.054886162 0.03705301 -0.024855703 -0.027587622
-0.0120713115 0.042545468 0.021132335 0.049671464 0.029147275 -0.03901489 0.055837683 -0.035101168
-0.0015100315 -0.032473914 0.024911925 0.054384366 0.025846638 -0.033233464 0.015764177 -0.051604062
0.03763447 0.03332573 -0.04892412 0.030588262 0.024471961 0.0015311092 -0.025790446 -0.020815186
0.048003986 0.04518021 -0.035114355 -0.009942748 0.02060569 0.031283394 0.049727425 -0.051666617
0.05215452 -0.018546984 0.028728232 -0.03552021 0.034423664 -0.0367252 0.061957948 -0.005373612
-0.04240106 0.0054595023 0.029091842 0.004494898 -0.039564364 0.0032280982 0.062191643 -0.008679815
-0.052198954 -0.0422382 -0.03491152 0.0057986677 0.02874957 -0.029804729 -0.03125883 -0.015769832
0.010844223 0.024364345 0.04709381 0.051524565 0.059071086 0.049033873 0.032784276 -0.05602944
-0.010549821 -0.0453844 0.005793877 -0.039916135 -0.05425045 -0.036775127 -0.0049281865 0.053585842
-0.0406243 -0.011099383 0.04573775 0.057248704 0.04989013 0.051398396 0.038654186 0.05309307
-0.007191874 0.023275837 0.036077254 0.010219991 0.048787028 -0.00016441196 0.028049916 0.039855085
0.02516044 0.04438296 -0.060897924 -0.0002494827 0.032068923 -0.043803826 -0.020616792 -0.035586417
0.0013185218 -0.004818596 -0.002073422 0.014757216 -0.013176911 -0.02827198 -0.019135363 -0.057882577
-0.000827156 -0.004105024 -0.0141380355 0.00397107 0.033327907 0.04863806 0.04120507 0.05132447
0.006111525 -0.01927837 -0.02043236 0.0063838884 0.053532347 0.0053771213 -0.057891987 -0.04892323
-0.053185813 -0.010719232 -0.04996737 -0.026837774 0.030357607 0.025146239 0.020069182 -0.0063181594
0.04791408 0.039463595 -0.0052103475 -0.031960472 -0.009334005 -0.058123045 -0.0004445836 -0.041395776
0.053677693 -0.047308132 0.019971825 0.0495558 0.02546899 -0.0327193 0.03054636 -0.030993171
-0.038382553 -0.012933873 0.036096834 0.031861074 0.03295119 -0.0059738904 -0.01814355 -0.034805983
-0.015182093 -0.047016658 0.05909563 0.0542738 0.008842327 -0.0033853576 0.018811882 0.021303661
0.0080334395 0.0589792 0.022466242 0.061685726 -0.045375563 0.007463418 -0.047248878 0.02959799
-0.041238315 -0.060606204 -0.003181003 -0.009946711 -0.04077258 0.026431322 -0.010453768 0.024850182
0.033139333 -0.028665632 0.035326645 -0.027208887 0.0025236085 -0.051185444 0.00056201965 -0.02819141
0.011389799 -0.020637088 -0.058008045 0.046694204 -0.04032544 0.055302083 0.032512054 -0.039570726
0.04132639 -0.019089088 -0.012134373 -0.015246637 0.035629474 -0.001084514 0.039154373 0.008260243
-0.009996407 -0.009347677 -0.019471124 0.053122364 -0.043658756 0.045344085 0.0026441962 -0.013072908
-0.03370697 0.05408007 0.0021997914 0.008763798 -0.0063336194 0.026217364 0.026927345 0.05101537

imagination.2.bias f4 [256]
00000000: d001 1f3d 8884 1cbc e23c 0f3d 0860 9f3c
00000010: 74c9 193d 2c88 e13c 0c75 a5bc 80fa 793a
00000020: 4cdb 193d 4cc3 12bd d095 823b f01a 263c
00000030: f435 053d 1406 d9bc 84e2 6d3d 1e3b 72bd
00000040: 68a5 4bbd 00ed 5bba ec63 453d 987f 32bc
00000050: 90cd 23bd fab4 393d 2ab2 443d acdf fabc
00000060: 6c04 0e3d 92f6 283d 489f 253c 88c4 803c
00000070: 80aa de3c f2c7 013d 988b 853c 2834 893c
00000080: 0e24 72bd 0040 13b7 38af 22bd d038 863c
00000090: eab4 073d a497 143d a8de 2e3c 48cc 433c
000000a0: 8a82 7f3d c044 f03c 8ed8 783d 780d 59bc
000000b0: 4c91 d5bc 54ef 233d c4ce d9bc 7406 69bd
000000c0: 08d9 29bc e8eb e03c 6e45 48bd 00d4 fdba
000000d0: b65f 693d 1a7a 2cbd 809f 7f3b 209e f8bb
000000e0: 1cfa 143d d85e 02bc 422d 66bd c066 60bc
000000f0: 9cf2 1e3d a8f7 b33c 6ecb 75bd 44ea cfbc
00000100: 6c6b dbbc 38c2 d13c bca9 f73c b298 13bd
00000110: ee76 173d 1651 603d 88ef 723c 6e93 2b3d
00000120: d4dd 543d 00c3 cfbc 264b 703d b4d6 f73c
00000130: 3452 643d 80b3 343d e6dd 24bd b69f 62bd
00000140: d082 e23c 348c 163d 86a3 4cbd 8061 a3bc
00000150: 009b ad39 c035 863b 2438 8c3c 9ec1 043d
00000160: 00b5 a73b f82b 40bc 5c1d f8bc 00bb ecbc
00000170: 9896 2f3c f0e1 1fbd 7423 d63c 80fa 26bd
00000180: d060 db3c 12ca 763d a06d 713d c615 2abd
00000190: acf2 2d3d 940d debc da42 4bbd faf6 193d
000001a0: d04e c03b 709d c33b 18ed 59bc c8e5 173c
000001b0: 18c1 51bc fcaa 983c 0c16 453d 2447 b7bc
000001c0: d279 03bd 96eb 473d c618 793d d416 783d
000001d0: b6ee 7cbd 083a 51bd 3a2d 353d 7299 783d
000001e0: d6c3 64bd 70ab d5bc 6a2f 4dbd 9820 4ebc
000001f0: c455 5bbd 404b 0bbd d221 6bbd 4cce d2bc
00000200: 6c6c 293d 4077 79bb 0082 7f3c 405c 6f3c
00000210: 48ed 7fbc f850 943c 44b4 4dbd aa93 713d
00000220: 18ce 77bc a2c2 6bbd 500a 883c bc8d 27bd
00000230: a0cb 60bd b0d1 abbb 14ac bc3c 7c1b 17bd
00000240: ec1b 333d 202f 5ebd 3220 473d 764d 59bd
00000250: ce76 5e3d 8866 d73c 7a4a 4ebd 4092 d8ba
00000260: f880 f73c e22c 4bbd 58a6 6ebd d852 22bc
00000270: d685 30bd 42ab 3c3d b0c7 6b3d b0c1 113c
00000280: 702f b63b 284c 093d 1807 1fbd b0af 7abc
00000290: 6264 253d 6e84 203d 3cf2 46bd e251 6cbd
000002a0: 305c aabc 8c40 2ebd 0ae4 65bd 40b4 e43a
000002b0: ec25 f63c 9c67 17bd 9a5e 253d 38f6 353d
000002c0: 585a 93bc 4a49 4f3d 50a9 6cbd 3ad2 4e3d
000002d0: 38f8 f9bc d0c3 2dbc 0061 923c e6b9 613d
000002e0: d0ba 613c ca36 673d 4493 adbc c8bf 32bc
000002f0: 80b0 23bd f8d8 23bd a04e 533b 962c 5cbd
00000300: 8854 403c d48a 27bd 006d 1dba 709a 8fbc
00000310: 14c1 37bd 7ce1 3e3d 98aa 6d3d f8d4 7f3d
00000320: 0869 74bd 0c1d a03c f0f7 2e3d 8624 0abd
00000330: 54b2 693d 0889 ecbc e0f7 5dbb d802 e43c
00000340: 7ccf ed3c ce22 313d 0c72 b93c a648 52bd
00000350: c834 3bbd e48e a43c 00bf f83b 1c27 363d
00000360: a0ed db3c 8494 92bc 385c 4bbc 4835 163c
00000370: e076 73bb 182c b93c 52f8 67bd 704b ecbc
00000380: a0b9 f4bb a0f9 68bb 488d 1f3d 822a 3ebd
00000390: 76ac 6dbd c4cf 7b3d 5c9d 6cbd 1a2b 6a3d
000003a0: 8491 71bd 06a0 2c3d 9ec6 2fbd a0e3 1bbb
000003b0: 7060 0cbd c2a3 273d 04ef 2cbd aee5 263d
000003c0: 5828 2d3d 7c74 a23c 3444 e3bc 4cb2 ebbc
000003d0: 96a4 6c3d 3ccb 373d 4404 59bd 1234 2cbd
000003e0: 4653 343d 6a78 3fbd 101c b2bb 1e63 773d
000003f0: 5ecb 3c3d b874 a43c 28fa a6bc 8cca bdbc
0.038820088 -0.009553082 0.03497017 0.019454971 0.037545636 0.027530752 -0.020197414 0.00095359236
0.037562653 -0.03583078 0.003985144 0.010138258 0.032522157 -0.026492156 0.05807735 -0.05913841
-0.04971829 -0.0008389503 0.048190996 -0.0108946785 -0.03999096 0.04533861 0.048021473 -0.030624233
0.034672186 0.041250773 0.010108776 0.015718713 0.02718091 0.031684823 0.016301915 0.016748503
-0.059116416 -8.776784e-06 -0.039717883 0.016384512 0.033131517 0.03627743 0.010673203 0.01195056
0.06238035 0.029329658 0.060753398 -0.01324784 -0.02607026 0.040023163 -0.026587851 -0.05689092
-0.010366686 0.027456239 -0.04889434 -0.0019365549 0.056976043 -0.042108633 0.0039004982 -0.0075872093
0.036371335 -0.007957183 -0.056195505 -0.0136963725 0.03880559 0.021968678 -0.06000846 -0.025380261
-0.026784621 0.025605306 0.030232303 -0.036034293 0.036978655 0.05476483 0.0148276165 0.041888647
0.051969364 -0.025361538 0.058665417 0.030253746 0.055742458 0.044116497 -0.04025068 -0.055328093
0.027650267 0.036754802 -0.049960636 -0.019943953 0.00033112615 0.004095763 0.017116614 0.03241121
0.0051180124 -0.011729233 -0.030287437 -0.028897762 0.010717057 -0.03903383 0.026139952 -0.04076624
0.026779562 0.060251303 0.058942437 -0.04152467 0.042467758 -0.027106084 -0.0496243 0.03758905
0.00586877 0.0059696957 -0.013301156 0.009271093 -0.012802385 0.01863622 0.04811673 -0.02237279
-0.0320986 0.048808657 0.06081464 0.060568646 -0.06175109 -0.051080734 0.044232585 0.06069321
-0.055850826 -0.026082724 -0.050094046 -0.012581013 -0.05354859 -0.03400731 -0.0574053 -0.025733136
0.041363165 -0.0038065463 0.015594959 0.014609396 -0.015620537 0.018105015 -0.050220743 0.058978714
-0.01512482 -0.057558663 0.01660648 -0.040906653 -0.054881692 -0.0052435026 0.023031272 -0.036891446
0.0437278 -0.05424416 0.04861469 -0.053052388 0.05431252 0.026294008 -0.050363995 -0.0016523078
0.030212864 -0.04960335 -0.058264107 -0.009907447 -0.043096386 0.04606176 0.057563484 0.008896276
0.005559854 0.033519894 -0.038825125 -0.015300676 0.040378936 0.039188795 -0.048570856 -0.057695277
-0.020795912 -0.042542025 -0.056125678 0.0017448738 0.03004738 -0.036964044 0.040373422 0.044424266
-0.017987415 0.050607003 -0.057778656 0.050493456 -0.030513868 -0.010605767 0.017868519 0.055108927
0.01377745 0.056448735 -0.021188386 -0.010909982 -0.039963245 -0.04000184 0.003224291 -0.053753458
0.011738904 -0.04090388 -0.0006005317 -0.017529696 -0.044861868 0.046601757 0.05802402 0.062458962
-0.059670478 0.0195451 0.04271692 -0.033726238 0.057054833 -0.028873935 -0.003386967 0.027833387
0.0290296 0.043246083 0.02263739 -0.051338814 -0.045704633 0.020087667 0.0075911283 0.04447089
0.026846707 -0.017893083 -0.012412123 0.009167977 -0.0037149712 0.022604033 -0.0566333 -0.028844565
-0.0074684173 -0.0035549179 0.038953096 -0.046427257 -0.0580258 0.061477438 -0.057767257 0.05717001
-0.058976665 0.042144798 -0.042914025 -0.0023786798 -0.034271657 0.040927656 -0.04222013 0.040746383
0.042274803 0.019830935 -0.027742483 -0.028771542 0.05777415 0.044871554 -0.052982584 -0.042041846
0.04402473 -0.046745695 -0.005435474 0.06039726 0.046092384 0.020075187 -0.020382956 -0.023167871
