MAI2A_TreasureFinder/agent_1_model.pth (torch, 848959 bytes, 30 tensors)

env_model.conv1.weight f4 [32, 14, 3, 3]
-0.048941985 -0.09853393 0.01014092 -0.052905254 -0.018875558 -0.00054659706 0.02260776 0.11373069
0.003540085 0.14555497 -0.08806932 -0.19928873 0.14790586 -0.03524669 0.10901568 0.064945914
-0.084876604 0.13898095 0.017525222 -0.05531764 -0.1809947 0.04554241 0.0974694 -0.041695595
-0.0058493316 0.051524688 -0.039170947 -0.33765128 -0.050933573 0.0070297867 0.17268503 -0.30078816
0.29800728 1.0311078 -0.29875982 0.6288215 0.032843444 -0.052904412 0.15116693 0.38912266
-0.35199428 -0.009720644 0.054163527 -0.52432436 -0.63515866 0.24290413 -0.46247867 -0.34149936
-0.08845385 0.056289203 -1.1335431 -0.5915015 -0.20929225 -1.0211064 0.016427105 -0.12297743
-0.16764806 0.02941362 -0.124007896 -0.029546145 -0.08175747 -0.22345434 -0.14220464 -0.11029825
-0.12766694 -0.2089579 -0.028068421 -0.073602736 -0.09346837 -0.038779728 -0.13470428 -0.17441666
-0.07212228 0.03472387 -0.004213896 0.036084987 -0.03682468 0.009673611 0.0010575778 -0.06510689
-0.008249843 0.03706219 -0.06840702 -0.13873787 0.118712395 0.05117982 0.051466733 0.07005035
0.061604906 -0.160678 -0.12098619 -0.17770718 -0.18585178 -0.5044435 -0.3535745 -0.30467784
-0.33413607 -0.27982214 -0.29728308 -0.14715324 -0.0673052 -0.35439137 -0.22876641 -0.2580201
-0.45343316 -0.20657878 -0.22097524 -0.45313478 -0.16368742 -0.19346046 -0.1166384 -0.29794
-0.22213615 -0.10513503 -0.43034992 -0.48622742 -0.25526592 0.17190464 0.054304454 -0.0055004903
0.20704599 0.025095545 -0.15814705 0.22747596 -0.06695559 -0.031120481 0.02847846 0.0036936514
-0.040892072 -0.071301006 0.08157388 0.04163203 -0.10800001 0.10495484 -0.018796906 -0.02721801
0.017843237 -0.065214224 -0.11928046 0.050118063 0.24253984 -0.11012654 0.15657169 0.06546958
-0.008543066 0.026651891 -0.07262303 0.032094862 -0.10820427 -0.22985947 0.00088758953 0.02042711
0.09063344 -0.35205743 -0.13378203 0.1363737 -0.15278107 -0.5500071 0.16924237 -0.42421302
0.18934712 0.115708485 0.5792525 0.2785011 0.050479658 -0.27661952 -0.2415404 -0.10288788
1.0173385 0.842271 -0.44383687 -0.16402052 -0.098135 0.081663944 0.0749194 0.0488111
0.011958126 -0.03768568 0.15649444 -0.44843638 -0.18913312 -0.015082813 -0.1489478 0.0680146
0.13882491 0.16452615 0.10571904 0.23353687 0.17868453 -0.02962595 -0.2305409 -0.18866056
0.124878965 0.11010129 0.4957773 0.13707143 0.22410466 0.5542171 -0.035902936 -0.051597197
0.002526915 -0.031189585 -0.025577486 -0.019162592 0.020336948 -0.02328658 0.03126037 -0.11050605
-0.10908322 -0.15879618 -0.03189412 0.031286072 0.0024209828 0.028230939 0.012232591 0.06720077
-0.2218761 -0.4767524 -0.6108039 -0.14862719 -0.07170604 -0.11651051 -0.17574233 -0.1843808
-0.3598993 -0.26149592 -0.52752656 -0.31397748 -0.36915988 -0.3280417 -0.036058098 -0.41780418
-0.3252938 -0.049906965 -0.1398787 -0.36873809 -0.37731367 -0.08963465 -0.16490833 -0.20871605
-0.18052416 -0.35387143 -0.17423974 0.054982938 0.025423743 -0.027830938 -0.19122624 -0.031888247
0.2148396 -0.0855835 0.26244614 0.34101114 0.19820479 0.16546725 0.029936308 0.032319285
00000000: 6477 48bd 28cc c9bd 1a26 263c 2eb3 58bd
00000010: eaa0 9abc 8249 0fba e933 b93c a3eb e83d
00000020: c500 683b 5d0c 153e b05d b4bd 5812 4cbe
00000030: a274 173e d55e 10bd 9d43 df3d 5d02 853d
00000040: c9d3 adbd 0651 0e3e 0e91 8f3c c094 62bd
00000050: ad56 39be ae8a 3a3d 099e c73d 00c9 2abd
00000060: c0ab bfbb 8d0b 533d b771 20bd a1e0 acbe
00000070: b99f 50bd 205a e63b 58d4 303e e800 9abe
00000080: 6994 983e 57fb 833f 0cf7 98be 72fa 203f
00000090: d986 063d 4cb2 58bd 81cb 1a3e 163b c73e
000000a0: 9838 b4be 5643 1fbc 93da 5d3d 1f3a 06bf
000000b0: c299 22bf dcbb 783e 01ca ecbe 01d9 aebe
000000c0: 4b27 b5bd 828f 663d f117 91bf a46c 17bf
000000d0: b550 56be 9db3 82bf 2392 863c 97db fbbd
000000e0: efab 2bbe d5f4 f03c daf7 fdbd c20a f2bc
000000f0: 7670 a7bd 37d1 64be 189e 11be 0de4 e1bd
00000100: 1fbb 02be 0ff9 55be bfef e5bc 08bd 96bd
00000110: 586c bfbd 7ed7 1ebd ebef 09be 489a 32be
00000120: d9b4 93bd 9e3a 0e3d b914 8abb dacd 133d
00000130: 7ad5 16bd 117e 1e3c 6c9e 8a3a c356 85bd
00000140: 592a 07bc 86ce 173d fb18 8cbd 4d11 0ebe
00000150: 7c1f f33d eea1 513d c8ce 523d 8f76 8f3d
00000160: 6d55 7c3d c688 24be 9cc7 f7bd dff8 35be
00000170: ee4f 3ebe 3623 01bf b807 b5be bcfe 9bbe
00000180: e213 abbe d944 8fbe 7d35 98be 57af 16be
00000190: 4fd7 89bd c972 b5be be41 6abe 361b 84be
000001a0: 6428 e8be 6389 53be 5547 62be 4801 e8be
000001b0: ad9d 27be 801a 46be 1de0 eebd 978b 98be
000001c0: a977 63be 0951 d7bd d356 dcbe cdf2 f8be
000001d0: 37b2 82be c507 303e 596e 5e3d 753d b4bb
000001e0: dd03 543e 2c95 cd3c 4df1 21be 75ef 683e
000001f0: 0320 89bd 61f0 febc a94b e93c 3011 723b
00000200: 727e 27bd 4306 92bd 3510 a73d 5986 2a3d
00000210: 1c2f ddbd 90f2 d63d f8fb 99bc 4ef8 debc
00000220: fb2b 923c 098f 85bd 5049 f4bd 9948 4d3d
00000230: 5d5c 783e 068a e1bd 5454 203e ea14 863d
00000240: 37f8 0bbc 1155 da3c 62bb 94bd e775 033d
00000250: 339a ddbd 4860 6bbe 20ad 683a c156 a73c
00000260: 069e b93d df40 b4be 28fe 08be 8ca5 0b3e
00000270: a472 1cbe 44cd 0cbf df4d 2d3e 7332 d9be
00000280: 36e4 413e 92f8 ec3d e449 143f b297 8e3e
00000290: c2c3 4e3d 13a1 8dbe 5e56 77be e1b6 d2bd
000002a0: 2638 823f 129f 573f 963e e3be fff4 27be
000002b0: 01fb c8bd 6d3f a73d 586f 993d 26ee 473d
000002c0: 04ec 433c 4d5c 1abd 1440 203e 7499 e5be
000002d0: 1dac 41be e71d 77bc c685 18be 3d4b 8b3d
000002e0: 1e28 0e3e 8b79 283e 3983 d83d 4a24 6f3e
000002f0: 14f9 363e 1fb2 f2bc ea12 6cbe 3c30 41be
00000300: 8bc0 ff3d c97c e13d 86d6 fd3e 745c 0c3e
00000310: b17b 653e 2ce1 0d3f f50e 13bd 9557 53bd
00000320: 999a 253b 4d81 ffbc e087 d1bc defa 9cbc
00000330: ac99 a63c 7fc3 bebc e00a 003d ff50 e2bd
00000340: 0667 dfbd 779b 22be 69a3 02bd d325 003d
00000350: 5aa9 1e3b 9244 e73c 356b 483c 8fa0 893d
00000360: 7d33 63be e418 f4be a55d 1cbf ba31 18be
00000370: 9eda 92bd 109d eebd ccf5 33be 52ce 3cbe
00000380: b944 b8be cbe2 85be fb0b 07bf a8c1 a0be
00000390: 8602 bdbe 15f5 a7be a8b1 13bd 6eea d5be
000003a0: e98c a6be 3f6b 4cbd 5d3c 0fbe 3dcb bcbe
000003b0: 422f c1be 5f92 b7bd bbdd 28be a9b9 55be
000003c0: 53db 38be a32e b5be e76b 32be ca35 613d
000003d0: 7445 d03c b5fd e3bc d0d0 43be 409d 02bd
000003e0: e9fe 5b3e 6746 afbd 575f 863e 0399 ae3e
000003f0: 32f6 4a3e 3f70 293e fd3c f53c 3a61 043d

env_model.conv1.bias f4 [32]
-0.24826822 -0.29794684 -0.38320583 -0.44694698 0.18340966 -0.23466106 -0.006306155 -0.0137766525
-0.29493004 -0.18340403 -0.16066365 -0.119179584 -0.26246592 0.28412405 -0.006194156 -0.2865384
-0.0012317582 -0.075927325 0.32461742 0.050087955 -0.18637462 -0.0050365515 -0.27075624 -0.23701607
-0.047248382 -0.1986444 -0.12820256 0.058643177 -0.019132815 -0.14445089 -0.0147416685 -0.13007292
00000000: 063a 7ebe 7d8c 98be 8e33 c4be 3cd6 e4be
00000010: becf 3b3e fd4a 70be dda3 cebb 78b7 61bc
00000020: 1201 97be 44ce 3bbe 0385 24be 6d14 f4bd
00000030: ef61 86be b578 913e 59f8 cabb 29b5 92be
00000040: f272 a1ba c97f 9bbd 4134 a63e 0729 4d3d
00000050: fdd8 3ebe a809 a5bb 90a0 8abe 57b4 72be
00000060: 8587 41bd 7069 4bbe 8847 03be d433 703d
00000070: 6cbc 9cbc efea 13be 0a87 71bc d631 05be

env_model.conv2_state1.weight f4 [3, 32, 3, 3]
0.48519894 0.29765204 0.24361654 0.5482765 -0.12904167 0.021369966 0.28831583 -0.18685204
0.25206158 0.71688366 0.108613335 -0.0087849 0.32619652 0.1408984 -0.17085722 0.5030352
0.189502 0.15659037 -0.2578824 -0.024592992 0.023854328 0.15112492 0.011634471 -0.06956158
-0.055443697 -0.7925474 0.8641164 -0.015355508 0.009365699 0.12834959 0.1078443 -0.17017846
0.035320334 0.024405653 0.050804675 3.2178283 -0.07407969 -0.13656166 0.019159991 -0.09274488
0.023557674 0.008593075 0.64002496 0.27655378 0.17406955 -0.25410143 -0.023256978 0.15051365
0.2937874 0.046946257 0.07828225 0.087395005 0.2984734 0.262726 0.20859154 0.2939713
-0.052594908 0.32133135 0.04169493 -0.111786835 0.51393825 -0.027770223 0.28979075 -0.32086706
0.105791405 0.2107914 -0.14958452 0.1239139 0.37214282 0.008761976 -0.12698793 -0.2037215
-0.62238294 -0.01198354 0.07165065 -0.58631855 -0.10256376 -0.24275436 0.03369377 0.102865174
0.5778356 0.0019580731 0.06923419 -0.080525756 0.35041294 0.18211885 0.07544314 -0.561093
0.28960884 -0.05830148 0.1793403 -0.056584522 0.17539567 0.025626421 0.12195801 -0.14329053
-0.2049923 0.24069169 0.28762707 0.0017710802 0.022635153 0.012764832 0.07213302 0.017274907
0.0047566346 -0.012924835 0.014903246 0.024108492 0.48295856 0.24630547 0.068394735 0.087922186
0.11110897 -0.0820647 0.48191485 -0.030915055 0.3850929 -0.1417712 0.050771274 0.050259136
-0.19918425 -0.13741384 0.16110606 0.626311 0.0972719 0.18760067 0.33384857 0.048582934
-0.0844384 -0.16806671 0.021697976 0.07108142 0.5448228 -0.028794782 -0.01272089 0.16663225
0.22045356 -0.18790531 -0.21134304 0.015448328 0.54479945 0.20551568 0.62146306 -0.7554737
-0.17464514 0.102312885 0.19705579 -0.084327616 0.1758318 0.578442 -0.27800494 -0.2277506
-0.16957478 0.148715 -0.004683185 -0.12770806 0.13686052 -0.044437632 0.26276708 -0.115082614
0.22140074 -0.38735327 0.2095113 -0.006319153 0.059160918 -0.16551034 0.2076515 0.012567066
0.19499542 0.11618161 0.23913473 0.7132773 -0.13302994 0.33364302 0.2722023 0.29537433
-0.04163966 -0.21848606 -0.032091703 -0.011736416 -0.16870554 0.15955135 1.0058124 -0.13809326
-0.0077040144 0.17947914 0.25102627 0.2660303 0.06262371 0.14983596 0.2170879 0.18205167
-0.16651002 -0.041994236 0.22700854 0.4051434 0.33207822 0.14410669 -0.23743209 -0.48300442
-0.014238006 -0.5055552 -0.06396088 -0.0034908005 0.5716348 -0.8990633 -1.0235255 0.16667426
0.5882171 0.3492318 0.6588944 0.13655153 -0.0015577375 -0.5216307 -0.17308617 -0.17662479
-0.0039636833 0.03901389 0.0012536946 -0.0024846604 -0.012240339 0.0855344 -0.002599557 -0.009707166
-0.054436028 0.20874083 -0.92930424 -0.8264936 0.17937885 0.0063725114 -0.031435076 -0.11015682
0.2930595 1.2334986 -0.08556703 0.18001896 -0.3130144 -0.24297003 -0.054799337 0.19377664
0.3790297 0.20871711 -0.19105569 -0.4297096 -0.13057831 0.29770118 0.00042935356 -0.2222411
-0.02724089 0.33905846 0.4265846 0.5849891 0.6195976 -0.14766243 0.5318499 -0.0074611036
00000000: ff6b f83e d965 983e 9d76 793e d95b 0c3f
00000010: 8023 04be 1110 af3c 229e 933e 2456 3fbe
00000020: 370e 813e b085 373f ab70 de3d 8bee 0fbc
00000030: 3b03 a73e ac47 103e 32f5 2ebe eac6 003f
00000040: d00c 423e 3a59 203e 2909 84be 3e77 c9bc
00000050: 276a c33c 7ec0 1a3e 829e 3e3c 4d76 8ebd
00000060: ee18 63bd 63e4 4abf bb36 5d3f ab95 7bbc
00000070: 9772 193c 136e 033e 79dd dc3d 4343 2ebe
00000080: 0eac 103d 5dee c73c 9018 503d e6f0 4d40
00000090: 18b7 97bd d2d6 0bbe 6af5 9c3c 07f1 bdbd
000000a0: 06fc c03c f8c9 0c3c add8 233f 7598 8d3e
000000b0: 4a3f 323e 9519 82be 6b85 bebc 4020 1a3e
000000c0: 4d6b 963e b84a 403d 7252 a03d 27fc b23d
000000d0: 81d1 983e 0684 863e 0599 553e 6883 963e
000000e0: c26d 57bd 8b85 a43e 4ec8 2a3d 7ff0 e4bd
000000f0: 7591 033f 617e e3bc 745f 943e b048 a4be
00000100: 2aa9 d83d b3d9 573e af2c 19be 92c6 fd3d
00000110: 8189 be3e 648e 0f3c 2009 02be 5e9c 50be
00000120: 7d54 1fbf 9c56 44bc 93bd 923d f918 16bf
00000130: f30c d2bd 9994 78be 7b02 0a3d faaa d23d
00000140: 09ed 133f 0453 003b a8ca 8d3d b0ea a4bd
00000150: 5369 b33e 5d7d 3a3e ef81 9a3d caa3 0fbf
00000160: 9c47 943e 88cd 6ebd fca4 373e 2cc5 67bd
00000170: ec9a 333e 80ee d13c 1fc5 f93d c1ba 12be
00000180: 80e9 51be e277 763e db43 933e 9723 e83a
00000190: 5b6d b93c 9623 513c 7aba 933d 1b84 8d3c
000001a0: 8bdd 9b3b b0c2 53bc bf2c 743c 2c7f c53c
000001b0: 5846 f73e 8037 7c3e 8a12 8c3d 8c10 b43d
000001c0: 1a8d e33d 8a11 a8bd 8bbd f63e 9241 fdbc
000001d0: e62a c53e 782c 11be 8af5 4f3d 86dc 4d3d
000001e0: f5f6 4bbe 37b6 0cbe fdf8 243e eb55 203f
000001f0: 7d36 c73d 641a 403e 33ee aa3e e6fe 463d
00000200: 0aee acbd ae19 2cbe f4bf b13c 2393 913d
00000210: 8279 0b3f 09e3 ebbc 486b 50bc a5a1 2a3e
00000220: 94be 613e 406a 40be 4f6a 58be fc1a 7d3c
00000230: fa77 0b3f b472 523e 3418 1f3f b966 41bf
00000240: 2dd6 32be 6b89 d13d fec8 493e f5b3 acbd
00000250: 400d 343e c614 143f aa56 8ebe 7437 69be
00000260: 03a5 2dbe bf48 183e 6775 99bb e7c5 02be
00000270: 2a25 0c3e 3c04 36bd 6889 863e 6fb0 ebbd
00000280: e0b6 623e 2b53 c6be 218a 563e e610 cfbb
00000290: b852 723d 8b7b 29be 98a2 543e 18e6 4d3c
000002a0: e1ac 473e a0f0 ed3d bcdf 743e 5799 363f
000002b0: 0039 08be 42d3 aa3e 1a5e 8b3e 4e3b 973e
000002c0: 598e 2abd cfba 5fbe 9772 03bd 194a 40bc
000002d0: 25c1 2cbe 6e61 233e 76be 803f 5268 0dbe
000002e0: f571 fcbb 61c9 373e 8486 803e 2035 883e
000002f0: dc40 803d 996e 193e 4a4c 5e3e c16b 3a3e
00000300: 9a81 2abe 2602 2cbd ed74 683e f56e cf3e
00000310: 2806 aa3e b490 133e 6621 73be 5b4c f7be
00000320: 8746 69bc 116c 01bf ecfd 82bd eac5 64bb
00000330: a956 123f 0329 66bf e202 83bf a8ac 2a3e
00000340: 6595 163f 83ce b23e 4ead 283f 2ad4 0b3e
00000350: ff2c ccba 9789 05bf 803d 31be 21dd 34be
00000360: c9e1 81bb 07cd 1f3d 0353 a43a afd5 22bb
00000370: b48b 48bc a92c af3d 545d 2abb ce0a 1fbc
00000380: 50f8 5ebd 28c0 553e e2e6 6dbf 1695 53bf
00000390: 17af 373e 80d0 d03b 11c2 00bd e699 e1bd
000003a0: e50b 963e 48e3 9d3f c43d afbd e456 383e
000003b0: 6c43 a0be 23cd 78be 4575 60bd 626d 463e
000003c0: 2e10 c23e f0b9 553e 1aa4 43be e602 dcbe
000003d0: 52b6 05be 4a6c 983e dc1a e139 2c93 63be
000003e0: 4928 dfbc 1299 ad3e 4c69 da3e d8c1 153f
000003f0: f39d 1e3f d234 17be 5127 083f 467c f4bb

env_model.conv2_state1.bias f4 [3]
0.2503203 0.38954347 -0.08479817
00000000: fb29 803e 3e72 c73e aaaa adbd

env_model.conv2_state2.weight f4 [3, 32, 3, 3]
-0.0020084681 0.006389027 -0.012233605 -0.0026142788 0.00889429 -0.0004615753 0.0057892757 0.001365649
0.03218894 0.008132184 0.003322523 0.031921864 0.0013683485 -0.0027382807 -0.0026992839 -3.2535816e-05
-0.00997637 -0.002672129 0.009500732 -0.011588976 0.07649454 -0.00056625006 -0.0036261159 -0.008732147
0.0028181633 -0.0011160995 0.0041873497 0.5913212 0.4598334 0.15366058 0.0031558096 -0.010202636
4.358281 0.009372673 -0.0030188935 0.0076781423 -0.0033407467 0.03374639 -0.006482669 0.0017718867
-0.0037459538 -0.0009573648 -0.0037995968 -0.011479329 0.009656908 0.0013545726 0.006803289 0.015657462
0.0005781104 0.0013293719 0.013002754 0.0015806191 0.0017654867 -0.001099594 -0.009915376 0.015297768
-0.034614485 -0.0030455815 -0.00022577119 0.018415382 0.004462637 0.003798995 -1.9470795e-05 -0.0060648234
0.0017019712 -0.013502997 0.01589247 0.0008809666 0.004151059 -0.0053801113 -0.009792405 -0.0023369133
-0.0072483285 -0.0018454926 0.003148008 0.00252695 -0.0017680572 -0.00071588677 -0.0064228377 0.009303632
-0.0033547059 -0.0060667796 -0.015835427 0.027922906 -0.0013759414 0.0003858675 0.011320076 0.0020662001
-0.0011654214 0.005941562 -0.012855385 -0.0015728797 -0.002718717 -0.0015507533 0.010869811 -0.0045204177
0.0074724946 -0.0022660666 -0.01193581 0.030455614 -0.01223924 -0.0043058577 5.968585 0.5909324
1.2203424 0.0020714551 -0.0024735087 0.270257 -0.023386685 0.0027640988 0.005012021 -0.00030781352
-0.011405459 0.0015270923 0.0062201805 -0.008142688 0.0021852627 0.014516695 -0.005046665 0.022524819
0.0064877626 -0.0011119102 -0.0072074058 -0.0006378768 0.0066058724 0.004175375 -0.0119800875 -0.0057222233
0.005959344 -0.008272172 0.0074968473 -0.006197816 -0.00720073 -0.0028694577 -0.0075838473 0.013821518
0.009557941 0.011157438 -0.00292258 0.017474243 -0.0020097804 0.004810543 0.017204339 -0.00364825
0.4641549 0.076985754 -0.0039054996 -0.0003705225 2.3224328 0.06885535 0.0033396373 -0.0014296045
-0.006630517 0.0011611269 -0.0015469458 -0.023948293 -0.0053096716 0.0011449128 0.010864081 0.009426838
-0.002944907 -0.005407259 0.00047781307 0.002379426 -0.013644724 0.016487509 0.015796185 -0.004331917
0.0051204157 0.023615578 0.0029621844 -0.0066514495 0.06896696 0.049413152 -0.0023673866 0.0014656831
0.060842242 -0.0040590046 0.0004344363 -0.0038241511 -0.014588952 0.0055487244 0.009426015 -0.0010044535
-0.009164319 -0.008619759 -0.0022959053 0.0022596086 -0.010099993 0.0014101121 -0.0011305772 11.267325
-0.000405896 -0.0004052967 -0.00041003994 0.041694403 -0.0152626 0.3471858 -0.0017749794 0.010523995
0.012085698 0.0029884765 0.012725224 0.0005012925 0.002024734 0.0015042576 -0.00612952 -0.026398238
0.0073449225 0.06503234 -0.06920202 4.808493 1.7085074 -0.024241412 0.00628858 -0.0071330057
-0.005944767 -0.0025361876 1.1281466 0.0039213505 -0.008948279 -0.0006096121 0.0031353983 -0.050428722
0.013472207 0.00038528017 0.003932044 -0.017303206 -0.011562324 0.0143183945 -0.0034135475 0.0389531
0.04025842 0.08204078 -0.0044162893 -0.0049074264 -0.017870683 0.0034496367 0.0032496552 0.0042741154
-0.0013161042 0.042122923 0.01084145 0.0013803404 -0.0049228077 7.213946 -0.0026900708 0.0050624637
-0.002836224 -0.004961504 -0.011764941 -0.0020285943 0.028616413 0.019567782 0.0018071802 -0.0034650844
00000000: 81a0 03bb 0b5b d13b 756f 48bc 5254 2bbb
00000010: 5bb9 113c 97ff f1b9 f7b3 bd3b 94ff b23a
00000020: 8dd8 033d da3c 053c b0be 593b 80c0 023d
00000030: 285a b33a ba74 33bb 78e6 30bb 1177 08b8
00000040: ee73 23bc e31e 2fbb f5a8 1b3c b0df 3dbc
00000050: 2ba9 9c3d 6670 14ba 21a4 6dbb 4711 0fbc
00000060: efb0 383b 164a 92ba 0936 893b d360 173f
00000070: 496f eb3e 3359 1d3e b3d1 4e3b f528 27bc
00000080: 0a77 8b40 d78f 193c a1d8 45bb ed98 fb3b
00000090: 6ef0 5abb a839 0a3d 926c d4bb a73e e83a
000000a0: ad7e 75bb aaf7 7aba a802 79bb cc13 3cbc
000000b0: 0238 1e3c ea8b b13a 20ee de3b 1444 803c
000000c0: 558c 173a 523e ae3a 8109 553c c72c cf3a
000000d0: e767 e73a 4120 90ba 1a74 22bc 7da3 7a3c
000000e0: ebc7 0dbd 6198 47bb febc 6cb9 dbdb 963c
000000f0: 503b 923b 8ff8 783b 3755 a3b7 6dbb c6bb
00000100: ad14 df3a ad3b 5dbc ed30 823c abf0 663a
00000110: 9b05 883b a54b b0bb 5370 20bc e626 19bb
00000120: 6383 edbb 75e4 f1ba cf4e 4e3b 309b 253b
00000130: 28be e7ba 59aa 3bba ab76 d2bb 436e 183c
00000140: a0da 5bbb d6cb c6bb 4cb9 81bc 94be e43c
00000150: ef58 b4ba 424e ca39 d777 393c 1669 073b
00000160: 0ec1 98ba 6fb1 c23b 659f 52bc 1629 ceba
00000170: 812c 32bb a542 cbba 4b17 323c 0320 94bb
00000180: d4db f43b 4a82 14bb 6a8e 43bc 0d7e f93c
00000190: 1887 48bc 2718 8dbb a6fe be40 5947 173f
000001a0: 2e34 9c3f 40c1 073b 971a 22bb 205f 8a3e
000001b0: 6f95 bfbc e225 353b e13b a43b 0862 a1b9
000001c0: f6dd 3abc b728 c83a a8d2 cb3b e968 05bc
000001d0: a036 0f3b 6fd7 6d3c 7f5e a5bb f885 b83c
000001e0: 4c97 d43b 84bd 91ba 1a2c ecbb 3037 27ba
000001f0: 1376 d83b 96d1 883b 2148 44bc 7d81 bbbb
00000200: 9a46 c33b 0188 07bc 1da8 f53b 0d17 cbbb
00000210: 1af4 ebbb 830d 3cbb ec81 f8bb a673 623c
00000220: e998 1c3c b0cd 363c c288 3fbb 2526 8f3c
00000230: 85b6 03bb c2a1 9d3b 1df0 8c3c 7a17 6fbb
00000240: b6a5 ed3e b5aa 9d3d 69f3 7fbb b042 c2b9
00000250: bda2 1440 0904 8d3d d1dd 5a3b 9161 bbba
00000260: cf44 d9bb f430 983a e3c2 caba 362f c4bc
00000270: c1fc adbb e610 963a 42ff 313c 0673 1a3c
00000280: 57ff 40bb 602f b1bb fc82 fa39 25f0 1b3b
00000290: 1f8e 5fbc d010 873c 0067 813c c1f2 8dbb
000002a0: 29c9 a73b 7575 c13c 3521 423b 67f4 d9bb
000002b0: 8d3e 8d3d 7265 4a3d 2826 1bbb 2a1c c03a
000002c0: b735 793d 6601 85bb 0ec5 e339 9c9e 7abb
000002d0: 8006 6fbc 13d2 b53b 936f 1a3c dea7 83ba
000002e0: f125 16bc e439 0dbc e676 16bb f115 143b
000002f0: 717a 25bc 83d3 b83a e02f 94ba f746 3441
00000300: 70ce d4b9 017e d4b9 a1fa d6b9 c0c7 2a3d
00000310: fc0f 7abc 56c2 b13e 6da6 e8ba d66c 2c3c
00000320: 1703 463c 51da 433b 757d 503c 2c69 033a
00000330: 66b1 043b 822a c53a 24da c8bb 1e41 d8bc
00000340: adad f03b ad2f 853d cab9 8dbd 2ddf 9940
00000350: 5fb0 da3f ed95 c6bc 6f10 ce3b fdbb e9bb
00000360: 52cc c2bb 2b36 26bb 1c67 903f ac7e 803b
00000370: cd9b 12bc 60ce 1fba 417b 4d3b 598e 4ebd
00000380: 88ba 5c3c 6eff c939 60d8 803b 74bf 8dbc
00000390: e76f 3dbc b397 6a3c d3b5 5fbb 498d 1f3d
000003a0: 03e6 243d ff04 a83d 85b6 90bb 7ace a0bb
000003b0: 8a65 92bc 4d13 623b 2bf8 543b e10d 8c3b
000003c0: 2181 acba 1689 2c3d 56a0 313c 8aec b43a
000003d0: 814f a1bb a5d8 e640 e64b 30bb 06e3 a53b
000003e0: f1df 39bb 1d94 a2bb bdc1 40bc 2af2 04bb
000003f0: f86c ea3c 9d4c a03c e8de ec3a 7816 63bb

env_model.conv2_state2.bias f4 [3]
0.00022109371 -0.00017466888 -4.4488806e-05
00000000: 64d5 6739 5227 37b9 7e99 3ab8

imagination.0.weight f4 [256, 3]
0.052291453 -0.46270278 -0.3824044 -0.2690801 -0.40883505 -0.37357968 -0.09864023 0.01653105
0.5220401 0.14527744 -0.48746842 0.06372112 -0.0639326 -0.5296732 -0.10508576 -0.38661206
-0.45162988 -0.53031266 -0.06188464 0.3341524 0.5036026 -0.51568836 -0.046666205 -0.3537533
-0.31075037 -0.33357015 0.2482183 -0.37366432 -0.20125517 -0.4862762 0.50653446 -0.08726153
0.14330614 -0.29038715 -0.12336415 0.20275116 0.40448785 0.03520018 -0.25598803 -0.39174074
-0.48058248 0.3656869 -0.29316092 0.56833637 -0.124871016 -0.490344 0.26731944 -0.27645
0.56908023 -0.18992415 -0.3142472 -0.39246833 -0.47499922 -0.4559017 0.023784637 0.5366405
-0.3911466 0.20648086 0.40729326 0.4419427 0.45340765 -0.19724911 -0.43829966 0.32668906
0.03832996 0.19575948 -0.3260714 0.56010044 0.3209731 -0.5331749 0.36895823 -0.032613814
-0.18719026 -0.12412283 0.06634885 -0.12330979 0.52340686 -0.08002907 0.33278775 0.31824172
-0.49896234 0.16507953 -0.47711807 -0.24607605 0.1828745 -0.047146976 0.2126078 0.16266173
0.065511525 -0.5735752 0.481727 -0.042899728 -0.11782336 -0.48089144 -0.4511732 -0.07522321
0.31561112 0.33025676 0.119971514 -0.33522135 -0.24697196 0.41826195 0.12352204 -0.52558416
0.22585553 0.04738331 0.28100693 -0.29370984 0.30521482 0.4426005 0.4634744 0.42747533
-0.50326735 0.48814166 0.15956312 -0.185469 0.5561855 0.50823903 -0.18072808 0.2919823
0.2683338 -0.12802482 0.28038788 -0.27788693 0.065564334 -0.45924374 -0.11974242 -0.15098327
0.5577551 -0.44972092 0.32686156 0.23426706 0.5328374 -0.4849924 0.0476318 -0.49550936
0.06930745 0.053833783 0.54766834 -0.24771068 -0.08431414 -0.13763753 0.24990267 0.32710505
-0.26716384 -0.27974695 -0.010943174 -0.07174069 0.42712367 0.085360646 0.4966346 0.3730607
-0.37928343 -0.4915249 0.52409303 -0.2159572 -0.37179726 0.0034267306 0.14102525 -0.26681945
0.54856884 0.1959818 0.5509727 0.14228648 0.35198545 -0.11059463 -0.37566096 0.40177107
0.16387391 0.4872495 0.47838938 0.5748788 0.15226173 -0.5424535 -0.078897566 0.3139056
-0.566731 -0.4245336 0.4300877 -0.48378295 0.3904279 -0.3731592 -0.17887104 0.5334853
0.41616517 0.21993291 0.47796524 -0.30962747 0.16645396 -0.47766608 0.10128647 -0.024278462
0.53338623 0.41393435 0.43962932 0.2179578 0.5570384 0.21936756 0.25128913 -0.28245708
0.42043412 -0.11727235 -0.29962718 -0.45791113 0.28021103 0.10453719 -0.28952816 0.22584796
0.5656847 -0.027183652 0.21180785 0.5275426 0.16284955 -0.39225587 0.057421327 -0.5532101
0.49970257 0.11943346 -0.5641692 -0.529186 0.3190754 -0.08444548 0.30030787 -0.46767694
0.17143631 -0.38386977 0.49870777 0.52447283 -0.4110303 -0.07244772 0.085074484 0.29449153
-0.31373504 0.06677878 0.07371426 -0.089122444 0.5170764 0.5647981 -0.023838103 -0.49169582
0.5446522 0.35285985 -0.4465859 -0.2341921 0.22912496 -0.005686164 0.5175333 -0.57729983
0.5127939 -0.038122296 -0.2841259 -0.48061517 0.056165397 -0.052027524 0.11001867 0.1363374
00000000: 902f 563d 61e7 ecbe 82ca c3be dec4 89be
00000010: d452 d1be d645 bfbe e403 cabd 206c 873c
00000020: 6ca4 053f 9cc3 143e 7695 f9be 3880 823d
00000030: 18ef 82bd aa98 07bf 3437 d7bd 04f2 c5be
00000040: 083c e7be 92c2 07bf c07a 7dbd 0616 ab3e
00000050: 1aec 003f 2704 04bf 1025 3fbd 271f b5be
00000060: ac1a 9fbe b5c9 aabe f02c 7e3e ee50 bfbe
00000070: d615 4ebe 32f9 f8be 3eac 013f 2cb6 b2bd
00000080: d8be 123e a0ad 94be 58a6 fcbd 009e 4f3e
00000090: 0819 cf3e 102e 103d dd10 83be 3e92 c8be
000000a0: e80e f6be 503b bb3e 3019 96be 7e7e 113f
000000b0: 60bc ffbd 5e0e fbbe 18de 883e db8a 8dbe
000000c0: 3eaf 113f 7a7b 42be 02e5 a0be 9cf1 c8be
000000d0: 1933 f3be f36b e9be 00d8 c23c 4661 093f
000000e0: 5e44 c8be b86f 533e be88 d03e 5046 e23e
000000f0: 0c25 e83e acfb 49be d068 e0be ca43 a73e
00000100: e0ff 1c3d 2c75 483e d5f2 a6be be62 0f3f
00000110: 9656 a43e 267e 08bf 18e8 bc3e 1096 05bd
00000120: ceae 3fbe 1c34 febd e8e1 873d d889 fcbd
00000130: fefd 053f 48e6 a3bd 2863 aa3e 94f0 a23e
00000140: fe77 ffbe 9c0a 293e d248 f4be 5cfb 7bbe
00000150: 7443 3b3e 301d 41bd dcb5 593e cc90 263e
00000160: e82a 863d d3d5 12bf eca4 f63e a0b7 2fbd
00000170: 604d f1bd 6737 f6be 2c00 e7be a00e 9abd
00000180: c897 a13e 6a17 a93e a0b3 f53d 22a2 abbe
00000190: 38e6 7cbe 6e26 d63e 20f9 fc3d af8c 06bf
000001a0: ac46 673e 0015 423d 24e0 8f3e 2361 96be
000001b0: 1e45 9c3e 889c e23e 844c ed3e 0cde da3e
000001c0: 21d6 00bf b4ed f93e 8464 233e 96eb 3dbe
000001d0: 2c62 0e3f f41b 023f c810 39be b47e 953e
000001e0: 0c63 893e f018 03be 008f 8f3e 3247 8ebe
000001f0: 9846 863d ff21 ebbe 843b f5bd 5c9b 1abe
00000200: 0ac9 0e3f d241 e6be 665a a73e b4e3 6f3e
00000210: 0868 083f ed50 f8be 9019 433d 67b3 fdbe
00000220: 10f1 8d3d d080 5c3d fe33 0c3f dea7 7dbe
00000230: e4ac acbd daf0 0cbe 7ce6 7f3e 507a a73e
00000240: b3c9 88be fe3a 8fbe 004b 33bc c8ec 92bd
00000250: f4af da3e 90d1 ae3d e446 fe3e d001 bf3e
00000260: 7031 c2be 27a9 fbbe f62a 063f e223 5dbe
00000270: 365c bebe 0093 603b ec68 103e 8f9c 88be
00000280: 026f 0c3f 74af 483e 8c0c 0d3f 8cb3 113e
00000290: 7037 b43e 707f e2bd a256 c0be f0b4 cd3e
000002a0: 90ce 273e c478 f93e 74ef f43e 422b 133f
000002b0: 80ea 1b3e 3cde 0abf 0c95 a1bd 3cb8 a03e
000002c0: 4815 11bf 785c d9be 7434 dc3e 66b2 f7be
000002d0: 2ae6 c73e b90e bfbe f829 37be 7e92 083f
000002e0: 9a13 d53e 1836 613e dcb7 f43e 7e87 9ebe
000002f0: e872 2a3e a690 f4be 486f cf3d a0e3 c6bc
00000300: 008c 083f 34ef d33e 1817 e13e 5430 5f3e
00000310: 129a 0e3f e4a1 603e f8a8 803e 379e 90be
00000320: 2443 d73e 7c2c f0bd bc68 99be 5473 eabe
00000330: d277 8f3e 9817 d63d 093d 94be b044 673e
00000340: b6d0 103f 40b0 debc 28e4 583e 080d 073f
00000350: 08c2 263e c3d5 c8be a032 6b3d 2d9f 0dbf
00000360: 04d9 ff3e 8899 f43d 656d 10bf bc78 07bf
00000370: da5d a33e c0f1 acbd f4c1 993e 5a73 efbe
00000380: 008d 2f3e 948a c4be a056 ff3e da43 063f
00000390: 9072 d2be 785f 94bd 883b ae3d 98c7 963e
000003a0: e1a1 a0be 50c3 883d 80f7 963d d485 b6bd
000003b0: 1e5f 043f 9c96 103f 2048 c3bc 8ebf fbbe
000003c0: 546e 0b3f 0caa b43e e8a6 e4be 0ed0 6fbe
000003d0: bc9f 6a3e 0053 babb 107d 043f ecc9 13bf
000003e0: 7646 033f 2026 1cbd f378 91be 3113 f6be
000003f0: b00d 663d d01a 55bd 7851 e13d 089c 0b3e

imagination.0.bias f4 [256]
0.014464855 0.021617055 -0.2221016 -0.20341477 0.39264488 0.16740102 0.22916919 -0.49571982
0.20827281 -0.4890902 -0.29388502 0.102912605 0.5410737 0.3168947 -0.46119475 -0.53444636
-0.25880754 -0.10880661 0.082669854 0.10233027 -0.32587305 -0.08952266 0.29064524 -0.5365488
0.14000452 -0.2718963 0.4997028 0.1674388 -0.41304064 0.22290981 0.23868668 -0.34734696
-0.2895843 0.26740205 0.52467716 -0.2874625 -0.21679905 -0.2734287 -0.2878848 0.06298083
-0.5721343 -0.20009443 0.17862105 -0.1320898 0.3161291 0.30169863 0.42807388 0.42711782
0.2812782 0.39654875 -0.39682144 0.49861348 0.31670892 0.5382272 -0.16988781 -0.39005098
-0.56061935 0.032819986 -0.2233147 -0.11706945 -0.3610773 0.26687038 0.2518556 -0.49491492
-0.28545335 0.34979606 -0.16775078 -0.18833351 0.15141964 -0.10327566 0.34706014 0.4374473
-0.34342402 -0.3160831 -0.16733748 -0.31937075 -0.45378733 0.357638 -0.35258898 -0.5620718
0.3581488 0.34794575 -0.39103138 0.006593406 0.21655566 0.43188214 0.3848799 -0.5122315
0.49407673 0.13105714 -0.41231865 -0.2855309 -0.19365236 0.31405652 0.29060346 0.56607914
0.14412785 -0.09294823 0.43494213 0.0046678185 0.13410336 0.5036148 -0.44615623 -0.20967323
0.36971653 0.40144682 0.54064584 0.35443342 -0.4678965 0.030474305 0.5498853 0.2545526
-0.552744 -0.34993082 0.20530319 0.082012534 0.09759253 -0.13612199 0.15847427 -0.18679133
-0.45742655 0.447147 -0.1291292 -0.47534308 -0.49758568 0.24461037 -0.047593594 0.011891544
0.009052455 -0.30867115 -0.24549428 0.21649528 -0.20099989 0.11924833 0.04917562 0.5331948
-0.44780213 0.05783093 0.20700556 -0.42154962 -0.03455335 0.07425833 0.35821152 -0.45545718
0.17087317 0.16083527 0.266923 0.18965447 0.086034894 -0.21254215 -0.5401341 0.07945514
-0.5472571 0.33767426 0.49818623 -0.47289902 0.18284827 -0.33900243 -0.4397013 0.45093226
-0.01749903 -0.5224399 0.06532514 0.44995308 0.35642242 0.56969833 -0.09684157 0.4280802
0.37402838 0.5255492 0.3977123 0.40877283 0.280361 0.5016594 0.14500642 0.4568298
0.41905087 0.30420232 -0.18878996 0.48127973 0.5345186 -0.10165486 -0.5449553 -0.35005483
0.27522284 0.53420484 -0.5138147 0.12974167 -0.44913527 0.5746839 0.53079784 -0.16704261
-0.47976318 -0.39484882 0.40010887 -0.024053752 0.10172713 -0.11310735 -0.2217452 -0.44409946
-0.01885283 0.034272373 -0.2920736 -0.1151799 -0.15308425 0.06655204 -0.010774553 -0.5478945
0.5034214 0.031760156 -0.24736744 -0.4411509 -0.2526862 0.16376907 0.020389736 -0.52073014
0.2793324 -0.057746768 0.022463918 0.48991776 -0.14637789 0.28896576 0.27598345 0.058398724
0.007038772 -0.13055554 0.50801253 0.004097879 -0.466491 0.2684738 -0.45615768 -0.034991145
0.15342963 0.41302466 0.0072241426 -0.2811306 -0.41872877 -0.13394809 -0.09025848 0.2972877
0.27267057 0.32094586 0.256442 -0.13202325 -0.43930417 -0.29059613 -0.033902764 -0.5122516
-0.15802324 -0.51058924 -0.2003091 0.002744913 0.40611815 0.14714724 0.08602762 0.47391713
00000000: 00fe 6c3c 4016 b13c 9a6e 63be f64b 50be
00000010: c008 c93e 2c6b 2b3e 54ab 6a3e fdce fdbe
00000020: 7845 553e 086a fabe 1978 96be d8c3 d23d
00000030: ce83 0a3f 0640 a23e b821 ecbe 7ad1 08bf
00000040: 6c82 84be 00d6 debd d04e a93d 8892 d13d
00000050: d5d8 a6be a857 b7bd 74cf 943e 435b 09bf
00000060: 585d 0f3e fe35 8bbe 0cd9 ff3e 1475 2b3e
00000070: 107a d3be 7842 643e 486a 743e 76d7 b1be
00000080: 6544 94be ece8 883e 3e51 063f 492e 93be
00000090: 9200 5ebe d9fe 8bbe a365 93be 18fc 803d
000000a0: 6577 12bf 8ee5 4cbe 70e8 363e 8c42 07be
000000b0: acdb a13e 3e78 9a3e 802c db3e 30af da3e
000000c0: b203 903e 7008 cb3e 2e2c cbbe 444a ff3e
000000d0: ac27 a23e 42c9 093f 12f7 2dbe c3b4 c7be
000000e0: c084 0fbf 406e 063d 9cac 64be 1cc2 efbd
000000f0: 20df b8be 3ca3 883e 38f3 803e 7d65 fdbe
00000100: f126 92be 7818 b33e dcc6 2bbe 80da 40be
00000110: c00d 1b3e 3082 d3bd deb1 b13e 18f9 df3e
00000120: 46d5 afbe a5d5 a1be 845a 2bbe 9084 a3be
00000130: d056 e8be 541c b73e 8b86 b4be f0e3 0fbf
00000140: 485f b73e f225 b23e 4435 c8be 800d d83b
00000150: c4c0 5d3e a81f dd3e fa0e c53e 9b21 03bf
00000160: a0f7 fc3e d833 063e 6e1b d3be 1b31 92be
00000170: ce4c 46be 04cc a03e fac9 943e 90ea 103f
00000180: 4096 133e a45b bebd bcb0 de3e 80f4 983b
00000190: 6452 093e e6ec 003f 976e e4be 94b4 56be
000001a0: 7c4b bd3e 708a cd3e c467 0a3f 4c78 b53e
000001b0: 2190 efbe 40a5 f93c 48c5 0c3f b854 823e
000001c0: a180 0dbf 222a b3be 003b 523e 30f6 a73d
000001d0: 98de c73d 9063 0bbe 1447 223e 3a46 3fbe
000001e0: d033 eabe 74f0 e43e 723a 04be 2b60 f3be
000001f0: 8dc3 febe 247b 7a3e 80f1 42bd c0d4 423c
00000200: c050 143c 250a 9ebe da62 7bbe f0b0 5d3e
00000210: ead2 4dbe 7838 f43d 606c 493d 747f 083f
00000220: 5246 e5be 20e0 6c3d 44f9 533e 5ad5 d7be
00000230: d087 0dbd c014 983d 8067 b73e af31 e9be
00000240: 60f9 2e3e 00b2 243e 22aa 883e c834 423e
00000250: 1033 b03d a6a4 59be 3a46 0abf 60b9 a23d
00000260: 0b19 0cbf a4e3 ac3e 4412 ff3e d21f f2be
00000270: 943c 3b3e ba91 adbe 8720 e1be 98e0 e63e
00000280: 205a 8fbc 9fbe 05bf 30c9 853d 4060 e63e
00000290: 007d b63e c0d7 113f e054 c6bd 542d db3e
000002a0: a680 bf3e 648a 063f f2a0 cb3e ac4a d13e
000002b0: 7a8b 8f3e c06c 003f 907c 143e 98e5 e93e
000002c0: d68d d63e 68c0 9b3e 2852 41be 4c6a f63e
000002d0: 36d6 083f 6c30 d0bd 3182 0bbf 633a b3be
000002e0: 02ea 8c3e a6c1 083f 5c89 03bf 00db 043e
000002f0: 0ff5 e5be 7c1e 133f 5ee2 073f 380d 2bbe
00000300: 85a3 f5be a029 cabe 12db cc3e 600c c5bc
00000310: 5056 d03d d4a4 e7bd 2c11 63be 0161 e3be
00000320: 4071 9abc 3061 0c3d ac8a 95be 70e3 ebbd
00000330: 1ec2 1cbe 704c 883d c087 30bc d042 0cbf
00000340: 3ae0 003f f016 023d e44d 7dbe 88de e1be
00000350: 1660 81be 14b3 273e 6008 a73c 924e 05bf
00000360: a804 8f3e e087 6cbd 4006 b83c 80d6 fa3e
00000370: 16e4 15be 52f3 933e b44d 8d3e 8033 6f3d
00000380: 80a5 e63b 5ab0 05be 1c0d 023f 8047 863b
00000390: e9d7 eebe 6675 893e 808d e9be e052 0fbd
000003a0: a81c 1d3e f877 d33e 80b8 ec3b 5af0 8fbe
000003b0: 9e63 d6be b029 09be 70d9 b8bd 1836 983e
000003c0: 7a9b 8b3e 0453 a43e 5e4c 833e 1a31 07be
000003d0: 7aec e0be 04c9 94be a0dd 0abd ec22 03bf
000003e0: d8d0 21be fab5 02bf d41d 4dbe 00e4 333b
000003f0: b8ee cf3e c4ad 163e 402f b03d 44a5 f23e

imagination.2.weight f4 [256, 256]
-0.017753802 0.02112978 0.040937103 -0.04935664 0.02951818 -0.0005219504 0.053604268 -0.055258483
0.012945518 -0.028578252 -0.050403178 0.020910874 0.023752242 0.061659537 -0.061057158 -0.015149146
0.0104367435 -0.00052612275 0.004372947 0.008303821 0.05418367 0.018004581 0.030265532 0.055832617
0.051350474 -0.061531596 -0.05016242 -0.057574667 0.052209727 -0.051367693 0.010793544 -0.01872342
0.050074995 -0.029134259 -0.050575756 0.023623444 0.021125935 -0.050804004 -0.057140604 0.017510548
-0.015802346 -0.04184682 -0.005392596 0.010256425 0.022734746 0.05580029 0.0016346201 -0.0017523617
0.04108177 -0.030997187 -0.02423945 0.011500448 0.015784077 0.021690838 0.04028181 0.04931038
0.05387345 0.029408164 0.0014808923 0.026424259 0.04008946 -0.032914236 0.033172578 -0.04647907
-0.062087752 -0.0065429434 0.0035602823 0.037043847 -0.048081994 -0.051204987 -0.05503101 -0.037930325
-0.042198636 0.050105177 -0.012753062 -0.008585371 0.039351106 0.03878294 -0.051523812 -0.045999832
0.03072048 0.024163693 -0.012836695 0.04936398 -0.0021262765 0.06055229 -0.0036769807 0.061974414
0.025338687 -0.027814522 0.01775182 -0.03486544 -0.0018932745 -0.045242347 -0.03514982 0.010351509
0.012671366 -0.042632394 0.04378379 0.025870219 0.061436355 0.0037532002 0.008736491 0.046173096
-0.03174504 -0.059199594 -0.017386585 -0.04836428 -0.014106952 -0.042858444 0.020622775 -0.061215416
-0.0012802705 -0.012615487 0.05127225 -0.03786295 -0.048099577 0.055616066 0.014693201 -0.00079753995
-0.0006144643 0.03860353 -0.017761223 0.05803453 0.0497543 0.029661387 0.0588096 0.023225479
-0.0017943904 -0.048526675 -0.03538151 -0.021274246 0.039200924 -0.053577363 0.009815566 -0.034010276
-0.0020898357 0.024284087 0.0076116994 0.06061724 -0.004193805 0.010294989 -0.0447053 0.016893797
-0.047491923 0.017705984 0.03621935 0.0067192838 0.053014763 0.03805972 -0.026074983 0.024011098
0.032411538 0.028749585 -0.03563241 0.02769094 0.047315113 -0.017781474 -0.050367355 -0.049299836
-0.012842566 -0.01136525 0.05700218 -0.003989324 0.0010427311 0.02945096 0.0070188046 0.0014509559
0.0070094913 0.050567716 -0.035836555 -0.053433135 0.056654163 0.021464996 0.06242075 -0.009192511
-0.008346073 0.005386099 0.0009304732 -0.047752887 -0.01952871 0.02231682 0.057225913 0.06064274
0.004713416 -0.03354629 -0.029007718 -0.020237379 0.010015525 -0.047913745 -0.00070857257 0.05026257
-0.014858618 0.027767003 0.019486956 0.0076945126 -0.054387003 0.017829075 0.017456181 0.013947934
0.020924345 0.01375711 -0.05005122 -0.027770005 0.040141873 -0.048045702 -0.04053031 -0.034186915
-0.032145448 -0.03627763 0.011685006 0.042631008 -0.03593211 0.0469539 0.017827615 -0.02251023
0.04642927 -0.02471672 0.044968463 0.01984983 0.024098642 -0.05382903 0.012994021 0.026215814
0.025365159 0.0028244331 0.025783844 0.036492147 -0.006432064 0.008457288 -0.0622295 0.016606852
-0.024421595 -0.028736167 -0.05281184 0.052869298 -0.008625247 -0.003030315 -0.021761402 0.03426175
0.027997345 -0.050685562 0.0560558 -0.04009571 0.061582692 -0.04094754 0.023860462 0.0131288245
-0.051161736 0.029059999 -0.02478823 0.033853568 0.022220612 0.024389654 0.049479038 0.001790978
00000000: 6c70 91bc 5c18 ad3c aaad 273d 302a 4abd
00000010: 1cd0 f13c 80d3 08ba 2690 5b3d b856 62bd
00000020: 7019 543c f01c eabc 9073 4ebd 484d ab3c
00000030: 1094 c23c b68e 7c3d 1217 7abd 2034 78bc
00000040: e0fe 2a3c 80eb 09ba f04a 8f3b c00c 083c
00000050: b2ef 5d3d 587e 933c 6cef f73c beb0 643d
00000060: e054 523d 8e08 7cbd 1c77 4dbd 6ad3 6bbd
00000070: ded9 553d ee66 52bd 68d7 303c dc61 99bc
00000080: 701b 4d3d f8aa eebc 8628 4fbd f485 c13c
00000090: 4c10 ad3c dc17 50bd 440c 6abd 4872 8f3c
000000a0: ec73 81bc 9267 2bbd 60b4 b0bb 900a 283c
000000b0: 383e ba3c d88e 643d c040 d63a 80af e5ba
000000c0: 5c45 283d d0ed fdbc d091 c6bc 606c 3c3c
000000d0: 9c4d 813c fcb0 b13c 8afe 243d aef9 493d
000000e0: 68aa 5c3d 64e9 f03c 801a c23a b077 d83c
000000f0: d834 243d 14d1 06bd f8df 073d d660 3ebd
00000100: ba4f 7ebd 3066 d6bb a053 693b 4abb 173d
00000110: a0f1 44bd 52bc 51bd 3268 61bd d45c 1bbd
00000120: 7ad8 2cbd 163b 4d3d 38f2 50bc a8a9 0cbc
00000130: a02e 213d dcda 1e3d a20a 53bd 526a 3cbd
00000140: 84a9 fb3c f0f2 c53c 0051 52bc e231 4a3d
00000150: 0059 0bbb ae05 783d 80f9 70bb e2d8 7d3d
00000160: 1493 cf3c 48db e3bc 446c 913c 10cf 0ebd
00000170: c027 f8ba 0a50 39bd 42f9 0fbd 6099 293c
00000180: 909b 4f3c 4e9f 2ebd a256 333d c8ed d33c
00000190: b0a4 7b3d 40f8 753b 8023 0f3c 0020 3d3d
000001a0: 1607 02bd 467b 72bd 506e 8ebc a019 46bd
000001b0: d820 67bc 568c 2fbd 18f1 a83c 04bd 7abd
000001c0: c0ce a7ba 30b1 4ebc da02 523d 2e16 1bbd
000001d0: 1004 45bd accd 633d c0bb 703c 0012 51ba
000001e0: 0014 21ba bc1e 1e3d fc7f 91bc 9eb5 6d3d
000001f0: 2acb 4b3d 70fc f23c 56e2 703d 5c43 be3c
00000200: c031 ebba e8c3 46bd 34ec 10bd 5447 aebc
00000210: 2691 203d f073 5bbd 78d1 203c 5c4e 0bbd
00000220: a0f5 08bb 6cef c63c 906b f93b c849 783d
00000230: 306c 89bb 50ac 283c e81c 37bd dc64 8a3c
00000240: e486 42bd 240c 913c be5a 143d 702d dc3b
00000250: 0226 593d 82e4 1b3d 349b d5bc ecb2 c43c
00000260: f6c1 043d 4084 eb3c 4af3 11bd 1cd8 e23c
00000270: 7ecd 413d 74aa 91bc 004e 4ebd a0ee 49bd
00000280: a069 52bc 5035 3abc 1e7b 693d e0b8 82bb
00000290: 40ac 883a 2443 f13c 00fe e53b 002e be3a
000002a0: e0af e53b 1820 4f3d 5ac9 12bd b4dc 5abd
000002b0: 320e 683d 5cd7 af3c e6ac 7f3d 309c 16bc
000002c0: f8bd 08bc e07d b03b 00eb 733a 8898 43bd
000002d0: acfa 9fbc c4d1 b63c b865 6a3d 8664 783d
000002e0: 0073 9a3b d667 09bd 98a1 edbc dcc8 a5bc
000002f0: 2818 243c 3441 44bd 80bf 39ba 20e0 4d3d
00000300: 9071 73bc a077 e33c 1ca3 9f3c 4022 fc3b
00000310: e8c4 5ebd 480e 923c 4400 8f3c e085 643c
00000320: 8869 ab3c 8065 613c 8202 4dbd ec7d e3bc
00000330: ce6b 243d 92cb 44bd 1c03 26bd 9407 0cbd
00000340: f2aa 03bd da97 14bd 7872 3f3c da9d 2e3d
00000350: 8c2d 13bd bc52 403d 380b 923c 6067 b8bc
00000360: 9e2c 3e3d b87a cabc da30 383d 1c9c a23c
00000370: 846a c53c d47b 5cbd e0e4 543c 8cc2 d63c
00000380: 98ca cf3c 201a 393b a438 d33c ca78 153d
00000390: 10c4 d2bb 7090 0a3c 5ce4 7ebd 180b 883c
000003a0: cc0f c8bc 1c68 ebbc 3a51 58bd 7a8d 583d
000003b0: e850 0dbc 4098 46bb f844 b2bc 0c56 0c3d
000003c0: b05a e53c aa9b 4fbd c49a 653d 663b 24bd
000003d0: 223e 7c3d 9cb8 27bd 0477 c33c 481a 573c
000003e0: f88e 51bd 3c0f ee3c b010 cbbc 0aaa 0a3d
000003f0: 0008 b63c d0cc c73c 88aa 4a3d 40bf ea3a

imagination.2.bias f4 [256]
-0.017917141 0.04490421 0.061487637 -0.026585385 -0.024073407 -0.009269632 -0.0021738634 0.022977188
-0.051221043 -0.005663134 -0.032190323 0.036028653 -0.02926816 0.016399093 -0.056844324 -0.051478826
0.0043787435 0.011725418 0.033830367 -0.026647232 -0.0072750226 -0.03927105 0.0407677 0.025764935
-0.052766047 -0.0571597 -0.010658972 -0.03269565 -0.021696992 -0.059580788 -0.031029366 -0.051141463
-0.03202419 -0.014441967 0.034492172 -0.024687558 0.005485505 0.054096818 -0.045289993 0.054937124
0.05229219 0.020720564 0.058018148 -0.01255399 0.030441247 -0.016844898 -0.04860691 0.017637976
-0.030406326 0.056986347 -0.028552875 0.003532365 -0.05296985 0.029984571 -0.0248814 -0.03616716
-0.0068139583 0.0581567 0.059696294 -0.04796326 0.060674027 0.0017387122 -0.046515226 0.033922255
-0.024187848 0.020470493 -0.058429077 0.047456294 0.050909318 0.056930892 0.0044967756 0.020106927
0.0058998317 0.0071519464 0.011324115 0.008217305 0.041945823 0.0068088993 -0.03171046 0.027150743
-0.056192458 0.017257057 0.041560218 0.0126977265 -0.0051135346 0.0422811 -0.062413573 -0.034126095
-0.057816766 -0.0071735308 0.022193879 -0.05230301 0.03140489 -0.06240224 0.021741249 0.021272674
-0.034988753 -0.022303633 0.027670816 0.0144415125 -0.020214409 0.017377913 0.0037721023 -0.04153268
0.01140254 -0.0017188787 0.0029245764 -0.050561227 -0.021753311 0.019788198 -0.044977963 0.055664986
-0.028002158 -0.03095518 -0.0007741451 -0.061274245 0.03479857 -0.035723403 0.029807292 0.040811278
-0.0073546246 0.03631174 0.056678906 0.019037686 -0.0022281483 -0.040272877 -0.046136282 -0.05092866
0.013271868 0.016644552 -0.02275522 0.021412961 -0.030247666 -0.019108564 -0.04371813 -0.053609475
0.009026185 -0.027583271 -0.060384326 -0.05297707 -0.051392004 0.015135512 -0.032833487 0.005839497
-0.03672506 0.038877085 -0.014143415 0.033109695 -0.028437354 0.026268497 -0.008264177 -0.025073372
-0.052652888 0.016926609 -0.028384753 0.009827174 -0.0053433925 0.052268915 -0.058426037 -0.020978011
0.01595895 0.031586483 -0.032813177 0.02810952 -0.060362294 0.057247154 -0.058726564 -0.021620385
-0.022885121 -0.043201804 0.04357332 -0.0027138367 -0.05889216 0.060047463 0.05572211 0.058657676
-0.046154425 -0.005998887 0.011271872 0.05887954 -0.053591244 -0.06105221 -0.029480718 0.021919124
0.008408941 -0.022354677 0.05804935 -0.061229922 0.03991186 0.0007533133 0.026440382 0.009011373
-0.026717663 -0.019702464 0.05719111 0.009704754 0.009660348 0.035861656 0.0076557994 -0.041569136
0.057373717 -0.06056121 0.019665115 0.03539969 -0.059286363 0.011049502 -0.021153674 -0.04673203
0.00037628412 -0.0072701722 0.016925871 0.05169276 0.036911868 0.036761843 0.049237482 0.041806385
0.038680024 0.05100044 0.01409027 -0.029516838 -0.0009948537 0.0022650808 -0.048597947 0.001772277
0.026068084 0.006993443 -0.031035207 -0.008046173 0.018686704 -0.040718563 0.0154382065 0.03216941
0.01582212 0.055575058 -0.042429343 0.05928015 0.010743149 -0.03378453 -0.01804892 -0.05821594
0.001580663 -0.024180762 0.0032770857 -0.020631857 -0.0033436865 0.022368826 0.0021287426 -0.016777575
0.024448529 0.02298668 0.053936414 -0.011493124 0.044974267 0.0031572431 -0.0041553974 0.050842226
00000000: f8c6 92bc 7aed 373d 76da 7b3d 98c9 d9bc
00000010: 9835 c5bc a8df 17bc 6077 0ebb a83a bc3c
00000020: 28cd 51bd d091 b9bb 00da 03bd c892 133d
00000030: c8c3 efbc 6457 863c 98d5 68bd 76db 52bd
00000040: 907b 8f3b f81b 403c b691 0a3d 4c4b dabc
00000050: 5063 eebb aeda 20bd 08fc 263d fc10 d33c
00000060: 3621 58bd 4a20 6abd f8a2 2ebc e0eb 05bd
00000070: e4bd b1bc fc0a 74bd 4c31 febc b679 51bd
00000080: cc2b 03bd 009e 6cbc aa47 0d3d 903d cabc
00000090: c0bf b33b a094 5d3d 0082 39bd c005 613d
000000a0: 5630 563d 2cbe a93c 70a4 6d3d 40af 4dbc
000000b0: ec5f f93c 50fe 89bc 0a18 47bd 847d 903c
000000c0: b016 f9bc 846a 693d b8e7 e9bc 407f 673b
000000d0: eaf6 58bd 34a2 f53c 14d4 cbbc 0424 14bd
000000e0: a047 dfbb b835 6e3d 1a84 743d 2075 44bd
000000f0: 5485 783d 80e5 e33a c086 3ebd 10f2 0a3d
00000100: 9825 c6bc bcb1 a73c 5453 6fbd 8861 423d
00000110: 4a86 503d 5e30 693d b059 933b 48b7 a43c
00000120: 6053 c13b e05a ea3b c888 393c e0a1 063c
00000130: 62cf 2b3d 301d df3b d4e2 01bd 3c6b de3c
00000140: 102a 66bd ac5e 8d3c 0c3b 2a3d 200a 503c
00000150: 708f a7bb f22e 2d3d 60a5 7fbd cec7 0bbd
00000160: 46d1 6cbd f00f ebbb f0cf b53c ae3b 56bd
00000170: 6aa2 003d 7e99 7fbd b41a b23c 0844 ae3c
00000180: 5e50 0fbd 1cb6 b6bc e8ad e23c 189c 6c3c
00000190: b098 a5bc 205c 8e3c 6035 773b 2c1e 2abd
000001a0: b8d1 3a3c 004c e1ba 40aa 3f3b 4a19 4fbd
000001b0: 0034 b2bc dc1a a23c d03a 38bd f800 643d
000001c0: c864 e5bc b895 fdbc 00f0 4aba b4fa 7abd
000001d0: f288 0e3d b452 12bd 6c2e f43c ba29 273d
000001e0: 10ff f0bb 9ebb 143d 2428 683d ecf4 9b3c
000001f0: 2006 12bb 2cf5 24bd 66f9 3cbd 929a 50bd
00000200: 4072 593c 285a 883c 2869 babc 3c6a af3c
00000210: f4c9 f7bc 9089 9cbc c811 33bd 9c95 5bbd
00000220: 90e2 133c 50f6 e1bc 8e55 77bd 7cfe 58bd
00000230: 6c80 52bd f0fa 773c 687c 06bd 4059 bf3b
00000240: 046d 16bd 943d 1f3d c8b9 67bc 089e 073d
00000250: 74f5 e8bc 0831 d73c 7866 07bc ac66 cdbc
00000260: 8eaa 57bd aca9 8a3c 2487 e8bc 2802 213c
00000270: a017 afbb ee17 563d 2450 6fbd 14da abbc
00000280: 58bc 823c d460 013d 1c67 06bd f045 e63c
00000290: 743e 77bd fe7b 6a3d 448b 70bd 3c1d b1bc
000002a0: 9479 bbbc 60f4 30bd f079 323d a0da 31bb
000002b0: e838 71bd 54f4 753d de3c 643d 0843 703d
000002c0: 6c0c 3dbd 5092 c4bb a8ad 383c ac2b 713d
000002d0: 7e82 5bbd e211 7abd 8c81 f1bc bc8f b33c
000002e0: a8c5 093c 2821 b7bc 28c5 6d3d 3acc 7abd
000002f0: 9e7a 233d 007a 453a 8099 d83c 70a4 133c
00000300: 00df dabc 1067 a1bc 3a41 6a3d b000 1f3c
00000310: 7046 1e3c ace3 123d 80dd fa3b 6644 2abd
00000320: b400 6b3d 080f 78bd bc18 a13c 44ff 103d
00000330: 42d6 72bd f808 353c 784a adbc 166a 3fbd
00000340: 0048 c539 a03a eebb 20a8 8a3c cabb 533d
00000350: e630 173d 9693 163d 3ead 493d 2c3d 2b3d
00000360: f26e 1e3d d6e5 503d e0da 663c 4ccd f1bc
00000370: c065 82ba c071 143b a40e 47bd c04b e83a
00000380: bc8c d53c 4029 e53b 8c3d febc 18d4 03bc
00000390: dc14 993c 82c8 26bd 88f0 7c3c 12c4 033d
000003a0: 649d 813c aca2 633d 64ca 2dbd becf 723d
000003b0: 0804 303c a661 0abd 54db 93bc d673 6ebd
000003c0: 402e cf3a bc16 c6bc 60c4 563b 2404 a9bc
000003d0: c021 5bbb d43e b73c 6082 0b3b 2071 89bc
000003e0: 4848 c83c 904e bc3c 6eec 5c3d a84d 3cbc
000003f0: f036 383d c0e9 4e3b 002a 88bb f03f 503d
