MAI2A_TreasureFinder/agent_2_model.pth (torch, 848959 bytes, 30 tensors)

env_model.conv1.weight f4 [32, 14, 3, 3]
0.019511849 -0.0036789633 0.037299342 -0.00734286 0.023015052 -0.03761329 0.019075526 0.03465847
-0.037023623 -0.016789448 0.04629677 0.043308176 0.020701336 -0.055199515 0.018468933 0.022261245
-0.007179155 0.039465576 0.007009323 -0.011314016 0.03353822 0.00085544423 0.015274644 -0.025801353
0.009310183 0.04440867 0.011455379 -0.048711017 -0.56803846 -0.7410881 0.15538622 -0.0599877
-0.8387498 -0.4168007 0.18714234 -0.15762731 0.18718505 0.3730627 -0.11450621 0.3340065
-0.41566083 -0.35925654 -0.31761646 0.15121259 -0.017041229 -0.019490462 0.1387323 0.040427875
0.49076545 -0.48941052 -0.752167 0.04941728 -0.12112223 -1.3581755 0.13042007 0.05878359
-0.22119243 -0.08279274 -0.12792537 -0.4188594 -0.0694024 -0.19641055 -0.21158478 0.139982
0.16500975 0.049832236 -0.18727712 -0.24161138 -0.09075411 -0.17795077 -0.3543927 -1.0293759
-0.05849344 0.04811574 -0.008523229 0.05401387 -0.019411227 0.0057960944 0.011187118 -0.055461343
-0.01536024 -0.27506602 -0.23693492 -0.08421459 -0.15614878 -0.13260725 0.027352007 -0.02345143
-0.038104024 -0.26449364 0.3720999 0.28537974 0.041153297 0.19606215 0.28804612 0.087179475
0.18843557 0.08799286 0.10140912 0.34507728 0.3617862 0.09119964 0.24734497 0.19713047
0.052078348 0.20679767 0.11174052 0.044989444 0.36495203 0.2786748 0.11368737 0.22248082
0.26266345 -0.009163137 0.24369866 0.1397969 -0.07983894 0.31490064 0.33957303 0.16499436
0.19572943 0.24075054 0.060167957 0.27319613 0.08557948 -0.018069567 -0.007183922 -0.1540729
-0.22244988 -0.18072182 -0.16588616 -0.0758477 -0.1884263 -0.11083356 -0.077198945 -0.43242708
-0.19716178 -0.12335109 -0.103236474 -0.044365942 -0.18448086 -0.25843784 0.040763665 -0.4733224
-0.4417731 -0.107590005 -0.37063268 -0.4189992 -0.14134213 -0.13092276 -0.21479525 -0.057575263
-0.12488913 -0.5350824 -0.5903955 -0.049794115 -0.31972402 0.3633898 -0.33519116 -0.19057962
-0.0025109036 0.2029139 -0.059943467 -0.16802105 -0.35795367 -0.5428668 -0.08993883 -0.14010832
-0.13829996 -0.21825854 -0.6862296 0.16054085 0.027646009 -0.25734237 -0.37837133 -0.6246638
-0.025653446 -0.23116882 -0.6187345 -0.027457079 -0.30828398 -0.16571192 -0.1337779 -0.35020733
-0.7487613 -0.5142278 -0.3214843 -0.63117987 -0.48452026 -0.53782576 -0.63002086 -0.3926497
-0.48904204 -0.5346242 -0.30707106 -0.47464257 -0.5209684 -0.25475565 -0.034394417 -0.0666749
-0.013986122 -0.030807788 -0.03525444 -0.032110166 0.021000622 -0.03557015 0.015600849 -0.9242092
-0.927654 -0.10097576 -0.49346003 -0.41675907 -0.36094928 -0.44204158 -0.4315421 -0.27786803
0.085862435 -0.11360354 -0.25489232 -0.0216044 -0.039388243 0.06355753 -0.020711109 0.050007798
0.032928344 -0.072837 -0.039321322 -0.037482534 -0.073518746 -0.09000296 -0.053061746 -0.1302026
-0.03403662 0.018224165 -0.07799285 -0.065836675 -0.10524194 -0.13718283 0.05076189 0.02026661
0.0067751417 0.0512149 0.18325107 -0.14149058 -0.18938565 -0.09850181 -0.20174529 -0.109225444
-0.012710073 -0.117713615 0.076763265 -0.0103546865 -0.03897864 -0.18149841 -0.24339272 -0.20333883
00000000: 50d7 9f3c c31a 71bb 32c7 183d 609c f0bb
00000010: 108a bc3c 6510 1abd 4744 9c3c 0af6 0d3d
00000020: 15a6 17bd 068a 89bc afa1 3d3d ea63 313d
00000030: d995 a93c e318 62bd 294c 973c 375d b63c
00000040: 1e3f ebbb a8a6 213d 77ae e53b 6c5e 39bc
00000050: 5f5f 093d e43f 603a 8042 7a3c 5c5d d3bc
00000060: bd89 183c dee5 353d 58af 3b3c 3485 47bd
00000070: f86a 11bf f3b7 3dbf 911d 1f3e aab5 75bd
00000080: 4fb8 56bf e766 d5be 3ea2 3f3e 0e69 21be
00000090: 70ad 3f3e 1302 bf3e 3b82 eabd e602 ab3e
000000a0: 7fd1 d4be 79f0 b7be a09e a2be 79d7 1a3e
000000b0: 0c9a 8bbc 76aa 9fbc d70f 0e3e b397 253d
000000c0: 9c45 fb3e 0494 fabe 048e 40bf c669 4a3d
000000d0: ef0e f8bd b2d8 adbf d78c 053e 10c7 703d
000000e0: 4580 62be 3d8f a9bd defe 02be bd74 d6be
000000f0: d822 8ebd d91f 49be aea9 58be 7157 0f3e
00000100: 51f8 283e e31c 4c3d 93c5 3fbe f968 77be
00000110: 4add b9bd ba38 36be f672 b5be 97c2 83bf
00000120: d196 6fbd 0315 453d 03a5 0bbc a63d 5d3d
00000130: 4b04 9fbc 2aed bd3b 2c4a 373c 6f2b 63bd
00000140: 84a9 7bbc 74d5 8cbe 119f 72be b378 acbd
00000150: 77e5 1fbe 32ca 07be 5111 e03c 371d c0bc
00000160: f712 1cbd b66b 87be e183 be3e 4b1d 923e
00000170: 5c90 283d 84c4 483e c87a 933e 278b b23d
00000180: 41f5 403e 9a35 b43d 96af cf3d f8ad b03e
00000190: 0a3c b93e e0c6 ba3d 0048 7d3e 92dc 493e
000001a0: 1b50 553d c5c2 533e 37d8 e43d da46 383d
000001b0: feda ba3e 77ae 8e3e edd4 e83d 03d2 633e
000001c0: d37b 863e fb20 16bc 248c 793e eb26 0f3e
000001d0: 9982 a3bd a83a a13e 84dc ad3e 48f4 283e
000001e0: 4c6d 483e 4f87 763e ad72 763d 5de0 8b3e
000001f0: 4b44 af3d a106 94bc 1b67 ebbb 49c5 1dbe
00000200: e7c9 63be 240f 39be 10de 29be 0a56 9bbd
00000210: d3f2 40be b5fc e2bd 7b1a 9ebd 1567 ddbe
00000220: c7e4 49be 7f9f fcbd a56d d3bd 10b9 35bd
00000230: 8de8 3cbe f751 84be cdf7 263d 5057 f2be
00000240: 1530 e2be 2658 dcbd 91c3 bdbe 1087 d6be
00000250: febb 10be 9e10 06be 49f3 5bbe 0ad4 6bbd
00000260: dfc5 ffbd 29fb 08bf 2924 17bf eaf4 4bbd
00000270: deb2 a3be 3a0e ba3e 2d9e abbe 4e27 43be
00000280: f98d 24bb a9c8 4f3e 4887 75bd b60d 2cbe
00000290: b445 b7be 52f9 0abf d931 b8bd 8e78 0fbe
000002a0: 819e 0dbe 2b7f 5fbe beac 2fbf d264 243e
000002b0: e279 e23c 61c2 83be e3b9 c1be f7e9 1fbf
000002c0: 2d27 d2bc 85b7 6cbe 6265 1ebf abed e0bc
000002d0: 66d7 9dbe 63b0 29be 13fd 08be 604e b3be
000002e0: d2ae 3fbf 6fa4 03bf 9799 a4be 0195 21bf
000002f0: 0a13 f8be f3ae 09bf 0c49 21bf 6209 c9be
00000300: b863 fabe 22dd 08bf 6b38 9dbe 5a04 f3be
00000310: 2f5e 05bf 556f 82be 29e1 0cbd da8c 88bd
00000320: 0c26 65bc 9d60 fcbc f666 10bd f385 03bd
00000330: 7f09 ac3c 01b2 11bd b49a 7f3c f998 6cbf
00000340: bc7a 6dbf 61cc cebd cba6 fcbe 7261 d5be
00000350: 58ce b8be 4653 e2be 16f3 dcbe b844 8ebe
00000360: a5d8 af3d f9a8 e8bd 3f81 82be b6fb b0bc
00000370: 9155 21bd 732a 823d 58aa a9bc fad4 4c3d
00000380: dfdf 063d 912b 95bd 650f 21bd 4987 19bd
00000390: ff90 96bd 7953 b8bd 4657 59bd d553 05be
000003a0: fc69 0bbd d84a 953c b7ba 9fbd 61d5 86bd
000003b0: 1689 d7bd a879 0cbe b3eb 4f3d 2906 a63c
000003c0: 0202 de3b b7c6 513d 2ba6 3b3e e8e2 10be
000003d0: 50ee 41be 51bb c9bd 5196 4ebe 97b1 dfbd
000003e0: e93d 50bc d613 f1bd 0f36 9d3d b4a6 29bc
000003f0: 11a8 1fbd b8da 39be f13b 79be 0e38 50be

env_model.conv1.bias f4 [32]
0.31840578 -0.16280289 -0.19475657 -0.15830809 -0.121939205 -0.05820488 0.014481784 -0.0099172415
-0.19226098 0.024870455 -0.26081207 -0.44568574 0.090428084 -0.19008923 0.0035356507 -0.19848698
-0.107432745 -0.00520386 -0.036563676 0.10849074 -0.46308315 -0.15402754 -0.18969738 -0.29622793
-0.2976002 0.078349926 0.22843528 -0.025366593 -0.03616032 -0.023234399 0.20030639 -0.036425583
00000000: 1506 a33e cdb5 26be 446e 47be 841b 22be
00000010: 43bb f9bd 3e68 6ebd 0145 6d3c ed7b 22bc
00000020: 10e0 44be 20bd cb3c 2989 85be ec30 e4be
00000030: 5c32 b93d c0a6 42be 60b6 673b 2c40 4bbe
00000040: b305 dcbd 2485 aabb cbc3 15bd 6530 de3d
00000050: 3c19 edbe 65b9 1dbe 0840 42be 30ab 97be
00000060: 0e5f 98be ed75 a03d f0ea 693e 9acd cfbc
00000070: d81c 14bd 1156 bebc 1e1d 4d3e fe32 15bd

env_model.conv2_state1.weight f4 [3, 32, 3, 3]
-0.0030862459 -0.0102325715 -0.00745199 -0.004795714 0.0068210056 -0.002407964 -0.0006407813 0.01092718
-0.0052292286 -0.014231013 0.001336138 0.013140315 -0.00034032666 0.0039274003 -0.0059883962 0.0063153943
-0.010260918 -0.0005294888 -0.0038941272 -0.0011385051 0.0007839988 -0.00084699964 -0.00046479658 7.3001414e-05
-0.0005687028 -0.0013953777 -0.00018815196 -0.001273099 -0.00066315394 0.0057859793 -0.0048524197 -0.0011905357
0.0029062538 0.00409685 -0.0010531237 0.011396141 0.00047509556 -0.010149374 0.016694363 -0.00904683
0.004763181 -0.0011558973 0.0019904398 -0.004683687 0.0067714 -0.00089494063 -0.007171431 0.010224553
0.002177036 0.0044259443 -0.007911243 0.0029941946 0.0025144552 -0.003584959 -6.789699e-05 0.008086628
-0.0058543924 -0.00028221912 0.00036418927 0.0014346496 -0.001959242 0.002016396 0.0037003441 -0.007920053
-0.0016468229 0.00042092576 -0.0026251008 0.0019845883 0.0046611354 0.015668413 0.000656251 0.0017704938
-0.0027559137 0.0052870014 -0.0029599906 0.0008311377 -0.004770206 -0.0023674187 0.0001581944 -0.004392464
0.00028930232 -0.0015806033 0.011417603 -0.019900933 -0.0051090815 -0.0024061257 0.01093077 -0.001940111
0.0004881575 0.0015367364 -0.0025408198 -0.009777569 0.009369371 0.0015042182 0.004094024 -0.0014153421
0.003804624 -0.0011165736 0.008515217 0.0017710802 0.022635153 0.012764832 1.2132282e-05 0.004912717
-0.012691598 0.00039045146 0.00094381144 0.0027282885 -0.0005207142 0.009397631 -0.009407108 0.0012297361
0.0076147937 -0.0055115568 -0.010373982 0.009715862 0.015549972 -0.017555473 -0.0018048765 0.01325505
-0.017996838 -0.007933634 0.010506058 0.018098596 -0.003561054 -0.0008240844 -0.0046205 -0.0031324457
0.0016320782 -0.0022664214 0.000923089 0.0040214253 0.00056272146 0.005508673 -0.005508156 0.011922871
-0.0011758893 0.012298282 -0.0117708435 -0.002262512 0.0036895245 0.00047966168 0.017185904 -0.01982477
0.0018883491 -0.0033678224 0.008381915 -0.0014244653 0.0018742116 0.004248707 -0.0041071577 -0.00062033045
-0.025137184 0.006161346 -0.003567941 0.0031947095 -0.003623568 0.00648762 -0.0039525013 -0.0077371406
-0.0030957132 -0.0077716657 0.036410514 -0.0106515605 0.0042393166 -0.012314755 0.0020269414 -0.02724453
0.007948839 2.0022679e-05 -0.043034296 -0.0039177183 0.0006878973 0.009405981 -0.0016046813 0.0031261214
0.00138902 0.0039889487 0.0032186566 -0.0034735238 0.0017675972 0.0036550034 0.0066760276 0.00040629925
-0.0056221415 -0.009208922 -0.0014067513 0.007866911 0.004325522 -0.0006273093 0.0061218566 -0.008543811
0.00022981431 0.00022983308 0.00022974625 0.01494503 -0.0028506618 -0.00036171058 -0.013898199 0.007869602
0.0071497294 0.00670029 -0.0023614606 0.017754873 0.004539015 -0.0127206305 0.00016250473 -0.032727495
-0.00037266526 0.036947425 -0.054818336 0.00024553694 0.00010610421 -0.0016555386 0.0006322373 -0.00033323537
0.0049180454 -0.004422041 0.0050156633 0.0043204357 -0.003244303 0.005969342 -0.021837978 -0.012918506
-0.021162648 0.008035003 -0.011759922 0.0052638375 0.01390915 -0.010557642 0.008167196 0.017054638
0.004945174 -0.007919154 -0.005753145 0.022289637 -0.009924337 0.002292506 -0.0037137775 0.009565056
-0.00095490535 -0.0030141787 -0.006103316 0.0023828675 0.0030257246 -0.0022516465 -0.00038988725 -0.0037565813
0.0011522387 -0.036505416 0.0018514226 0.0003696098 0.0055458876 0.0050177863 -0.007424393 0.0071947128
00000000: 9d42 4abb 84a6 27bc d32f f4bb 5d25 9dbb
00000010: be82 df3b efce 1dbb 1bfa 27ba ea07 333c
00000020: f359 abbb 3229 69bc 5a21 af3a 7a4a 573c
00000030: df6d b2b9 6cb1 803b 4f3a c4bb 5ef1 ce3b
00000040: 691d 28bc 64cd 0aba 9d34 7fbb e439 95ba
00000050: 4585 4d3a 2f09 5eba f1af f3b9 5618 9938
00000060: 0015 15ba 1be5 b6ba a84a 45b9 1dde a6ba
00000070: 82d7 2dba 5098 bd3b 0c01 9fbb c00b 9cba
00000080: d976 3e3b de3e 863b f808 8aba e1b6 3a3c
00000090: 3f16 f939 8f49 26bc 9ec2 883c 2839 14bc
000000a0: 7514 9c3b 7a81 97ba 0a72 023b 9d79 99bb
000000b0: 9fe2 dd3b 739a 6aba 53fe eabb e284 273c
000000c0: 9aac 0e3b 8307 913b 289e 01bc 403a 443b
000000d0: 8fc9 243b a2f1 6abb eb63 8eb8 c77d 043c
000000e0: 34d6 bfbb cff6 93b9 a8f0 be39 da0a bc3a
000000f0: a066 00bb 8325 043b 7981 723b 1cc3 01bc
00000100: 35da d7ba b3af dc39 e209 2cbb de0f 023b
00000110: 70bc 983b 0b5b 803c 4208 2c3a ea0f e83a
00000120: 8f9c 34bb 953e ad3b 67fc 41bb b5e0 593a
00000130: 634f 9cbb b226 1bbb fce0 2539 a9ee 8fbb
00000140: 80ad 9739 3f2c cfba e610 3b3c 4807 a3bc
00000150: 156a a7bb 17b0 1dbb f916 333c 534b feba
00000160: 64ef ff39 516c c93a e283 26bb 1932 20bc
00000170: fe81 193c 3029 c53a 2a27 863b 0083 b9ba
00000180: 0057 793b fe59 92ba 6983 0b3c 9723 e83a
00000190: 5b6d b93c 9623 513c c18b 4b37 dbfa a03b
000001a0: 6cf0 4fbc 82b5 cc39 1d6a 773a 16cd 323b
000001b0: 8a80 08ba 85f8 193c 4520 1abc 192f a13a
000001c0: 8585 f93b 4a9a b4bb a2f7 29bc 472f 1f3c
000001d0: 4fc5 7e3c 7fd0 8fbc 9b91 ecba b62b 593c
000001e0: 1b6e 93bc 13fc 01bc 9a21 2c3c 8243 943c
000001f0: 9260 69bb 5e07 58ba 9067 97bb b849 4dbb
00000200: 75eb d53a 3e88 14bb 74fb 713a 29c6 833b
00000210: 9983 133a 1982 b43b c37d b4bb 2558 433c
00000220: 4c20 9aba bc7e 493c 7fda 40bc a746 14bb
00000230: f3cb 713b 1a7b fb39 74c9 8c3c 8e67 a2bc
00000240: 7b82 f73a afb6 5cbb 4d54 093c 20b5 baba
00000250: 1ba8 f53a bd38 8b3b 5695 86bb ac9d 22ba
00000260: 7fec cdbc 1ee5 c93b 1ed4 69bb 555e 513b
00000270: 6279 6dbb 1a96 d43b fc83 81bb d787 fdbb
00000280: 73e1 4abb 75a9 febb 3123 153d e283 2ebc
00000290: f7e9 8a3b d3c3 49bc 6fd6 043b ec2f dfbc
000002a0: d93b 023c 60f6 a737 bb44 30bd 3460 80bb
000002b0: 0254 343a 8b1b 1a3c 2b54 d2ba 9ddf 4c3b
000002c0: c70f b63a bab5 823b 19f0 523b 0fa4 63bb
000002d0: b8ae e73a c888 6f3b 94c2 da3b 9004 d539
000002e0: f139 b8bb 05e1 16bc be62 b8ba 37e4 003c
000002f0: 1cbd 8d3b 0472 24ba db99 c83b 57fb 0bbc
00000300: 4ffa 7039 59ff 7039 0ae8 7039 00dc 743c
00000310: 2bd2 3abb f9a3 bdb9 46b5 63bc 81ef 003c
00000320: 4748 ea3b 1b8e db3b bcc2 1abb ab72 913c
00000330: 04bc 943b 316a 50bc 0866 2a39 440d 06bd
00000340: 4962 c3b9 2f56 173d 3189 60bd 69bb 8039
00000350: 4484 de38 a8fe d8ba babc 253a 18b6 aeb9
00000360: 8e27 a13b c5e6 90bb 6f5a a43b 7192 8d3b
00000370: 5f9e 54bb 789a c33b 8fe5 b2bc 24a8 53bc
00000380: 4a5d adbc 3fa5 033c b0ac 40bc 457c ac3b
00000390: 34e3 633c f6f9 2cbc b4cf 053c 2bb6 8b3c
000003a0: 200b a23b 57bf 01bc e184 bcbb c298 b63c
000003b0: b099 22bc de3d 163b d962 73bb c1b6 1c3c
000003c0: 9d52 7aba 8789 45bb 53fe c7bb e229 1c3b
000003d0: 3c4b 463b 5c90 13bb c869 ccb9 fa30 76bb
000003e0: b706 973a b486 15bd 6fab f23a 30c8 c139
000003f0: 47ba b53b 3e6c a43b 5348 f3bb a0c1 eb3b

env_model.conv2_state1.bias f4 [3]
-0.000103470986 0.0020701985 -0.00031821008
00000000: 90fe d8b8 2bac 073b 6fd5 a6b9

env_model.conv2_state2.weight f4 [3, 32, 3, 3]
0.801884 1.4154525 0.997772 -0.09252508 0.048400313 0.44026014 0.2583522 -0.14009248
-0.06371842 0.5559146 0.17335828 -0.0655964 -0.25304788 0.16446957 -0.08309999 -0.0765952
-0.17704283 -0.16287598 0.22365358 0.56324553 0.3302468 0.04196557 -0.015633546 0.10587215
-0.036590315 -0.19654898 -0.040641237 0.60556436 0.45511794 0.14810833 0.003910915 -0.015363675
4.330102 -0.022480581 0.00044530467 -0.0047711073 -0.86314523 0.55822736 0.8539229 -0.10535523
0.0645592 -0.04110858 -0.08350859 -0.10541836 0.075066745 0.16397771 0.25280327 0.22295068
-0.026895497 -0.030408662 0.005012182 0.04901363 -0.04937025 -0.07594362 0.28147852 0.4975641
0.5706248 -0.04950006 -0.05787752 0.072262116 -0.35691887 -0.0060150838 0.060784142 0.24071081
0.5163738 -0.02639188 0.019469926 -0.0019629872 0.014020952 -0.09320059 -0.09365341 -0.21913154
0.03535066 0.09822818 0.00750371 0.12014944 -0.030999802 -0.05611296 0.0143688 -0.026063576
0.0061552455 0.18140273 0.41564965 0.49046826 -0.011128848 -0.1000156 0.20307136 0.094440356
-0.3073391 0.2883424 0.16326693 0.9412732 0.0987917 0.33148605 0.32504454 -0.35584947
0.36991197 -0.30693638 -0.54999495 0.05290969 -0.07994006 0.012733037 5.562087 -0.23085065
1.495672 0.12637804 0.060808565 0.02308177 0.6524014 0.32475233 0.939499 0.044865362
0.05392654 0.1630121 0.10780181 -0.06948889 -0.083382316 0.052479755 0.004437459 0.024890512
-0.2188515 -0.13435632 -0.03834363 0.061209057 -0.25422645 -0.12832627 -0.035389107 -0.18561125
-0.6692441 0.07975427 -0.44146132 0.93243235 -0.49833825 -0.07773315 0.53586847 -0.27581912
0.098469615 0.24535675 0.040150825 0.16905783 0.15841588 0.12097931 0.039669883 0.12322019
0.4471381 0.08503777 0.011686346 0.02393488 2.3067327 0.06587836 -0.032654583 0.04708823
-0.01028646 0.073876195 0.043462966 0.005589731 -0.038432114 -0.06786961 0.0043209065 0.021049106
0.010332957 0.043141823 -0.030485861 -0.028551137 0.020129986 0.05211548 0.039204355 0.028496737
0.0138283 0.008526069 0.037881654 -0.19258153 0.15891346 0.36891976 -0.0658212 0.24849021
0.26276872 0.48166433 -0.15423606 0.0042811497 0.13831396 -0.029579028 0.044019554 -0.041052617
0.004651901 0.054959506 0.1364695 -0.0061779614 -0.08282151 -0.00694596 -0.01172315 11.205098
0.036267042 0.028995909 0.041498374 0.034273583 0.033777203 0.26695856 0.20519854 0.27726108
0.25327292 0.04623874 0.07009807 -0.09880932 -0.04740726 0.0038260757 -0.17180069 -0.055642672
0.13654043 -0.03279881 -0.0645019 4.7399836 1.4472797 -0.035677552 0.14793415 -0.074522726
-0.41721475 1.1374816 1.7465305 0.10269365 -0.57634354 0.44871858 0.09178581 -0.05693154
0.14695054 0.6703992 0.47758514 0.3452491 0.042067587 -0.15358795 0.29790473 0.08379255
0.06043853 0.5266041 0.6510965 0.13712934 0.42467308 -0.17366621 0.078928664 0.39177832
0.12076307 0.04747198 -0.13022357 -0.0036309802 0.009428392 7.2155128 -0.015054168 -0.021815386
-0.01536433 -0.03256395 0.034024652 0.018786008 0.17276175 0.4043132 -0.17671047 -0.12229426
00000000: 4548 4d3f 8c2d b53f fc6d 7f3f ca7d bdbd
00000010: 683f 463d c769 e13e bd46 843e 6774 0fbe
00000020: ce7e 82bd 6b50 0e3f d584 313e 6857 86bd
00000030: 7e8f 81be b66a 283e 5430 aabd f2dd 9cbd
00000040: b74a 35be f6c8 26be 7205 653e dc30 103f
00000050: 1c16 a93e 17e4 2b3d ec11 80bc 7fd3 d83d
00000060: badf 15bd 2344 49be 6d77 26bd 4406 1b3f
00000070: 3805 e93e b6a9 173e 2227 803b ecb7 7bbc
00000080: 3290 8a40 3229 b8bc c877 e939 f356 9cbb
00000090: 16f7 5cbf fde7 0e3f b19a 5a3f 7cc4 d7bd
000000a0: 9d37 843d 7861 28bd 8d06 abbd 95e5 d7bd
000000b0: 98bc 993d c6e9 273e 6e6f 813e 2f4d 643e
000000c0: f253 dcbc 961b f9bc 3b3d a43b 84c2 483d
000000d0: 7638 4abd 5488 9bbd f41d 903e b9c0 fe3e
000000e0: 7814 123f 93c0 4abd fa10 6dbd 29fe 933d
000000f0: 12be b6be 2e1a c5bb cbf8 783d e57c 763e
00000100: 1331 043f c933 d8bc 657f 9f3c 76a5 00bb
00000110: 23b8 653c f3df bebd 5ccd bfbd 0564 60be
00000120: dbcb 103d db2b c93d afe1 f53b e910 f63d
00000130: 4cf3 fdbc b4d6 65bd 1e6b 6b3c 4883 d5bc
00000140: f1b1 c93b a3c1 393e 08d0 d43e a81e fb3e
00000150: c655 36bc fbd4 ccbd f0f1 4f3e f269 c13d
00000160: 8d5b 9dbe 9da1 933e 722f 273e 48f7 703f
00000170: 4e53 ca3d 8ab8 a93e 3d6c a63e e731 b6be
00000180: 1a65 bd3e c426 9dbe 78cc 0cbf d5b7 583d
00000190: 9db7 a3bd 3a9e 503c 9efc b140 1d64 6cbe
000001a0: 2e72 bf3f 3f69 013e 6712 793d fb15 bd3c
000001b0: c703 273f f045 a63e 0283 703f bec4 373d
000001c0: 13e2 5c3d a5ec 263e 32c7 dc3d 3150 8ebd
000001d0: 59c4 aabd 03f5 563d 1b68 913b 30e7 cb3c
000001e0: 9c1a 60be b494 09be 360e 1dbd 59b6 7a3d
000001f0: f829 82be f667 03be 2bf4 10bd e010 3ebe
00000200: 9553 2bbf 3556 a33d 3807 e2be e3b3 6e3f
00000210: 3126 ffbe 8f32 9fbd ad2e 093f 2a38 8dbe
00000220: 70aa c93d cd3e 7b3e 3175 243d 7f1d 2d3e
00000230: c637 223e 00c4 f73d e37c 223d de5a fc3d
00000240: 49ef e43e 4828 ae3d 1678 3f3c 1513 c43c
00000250: 82a1 1340 3ceb 863d d0c0 05bd 96df 403d
00000260: 8a88 28bc 674c 973d 3906 323d 102a b73b
00000270: fe6a 1dbd 39ff 8abd 6496 8d3b 2d6f ac3c
00000280: 904b 293c 7bb5 303d 7cbd f9bc 13e4 e9bc
00000290: a4e7 a43c 0b77 553d bf94 203d fd71 e93c
000002a0: 1890 623c edb0 0b3c cb29 1b3d 1834 45be
000002b0: 36ba 223e 0de3 bc3e 44cd 86bd 3874 7e3e
000002c0: 9f89 863e b59c f63e 0ff0 1dbe e348 8c3b
000002d0: 2da2 0d3e b84f f2bc d94d 343d ca26 28bd
000002e0: f96e 983b 381d 613d a9be 0b3e 7f70 cabb
000002f0: 539e a9bd f09a e3bb 7412 40bc 1548 3341
00000300: c08c 143d d488 ed3c 33fa 293d 7562 0c3d
00000310: f759 0a3d cbae 883e 911f 523e 2af5 8d3e
00000320: fdac 813e d564 3d3d 948f 8f3d 8a5c cabd
00000330: 1d2e 42bd e6be 7a3b 85ec 2fbe 92e9 63bd
00000340: 41d1 0b3e 0c58 06bd 9219 84bd f2ad 9740
00000350: 7640 b93f a022 12bd 0d7c 173e 5f9f 98bd
00000360: 2c9d d5be ff98 913f 508e df3f 0c51 d23d
00000370: 408b 13bf 71be e53e 33fa bb3d 0c31 69bd
00000380: 347a 163e 489f 2b3f 0a86 f43e 7dc4 b03e
00000390: 104f 2c3d 2946 1dbe f886 983e 6e9b ab3d
000003a0: 648e 773d 87cf 063f 43ae 263f a26b 0c3e
000003b0: c06e d93e 8ed5 31be 5aa5 a13d 2b97 c83e
000003c0: a152 f73d fb71 423d 5459 05be bdf5 6dbb
000003d0: 8b79 1a3c 7be5 e640 c2a5 76bc 2eb6 b2bc
000003e0: acba 7bbc c761 05bd 6f5d 0b3d 1de5 993c
000003f0: 75e8 303e 2402 cf3e 97f3 34be 6a75 fabd

env_model.conv2_state2.bias f4 [3]
-0.06591072 0.26702604 0.13368218
00000000: 33fc 86bd a3b7 883e fbe3 083e

imagination.0.weight f4 [256, 3]
0.35999817 -0.43206382 -0.0767777 0.030436218 -0.56017727 0.52210665 0.38681227 -0.50004745
-0.11285573 0.2594627 0.2629063 0.46999645 -0.3227172 0.48367512 -0.283884 0.27452713
0.34744626 -0.3382732 0.19349933 0.0024709105 0.4365394 -0.3740604 -0.09599197 0.017546833
0.33789265 -0.27113625 0.29231495 -0.3135583 0.13254082 -0.5731726 0.27611303 -0.5194591
0.05158782 -0.09163663 -0.1985031 -0.46295738 0.16569048 -0.167514 0.01863116 -0.137705
-0.3455559 -0.25421393 0.08194506 -0.34346443 0.24281102 -0.18708384 0.24876499 -0.43970633
-0.13632002 0.5389193 -0.44032598 0.4341855 0.08707613 -0.4846659 0.4804833 0.29855973
-0.23882082 0.5616478 -0.039649904 0.28744662 0.2808618 -0.0663507 -0.56361026 -0.07834813
0.22007197 0.37261134 0.31747395 0.072956145 -0.13368145 0.5378611 0.5102345 -0.20793867
-0.072693944 0.48546684 0.52175057 -0.20865694 -0.4187089 -0.45015025 0.33160478 0.34446394
-0.4831249 -0.51993287 -0.14895877 0.089873135 0.31812358 0.36071026 0.5335518 0.08206266
-0.116200805 0.41829193 -0.28816354 0.37187946 0.0988543 0.39053893 -0.08374557 -0.07214594
-0.52580374 0.3557886 -0.22692844 0.42157215 0.56179893 -0.46310377 -0.43806428 0.36817372
-0.023098886 0.31736338 -0.533291 -0.44709563 -0.06559187 -0.32149878 0.36374456 -0.5208345
-0.5538371 0.5589161 -0.49990675 -0.03333187 0.4307971 -0.16675094 -0.36947992 0.08103305
0.081648886 -0.43294966 0.50070405 0.04365748 0.045076728 -0.25355732 0.08075464 0.3867767
0.0012288094 0.35015875 -0.19229999 0.38675773 0.25163823 0.21621656 -0.5309598 0.17294502
-0.5396638 -0.39050737 0.08846265 -0.30390126 -0.35951152 0.53297615 -0.3453265 -0.51855916
-0.4963879 -0.45211995 -0.52586234 0.5089005 0.2927717 0.05483985 -0.4183925 0.24957377
-0.5357705 0.4105652 -0.38566694 -0.15004718 -0.10996431 0.44037378 0.15274954 -0.25517678
-0.3675567 0.5303283 -0.24336633 0.43137634 0.47827137 -0.5256598 -0.19811225 0.367442
0.10923469 -0.5474518 0.057804525 -0.13099623 -0.004900813 0.31279927 0.38648432 0.5343301
-0.34641927 0.5094434 -0.24159077 0.25254 -0.41746584 0.2265805 -0.21434247 0.2869172
0.09216124 0.1810978 0.45792162 -0.2095618 -0.2702994 0.060153425 0.5074289 -0.4709785
-0.2858093 0.21187699 0.48958147 0.33206832 0.54652584 -0.40322074 -0.18086222 -0.29376876
-0.38426745 0.44075775 -0.57274824 0.07895416 -0.1769219 -0.3889969 0.16234386 -0.2773598
0.315318 -0.087827146 0.0794065 -0.44260773 0.0076038837 0.2501455 -0.051065385 -0.5323827
-0.39185923 -0.56148297 0.22529668 -0.0641793 -0.09567484 0.5422603 0.14172173 0.36098915
0.2778148 0.45521796 0.25415397 -0.4543038 -0.5314093 -0.2122632 0.42878807 -0.4304888
0.37074113 -0.13660267 0.32351393 0.3513825 -0.38171208 0.12866902 0.30757356 0.3343321
-0.033185244 -0.51088154 -0.09864238 -0.4183556 0.32866985 -0.17158428 0.19431007 0.51851654
-0.043717086 -0.430759 0.17832673 -0.5307809 0.20638502 0.14088804 0.059104204 -0.41325715
00000000: ae51 b83e 7837 ddbe a03d 9dbd 6055 f93c
00000010: c767 0fbf c8a8 053f 420c c63e 1c03 00bf
00000020: e820 e7bd 4cd8 843e a89b 863e 60a3 f03e
00000030: 303b a5be 44a4 f73e 3e59 91be d28e 8c3e
00000040: 7ae4 b13e 2532 adbe b024 463e 00ef 213b
00000050: 1882 df3e d884 bfbe 7097 c4bd 60be 8f3c
00000060: 4400 ad3e 5fd2 8abe 4eaa 953e b78a a0be
00000070: c8b8 073e 71bb 12bf b05e 8d3e 46fb 04bf
00000080: c04d 533d fcab bbbd 6644 4bbe c008 edbe
00000090: c4aa 293e ca88 2bbe 60a0 983c 8a02 0dbe
000000a0: b4ec b0be 5428 82be d0d2 a73d 92da afbe
000000b0: 74a3 783e e892 3fbe 40bc 7e3e 3021 e1be
000000c0: 7a97 0bbe 9ef6 093f 6872 e1be 904d de3e
000000d0: f854 b23d 2126 f8be e801 f63e d2dc 983e
000000e0: 728d 74be 26c8 0f3f f067 22bd 342c 933e
000000f0: 1ecd 8f3e e0e2 87bd c348 10bf fc74 a0bd
00000100: 8c5a 613e eac6 be3e f28b a23e 086a 953d
00000110: cae3 08be 44b1 093f ba9e 023f e0ed 54be
00000120: 90e0 94bd 1c8f f83e 7291 053f 2aaa 55be
00000130: 0361 d6be 187a e6be 1ac8 a93e 945d b03e
00000140: 265c f7be 521a 05bf a688 18be 680f b83d
00000150: 18e1 a23e 04af b83e da96 083f 7810 a83d
00000160: b0fa edbd 5c2a d63e 2c8a 93be fc66 be3e
00000170: 2074 ca3d b8f4 c73e cc82 abbd 40c1 93bd
00000180: 139b 06bf ec29 b63e ee5f 68be 4ed8 d73e
00000190: 0ed2 0f3f f01b edbe f649 e0be 4481 bc3e
000001a0: e039 bdbc 747d a23e c285 08bf b8e9 e4be
000001b0: 0855 86bd 7d9b a4be ba3c ba3e 6955 05bf
000001c0: 45c8 0dbf 2015 0f3f c7f3 ffbe 0087 08bd
000001d0: 7091 dc3e c2c0 2abe 792c bdbe a8f4 a53d
000001e0: 8837 a73d 94ab ddbe 242e 003f 30d2 323d
000001f0: 60a2 383d 44d2 81be b062 a53d 9807 c63e
00000200: 0010 a13a 0248 b33e 4aea 44be 1c05 c63e
00000210: bad6 803e e067 5d3e fbec 07bf 8018 313e
00000220: 6827 0abf 95f0 c7be e82b b53d f298 9bbe
00000230: e511 b8be 2071 083f a3ce b0be 4bc0 04bf
00000240: 8e26 febe 447c e7be ea9e 06bf 4e47 023f
00000250: 2ce6 953e c09f 603d 8b37 d6be 4490 7f3e
00000260: 4128 09bf 9a35 d23e 2376 c5be f8a5 19be
00000270: f834 e1bd ac78 e13e 606a 1c3e 88a6 82be
00000280: 6430 bcbe 98c3 073f 0635 79be 5cdd dc3e
00000290: fcdf f43e a491 06bf f0dd 4abe 5c21 bc3e
000002a0: 70b6 df3d cd25 0cbf 70c4 6c3d e023 06be
000002b0: 0097 a0bb 3a27 a03e 46e1 c53e dcc9 083f
000002c0: de5d b1be e26a 023f 9263 77be ec4c 813e
000002d0: 15be d5be b804 683e 987c 5bbe d0e6 923e
000002e0: 08bf bc3d b471 393e b474 ea3e 5e97 56be
000002f0: af64 8abe 7063 763d dce6 013f 1824 f1be
00000300: 9955 92be 48f6 583e 6caa fa3e dc04 aa3e
00000310: 1ee9 0b3f f372 cebe f233 39be dc68 96be
00000320: b4be c4be 00ab e13e a19f 12bf b8b2 a13d
00000330: 042b 35be 9a2a c7be 783d 263e 1b02 8ebe
00000340: 5c71 a13e b8de b3bd e09f a23d 7b9d e2be
00000350: 002a f93b 1213 803e f029 51bd 3c4a 08bf
00000360: c6a1 c8be 59bd 0fbf 2cb4 663e 7070 83bd
00000370: 2cf1 c3bd 92d1 0a3f 801f 113e 92d3 b83e
00000380: be3d 8e3e 5412 e93e 7820 823e 829a e8be
00000390: 710a 08bf 865b 59be 1c8a db3e 0769 dcbe
000003a0: c8d1 bd3e 92e1 0bbe 9ea3 a53e 68e8 b33e
000003b0: c46f c3be d0c1 033e 487a 9d3e 942d ab3e
000003c0: 40ed 07bd 22c9 02bf 0405 cabd b532 d6be
000003d0: 6a47 a83e cab3 2fbe 38f9 463e 80bd 043f
000003e0: b010 33bd 728c dcbe 489b 363e 42e1 07bf
000003f0: 9856 533e f444 103e 4017 723d 7196 d3be

imagination.0.bias f4 [256]
0.4405341 0.30973607 0.5153526 0.031740963 -0.29215688 0.29630435 -0.46842864 -0.3316815
0.32446206 -0.40022752 -0.2691503 -0.23926598 0.02730459 -0.19545338 -0.49501985 -0.42677483
0.43694115 0.03716272 -0.21307603 0.17002487 0.014594436 -0.32831872 -0.02817744 0.49491227
-0.30290523 0.2645592 0.14941388 0.13875097 -0.15929899 -0.04366064 -0.31880584 -0.12150133
0.0568918 -0.119142205 0.31293333 -0.34854597 -0.24333805 0.44192874 0.0811314 0.49238276
0.34325147 0.10470241 -0.023819089 -0.27070266 0.04578924 0.28302097 -0.34141314 -0.36929038
0.11985421 -0.37015414 -0.024545789 0.20839661 0.32731563 -0.24368039 0.36794132 0.1454466
-0.09887275 -0.15999648 -0.057791412 0.2679727 0.34853303 -0.44223318 -0.19473916 -0.2413646
0.53743374 -0.031120896 -0.10932094 0.4584973 -0.076702595 0.47729087 -0.11253825 0.35307783
-0.28617704 0.28854287 -0.5549158 -0.5715661 -0.5526441 0.22621977 0.5376755 0.36873776
-0.47710577 0.11500418 -0.2892881 0.49866104 0.41158462 -0.09696883 -0.39399332 -0.012232065
0.57078826 -0.5610186 0.26668715 0.5320927 -0.3379286 -0.48004812 0.383676 0.22367889
-0.044873774 -0.43418574 0.32573807 0.004723072 -0.054923356 -0.55961406 -0.3257438 -0.27693728
0.27066857 0.5386776 -0.05778718 0.21857893 -0.27350295 -0.285857 -0.10897529 0.10718238
0.09343028 0.29840028 0.27442318 0.53646827 -0.23388019 0.037597477 -0.009262264 0.15955889
-0.116265506 0.5513799 -0.15110642 0.09079802 0.20118147 -0.5667801 0.13550568 -0.44513774
0.5404066 0.4547112 0.30557013 -0.38237563 -0.14317358 0.26677758 0.26716882 -0.106507
0.4344269 -0.024456024 0.23940468 0.42611766 -0.2258048 -0.049068987 -0.13974285 0.004457116
-0.17624906 0.08817375 0.3845852 0.3236283 -0.2440731 0.02639556 -0.40110368 -0.52682847
0.08044368 0.13611734 0.33984023 0.5043831 -0.019793987 -0.25989002 -0.4979442 0.3928141
-0.4436929 0.43546474 -0.16970816 -0.050712228 -0.55275166 0.5657965 -0.534555 0.10773939
-0.30908114 0.34817111 0.106455564 -0.29192603 0.29262638 -0.3570912 -0.18136802 -0.51003134
0.27157688 -0.31216246 0.29388535 -0.55932444 -0.07681817 -0.09759155 -0.20029333 -0.5638559
0.15963894 -0.5107118 -0.56097794 -0.44327602 -0.5552155 0.30930358 0.01819694 0.31893772
0.47660434 -0.36165404 -0.28252205 0.1681698 -0.43902332 0.39883035 0.30551237 0.24564648
0.115371406 0.0190745 -0.27643913 -0.29615495 -0.45329544 -0.5660916 0.33965296 -0.3754421
-0.0601933 0.038681865 -0.2129462 0.05057478 -0.1613926 0.41315103 0.53498197 0.13342732
0.377402 -0.5498922 0.22436082 0.120839 0.32359838 0.3798573 0.507421 -0.00042772293
-0.5331022 -0.109740704 -0.41772813 -0.48209012 -0.24207985 0.05809635 0.36409461 0.29934317
0.37019742 -0.2620639 0.1325832 0.0890609 -0.11219123 -0.46841764 0.03357762 -0.56185675
0.31146884 0.20155936 -0.34223336 -0.3447554 -0.4756326 0.13272649 -0.4887723 0.21868646
0.35339904 -0.2920608 0.086672306 -0.4754719 -0.16503444 0.17037457 -0.13557923 -0.31206107
00000000: b08d e13e ba95 9e3e 26ee 033f d002 023d
00000010: 9695 95be 34b5 973e e1d5 efbe 28d2 a9be
00000020: e41f a63e 9fea ccbe 11ce 89be 2402 75be
00000030: e0ad df3c ee24 48be 3e73 fdbe 3b82 dabe
00000040: c0b6 df3e f037 183d 9a30 5abe 001b 2e3e
00000050: 801d 6f3c 6419 a8be 60d4 e6bc 2465 fd3e
00000060: 6516 9bbe 4e74 873e f4ff 183e bc14 0e3e
00000070: 461f 23be 80d5 32bd 853a a3be b0d5 f8bd
00000080: 6007 693d d400 f4bd cc38 a03e 9e74 b2be
00000090: 9c2d 79be 7c44 e23e 3828 a63d 9819 fc3e
000000a0: a8be af3e 386e d63d 4020 c3bc 8a99 8abe
000000b0: 808d 3b3d 20e8 903e b4cd aebe a113 bdbe
000000c0: 2076 f53d d884 bdbe 4014 c9bc ec65 553e
000000d0: ea95 a73e 5a87 79be ce62 bc3e f4ef 143e
000000e0: cc7d cabd 1ed6 23be b0b6 6cbd b833 893e
000000f0: ec72 b23e 636c e2be b469 47be 4828 77be
00000100: 4295 093f 40f1 febc a8e3 dfbd 28c0 ea3e
00000110: 4016 9dbd 785f f43e 747a e6bd 9ec6 b43e
00000120: cc85 92be e4bb 933e f60e 0ebf 2852 12bf
00000130: 157a 0dbf 28a6 673e 1aa5 093f 32cb bc3e
00000140: 3547 f4be 5087 eb3d 921d 94be 8050 ff3e
00000150: 38bb d23e 9897 c6bd 7eb9 c9be 0069 48bc
00000160: 2e1f 123f ea9e 0fbf 388b 883e 3a37 083f
00000170: fa04 adbe dec8 f5be 2e71 c43e 140c 653e
00000180: 90cd 37bd 984d debe 24c7 a63e 00c4 9a3b
00000190: 50f7 60bd de42 0fbf e4c7 a6be b9ca 8dbe
000001a0: 1295 8a3e c6e6 093f 40b2 6cbd 28d3 5f3e
000001b0: 9408 8cbe d95b 92be 702e dfbd 7082 db3d
000001c0: 6058 bf3d ecc7 983e 3281 8c3e fc55 093f
000001d0: 4a7e 6fbe d0ff 193d c0c0 17bc 6863 233e
000001e0: 9c1c eebd 3c27 0d3f a4bb 1abe 50f4 b93d
000001f0: 8402 4e3e 8018 11bf 00c2 0a3e 18e9 e3be
00000200: 1658 0a3f e8cf e83e b073 9c3e bdc6 c3be
00000210: 189c 12be 1297 883e 5aca 883e 5820 dabd
00000220: 346d de3e 0058 c8bc 8026 753e 182c da3e
00000230: 6039 67be 90fc 48bd c018 0fbe 000d 923b
00000240: a27a 34be 7094 b43d 5ae8 c43e 9cb2 a53e
00000250: 4cee 79be 803b d83c 765d cdbe 3bde 06bf
00000260: a8bf a43d 5862 0b3e 8aff ad3e 401f 013f
00000270: 0027 a2bc 4e10 85be 8bf2 febe ee1e c93e
00000280: b72b e3be 3cf5 de3e fac7 2dbe a0b7 4fbd
00000290: 2281 0dbf 0ad8 103f 99d8 08bf 78a6 dc3d
000002a0: e23f 9ebe 7c43 b23e 6005 da3d 5477 95be
000002b0: 20d3 953e a8d4 b6be 8ab8 39be 6a91 02bf
000002c0: 200c 8b3e c2d3 9fbe 2478 963e e32f 0fbf
000002d0: d852 9dbd 14de c7bd b219 4dbe dc58 10bf
000002e0: 6478 233e 02be 02bf 409c 0fbf 13f5 e2be
000002f0: 9a22 0ebf 0a5d 9e3e c011 953c ce4b a33e
00000300: 7c05 f43e b82a b9be bba6 90be b434 2c3e
00000310: aac7 e0be 7e33 cc3e 1e6c 9c3e c08a 7b3e
00000320: d847 ec3d 2042 9c3c 6e89 8dbe 9fa1 97be
00000330: 5716 e8be 61eb 10bf fee6 ad3e f239 c0be
00000340: 408d 76bd e070 1e3d 920e 5abe 8027 4f3d
00000350: 1a44 25be 8888 d33e 94f4 083f 2ca1 083e
00000360: d63a c13e bcc5 0cbf d8be 653e 707a f73d
00000370: b0ae a53e a87c c23e 58e6 013f 0040 e0b9
00000380: 6379 08bf bcbf e0bd 76e0 d5be 84d4 f6be
00000390: c8e3 77be 70f6 6d3d 9c6a ba3e 8243 993e
000003a0: 848a bd3e 3d2d 86be e4c3 073e 9065 b63d
000003b0: 84c4 e5bd 70d4 efbe b088 093d d8d5 0fbf
000003c0: d878 9f3e 9465 4e3e 3639 afbe c883 b0be
000003d0: 1e86 f3be 74e9 073e 5d40 fabe 58ef 5f3e
000003e0: b8f0 b43e fe88 95be 4081 b13d 0e71 f3be
000003f0: cafe 28be ac76 2e3e 48d5 0abe 78c6 9fbe

imagination.2.weight f4 [256, 256]
-0.004673831 0.054563805 0.04266516 -0.02888015 -0.044241413 0.026942559 -0.04741563 -0.043182805
0.03273014 0.011046931 -0.012596637 0.020799153 0.034205057 -0.047329843 0.0042717606 0.052335404
0.025919586 -0.009506717 -0.002057217 -0.05506313 0.023964256 0.05050698 -0.06070023 0.016194418
0.0003758222 0.049908303 -0.0069341287 -0.046996556 -0.033326194 0.01530432 0.02976419 -0.040529847
-0.059037194 -0.03624315 -0.056406192 -0.03642863 0.010305509 -0.052493155 0.04478793 0.062391095
0.04287468 -0.0054706708 0.045490824 -0.041428454 -0.056224175 0.009385377 0.061546296 -0.010193832
0.027476601 0.02385676 -0.002583526 0.014144413 -0.015524872 0.033583313 -0.024915285 0.04272785
-0.0377514 -0.027971387 0.036774278 0.05139646 0.011049986 0.012924112 0.035125315 -0.02304615
0.037179545 0.060626492 0.00937295 0.057196155 0.010568716 -0.060071073 0.007015161 -0.04657279
-0.009316839 -0.054404087 -0.03254991 -0.06033951 -0.009286955 0.009544127 0.005468406 -0.056649826
0.037975408 -0.019102864 0.052554406 -0.015694164 -0.02779457 0.00019486994 0.024635233 0.056488395
0.05951819 0.019273184 0.012496553 0.043127604 -0.049627334 0.0041288957 0.05090449 0.050539315
-0.02284757 -0.045510694 0.022147916 0.0040532798 -0.035992384 -0.060704954 0.0300214 0.038360074
0.045648634 -0.05272077 -0.012652181 -0.057302035 0.039742067 0.061405838 0.038931422 0.010994449
0.040464066 -0.00761579 -0.037474215 -0.047381654 -0.009325147 0.036874898 0.04981166 -0.034409747
0.013108432 -0.006660916 -0.0277462 -0.05231613 -0.02619525 0.019357711 -0.06050332 -0.019028433
0.0069858506 -0.061372496 -0.042541027 0.05928903 0.03331133 0.014438488 0.010137081 -0.0068935975
-0.04244288 0.01322455 0.017965503 -0.016886413 -0.003199242 -0.04961753 0.048733525 0.056008875
0.048910223 -0.011621974 -0.041444615 0.020644993 -0.0034682378 0.037268743 0.059958562 0.025663696
-0.024008125 -0.053161472 0.016765825 -0.0497967 0.052473284 -0.007838309 0.05945322 -0.048437335
-0.058054715 -0.013909169 0.02723293 0.054970823 0.050301224 -0.011569753 0.027344137 -0.053871825
0.014720544 0.038220212 0.018071987 0.011177629 0.028326504 -0.017352737 0.002147831 0.02177082
0.053488076 -0.056075193 0.036293156 -0.037698433 0.005411312 -0.04650268 -0.02175153 -0.013743497
0.053198516 0.005830042 -0.0068027303 -0.014301255 0.062388726 0.00049996376 -0.03389954 0.057735063
-0.061129846 -0.0132952705 0.021870598 -0.051126823 -0.0193519 0.05533871 0.023698613 -0.026764847
0.040806636 -0.060515374 0.060264915 -0.013373904 -0.05796226 0.033889465 0.061912656 -0.007140748
0.020689473 -0.016856037 0.013075307 -0.013844319 0.036262035 -0.039872594 -0.0064068735 -0.049497344
0.020910218 -0.05595188 -0.038891755 0.049609095 0.048177667 -0.014323927 -0.01734098 0.046848595
-0.054030836 -0.029744044 0.048497073 -0.033854946 0.061082445 0.02395548 0.016005158 -0.012428917
-0.02227334 0.023136348 -0.016688757 0.03619264 -0.015423894 0.05446797 0.01581999 -0.005953826
-0.030533746 -0.002871856 0.0015827715 0.02010312 -0.0056418404 0.056865327 0.039199993 0.047566645
-0.0059479475 0.040680647 0.061736807 0.0029252917 -0.009407446 0.0051168352 -0.016855016 0.013357535
00000000: f026 99bb 4c7e 5f3d aac1 2e3d 1096 ecbc
00000010: 7c36 35bd a4b6 dc3c e436 42bd 74e0 30bd
00000020: 0a10 063d 30fe 343c 2062 4ebc fc62 aa3c
00000030: 9a1a 0c3d f0dc 41bd 20fa 8b3b a65d 563d
00000040: 5055 d43c 10c2 1bbc 60d2 06bb e089 61bd
00000050: b050 c43c 68e0 4e3d cea0 78bd 28aa 843c
00000060: 000a c539 a66c 4c3d b037 e3bb 767f 40bd
00000070: 0c81 08bd f8be 7a3c 08d4 f33c a002 26bd
00000080: fcd0 71bd b273 14bd 2e0a 67bd 3036 15bd
00000090: 70d8 283c 1003 57bd 8c73 373d ce8d 7f3d
000000a0: 5c9d 2f3d 5043 b3bb 9654 3a3d e2b0 29bd
000000b0: 524b 66bd 20c5 193c f817 7c3d 0804 27bc
000000c0: 9c16 e13c 406f c33c 6050 29bb f8bd 673c
000000d0: 085c 7ebc a88e 093d 241b ccbc 6603 2f3d
000000e0: 36a1 1abd 4024 e5bc a0a0 163d 1885 523d
000000f0: 000b 353c a8bf 533c 90df 0f3d 48cb bcbc
00000100: 9449 183d 7c53 783d 0091 193c 8446 6a3d
00000110: 6828 2d3c 160d 76bd 70df e53b 1cc3 3ebd
00000120: a8a5 18bc d2d6 5ebd 0e53 05bd 9026 77bd
00000130: 5028 18bc f85e 1c3c 5030 b33b a609 68bd
00000140: 1a8c 1b3d 9c7d 9cbc 4a43 573d 0c91 80bc
00000150: 70b1 e3bc 0056 4c39 d4cf c93c 6060 673d
00000160: 58c9 733d cce2 9d3c 58be 4c3c 92a6 303d
00000170: 0846 4bbd b04b 873b 3a81 503d 5002 4f3d
00000180: d42a bbbc 6c69 3abd 8c6f b53c 60d1 843b
00000190: c06c 13bd c2a5 78bd 70ef f53c 741f 1d3d
000001a0: 10fa 3a3d bcf1 57bd 184b 4fbc 8ab5 6abd
000001b0: 94c8 223d b084 7b3d 8e76 1f3d 1022 343c
000001c0: a6bd 253d e08d f9bb 907e 19bd 4413 42bd
000001d0: 80c8 18bc 220a 173d 5007 4c3d 3cf1 0cbd
000001e0: c0c4 563c d043 dabb 004c e3bc 7049 56bd
000001f0: 6c97 d6bc 1094 9e3c 54d2 77bd 84e1 9bbc
00000200: 90e9 e43b ba61 7bbd 803f 2ebd 0ed9 723d
00000210: 7671 083d 688f 6c3c 0016 263c b0e3 e1bb
00000220: 96d8 2dbd c8ab 583c 642c 933c 6055 8abc
00000230: 60aa 51bb c03b 4bbd ce9c 473d 9069 653d
00000240: 1656 483d 186a 3ebc d4c1 29bd b01f a93c
00000250: 604b 63bb 1ca7 183d 1c97 753d ac3c d23c
00000260: b0ac c4bc d8bf 59bd 7c58 893c a0f7 4bbd
00000270: 3aee 563d 406c 00bc 3885 733d 3a66 46bd
00000280: c8ca 6dbd 48e3 63bc 9817 df3c 1629 613d
00000290: a808 4e3d 108f 3dbc d000 e03c b4a8 5cbd
000002a0: 702e 713c cc8c 1c3d b40b 943c 6022 373c
000002b0: fc0c e83c 5427 8ebc a0c2 0c3b b858 b23c
000002c0: 5016 5b3d 1aaf 65bd 22a8 143d ac69 1abd
000002d0: 6051 b13b 9879 3ebd 4430 b2bc 682c 61bc
000002e0: b0e6 593d f009 bf3b 70e9 debb d04f 6abc
000002f0: 528b 7f3d 0010 033a 3eda 0abd 9a7b 6c3d
00000300: 4a63 7abd 68d4 59bc f829 b33c 5c6a 51bd
00000310: e087 9ebc d8aa 623d 9823 c23c f441 dbbc
00000320: dc24 273d f8de 77bd 58d8 763d 381e 5bbc
00000330: d669 6dbd aecf 0a3d 2098 7d3d f0fc e9bb
00000340: f87c a93c ac15 8abc d039 563c 48d3 62bc
00000350: 8087 143d 7251 23bd c0f0 d1bb babd 4abd
00000360: e84b ab3c cc2d 65bd f64c 1fbd e832 4b3d
00000370: f255 453d e8ae 6abc ac0e 8ebc 50e4 3f3d
00000380: 704f 5dbd c8a9 f3bc dea4 463d 7cab 0abd
00000390: 9631 7a3d 483e c43c 401d 833c a8a2 4bbc
000003a0: 9476 b6bc 7088 bd3c dcb6 88bc bc3e 143d
000003b0: 80b4 7cbc ce19 5f3d ec98 813c 5018 c3bb
000003c0: e821 fabc c035 3cbb 0075 cf3a 4caf a43c
000003d0: 30df b8bb 9eeb 683d 2c90 203d 3ed5 423d
000003e0: 00e7 c2bb c0a0 263d bcdf 7c3d 40b6 3f3b
000003f0: b021 1abc 20ab a73b 8813 8abc 90d9 5a3c

imagination.2.bias f4 [256]
0.035266362 -0.03779106 0.052883834 -0.04141677 -0.035580993 -0.043094672 -0.04308211 -0.009395517
-0.019993886 -0.039523743 0.008668907 0.05528234 0.05574342 -0.011619605 0.059317663 0.04704445
-0.05771008 0.041739866 -0.041851453 0.028424658 -0.020200893 0.051024906 0.016143262 -0.038202204
0.039927006 -0.03665261 0.007812947 -0.036581583 -0.010268994 -0.030568011 -0.0029587448 -0.043736078
-0.031308703 0.0061390996 -0.004441276 -0.03278961 0.019650236 -0.01152195 0.054236785 -0.027868055
0.050670296 0.028047897 -0.036209807 -0.048106328 -0.0022116676 0.04093211 -0.0327591 -0.015260994
0.009687386 -0.015825674 -0.058405355 0.037771262 -0.04308556 0.022019513 -0.011713669 -0.014963463
-0.0031117052 0.039354496 -0.062086523 -0.031586416 -0.007997356 0.05275222 -0.014078245 0.048090495
-0.03901563 0.02963791 0.045089617 -0.0049465448 -0.021370173 0.055001408 -0.03735946 0.015903592
0.04221011 -0.03928727 0.04322342 0.0071326494 0.020621166 0.021764107 -0.022758357 0.015168577
-0.023398422 0.054637313 -0.0061147287 -0.05149988 -0.03585314 -0.031422213 0.01989223 -0.020559095
-0.010804042 -0.044643365 -0.0092405155 0.010531299 -0.04708893 -0.007881746 0.020566858 -0.053330787
-0.016971454 0.054454096 -0.0568545 -0.015426271 -0.014209978 -0.015594274 0.038992666 -0.051293626
0.017383829 0.047324367 -0.041069776 0.005502671 0.0018852353 0.050324284 0.053860992 0.033055708
0.004111074 0.02945415 0.041248724 0.050318785 0.0057918876 0.022609442 0.022199199 -0.029862195
0.025951035 0.060604677 -0.033617333 0.003674306 -0.052880347 0.05780506 0.020166367 -0.055233702
0.0521745 0.054489918 0.059233397 0.031856872 0.009086862 -0.049791567 0.013893217 0.0058424175
0.032809466 0.061715133 0.0065890327 -0.05549082 -0.04175979 -0.01993955 0.01514589 -0.030433841
-0.026633658 -0.040427335 0.002050802 0.060578637 0.00022057444 -0.055722795 0.0060536712 0.013680026
0.019996062 0.013763107 0.055867627 0.035262905 0.045754723 -0.021971434 -0.010229595 0.017658174
0.03024882 0.037590668 -0.02215539 -0.040023327 0.016288482 0.019105367 -0.009992078 -0.051832467
-0.04864832 0.017811865 0.05421538 0.007780291 -0.04295963 -0.044617385 -0.058542334 0.02177962
0.03483387 -0.040054165 0.052381672 -0.040101737 0.051106937 -0.010567285 0.04237961 -0.013455585
0.042235173 -0.032557674 0.05846174 0.024508119 0.012428537 0.06137392 0.037957408 0.033530474
0.04216694 -0.059373483 -0.036949277 -0.03341102 0.031090043 0.061799303 -0.029011518 -0.06197454
-0.0016484708 0.048130095 -0.0009402707 0.024330467 -0.017341278 -0.05364132 0.052211888 -0.047909677
0.013861835 -0.04050895 0.034291156 0.034996554 -0.051157117 -0.0013028383 0.041429244 0.020043924
0.05269836 -0.05961088 0.013978966 0.031521462 0.044255488 -0.0060050637 0.060077667 -0.04753544
-0.03882657 -0.009811871 -0.040548317 0.010155901 0.042459406 0.06043592 0.012243964 0.023497887
-0.0271343 0.04423523 0.046264865 0.03515915 -0.023699045 0.024579532 -0.058298014 -0.044277765
0.0026845261 0.039517097 0.016550444 -0.0466197 -0.05822222 0.031640314 0.03926734 -0.034905806
-0.0038075075 0.05178027 0.062203765 0.03896805 0.03461252 0.025712714 0.031448193 0.032169208
00000000: 7673 103d ccca 1abd b89c 583d a2a4 29bd
00000010: 60bd 11bd 0a84 30bd de76 30bd a8ef 19bc
00000020: 38ca a3bc a6e3 21bd 0808 0e3c bc6f 623d
00000030: 3653 643d 2860 3ebc 14f7 723d aeb1 403d
00000040: 6861 6cbd 6cf7 2a3d 6e6c 2bbd d4da e83c
00000050: 587c a5bc 7eff 503d e03e 843c ea79 1cbd
00000060: 808a 233d 0c21 16bd e001 003c 92d6 15bd
00000070: 483f 28bc c469 fabc 80e7 41bb 9a24 33bd
00000080: 8e3d 00bd 802a c93b 2088 91bb 664e 06bd
00000090: 88f9 a03c 90c6 3cbc 6427 5e3d 8c4b e4bc
000000a0: a88b 4f3d b4c4 e53c bc50 14bd 240b 45bd
000000b0: a0f1 10bb 6ea8 273d 682e 06bd 4009 7abc
000000c0: d8b7 1e3c d8a4 81bc 743a 6fbd 0ab6 1a3d
000000d0: 7c7a 30bd 4462 b43c b0ea 3fbc 5029 75bc
000000e0: c0ed 4bbb 2e32 213d 704e 7ebd c260 01bd
000000f0: 5807 03bc b612 583d 70a8 66bc 8afa 443d
00000100: dace 1fbd 34cb f23c e4af 383d a016 a2bb
00000110: 8010 afbc 2849 613d 3c06 19bd 4048 823c
00000120: 82e4 2c3d b0eb 20bd 0a0b 313d 00b9 e93b
00000130: b8ed a83c a44a b23c bc6f babc a085 783c
00000140: 0cae bfbc 60cb 5f3d 105e c8bb 8af1 52bd
00000150: beda 12bd 94b4 00bd 08f5 a23c 8c6b a8bc
00000160: 7003 31bc f6db 36bd 8865 17bc 788b 2c3c
00000170: 52e0 40bd 7022 01bc d47b a83c 6271 5abd
00000180: b807 8bbc 420b 5f3d 44e0 68bd 78be 7cbc
00000190: f8d0 68bc 207f 7fbc c6b6 1f3d 4419 52bd
000001a0: 8868 8e3c 32d7 413d c838 28bd c04f b43b
000001b0: 001a f73a d620 4e3d 589d 5c3d 6c65 073d
000001c0: 30b6 863b d449 f13c 6cf4 283d 121b 4e3d
000001d0: e0c9 bd3b 7037 b93c 18db b53c 90a1 f4bc
000001e0: 4497 d43c 9c3c 783d 54b2 09bd a0cc 703b
000001f0: 1099 58bd 00c5 6c3d f033 a53c bc3c 62bd
00000200: eeb4 553d d230 5f3d b89e 723d 5a7c 023d
00000210: 10e1 143c 3ef2 4bbd 60a0 633c c071 bf3b
00000220: 3863 063d 02c9 7c3d d0e8 d73b 584a 63bd
00000230: 500c 2bbd 4458 a3bc 7826 783c 6450 f9bc
00000240: d42e dabc 2297 25bd c066 063b 4e21 783d
00000250: 004a 6739 963d 64bd e05d c63b 3022 603c
00000260: c8ce a33c a87e 613c 74d5 643d d66f 103d
00000270: 4e69 3b3d 70fd b3bc 089a 27bc e0a7 903c
00000280: 60cc f73c acf8 193d 387f b5bc 80ef 23bd
00000290: 6c6f 853c dc82 9c3c d0b5 23bc 484e 54bd
000002a0: 7643 47bd 30ea 913c f210 5e3d d0f1 fe3b
000002b0: 70f6 2fbd b8c0 36bd 16ca 6fbd 2c6b b23c
000002c0: f6ad 0e3d d60f 24bd 2a8e 563d b841 24bd
000002d0: 8255 513d 6822 2dbc 3e96 2d3d d074 5cbc
000002e0: cafe 2c3d 325b 05bd 9475 6f3d 40c5 c83c
000002f0: 10a1 4b3c 3863 7b3d 3a79 1b3d 4057 093d
00000300: 3eb7 2c3d 9c31 73bd 2058 17bd fed9 08bd
00000310: 8cb0 fe3c 4421 7d3d 90a9 edbc 04d9 7dbd
00000320: 8011 d8ba 1024 453d 807c 76ba b050 c73c
00000330: 4c0f 8ebc 00b7 5bbd 22dc 553d f03c 44bd
00000340: c01c 633c b6ec 25bd e274 0c3d 8c58 0f3d
00000350: 208a 51bd 00c4 aaba b6b1 293d 2833 a43c
00000360: 3cda 573d 8a2a 74bd 0808 653c a61c 013d
00000370: 3e45 353d 20c6 c4bb 0014 763d 86b4 42bd
00000380: 9c08 1fbd f8c1 20bc fe15 26bd f064 263c
00000390: eae9 2d3d a88b 773d e89a 483c a47e c03c
000003a0: c048 debc 0030 353d 3a80 3d3d 0a03 103d
000003b0: 8024 c2bc 045b c93c e6c9 6ebd 9a5c 35bd
000003c0: e0ee 2f3b aedc 213d cc94 873c 4cf4 3ebd
000003d0: 6c7a 6ebd 4699 013d cad6 203d 64f9 0ebd
000003e0: 6087 79bb 8c17 543d 60c9 7e3d f69c 1f3d
000003f0: dcc5 0d3d 78a3 d23c d2cf 003d dcc3 033d
