MAI2A_TreasureFinder/env_model.pth (torch, 25447 bytes, 6 tensors)

conv1.weight f4 [32, 14, 3, 3]
000000 a0 1e 34 3d 5f 8b 19 bd 58 00 d6 3c fb 49 93 bd
       0.04397452 -0.03748643 0.02612321 -0.07191845
000010 2a 9d 80 3d 44 a8 00 3d d0 b2 c3 3b ca 7e a3 3d
       0.06279977 0.03141047 0.005972244 0.079831675
000020 08 15 37 3d 3f 3d bf bc 7c fd ca 3c 3c e7 e1 bc
       0.04469779 -0.023344634 0.024779074 -0.027576081
000030 b2 0d ed bb 55 11 f9 bc 42 ef 4e bd 05 79 a1 bd
       -0.0072342986 -0.030403772 -0.050521143 -0.07884411
000040 7d 9c c7 bc 8f 10 1e 3c 98 24 64 bc 53 46 32 bd
       -0.024366612 0.009647503 -0.01392474 -0.043524098
000050 e8 d2 a2 bd dc 2c aa 3b 1f da 1e bd 1c e9 63 3d
       -0.079503834 0.005193336 -0.038782235 0.055642232
000060 e0 9b 80 3d dc 14 81 3d 35 21 64 bc 46 a4 aa 3d
       0.06279731 0.06302807 -0.013923933 0.08332114
000070 71 2f a8 3d ca 3f 98 bd 1c 08 77 3c 12 a4 1e 3a
       0.08212174 -0.07434042 0.015077617 0.000605167
000080 cb ab 81 bd 08 20 8b 3c 63 45 b0 bd 64 38 f7 3b
       -0.06331595 0.016983047 -0.086069845 0.007544564
000090 2c 82 8a bd b5 8e f5 3c 2e ea 3f 3d b6 0f 42 3d
       -0.067631096 0.029975275 0.04685419 0.047378264
0000a0 c7 81 96 bd 97 08 ab bd 7a 40 85 bd d8 5f 2f bd
       -0.07348972 -0.08351248 -0.065064386 -0.042816013
0000b0 cf 3c 8a 3c 54 9c ef 3c e2 61 00 bd 50 97 c2 bc
       0.016874699 0.029249348 -0.03134335 -0.023753792
0000c0 f8 11 45 3d ac 91 ae bc 40 f8 6c 3d bb 88 83 bd
       0.04811284 -0.021309696 0.057853937 -0.06422564
0000d0 a4 f6 6a 3d 5a 8a ad bd e3 b9 ac 3c 29 42 7f bd
       0.05736412 -0.08473654 0.021084731 -0.062318955
0000e0 60 c9 e9 3b cd 45 75 3d 44 96 c6 bb 41 c1 50 3d
       0.0071346015 0.05988102 -0.0060603935 0.05096555
0000f0 42 aa 61 3c d0 90 cd bd 85 45 51 bc c3 4f 10 bd
       0.013773503 -0.100373864 -0.012772922 -0.035232317
000100 3d 4b 0b bc f5 67 59 bd 5b 35 2e 3d c4 77 0e 3d
       -0.008501825 -0.053077657 0.042531352 0.034782186
000110 be 38 90 3c 0e 83 80 b9 ae 87 71 bd 01 75 79 bd
       0.017605182 -0.00024511706 -0.058967285 -0.0609026
000120 60 84 86 bd 4c 47 28 3d 4a 53 87 bb 41 50 41 3d
       -0.06568217 0.04108362 -0.004129802 0.047195677
000130 e5 e8 d5 bc 16 73 41 3c cf 12 8d 3c 06 25 4a bd
       -0.02611203 0.011807224 0.017220883 -0.049351715
000140 cd 30 26 bc 12 6e 03 3d 46 50 26 bd 11 49 30 bd
       -0.010143471 0.032087393 -0.0406039 -0.04303843
000150 de db 8a 3c 48 2d 06 3d b6 2c 74 3d 6f d9 81 bd
       0.016950544 0.032758027 0.059612952 -0.063403
000160 d8 80 f4 bb 03 35 bc bd a2 b8 5b 3d 83 ae 84 3b
       -0.0074616484 -0.09189799 0.053642876 0.0040491237
000170 e0 3f 2c bd 5b c3 e2 bd 97 9c 46 3d 54 76 95 3d
       -0.042053103 -0.11072417 0.04848918 0.0729796
000180 37 34 11 bd 9e 5f d6 3c eb ff 6a 3b d2 8b 62 bc
       -0.035450187 0.02616864 0.0035858105 -0.013827281
000190 29 53 43 3d 20 65 71 bd c1 0a d6 bc cb 26 12 bd
       0.04768673 -0.05893433 -0.026128175 -0.035681527
0001a0 ec 3d 0a 3d 83 20 51 3b 4e 75 e6 b8 b0 85 02 3d
       0.03375046 0.0031910248 -0.00010989104 0.031865776
0001b0 2c 28 29 3d 96 bb 55 3c 8c c2 55 bc 50 46 ab bd
       0.041298077 0.013045212 -0.013046872 -0.083630204
0001c0 78 a1 c5 3c 4b 99 75 3c 04 30 b6 bc 01 7d 5a bb
       0.024124846 0.014990161 -0.022239693 -0.0033338668
0001d0 a9 1f dc 3c 94 fe 95 bc 33 51 43 bb 32 c3 94 3d
       0.026870565 -0.018309869 -0.0029803037 0.07263793
0001e0 56 da 08 bd 93 10 84 3c 0d 3f ca bc ae 8a c9 3c
       -0.033411346 0.016121184 -0.024688268 0.02460226
0001f0 51 f7 6b bc f1 43 f6 3c d2 50 f3 bc ff 06 66 bd
       -0.014402227 0.030061694 -0.029701624 -0.056159016
000200 58 4b 59 bd c6 14 05 3d 40 b6 09 bb ba 7a 93 3d
       -0.05305037 0.032490514 -0.002101317 0.072011426
000210 ed b4 27 bd 38 0b 49 bc be 70 8a 3d 99 1d fb bd
       -0.04094403 -0.012270741 0.06759785 -0.12261505
000220 03 33 ec 3a ae 06 8e bd a9 9a dd 3d 72 d1 1f 3c
       0.0018020574 -0.06934868 0.10820515 0.0097545255
000230 3c d8 28 bd 45 1d 77 3c af e2 86 3d 32 5a 69 bd
       -0.041221842 0.015082662 0.06586205 -0.056970783
000240 60 79 48 3c e5 0d bc 3d 9f e6 ac bd 8d 95 97 bd
       0.012235969 0.09182338 -0.08442425 -0.074015714
000250 0d 2f 1d 3c 9a db d3 3c 0e 1f ab bc 24 58 bb 3c
       0.009593737 0.02586155 -0.020888831 0.022869177
000260 3a ff 5c 3c b9 10 de bd 02 43 1c 3d a2 fd ae 3d
       0.013488585 -0.10843033 0.03814984 0.0854447
000270 7b 40 5e bd 11 66 83 3c 84 bc 8e 3a a4 00 01 3d
       -0.054260712 0.01603988 0.0010889922 0.03149475
000280 94 d7 77 bd 45 12 92 3c 00 51 c9 3a 0a 9e 1f 3c
       -0.060508326 0.017830977 0.0015359223 0.009742269
000290 39 9e 93 bd 15 22 a6 bd 0b 4f be bb 93 78 20 bd
       -0.07207913 -0.081119694 -0.0058077625 -0.03917749
0002a0 2e 97 fa 3a 48 1d 61 3d 2a d2 46 bd 98 cc df bc
       0.0019118541 0.054959565 -0.04854027 -0.027319238
0002b0 74 47 06 3d 84 4a f5 3c 52 26 10 3d c0 48 c3 bb
       0.032782987 0.029942758 0.035192795 -0.0059596
0002c0 00 b8 fd 39 b3 78 4d bd 85 b5 0d bd 6d f8 86 bd
       0.0004839301 -0.050163936 -0.03459694 -0.06590352
0002d0 47 f7 f1 bd 0b ee dd 3c d0 d9 87 bd 3b bb 2c 3b
       -0.118147425 0.027091047 -0.06633341 0.0026356715
0002e0 4f aa a5 bd 49 25 3f 3c 4b 09 6d 3c 3d 8f 63 bc
       -0.080891244 0.011666604 0.014467548 -0.013889131
0002f0 2d 3d 0c bc 7f 4a 07 bd 40 0e 6e bd ca da 1f bd
       -0.008559507 -0.03303003 -0.05811906 -0.039027013
000300 98 f1 86 3d 6a a8 21 bd fb 9b 66 3d 06 8d e6 bc
       0.06589049 -0.039467253 0.0563011 -0.028143417
000310 24 0f 87 bd 81 4a eb 3b 71 73 e7 bc 13 03 74 bd
       -0.06594685 0.0071805124 -0.028253289 -0.059573244
000320 54 3e dc bb 0f c7 d6 bc 8b 96 f3 bc 80 d5 d3 bc
       -0.0067212973 -0.026217965 -0.02973487 -0.02585864
000330 93 a3 d1 3c 57 49 01 bd 21 d2 aa 3c 6f 81 0f bd
       0.025590694 -0.031564083 0.02085215 -0.035035547
000340 24 32 e8 bc 77 bb 87 bd f5 07 35 bd ec ff 99 3b
       -0.028344221 -0.06627553 -0.04419704 0.0046996977
000350 95 d3 ba bc bc 2c c9 3b a1 32 d1 bc 45 86 d5 3c
       -0.022805968 0.006139366 -0.025536837 0.026065001
000360 b5 c0 84 3c 96 7f 32 bd 7c f4 99 3b bd 76 17 bd
       0.016205171 -0.043578707 0.0046983343 -0.036978472
000370 25 ee 34 bc 88 1b 99 3d 8a d0 e1 3b b0 45 94 3c
       -0.011043106 0.07475954 0.006891315 0.018099636
000380 4b 56 11 bd da a3 35 bd 63 5d f4 3b 9d 9e 67 3c
       -0.035482686 -0.044345714 0.0074574216 0.014136937
000390 24 cb c8 3b 56 3a d9 bc 01 f6 8c 3b 8b 0c 47 bc
       0.006127732 -0.026517075 0.004301787 -0.012148987
0003a0 ed 34 29 3c 2a fa 0a 3d 64 e3 bc bc 37 e0 de 3c
       0.01032756 0.03392998 -0.023057647 0.027206523
0003b0 ec cc 0e bd bc d4 a4 bc 72 45 9e 3c 84 12 b3 bc
       -0.034863397 -0.02012097 0.019320223 -0.021859415
0003c0 c8 a0 2c 3c e2 18 69 bd e7 5d ae 3d a7 6e 83 3d
       0.01053638 -0.056908496 0.08514004 0.0641759
0003d0 9a 6d 9c 3c 9b b1 de bd d2 cc 0b bd 51 ee 9b bd
       0.01909523 -0.10873719 -0.03413088 -0.076138146
0003e0 e6 67 b7 3c 78 84 3b 3b c3 39 9c 3d 71 4a 0c 3c
       0.02238841 0.0028612893 0.07628205 0.00856267
0003f0 98 68 d2 bc 53 5a 55 bd 70 6a fa 3c 70 ab 37 bd
       -0.02568464 -0.052088093 0.030568331 -0.04484123

conv1.bias f4 [32]
000000 ad 57 1d bd a1 41 a0 bd d0 1b a6 bc 33 37 14 be
       -0.038413692 -0.07825018 -0.020276934 -0.14474182
000010 8f 58 4d 3c 2d 86 f6 bb ae 1e 01 be 0f 3b 6a 3d
       0.012533321 -0.007523319 -0.1260936 0.05718523
000020 23 ea 49 bc d7 32 3b bd d9 09 9c bd 72 49 a9 bd
       -0.012323889 -0.04570278 -0.07619066 -0.08265962
000030 cb 7e 41 bd 31 e3 bb bb 15 c7 24 3a f6 c3 4a bd
       -0.04724006 -0.0057338704 0.0006285769 -0.04950329
000040 2d 67 ea bc c4 54 18 3d 04 26 ef bb b2 48 a9 ba
       -0.028613651 0.037190214 -0.007298233 -0.0012915342
000050 4e 97 c5 bd 95 c1 36 bd 23 c4 c2 bd c0 0c 26 be
       -0.09648 -0.044618208 -0.09510066 -0.16215801
000060 09 8b 98 3c 98 5c a1 3c 1d a2 1f 3d 1f c8 36 3d
       0.018620985 0.019697472 0.038972963 0.044624444
000070 c0 c7 81 3d eb 9b 98 bd 48 b7 7d 3d f3 c0 a9 3b
       0.063369274 -0.07451614 0.06194237 0.005180472

conv2_state1.weight f4 [3, 32, 3, 3]
000000 9d 42 4a bb 84 a6 27 bc d3 2f f4 bb 5d 25 9d bb
       -0.0030862459 -0.0102325715 -0.00745199 -0.004795714
000010 be 82 df 3b ef ce 1d bb 1b fa 27 ba ea 07 33 3c
       0.0068210056 -0.002407964 -0.0006407813 0.01092718
000020 f3 59 ab bb 32 29 69 bc 5a 21 af 3a 7a 4a 57 3c
       -0.0052292286 -0.014231013 0.001336138 0.013140315
000030 df 6d b2 b9 6c b1 80 3b 4f 3a c4 bb 5e f1 ce 3b
       -0.00034032666 0.0039274003 -0.0059883962 0.0063153943
000040 69 1d 28 bc 64 cd 0a ba 9d 34 7f bb e4 39 95 ba
       -0.010260918 -0.0005294888 -0.0038941272 -0.0011385051
000050 45 85 4d 3a 2f 09 5e ba f1 af f3 b9 56 18 99 38
       0.0007839988 -0.00084699964 -0.00046479658 7.3001414e-05
000060 00 15 15 ba 1b e5 b6 ba a8 4a 45 b9 1d de a6 ba
       -0.0005687028 -0.0013953777 -0.00018815196 -0.001273099
000070 82 d7 2d ba 50 98 bd 3b 0c 01 9f bb c0 0b 9c ba
       -0.00066315394 0.0057859793 -0.0048524197 -0.0011905357
000080 d9 76 3e 3b de 3e 86 3b f8 08 8a ba e1 b6 3a 3c
       0.0029062538 0.00409685 -0.0010531237 0.011396141
000090 3f 16 f9 39 8f 49 26 bc 9e c2 88 3c 28 39 14 bc
       0.00047509556 -0.010149374 0.016694363 -0.00904683
0000a0 75 14 9c 3b 7a 81 97 ba 0a 72 02 3b 9d 79 99 bb
       0.004763181 -0.0011558973 0.0019904398 -0.004683687
0000b0 9f e2 dd 3b 73 9a 6a ba 53 fe ea bb e2 84 27 3c
       0.0067714 -0.00089494063 -0.007171431 0.010224553
0000c0 9a ac 0e 3b 83 07 91 3b 28 9e 01 bc 40 3a 44 3b
       0.002177036 0.0044259443 -0.007911243 0.0029941946
0000d0 8f c9 24 3b a2 f1 6a bb eb 63 8e b8 c7 7d 04 3c
       0.0025144552 -0.003584959 -6.789699e-05 0.008086628
0000e0 34 d6 bf bb cf f6 93 b9 a8 f0 be 39 da 0a bc 3a
       -0.0058543924 -0.00028221912 0.00036418927 0.0014346496
0000f0 a0 66 00 bb 83 25 04 3b 79 81 72 3b 1c c3 01 bc
       -0.001959242 0.002016396 0.0037003441 -0.007920053
000100 35 da d7 ba b3 af dc 39 e2 09 2c bb de 0f 02 3b
       -0.0016468229 0.00042092576 -0.0026251008 0.0019845883
000110 70 bc 98 3b 0b 5b 80 3c 42 08 2c 3a ea 0f e8 3a
       0.0046611354 0.015668413 0.000656251 0.0017704938
000120 8f 9c 34 bb 95 3e ad 3b 67 fc 41 bb b5 e0 59 3a
       -0.0027559137 0.0052870014 -0.0029599906 0.0008311377
000130 63 4f 9c bb b2 26 1b bb fc e0 25 39 a9 ee 8f bb
       -0.004770206 -0.0023674187 0.0001581944 -0.004392464
000140 80 ad 97 39 3f 2c cf ba e6 10 3b 3c 48 07 a3 bc
       0.00028930232 -0.0015806033 0.011417603 -0.019900933
000150 15 6a a7 bb 17 b0 1d bb f9 16 33 3c 53 4b fe ba
       -0.0051090815 -0.0024061257 0.01093077 -0.001940111
000160 64 ef ff 39 51 6c c9 3a e2 83 26 bb 19 32 20 bc
       0.0004881575 0.0015367364 -0.0025408198 -0.009777569
000170 fe 81 19 3c 30 29 c5 3a 2a 27 86 3b 00 83 b9 ba
       0.009369371 0.0015042182 0.004094024 -0.0014153421
000180 00 57 79 3b fe 59 92 ba 69 83 0b 3c 97 23 e8 3a
       0.003804624 -0.0011165736 0.008515217 0.0017710802
000190 5b 6d b9 3c 96 23 51 3c c1 8b 4b 37 db fa a0 3b
       0.022635153 0.012764832 1.2132282e-05 0.004912717
0001a0 6c f0 4f bc 82 b5 cc 39 1d 6a 77 3a 16 cd 32 3b
       -0.012691598 0.00039045146 0.00094381144 0.0027282885
0001b0 8a 80 08 ba 85 f8 19 3c 45 20 1a bc 19 2f a1 3a
       -0.0005207142 0.009397631 -0.009407108 0.0012297361
0001c0 85 85 f9 3b 4a 9a b4 bb a2 f7 29 bc 47 2f 1f 3c
       0.0076147937 -0.0055115568 -0.010373982 0.009715862
0001d0 4f c5 7e 3c 7f d0 8f bc 9b 91 ec ba b6 2b 59 3c
       0.015549972 -0.017555473 -0.0018048765 0.01325505
0001e0 1b 6e 93 bc 13 fc 01 bc 9a 21 2c 3c 82 43 94 3c
       -0.017996838 -0.007933634 0.010506058 0.018098596
0001f0 92 60 69 bb 5e 07 58 ba 90 67 97 bb b8 49 4d bb
       -0.003561054 -0.0008240844 -0.0046205 -0.0031324457
000200 75 eb d5 3a 3e 88 14 bb 74 fb 71 3a 29 c6 83 3b
       0.0016320782 -0.0022664214 0.000923089 0.0040214253
000210 99 83 13 3a 19 82 b4 3b c3 7d b4 bb 25 58 43 3c
       0.00056272146 0.005508673 -0.005508156 0.011922871
000220 4c 20 9a ba bc 7e 49 3c 7f da 40 bc a7 46 14 bb
       -0.0011758893 0.012298282 -0.0117708435 -0.002262512
000230 f3 cb 71 3b 1a 7b fb 39 74 c9 8c 3c 8e 67 a2 bc
       0.0036895245 0.00047966168 0.017185904 -0.01982477
000240 7b 82 f7 3a af b6 5c bb 4d 54 09 3c 20 b5 ba ba
       0.0018883491 -0.0033678224 0.008381915 -0.0014244653
000250 1b a8 f5 3a bd 38 8b 3b 56 95 86 bb ac 9d 22 ba
       0.0018742116 0.004248707 -0.0041071577 -0.00062033045
000260 7f ec cd bc 1e e5 c9 3b 1e d4 69 bb 55 5e 51 3b
       -0.025137184 0.006161346 -0.003567941 0.0031947095
000270 62 79 6d bb 1a 96 d4 3b fc 83 81 bb d7 87 fd bb
       -0.003623568 0.00648762 -0.0039525013 -0.0077371406
000280 73 e1 4a bb 75 a9 fe bb 31 23 15 3d e2 83 2e bc
       -0.0030957132 -0.0077716657 0.036410514 -0.0106515605
000290 f7 e9 8a 3b d3 c3 49 bc 6f d6 04 3b ec 2f df bc
       0.0042393166 -0.012314755 0.0020269414 -0.02724453
0002a0 d9 3b 02 3c 60 f6 a7 37 bb 44 30 bd 34 60 80 bb
       0.007948839 2.0022679e-05 -0.043034296 -0.0039177183
0002b0 02 54 34 3a 8b 1b 1a 3c 2b 54 d2 ba 9d df 4c 3b
       0.0006878973 0.009405981 -0.0016046813 0.0031261214
0002c0 c7 0f b6 3a ba b5 82 3b 19 f0 52 3b 0f a4 63 bb
       0.00138902 0.0039889487 0.0032186566 -0.0034735238
0002d0 b8 ae e7 3a c8 88 6f 3b 94 c2 da 3b 90 04 d5 39
       0.0017675972 0.0036550034 0.0066760276 0.00040629925
0002e0 f1 39 b8 bb 05 e1 16 bc be 62 b8 ba 37 e4 00 3c
       -0.0056221415 -0.009208922 -0.0014067513 0.007866911
0002f0 1c bd 8d 3b 04 72 24 ba db 99 c8 3b 57 fb 0b bc
       0.004325522 -0.0006273093 0.0061218566 -0.008543811
000300 4f fa 70 39 59 ff 70 39 0a e8 70 39 00 dc 74 3c
       0.00022981431 0.00022983308 0.00022974625 0.01494503
000310 2b d2 3a bb f9 a3 bd b9 46 b5 63 bc 81 ef 00 3c
       -0.0028506618 -0.00036171058 -0.013898199 0.007869602
000320 47 48 ea 3b 1b 8e db 3b bc c2 1a bb ab 72 91 3c
       0.0071497294 0.00670029 -0.0023614606 0.017754873
000330 04 bc 94 3b 31 6a 50 bc 08 66 2a 39 44 0d 06 bd
       0.004539015 -0.0127206305 0.00016250473 -0.032727495
000340 49 62 c3 b9 2f 56 17 3d 31 89 60 bd 69 bb 80 39
       -0.00037266526 0.036947425 -0.054818336 0.00024553694
000350 44 84 de 38 a8 fe d8 ba ba bc 25 3a 18 b6 ae b9
       0.00010610421 -0.0016555386 0.0006322373 -0.00033323537
000360 8e 27 a1 3b c5 e6 90 bb 6f 5a a4 3b 71 92 8d 3b
       0.0049180454 -0.004422041 0.0050156633 0.0043204357
000370 5f 9e 54 bb 78 9a c3 3b 8f e5 b2 bc 24 a8 53 bc
       -0.003244303 0.005969342 -0.021837978 -0.012918506
000380 4a 5d ad bc 3f a5 03 3c b0 ac 40 bc 45 7c ac 3b
       -0.021162648 0.008035003 -0.011759922 0.0052638375
000390 34 e3 63 3c f6 f9 2c bc b4 cf 05 3c 2b b6 8b 3c
       0.01390915 -0.010557642 0.008167196 0.017054638
0003a0 20 0b a2 3b 57 bf 01 bc e1 84 bc bb c2 98 b6 3c
       0.004945174 -0.007919154 -0.005753145 0.022289637
0003b0 b0 99 22 bc de 3d 16 3b d9 62 73 bb c1 b6 1c 3c
       -0.009924337 0.002292506 -0.0037137775 0.009565056
0003c0 9d 52 7a ba 87 89 45 bb 53 fe c7 bb e2 29 1c 3b
       -0.00095490535 -0.0030141787 -0.006103316 0.0023828675
0003d0 3c 4b 46 3b 5c 90 13 bb c8 69 cc b9 fa 30 76 bb
       0.0030257246 -0.0022516465 -0.00038988725 -0.0037565813
0003e0 b7 06 97 3a b4 86 15 bd 6f ab f2 3a 30 c8 c1 39
       0.0011522387 -0.036505416 0.0018514226 0.0003696098
0003f0 47 ba b5 3b 3e 6c a4 3b 53 48 f3 bb a0 c1 eb 3b
       0.0055458876 0.0050177863 -0.007424393 0.0071947128

conv2_state1.bias f4 [3]
000000 90 fe d8 b8 2b ac 07 3b 6f d5 a6 b9
       -0.000103470986 0.0020701985 -0.00031821008

conv2_state2.weight f4 [3, 32, 3, 3]
000000 81 a0 03 bb 0b 5b d1 3b 75 6f 48 bc 52 54 2b bb
       -0.0020084681 0.006389027 -0.012233605 -0.0026142788
000010 5b b9 11 3c 97 ff f1 b9 f7 b3 bd 3b 94 ff b2 3a
       0.00889429 -0.0004615753 0.0057892757 0.001365649
000020 8d d8 03 3d da 3c 05 3c b0 be 59 3b 80 c0 02 3d
       0.03218894 0.008132184 0.003322523 0.031921864
000030 28 5a b3 3a ba 74 33 bb 78 e6 30 bb 11 77 08 b8
       0.0013683485 -0.0027382807 -0.0026992839 -3.2535816e-05
000040 ee 73 23 bc e3 1e 2f bb f5 a8 1b 3c b0 df 3d bc
       -0.00997637 -0.002672129 0.009500732 -0.011588976
000050 2b a9 9c 3d 66 70 14 ba 21 a4 6d bb 47 11 0f bc
       0.07649454 -0.00056625006 -0.0036261159 -0.008732147
000060 ef b0 38 3b 16 4a 92 ba 09 36 89 3b d3 60 17 3f
       0.0028181633 -0.0011160995 0.0041873497 0.5913212
000070 49 6f eb 3e 33 59 1d 3e b3 d1 4e 3b f5 28 27 bc
       0.4598334 0.15366058 0.0031558096 -0.010202636
000080 0a 77 8b 40 d7 8f 19 3c a1 d8 45 bb ed 98 fb 3b
       4.358281 0.009372673 -0.0030188935 0.0076781423
000090 6e f0 5a bb a8 39 0a 3d 92 6c d4 bb a7 3e e8 3a
       -0.0033407467 0.03374639 -0.006482669 0.0017718867
0000a0 ad 7e 75 bb aa f7 7a ba a8 02 79 bb cc 13 3c bc
       -0.0037459538 -0.0009573648 -0.0037995968 -0.011479329
0000b0 02 38 1e 3c ea 8b b1 3a 20 ee de 3b 14 44 80 3c
       0.009656908 0.0013545726 0.006803289 0.015657462
0000c0 55 8c 17 3a 52 3e ae 3a 81 09 55 3c c7 2c cf 3a
       0.0005781104 0.0013293719 0.013002754 0.0015806191
0000d0 e7 67 e7 3a 41 20 90 ba 1a 74 22 bc 7d a3 7a 3c
       0.0017654867 -0.001099594 -0.009915376 0.015297768
0000e0 eb c7 0d bd 61 98 47 bb fe bc 6c b9 db db 96 3c
       -0.034614485 -0.0030455815 -0.00022577119 0.018415382
0000f0 50 3b 92 3b 8f f8 78 3b 37 55 a3 b7 6d bb c6 bb
       0.004462637 0.003798995 -1.9470795e-05 -0.0060648234
000100 ad 14 df 3a ad 3b 5d bc ed 30 82 3c ab f0 66 3a
       0.0017019712 -0.013502997 0.01589247 0.0008809666
000110 9b 05 88 3b a5 4b b0 bb 53 70 20 bc e6 26 19 bb
       0.004151059 -0.0053801113 -0.009792405 -0.0023369133
000120 63 83 ed bb 75 e4 f1 ba cf 4e 4e 3b 30 9b 25 3b
       -0.0072483285 -0.0018454926 0.003148008 0.00252695
000130 28 be e7 ba 59 aa 3b ba ab 76 d2 bb 43 6e 18 3c
       -0.0017680572 -0.00071588677 -0.0064228377 0.009303632
000140 a0 da 5b bb d6 cb c6 bb 4c b9 81 bc 94 be e4 3c
       -0.0033547059 -0.0060667796 -0.015835427 0.027922906
000150 ef 58 b4 ba 42 4e ca 39 d7 77 39 3c 16 69 07 3b
       -0.0013759414 0.0003858675 0.011320076 0.0020662001
000160 0e c1 98 ba 6f b1 c2 3b 65 9f 52 bc 16 29 ce ba
       -0.0011654214 0.005941562 -0.012855385 -0.0015728797
000170 81 2c 32 bb a5 42 cb ba 4b 17 32 3c 03 20 94 bb
       -0.002718717 -0.0015507533 0.010869811 -0.0045204177
000180 d4 db f4 3b 4a 82 14 bb 6a 8e 43 bc 0d 7e f9 3c
       0.0074724946 -0.0022660666 -0.01193581 0.030455614
000190 18 87 48 bc 27 18 8d bb a6 fe be 40 59 47 17 3f
       -0.01223924 -0.0043058577 5.968585 0.5909324
0001a0 2e 34 9c 3f 40 c1 07 3b 97 1a 22 bb 20 5f 8a 3e
       1.2203424 0.0020714551 -0.0024735087 0.270257
0001b0 6f 95 bf bc e2 25 35 3b e1 3b a4 3b 08 62 a1 b9
       -0.023386685 0.0027640988 0.005012021 -0.00030781352
0001c0 f6 dd 3a bc b7 28 c8 3a a8 d2 cb 3b e9 68 05 bc
       -0.011405459 0.0015270923 0.0062201805 -0.008142688
0001d0 a0 36 0f 3b 6f d7 6d 3c 7f 5e a5 bb f8 85 b8 3c
       0.0021852627 0.014516695 -0.005046665 0.022524819
0001e0 4c 97 d4 3b 84 bd 91 ba 1a 2c ec bb 30 37 27 ba
       0.0064877626 -0.0011119102 -0.0072074058 -0.0006378768
0001f0 13 76 d8 3b 96 d1 88 3b 21 48 44 bc 7d 81 bb bb
       0.0066058724 0.004175375 -0.0119800875 -0.0057222233
000200 9a 46 c3 3b 01 88 07 bc 1d a8 f5 3b 0d 17 cb bb
       0.005959344 -0.008272172 0.0074968473 -0.006197816
000210 1a f4 eb bb 83 0d 3c bb ec 81 f8 bb a6 73 62 3c
       -0.00720073 -0.0028694577 -0.0075838473 0.013821518
000220 e9 98 1c 3c b0 cd 36 3c c2 88 3f bb 25 26 8f 3c
       0.009557941 0.011157438 -0.00292258 0.017474243
000230 85 b6 03 bb c2 a1 9d 3b 1d f0 8c 3c 7a 17 6f bb
       -0.0020097804 0.004810543 0.017204339 -0.00364825
000240 b6 a5 ed 3e b5 aa 9d 3d 69 f3 7f bb b0 42 c2 b9
       0.4641549 0.076985754 -0.0039054996 -0.0003705225
000250 bd a2 14 40 09 04 8d 3d d1 dd 5a 3b 91 61 bb ba
       2.3224328 0.06885535 0.0033396373 -0.0014296045
000260 cf 44 d9 bb f4 30 98 3a e3 c2 ca ba 36 2f c4 bc
       -0.006630517 0.0011611269 -0.0015469458 -0.023948293
000270 c1 fc ad bb e6 10 96 3a 42 ff 31 3c 06 73 1a 3c
       -0.0053096716 0.0011449128 0.010864081 0.009426838
000280 57 ff 40 bb 60 2f b1 bb fc 82 fa 39 25 f0 1b 3b
       -0.002944907 -0.005407259 0.00047781307 0.002379426
000290 1f 8e 5f bc d0 10 87 3c 00 67 81 3c c1 f2 8d bb
       -0.013644724 0.016487509 0.015796185 -0.004331917
0002a0 29 c9 a7 3b 75 75 c1 3c 35 21 42 3b 67 f4 d9 bb
       0.0051204157 0.023615578 0.0029621844 -0.0066514495
0002b0 8d 3e 8d 3d 72 65 4a 3d 28 26 1b bb 2a 1c c0 3a
       0.06896696 0.049413152 -0.0023673866 0.0014656831
0002c0 b7 35 79 3d 66 01 85 bb 0e c5 e3 39 9c 9e 7a bb
       0.060842242 -0.0040590046 0.0004344363 -0.0038241511
0002d0 80 06 6f bc 13 d2 b5 3b 93 6f 1a 3c de a7 83 ba
       -0.014588952 0.0055487244 0.009426015 -0.0010044535
0002e0 f1 25 16 bc e4 39 0d bc e6 76 16 bb f1 15 14 3b
       -0.009164319 -0.008619759 -0.0022959053 0.0022596086
0002f0 71 7a 25 bc 83 d3 b8 3a e0 2f 94 ba f7 46 34 41
       -0.010099993 0.0014101121 -0.0011305772 11.267325
000300 70 ce d4 b9 01 7e d4 b9 a1 fa d6 b9 c0 c7 2a 3d
       -0.000405896 -0.0004052967 -0.00041003994 0.041694403
000310 fc 0f 7a bc 56 c2 b1 3e 6d a6 e8 ba d6 6c 2c 3c
       -0.0152626 0.3471858 -0.0017749794 0.010523995
000320 17 03 46 3c 51 da 43 3b 75 7d 50 3c 2c 69 03 3a
       0.012085698 0.0029884765 0.012725224 0.0005012925
000330 66 b1 04 3b 82 2a c5 3a 24 da c8 bb 1e 41 d8 bc
       0.002024734 0.0015042576 -0.00612952 -0.026398238
000340 ad ad f0 3b ad 2f 85 3d ca b9 8d bd 2d df 99 40
       0.0073449225 0.06503234 -0.06920202 4.808493
000350 5f b0 da 3f ed 95 c6 bc 6f 10 ce 3b fd bb e9 bb
       1.7085074 -0.024241412 0.00628858 -0.0071330057
000360 52 cc c2 bb 2b 36 26 bb 1c 67 90 3f ac 7e 80 3b
       -0.005944767 -0.0025361876 1.1281466 0.0039213505
000370 cd 9b 12 bc 60 ce 1f ba 41 7b 4d 3b 59 8e 4e bd
       -0.008948279 -0.0006096121 0.0031353983 -0.050428722
000380 88 ba 5c 3c 6e ff c9 39 60 d8 80 3b 74 bf 8d bc
       0.013472207 0.00038528017 0.003932044 -0.017303206
000390 e7 6f 3d bc b3 97 6a 3c d3 b5 5f bb 49 8d 1f 3d
       -0.011562324 0.0143183945 -0.0034135475 0.0389531
0003a0 03 e6 24 3d ff 04 a8 3d 85 b6 90 bb 7a ce a0 bb
       0.04025842 0.08204078 -0.0044162893 -0.0049074264
0003b0 8a 65 92 bc 4d 13 62 3b 2b f8 54 3b e1 0d 8c 3b
       -0.017870683 0.0034496367 0.0032496552 0.0042741154
0003c0 21 81 ac ba 16 89 2c 3d 56 a0 31 3c 8a ec b4 3a
       -0.0013161042 0.042122923 0.01084145 0.0013803404
0003d0 81 4f a1 bb a5 d8 e6 40 e6 4b 30 bb 06 e3 a5 3b
       -0.0049228077 7.213946 -0.0026900708 0.0050624637
0003e0 f1 df 39 bb 1d 94 a2 bb bd c1 40 bc 2a f2 04 bb
       -0.002836224 -0.004961504 -0.011764941 -0.0020285943
0003f0 f8 6c ea 3c 9d 4c a0 3c e8 de ec 3a 78 16 63 bb
       0.028616413 0.019567782 0.0018071802 -0.0034650844

conv2_state2.bias f4 [3]
000000 64 d5 67 39 52 27 37 b9 7e 99 3a b8
       0.00022109371 -0.00017466888 -4.4488806e-05
