SimpleSpread/I2A_simple_spread/agent_3_model.pth (torch, 977699 bytes, 44 tensors)

env_model.fc1.weight f4 [128, 69]
000000 3f 98 6e bd 34 17 ef bc cc 32 68 3e 1e f0 68 bd
       -0.058250662 -0.029185869 0.22675627 -0.05686962
000010 78 8c 3b be 7e 60 2c bd 54 57 af be 60 5a 44 3e
       -0.18315303 -0.04208421 -0.34246314 0.191751
000020 a1 14 8a bd d1 3d 33 3e c8 80 62 be db 46 d2 bd
       -0.06742216 0.1750405 -0.22119439 -0.10267421
000030 7a ab ca bd b7 86 ec 3c 94 e8 74 bd da c4 a5 3d
       -0.09895988 0.02887283 -0.059792116 0.08094187
000040 60 fe a5 3d 10 47 1d 3d a0 ac cc bd 33 93 d4 bd
       0.08105159 0.03839785 -0.09993863 -0.103796385
000050 9b 3f 57 be 8f 6d 85 3d b2 72 b6 3d 41 ac 83 bd
       -0.21020357 0.06515037 0.08908595 -0.06429339
000060 6a 31 e2 3d 70 a3 22 3e 84 63 c2 3c 27 df 1d 3e
       0.11044581 0.15882659 0.023729093 0.15417157
000070 ee 5d 8c 3e 0a fa 14 bd 5c 76 40 3e ad 5f 42 3d
       0.27415413 -0.03637127 0.1879515 0.047454525
000080 82 4b 88 bd 5d be a4 bd 20 35 2e bc 74 41 c4 3d
       -0.06655027 -0.080441214 -0.010632783 0.09582797
000090 86 57 94 bd 14 9e 5c bd ee ad 84 bd 32 80 fa 3d
       -0.07243256 -0.053861693 -0.06478487 0.122314826
0000a0 1b ed 86 bd a8 80 ce bd 7b 7b 27 be 90 06 f1 bd
       -0.06588193 -0.10083133 -0.16355698 -0.1176883
0000b0 9a fb 22 be ee 22 a3 bd cb 0e 87 3e 56 e5 30 be
       -0.15916291 -0.07965647 0.26378474 -0.17274985
0000c0 19 b2 88 ba f8 9c 67 be f2 5a 44 bd 00 28 b3 3c
       -0.0010429054 -0.22618473 -0.047938295 0.02186966
0000d0 6a d9 4b bd 1a 72 f0 3d 6c 63 65 3d 31 10 2d 3e
       -0.04976789 0.11740513 0.05600302 0.16900708
0000e0 5d 8d 29 be e8 d2 9f bd 09 14 a3 3d 9d 1f c6 3d
       -0.16557832 -0.07803899 0.07962806 0.096739985
0000f0 b5 cc 2e 3e 32 5a 10 be 87 eb eb bd 81 d1 b9 3d
       0.17070277 -0.14096907 -0.11519533 0.09073163
000100 ce 7b 37 3d 80 1e a3 bd 62 81 f3 3d 66 1c 8e bd
       0.044795804 -0.07964802 0.11889912 -0.0693901
000110 6a 9d 35 3e 08 07 d8 3c d0 37 32 3d 83 d6 a1 3e
       0.1773583 0.02637054 0.04351026 0.31608972
000120 3c f4 87 bd a5 38 5d 3d 4e aa 3e 3c 32 70 c3 3d
       -0.06638381 0.0540091 0.0116372835 0.09542884
000130 7d 54 d9 3d 16 15 c9 bd c4 a8 c6 bc 45 cf ca bd
       0.10611818 -0.09818475 -0.024250396 -0.09902815
000140 7e 24 04 bd 6a 9b 16 3d b5 b3 3d 3d 20 6c 85 3c
       -0.032261364 0.03676931 0.04631396 0.01628691
000150 66 11 10 bd cc 39 3b 3d 1c 18 dc 3d 80 cb dd 3d
       -0.035172842 0.045709416 0.10746786 0.1082983
000160 a8 8a 2f bc 77 c8 8d 3e b8 cc eb 3c b1 6d 24 3c
       -0.010714211 0.27692005 0.028784141 0.010035918
000170 b7 b1 63 3d 9f 66 2d 3e 24 81 45 bd 81 bc aa 3c
       0.055589404 0.16933678 -0.04821886 0.020841839
000180 b8 ce 85 bb e1 d9 8f 3c da 91 26 3d 61 a8 ff 3c
       -0.0040834807 0.017559947 0.04066644 0.031208219
000190 0c e9 5a bd d8 bd 6f 3d 74 57 b7 3d 1c f0 d1 3d
       -0.053444907 0.05853066 0.08952227 0.10250875
0001a0 7e f5 c1 3d 51 1c 7d bd 60 96 d5 bc 57 de 79 3e
       0.09470652 -0.061794583 -0.026072681 0.24401222
0001b0 d2 e1 ef 3d 18 dd 0f 3e 90 dc 4d bd 4a 32 0d 3c
       0.11712994 0.14049184 -0.050259173 0.008617947
0001c0 57 b8 c9 3d 4b 9b b1 3d 62 d5 9b bc ca 02 64 3d
       0.09849613 0.08672198 -0.019022647 0.055666722
0001d0 68 89 ba 3d ef a1 d4 3c 9c 71 80 bc f8 49 1c bd
       0.091082394 0.025956122 -0.015679173 -0.03815648
0001e0 04 a1 4e 3d 54 60 87 bd f2 ff 89 bd 60 24 fa 3d
       0.050446525 -0.0661017 -0.06738271 0.12213969
0001f0 d0 19 23 3e d0 7d 26 3e 94 5e 8b 3e d1 20 0e 3e
       0.15927815 0.16258931 0.27220595 0.13879706
000200 b3 08 59 3e 36 8e 55 3e cf bb 9e 3e dd 44 5b 3e
       0.21194725 0.2085503 0.31002662 0.21412988
000210 11 5b 3f 3e 37 83 fd 3d 5e 21 b6 3e 4e 1a 49 3d
       0.18687083 0.12378543 0.35572332 0.04909735
000220 98 9a 57 3e 2e 66 2e 3d 5c 36 df bd d1 a6 c8 bd
       0.21055067 0.042577915 -0.1089904 -0.09797443
000230 f3 51 64 3e a0 06 c7 bd 69 e0 8a bd 3d ee c2 3c
       0.22296886 -0.097180605 -0.06781084 0.023795241
000240 c3 56 51 be d0 b8 1f 3c bd 2b 4b bd 35 cc a7 3c
       -0.20443253 0.009748653 -0.04960226 0.020483116
000250 90 22 17 be c0 c3 c4 bc dc 1c 27 be b7 8c 8c 3d
       -0.14759278 -0.024019122 -0.16319603 0.06862777
000260 ae ae d6 bd b4 43 85 bc e2 3a aa 3d 1a be a6 bd
       -0.10482536 -0.016267635 0.08312012 -0.08141728
000270 80 59 92 3a ec 43 cb 3d 0f a8 79 bd 2b c9 2d 3e
       0.0011165589 0.099250644 -0.06095129 0.1697127
000280 a1 7b 3b be 62 f4 72 bd 0f 99 e5 bd 30 29 7a be
       -0.1830888 -0.059315093 -0.11210834 -0.24429774
000290 bb 59 0b 3c 30 45 2b be a1 b0 a5 bd a9 d1 15 be
       0.00850528 -0.16725612 -0.0809033 -0.1463076
0002a0 29 ef 07 be bf c2 bc bd 18 61 b0 3d b2 0b 9d 3d
       -0.13274826 -0.09216832 0.08612269 0.07668246
0002b0 00 d9 fd bc e4 e7 d6 bc 10 2c f1 3d c0 ae 92 3d
       -0.030987263 -0.026233621 0.117759824 0.07162237
0002c0 d3 c8 c7 bd 2b d7 29 3e 9e bc 7a 3d be 6c 86 bd
       -0.09755101 0.16585986 0.061215036 -0.0656371
0002d0 22 b1 18 bd ab 08 5a be f5 7c 47 3b dc 32 27 be
       -0.037278302 -0.21292369 0.003043947 -0.16327995
0002e0 91 6e bb 3c ce 5c 89 3b eb 05 4a 3e 77 4b cb 3d
       0.02287987 0.0041919714 0.1972882 0.09926503
0002f0 8c 3b 73 3d 80 f0 3a bc 9a de ac bd 00 c1 f0 3c
       0.05938296 -0.011409879 -0.084408954 0.029388905
000300 d0 3f 1a 3d df 39 6d bd fb bc 95 bd 74 9d df bd
       0.037658513 -0.05791652 -0.07311436 -0.10918704
000310 8b 32 09 bc 37 bf 4c bd 22 15 6c 3e c6 70 4c be
       -0.008373867 -0.049987044 0.23054937 -0.19964895
000320 34 8d 11 3d 81 fa b8 bb d2 bb 42 bd 58 80 10 be
       0.035535052 -0.005645097 -0.0475424 -0.1411146
000330 60 15 31 3e be bd b6 bb 96 05 82 3d 0c ad aa bd
       0.1729331 -0.0055768183 0.06348722 -0.08333787
000340 00 04 c9 bb 32 c7 15 3d a4 04 16 3e aa d0 24 3d
       -0.00613451 0.03656692 0.14650208 0.04023806
000350 d4 6a 0f be 52 7a b9 3d 46 7b 3e be 56 c9 5b bd
       -0.14005595 0.09056534 -0.18601713 -0.053658806
000360 33 eb 55 be d1 b6 9b 3d 0c 30 18 3c b8 6f ad bd
       -0.20890503 0.07603229 0.009288799 -0.08468574
000370 59 b1 f4 bd 8e 2c 3e bd 64 62 19 3d a6 0d bc bd
       -0.11947889 -0.04642921 0.03744735 -0.09182291
000380 d8 6d a9 3d fc 73 c1 3d a4 32 5d 3d 85 9c 85 3d
       0.08272904 0.094459504 0.054003373 0.06523994
000390 ba 2e 4d 3e a7 80 18 bd 09 ba 6c bd fe 4a 3e bd
       0.20037356 -0.037232067 -0.057794604 -0.046458237
0003a0 a5 08 42 be e2 94 a3 bd c7 43 21 be 3b cd 8b 3d
       -0.1894861 -0.079873815 -0.15748511 0.06826254
0003b0 1f d4 98 3d df 37 03 be be 49 7b bc 10 b0 d3 bb
       0.07462334 -0.12814282 -0.015337406 -0.0064601973
0003c0 50 28 c3 3d fc 4c eb bc e8 ed 87 bd 8c 54 e5 bc
       0.095291734 -0.028723232 -0.06637174 -0.027994417
0003d0 0c 0b 16 bd 93 3b 33 be 7b 12 f8 3d 4e bd 7b 3d
       -0.03663163 -0.17503195 0.121129 0.061459832
0003e0 8d 9e d7 bc 3f 19 02 3d 08 9a fe bc 99 a9 af bd
       -0.02632072 0.031762358 -0.031079307 -0.0857727
0003f0 88 d2 09 3d e6 d6 94 bd 1d 16 f1 3d 3a b4 36 bc
       0.033648044 -0.07267551 0.11771796 -0.011151368

env_model.fc1.bias f4 [128]
000000 53 b5 7a 3d a2 9f aa 3e a8 b4 e1 bb 4f cc 98 bd
       0.06120808 0.33324915 -0.006887991 -0.07460844
000010 f5 19 c0 3e aa 35 13 be 2a c7 c9 be b5 38 14 3e
       0.37519804 -0.1437594 -0.39409763 0.14474757
000020 d6 16 97 bd 10 b8 a5 3e aa 61 fc 3c 85 13 84 3e
       -0.073774025 0.3236699 0.030808289 0.25796142
000030 27 a4 80 bd f3 a3 cf 3e 36 49 64 3e 84 90 99 3e
       -0.062813096 0.4055477 0.22293553 0.2999307
000040 fb d8 ab 3e ed b7 85 3e 2c ed 06 3e 66 e0 93 3e
       0.3356398 0.26116887 0.13176411 0.2888214
000050 2d 68 34 3e 06 b0 bf 3d 47 a2 64 bf e1 20 8d 3e
       0.17617865 0.09359746 -0.89310116 0.27564147
000060 3f 45 b2 3e fe 3f 4b 3e 5a 45 2f be 5c 67 28 3e
       0.34818456 0.1984863 -0.171163 0.16445678
000070 8e 4d aa 3e 5d 3b 96 3e f4 7c d8 3d 06 8a 3a 3e
       0.33262295 0.29342166 0.10570708 0.18216714
000080 c3 31 b2 3e c9 7d 49 be 47 75 92 3e 4e c2 ad 3d
       0.3480359 -0.1967689 0.286051 0.08484326
000090 f7 6d 00 be d8 ec 87 3e 10 3e a9 3e 98 23 8b 3e
       -0.12541948 0.26547885 0.33055162 0.27175593
0000a0 e7 24 99 3e 9c 8c 83 3e 60 be ad 3e c3 eb b2 3e
       0.29910967 0.25693214 0.33934307 0.34945497
0000b0 f0 9c a9 3e 22 9c 52 3e d6 68 d8 3d 9a 59 0a bd
       0.33127546 0.20567372 0.10566871 -0.033776857
0000c0 5d 67 0f 3e d5 b1 19 3e 93 e3 8b 3e 2a 9b ba 3e
       0.14004274 0.15009244 0.27322063 0.36446506
0000d0 8c 97 a0 3e c4 97 ba bd 69 96 f8 bd 8a 79 3a 3e
       0.3136562 -0.09110978 -0.121380635 0.18210426
0000e0 bd 52 a5 3d f5 78 74 bf 5d 17 8f 3e b4 b4 51 3e
       0.08072422 -0.95497066 0.27947512 0.20479089
0000f0 8f c5 24 3c 59 86 7e 3e 4d d3 af 3e 61 5f 86 3e
       0.010056867 0.24855937 0.34340897 0.26244643
000100 d2 02 ab bd be 7b 1e 3e 8a f4 0a ba c4 02 08 be
       -0.08350147 0.15476891 -0.00053007214 -0.13282305
000110 d0 06 d9 bd 06 19 19 3e fe cc e2 3e 29 0a e4 bc
       -0.105970025 0.14950952 0.44297022 -0.027836876
000120 6e 2a 55 3e a6 94 09 3e 70 4d e0 3d 97 29 cf 3d
       0.20816967 0.13435611 0.1095227 0.101153545
000130 15 fe c8 bd 1e 32 5a 3e 85 2e d8 bd 59 5f 3e be
       -0.09814087 0.2130818 -0.10555748 -0.1859106
000140 8b 4f 0b 3e cb 71 96 3e c4 c9 3d 3e a6 9d 9d be
       0.13604562 0.29383692 0.18533999 -0.3078434
000150 0c 5e f1 bd ca da 7d 3d ed 92 a3 3e be 96 aa 3d
       -0.11785516 0.06197623 0.31948033 0.08329533
000160 f3 1d f8 bc 4b 08 b5 3e f0 07 81 bd 27 20 7c 3e
       -0.030287718 0.3535789 -0.06300342 0.2462164
000170 29 2d 42 be 07 ae c1 3d 5a 28 88 3e 50 41 08 3e
       -0.1896254 0.09457021 0.26593286 0.13306165
000180 c7 b4 c2 3e 6f c5 b7 3e ee bb 7f 3e 9c d3 b3 3e
       0.38028547 0.35892817 0.24974033 0.35122383
000190 86 d4 af bd bf 36 d1 3e 47 a8 a3 3c 10 02 dd be
       -0.085854575 0.4086208 0.019977702 -0.43165636
0001a0 63 8b 50 3e 79 26 cd 3e 6b bd 06 3e ec c4 5c bf
       0.20365672 0.40068415 0.13158195 -0.8623798
0001b0 6c 78 3c 3d 07 97 8d 3e 41 e9 a1 bc d6 66 8d 3e
       0.04601328 0.27654287 -0.019764544 0.2761752
0001c0 c4 bc 79 3e b6 64 84 bb 92 27 d0 3d fe ad 02 3e
       0.24388415 -0.004040326 0.101637974 0.12761685
0001d0 b7 55 ae 3e f4 1e a6 3e ee 59 98 3e 03 65 5c bf
       0.3404977 0.3244549 0.2975611 -0.8609163
0001e0 a7 b0 b0 3d cd 5e 4a 3e 9d 55 a3 3e 5e 0a 70 3e
       0.08627444 0.19762726 0.31901255 0.23441455
0001f0 d6 6d 9f 3d c6 31 8d 3e 61 9c 81 bd f4 ee e8 3e
       0.077846214 0.27577037 -0.06328655 0.45494807

env_model.fc2.weight f4 [64, 128]
000000 9e 61 e1 3d cf 82 b5 bd bb c3 12 be 3e ae 0b 3c
       0.11004947 -0.088628404 -0.14332478 0.008525429
000010 60 6b 5e bd 70 c5 0c 3e e5 7d 33 be ef c2 fb 3b
       -0.05430162 0.13747191 -0.17528494 0.00768315
000020 95 79 22 bd 33 cc 5e 3d a3 9a d1 bc b2 4c e1 bc
       -0.03966673 0.05439396 -0.025586432 -0.027502391
000030 c3 d3 0e 3e 72 14 8d bd 14 bb 1f 3c 79 e0 01 3e
       0.13947968 -0.06888665 0.009749193 0.12683286
000040 a1 44 28 bd 3a 3c 8f be 1e af 2f 3c 3b 97 fb ba
       -0.041081075 -0.27975637 0.010722904 -0.001919485
000050 92 c4 65 3d ce 04 81 3d b8 57 18 bd ea 7f 9f 3d
       0.056095667 0.062997445 -0.03719303 0.077880695
000060 52 bf 5a bd a2 94 22 be b0 90 18 3d 9b 8b 95 3c
       -0.053405114 -0.15877011 0.03724736 0.018255046
000070 c6 59 92 bd 82 94 94 3d cc f3 7b 3e f6 43 b8 3d
       -0.07146029 0.07254888 0.2460472 0.089973375
000080 6c 98 f5 bc f6 4b 9a 3e 31 ce 11 be fd e6 5d bd
       -0.029979907 0.3013608 -0.14238812 -0.054175366
000090 d0 83 bd bd 0c 3e 92 bd b0 00 f4 3d b5 7b 24 3d
       -0.09253657 -0.07140741 0.11914194 0.04015704
0000a0 79 38 b1 bd 91 14 82 bd 0f e9 19 3c cc a4 bb bd
       -0.086533494 -0.06351579 0.009393944 -0.09162292
0000b0 bd 92 6a 3d 3c 95 92 bd 11 d7 08 3e a3 cd a6 bd
       0.057268847 -0.071573704 0.13363291 -0.08144691
0000c0 11 a4 fc 3b 4b 3f 74 3d e5 68 45 bd ba 4f eb bb
       0.007709988 0.059630673 -0.04819574 -0.007181135
0000d0 55 04 16 3e 39 03 45 3e 24 bb 61 3d 28 ed 7e 3d
       0.1465009 0.1923951 0.05511011 0.06223789
0000e0 1d 2b e9 3d 07 35 6c be 81 d2 63 3d 67 26 27 3e
       0.11385176 -0.23067103 0.055620674 0.16323243
0000f0 e8 66 33 bd 1c 64 26 bd 3b 57 31 bd 9e 42 21 3d
       -0.04379931 -0.040622815 -0.04329608 0.03937017
000100 36 0b 75 3e 11 bf 88 3c e6 3e 43 3c f0 a2 f0 bc
       0.23930058 0.01669267 0.011916852 -0.02937457
000110 16 fc 1f be 6a 41 04 3e 43 31 18 3d ce 40 18 3d
       -0.15623507 0.12915578 0.037156355 0.037171178
000120 2c 68 06 bd b2 a7 73 3e 70 a9 9a 3d 36 df 2a 3d
       -0.03281419 0.2379444 0.07551849 0.041716777
000130 50 96 07 3e 1d e8 c3 3d 5e 27 ea bd b2 c4 87 3c
       0.13240933 0.095657565 -0.1143329 0.016573284
000140 66 1e ab 3d 2b e0 60 3e a3 6e 64 bd 9a 64 ee bd
       0.083554074 0.21960513 -0.055769574 -0.11640282
000150 4e 9a 87 bd 88 4c 32 bd 12 ec 53 be 88 e0 7f bc
       -0.06621228 -0.043530017 -0.20695522 -0.015617497
000160 da 96 18 3e 7b 6f f3 3d f0 99 a1 3d 30 02 3f 3e
       0.14901295 0.118864976 0.078906894 0.18653178
000170 21 66 20 bd 97 fa 5d 3c eb ee 15 3e 47 44 4a 3d
       -0.039159898 0.013548515 0.14641921 0.04938152
000180 42 ef 15 bd c1 cd 2f bd 01 b2 85 3b 70 01 54 3d
       -0.036605127 -0.04292083 0.0040800576 0.051759183
000190 39 ca c5 bd ca c2 29 3e f6 f7 04 3e cc fb 8a 3e
       -0.096577115 0.16578212 0.12985215 0.2714523
0001a0 a2 13 dd 3c 1b 29 c5 bd 62 11 96 bd 50 74 c8 3d
       0.0269869 -0.09626981 -0.07327534 0.0978781
0001b0 a6 40 89 3d 59 35 69 3e a1 eb e5 bc 87 20 18 3e
       0.06701784 0.22774257 -0.028066458 0.14856158
0001c0 9d 86 1f 3d 93 bc 06 bd f2 f5 10 3e 5b 6a a3 3d
       0.038946737 -0.032894682 0.1415632 0.0797927
0001d0 89 50 1f 3e 5a d2 11 bd c1 23 0a 3c ed 3a 8a 3e
       0.15558065 -0.035600998 0.008431376 0.26998082
0001e0 cc a5 c7 3d 3d 1a 6c bb 56 91 30 3e a2 60 2f 3d
       0.0974842 -0.0036026381 0.17242941 0.042816766
0001f0 2e 21 17 3e c6 4e ba 3d 57 4c 0f 3e 61 75 b8 3d
       0.14758751 0.09097056 0.13993965 0.09006763
000200 23 bf 83 3d 73 32 1c bd a4 f3 e3 3d 76 46 d8 3c
       0.06432941 -0.03813405 0.11130455 0.026400786
000210 e2 74 bc bb 52 88 57 be 06 f8 6e 3c 5e 8d 0b 3e
       -0.005751238 -0.21048096 0.014585501 0.13628146
000220 05 7d f6 bc 5d 8d db bd 53 a3 2a 3d 44 48 b6 3d
       -0.03008891 -0.10720322 0.041659664 0.08900502
000230 d3 11 20 be 78 12 06 be b4 8c 76 bd a9 ce 58 be
       -0.156318 -0.13092983 -0.06019278 -0.21172585
000240 83 54 a0 3d 9b 74 80 3e 93 50 20 3e 2e 02 b1 bc
       0.07828619 0.25088963 0.15655737 -0.021607485
000250 d8 99 c9 3a 19 38 05 3d 01 ab a9 be 46 4c 58 bd
       0.0015380932 0.032524202 -0.33138278 -0.052807115
000260 9d 08 2e bd d2 8c 1d 3d 60 5d 84 3d 1c fe 73 3c
       -0.042488683 0.038464375 0.06463122 0.014892127
000270 5b e6 7a 3d 65 ba 80 3d 13 6c 00 3d 64 7a be 3c
       0.06125484 0.06285552 0.031353068 0.02325172
000280 83 5a 1e 3e 40 9c dc bd 81 36 f6 3d 6a 12 2a 3e
       0.15464215 -0.1077199 0.120221145 0.16608587
000290 e6 ac 30 3e fd 99 2a 3e fe 13 04 3e 41 64 f6 3d
       0.17253456 0.16660304 0.12898251 0.12030841
0002a0 35 24 d7 bc c1 c3 7d 3e 40 64 29 3e d0 51 26 bd
       -0.026262382 0.24781705 0.16542149 -0.040605366
0002b0 74 73 e4 3d b4 b9 27 3c a2 b9 36 bd 37 41 0f 3d
       0.111548334 0.010237146 -0.044610627 0.034974303
0002c0 78 2a f6 3d 37 09 0d 3b 8f bc 6d 3e 80 75 c5 bd
       0.12019819 0.0021520385 0.2321646 -0.09641552
0002d0 ca a1 08 be 23 90 9b 3b d5 31 b9 bc 14 aa 11 3d
       -0.13342968 0.004747407 -0.02260677 0.03556259
0002e0 74 1b 3c 3d 9f 37 98 3c 08 b0 b5 3d 12 31 0b 3e
       0.04592462 0.01858121 0.08871466 0.13592938
0002f0 1b ac 24 3e e8 21 00 bc d4 33 27 3e 70 ed 14 bd
       0.16081278 -0.007820584 0.16328365 -0.03635925
000300 8d 0d fb bd 30 e5 b0 3d f0 24 39 bd 21 9d 15 bd
       -0.12258444 0.08637464 -0.045201242 -0.036526803
000310 7d 03 0d 3d b0 17 91 bd c3 3d 58 3c 6e da 02 3e
       0.034427155 -0.07084596 0.013198319 0.12778637
000320 b1 92 bc 3b 81 00 05 be cd cf ab bd 1f f9 4c 3d
       0.0057547917 -0.12988473 -0.08389244 0.050042268
000330 86 57 0f 3e 60 20 c2 3d c4 a4 73 3e d6 60 28 3e
       0.13998231 0.09478831 0.23793322 0.1644319
000340 20 ea 39 3e f8 63 16 be bf e9 c4 bc 46 3e 4d 3e
       0.18155718 -0.14686573 -0.02403724 0.20043287
000350 e4 83 80 bd 58 fe 21 3e a0 28 1c bd b7 c1 8e 3d
       -0.06275156 0.1581968 -0.03812468 0.06970542
000360 9c f2 13 3c 53 21 96 3d c0 e4 90 3d 4d 0d d4 bd
       0.009030011 0.07330575 0.070748806 -0.103540994
000370 ec 00 ac bd ae 2c a5 3c c8 7a 92 3b 85 4c d3 bd
       -0.08398613 0.020162906 0.004470203 -0.10317329
000380 83 a1 27 3e 7f f1 b8 bb cc 34 cd 3d 9a 28 2f 3e
       0.16370206 -0.005644023 0.10019836 0.17105332
000390 8b 44 08 bd 67 44 e3 3d bb 29 b7 3c 4a 1b 99 3d
       -0.033268493 0.11097031 0.022358766 0.07475908
0003a0 62 bb 30 3c ab f0 be 3d 8e 85 2a 3e 06 8c 08 3f
       0.010786863 0.093232475 0.1665251 0.5333866
0003b0 c1 ce 00 3d 93 22 04 bc 8f 28 ea 3d e8 92 e9 bc
       0.031447176 -0.008064884 0.11433517 -0.028512433
0003c0 d0 10 26 3a 61 ea 37 3e c5 a0 26 be 53 dd e9 3d
       0.0006334903 0.17960502 -0.16272266 0.11419167
0003d0 49 6a 05 be 65 7d a3 bc cf c7 60 be d6 17 20 3d
       -0.13028826 -0.019957254 -0.21951221 0.03908523
0003e0 fd 61 37 bd 1e 62 78 bd a1 bf 55 bd 27 d6 06 be
       -0.044771183 -0.060640447 -0.052184705 -0.1316763
0003f0 c6 84 8e 3d cd b1 75 b9 be 2e e3 3d 48 61 f8 3d
       0.06958918 -0.00023431257 0.110929 0.1212793

env_model.fc2.bias f4 [64]
000000 54 26 60 3d 0c 76 09 3b be ce 53 bc b5 16 1a bd
       0.054724053 0.0020974902 -0.012927709 -0.03761931
000010 29 0a 3a bc 57 05 34 bc ee dd fc 3d 61 5d 1f 3d
       -0.011354961 -0.010987601 0.12347017 0.038907412
000020 d6 ab c7 bc 39 45 18 3c 70 40 6b bc 0f 07 ee 3d
       -0.02437393 0.009293848 -0.014358625 0.1162244
000030 87 29 30 bd ff d9 23 bc 0c 60 12 bd 90 ed 29 3c
       -0.043008354 -0.010000705 -0.03573613 0.010371581
000040 0a c4 9f 3b 1b b8 37 bd 19 99 6a bd b3 d0 24 3d
       0.0048756646 -0.04485331 -0.05727491 0.040238094
000050 c4 a0 e7 3d 0b e1 df 3c 13 8f 8d 3c 18 a7 f1 3d
       0.113099605 0.027328989 0.017280137 0.11799449
000060 63 7a b8 3c 21 15 6a bd c1 71 1f bd 6e a3 83 3d
       0.022519296 -0.057149056 -0.038926844 0.06427656
000070 17 be 43 3d 1b c5 93 bc 73 51 6e 3c 5a 86 bf 3d
       0.047788706 -0.018038323 0.014545786 0.093517974
000080 37 05 71 3d bc cb 99 3d e5 32 51 3d 45 7e 30 3d
       0.058842864 0.075095624 0.051073927 0.04308917
000090 6f da dd bc b7 a1 e1 3d ba 5c 9a 3d ff 9e 7c 3d
       -0.027081696 0.11017173 0.075372174 0.061675068
0000a0 85 48 34 3d ed 65 33 bd 05 38 ef 3d fe 2c ba 3d
       0.044014473 -0.043798376 0.11680607 0.09090613
0000b0 a5 22 4e 3c 45 12 ec 3d 45 42 e9 3d 47 3c 2f bc
       0.012581502 0.11526922 0.11389593 -0.010695524
0000c0 98 d3 cc 3a b9 21 87 3d 66 a6 a1 3c 10 be a1 3d
       0.0015627025 0.06598229 0.019732665 0.0789758
0000d0 5b 06 ee bc 87 46 9e 3d a7 0e 47 3c f5 54 ee 3d
       -0.029055765 0.07728296 0.0121494895 0.11637298
0000e0 eb 45 f0 3d c7 74 c0 3c ea 99 a4 bc 08 e0 89 3d
       0.11732086 0.023493184 -0.020092923 0.06732184
0000f0 02 60 38 3a a4 95 ec 3c d4 77 c0 3d 81 34 17 3d
       0.0007033349 0.028879948 0.093978554 0.036915306

env_model.fc3.weight f4 [32, 64]
000000 2b f8 0a be 4c 0f d7 bd 7b bb 32 be 8c 83 6e 3e
       -0.13571231 -0.105009645 -0.1745433 0.23292369
000010 8e b2 8a 3c 59 f8 08 3e ef e0 d0 3d 26 dc d9 3d
       0.016930845 0.13375987 0.10199153 0.10637693
000020 05 f7 10 be dd 48 94 bd 11 0e 4a 3e aa f7 a1 bc
       -0.1415673 -0.0724046 0.19731928 -0.019771416
000030 48 45 e8 3d 6c c8 c5 3d f0 1c 74 3d 33 94 04 3e
       0.11341339 0.09657368 0.05959791 0.12947159
000040 ac 2b 40 bd 0c f5 8c 3c ac 97 3e be 80 42 29 be
       -0.04691665 0.017206691 -0.18612546 -0.16529274
000050 f7 e4 ab bd 9e ba 1d 3d 2d 13 b9 bd 16 68 0d 3e
       -0.08393281 0.03850805 -0.090368606 0.13809237
000060 59 99 71 3d 4a 4c bc bd 6b 44 5e 3e a0 87 89 bd
       0.058984134 -0.091942385 0.21705787 -0.067153215
000070 7f d5 f4 bd 45 2b d1 3c 8a 3b c2 3b d8 80 15 bd
       -0.11954784 0.025533328 0.0059275078 -0.036499828
000080 45 9d 30 3e d6 5a 77 3d 1c 29 9e bd eb e9 3b 3e
       0.17247494 0.060389362 -0.07722685 0.18350951
000090 8a 96 a8 3c ed e3 1b bc b8 e2 46 be f2 18 3f 3e
       0.020579595 -0.009514791 -0.19422424 0.1866186
0000a0 67 ad 18 3c 2e c8 e3 bd dd f4 6f 3e 45 d1 96 3d
       0.009318686 -0.111221656 0.23433252 0.07364134
0000b0 43 17 a9 3d d8 f6 66 3d 42 7f 8f 3d 36 fc f3 3d
       0.0825639 0.056387752 0.070066944 0.1191334
0000c0 47 57 07 3d 91 86 bd bc 6e 7e 13 be b5 20 40 3d
       0.03304222 -0.023135455 -0.14403698 0.04690619
0000d0 57 d7 4f 3c 86 7e 2d bd 2e 1d 82 3d 18 e7 8e 3c
       0.012685618 -0.04235699 0.06353222 0.017444178
0000e0 02 76 9f 3d 91 28 0d 3b 2f da 08 3e 86 a6 e2 3d
       0.0778618 0.0021539072 0.1336448 0.11066918
0000f0 da 70 ab 3d ba 28 51 bd 93 34 c4 bd 4b e6 50 3e
       0.08371134 -0.05106423 -0.0958034 0.2040035
000100 bd 6a 8c bc 1d 65 10 3d ff 0b 8c 3d f6 11 c2 3d
       -0.01714074 0.03525268 0.068382256 0.09476082
000110 e1 e7 71 3e e8 b3 88 3e 27 c1 1c 3e 3b 34 d9 3d
       0.23623611 0.26699758 0.15308057 0.10605665
000120 5b 6a 69 3e ff 46 04 3e c4 fb 58 3d 2d f3 d8 bd
       0.22794478 0.12917708 0.052974477 -0.10593257
000130 f8 1b 66 3c f5 6d da 3c e3 4d c3 3c 28 6f 99 bc
       0.014044754 0.02666376 0.02384085 -0.018729761
000140 39 b5 7e bd e9 c7 72 bd 86 fe 47 3c e4 56 17 3e
       -0.062184546 -0.05927268 0.012206679 0.1477924
000150 c6 e4 c5 bd 66 21 cf bd b4 4e c1 bc a1 e2 c4 3d
       -0.09662776 -0.10113792 -0.023597099 0.096135385
000160 38 8c 10 be e8 74 12 be cd c7 43 3e 44 12 42 bd
       -0.14115989 -0.14302409 0.19119187 -0.0473807
000170 b3 cf a7 bd 73 26 b0 bb 5f 66 b9 3d 24 3e 8a be
       -0.08193912 -0.0053756773 0.09052729 -0.27000535
000180 69 c1 8a bd f6 2b 9f bd d1 c6 c8 bc 9e 64 33 be
       -0.06775171 -0.07772057 -0.024508866 -0.17518851
000190 fb d6 fe bd 34 6f 06 3d b2 51 e9 bb 4f 01 1e be
       -0.12443348 0.032820895 -0.0071203345 -0.15430187
0001a0 0f 00 cf bd 51 a4 dc bd e1 cf 3a 3e d0 aa 38 3e
       -0.10107433 -0.10773528 0.18243362 0.1803391
0001b0 bf 3e d5 3d 7b b8 0f 3d e3 aa a5 3d 50 1f a5 bd
       0.104123585 0.035088044 0.08089235 -0.08062613
0001c0 ab 72 2e 3e 8d 68 37 3c f1 6b 4e 3e 7b 68 2b 3e
       0.1703593 0.01119436 0.20158364 0.16739075
0001d0 bb 8b 4e 3d 09 d8 26 be 65 28 da 3d 59 ec 4a 3d
       0.050426226 -0.16293348 0.10652236 0.049541805
0001e0 e7 20 b1 3d 95 0c 43 3e 09 59 5f 3e 4b de e1 3b
       0.08648854 0.19047768 0.21811308 0.0068929545
0001f0 4f 13 f9 3d b3 5e ec bd ce 04 0b be b6 f4 ca bd
       0.12161886 -0.115415 -0.13576052 -0.09909956
000200 54 52 c3 3b 62 be b8 3d d0 68 27 3e 2c 4a db 3d
       0.005960742 0.09020688 0.16348577 0.107075065
000210 d4 71 26 be 58 9a 93 bd df 3a a6 bd 1e cc 00 be
       -0.1625436 -0.07207173 -0.081166975 -0.12577865
000220 e7 41 0d 3d cc 73 09 be a7 66 1a 3e 95 0d 13 bd
       0.034486677 -0.13423079 0.15078221 -0.035901625
000230 30 65 fc 3d 86 68 88 3d 49 f5 3a 3e 11 6a 29 3e
       0.123239875 0.06660561 0.18257631 0.16544367
000240 53 f2 a1 3c 8c 24 68 3d 44 59 f4 bb 46 9d 1e 3d
       0.01976887 0.05667548 -0.0074569304 0.038724206
000250 15 f0 45 bc b4 0d ed bd 9e 72 12 3d 54 1e 38 bd
       -0.012081166 -0.11574879 0.03575384 -0.0449508
000260 3e 33 1a 3e 22 4e 09 be f7 82 82 bc 11 33 24 3d
       0.1505861 -0.13408712 -0.01593159 0.040087763
000270 60 28 60 3d dc 09 19 be 91 29 7c bd 5f 59 b5 3c
       0.054726005 -0.14945167 -0.06156308 0.022137342
000280 ba a3 29 be 32 20 1b 3e 1b 79 75 bd 04 0f 87 3e
       -0.16566363 0.15149 -0.05992995 0.26378644
000290 46 cc b9 3d 17 8d 53 bd f3 46 36 3e 04 0f e5 bd
       0.09072165 -0.051648226 0.17800502 -0.11184505
0002a0 0e 8c e1 3b e1 f2 26 be 75 2a b8 bd ed 95 0f bb
       0.006883151 -0.16303588 -0.08992473 -0.002190943
0002b0 de b9 92 bd 85 aa 8f 3d 65 e9 23 3e bb 66 40 3d
       -0.071643576 0.07014946 0.16007002 0.04697297
0002c0 19 da b1 3d 7b b5 36 bc 1f 28 3c 3e 1f 0c 8e bd
       0.08684177 -0.011151667 0.1837468 -0.06935906
0002d0 2b ae d7 3d 72 7a 6f bd b5 dd 66 3e ba d4 1f 3e
       0.10531267 -0.058466382 0.22545512 0.15608492
0002e0 0b a1 12 bd 47 0d ad bd 01 f9 08 3b 63 72 78 3d
       -0.035798114 -0.08449798 0.002090037 0.060655963
0002f0 46 f9 16 3e 49 be 69 3d 93 cf 15 be 07 3f d3 bd
       0.14743528 0.057066236 -0.14629965 -0.10314756
000300 f2 45 0f bd 08 2a 1b bd 7d 03 90 bd cd 5c 05 3e
       -0.034978814 -0.03788188 -0.07031915 0.13023682
000310 02 3b 5d be 74 94 4f 3e 0f ef 1f 3e cf e6 13 3e
       -0.21604541 0.20271474 0.15618537 0.14443515
000320 e9 45 21 3e 5d 72 3c 3e 7f 27 f7 3c 0a c7 92 bd
       0.15749325 0.18403001 0.0301702 -0.0716687
000330 97 3d 09 be 75 3f 41 3e 49 92 86 bd 68 ef 92 bb
       -0.13402401 0.18871863 -0.065708704 -0.004484106
000340 8f e2 48 3e f4 10 d1 3d ff 06 df bc 78 48 73 bd
       0.19617675 0.10208312 -0.027225016 -0.059395283
000350 b3 64 0e 3d e5 91 5c be 34 f1 4a 3e 3b 58 14 be
       0.034764003 -0.2154003 0.19818574 -0.14486782
000360 c2 95 17 3e 2b 7d 48 3e 7e 8a 98 3d 3d ad 88 3d
       0.14803222 0.19578998 0.0744829 0.066736676
000370 41 6f 46 bb 75 31 8a bd b8 de 44 3e c3 98 21 be
       -0.0030278715 -0.067477144 0.19225585 -0.1578093
000380 21 2c ca bc 69 0d 99 3c 02 1e 95 3d 97 e3 77 bd
       -0.024679245 0.018683152 0.07281114 -0.06051978
000390 de 5c 79 3e 9d d2 89 bc d7 1b 03 3e 3d 4d 1e 3e
       0.24351832 -0.016824061 0.12803589 0.15459152
0003a0 13 a5 22 3e 21 82 c2 bd a8 f9 39 3e d0 cc 17 be
       0.15883283 -0.09497476 0.18161643 -0.14824224
0003b0 e9 c4 02 be 25 1d cc 3d 9e ae 1a 3e 17 c0 a0 bd
       -0.12770428 0.099664964 0.15105674 -0.07849138
0003c0 13 54 42 3e 95 32 98 bd 73 eb 27 be bd 35 0c bd
       0.18977384 -0.07431523 -0.1639841 -0.034230936
0003d0 41 32 8a 3c 2c d6 f6 bd 64 27 72 3d 66 be 74 3d
       0.016869666 -0.12052569 0.059119597 0.05975189
0003e0 27 76 21 bd d6 32 09 be d6 2f 9f 3b 9f 4e 33 3e
       -0.03941932 -0.13398299 0.0048579974 0.1751046
0003f0 16 14 15 3e 82 ec 4c bd 21 35 6b 3c 6c 2e fb bd
       0.14558443 -0.05003024 0.014355929 -0.12264714

env_model.fc3.bias f4 [32]
000000 0e f3 f1 bc 69 05 5c bb db aa 77 bc 67 06 91 3d
       -0.029534843 -0.003357256 -0.015116419 0.07081299
000010 50 3e a8 bd a1 5a 59 3d c8 6a ab 3d 88 be b6 bd
       -0.0821501 0.053064946 0.08369976 -0.0892306
000020 11 f8 ab 3d 9c 6e 66 3d b6 27 72 bd be 36 f9 bd
       0.08396924 0.05625783 -0.059119903 -0.12168644
000030 90 26 3a bd e1 8f ea 3d 03 86 43 3d 05 d0 52 bd
       -0.045446932 0.11453224 0.047735225 -0.051467914
000040 c7 25 97 bd f5 30 97 bd 76 09 62 bc 99 7b 54 3d
       -0.07380252 -0.07382385 -0.013796201 0.051875684
000050 1c ff d1 3a 42 b1 1a bd 9d 66 b5 bd 95 d9 97 bd
       0.0016021463 -0.037766702 -0.088574626 -0.07414547
000060 b5 e8 8c 3b 92 3e fd bd 81 22 e3 3d a7 1e 75 3c
       0.004300202 -0.1236545 0.110905655 0.014960921
000070 91 74 07 bd f1 19 e0 3d 13 60 00 3d 97 19 9a 3d
       -0.03307015 0.10942448 0.031341624 0.07524412

env_model.fc4_state1.weight f4 [18, 32]
000000 c6 2a ea 3c 40 29 09 be 75 7f 8e 3d 9d 82 89 3d
       0.02858485 -0.13394642 0.06957904 0.06714366
000010 36 43 96 bc 82 c0 92 bc 73 ca c2 3c 57 7e 1a bd
       -0.018342596 -0.01791406 0.023778176 -0.037718143
000020 9d 08 b2 3d ed b0 09 3e b7 fb 9c bd b2 c7 a3 bd
       0.08693049 0.13446398 -0.07665198 -0.07997073
000030 3d 77 e5 3d a2 5f 6a 3e 00 ce 7d be 5b e4 52 bd
       0.112043835 0.22888044 -0.24785614 -0.051487308
000040 a2 b4 d7 3d a1 db 4c bd b3 fa 09 bd 48 e3 17 be
       0.105325 -0.050014142 -0.03368635 -0.14832795
000050 c1 52 14 ba 18 5b ce 3c 45 27 79 bd 05 c6 0b 3e
       -0.0005658083 0.025189921 -0.060828466 0.13649757
000060 a2 cf e2 3d cf 7d 4a be 4b 25 b0 3d 71 80 88 3d
       0.11074759 -0.19774555 0.08600863 0.06665123
000070 77 1e ec bd 27 6d 04 3d 29 b1 f4 bb 09 da af bd
       -0.11529248 0.03233066 -0.007467408 -0.08586509
000080 d0 64 cf 3d 35 06 10 3e 08 82 e6 bd ad c7 b2 bd
       0.1012665 0.14064868 -0.1125527 -0.087294914
000090 5e 32 d3 3c 43 d7 e6 bc a0 4e da 3d 6d 1a 1d 3e
       0.025780853 -0.028178817 0.10659528 0.15342112
0000a0 82 cc 81 be 81 de 9c 3d 9f f4 f9 bd 94 63 6f 3d
       -0.2535134 0.07659627 -0.12204861 0.058444574
0000b0 20 6c a9 3b 8f 92 9b 3b a1 a6 9a 3d 8f 4b 1a bc
       0.00517036 0.0047476958 0.07551313 -0.009417429
0000c0 ac 25 d4 3d 3d 78 e9 3d be f8 cd ba 4b 3f a2 bd
       0.10358748 0.11399887 -0.001571439 -0.079222284
0000d0 38 bb d1 bb 40 c7 28 be cb af cd bd c5 38 a7 3d
       -0.006400492 -0.16482258 -0.100432955 0.08165125
0000e0 99 78 9e 3e 7f 6a 54 be 82 5a a1 bd 10 c9 20 3d
       0.30951384 -0.2074375 -0.07878591 0.03925425
0000f0 2d f0 80 3e ea 43 16 be 77 b3 81 bd b0 b9 36 be
       0.2518324 -0.14674345 -0.06333058 -0.17844272
000100 9d 05 26 be d2 fc fa bc 6a a5 88 3e bf e0 6a 3d
       -0.16213079 -0.030638132 0.266887 0.05734324
000110 90 fa 83 3c ff bf 34 bc 0a 9c 09 3e fa de a4 3d
       0.016110688 -0.011032104 0.1343843 0.08050342
000120 8e ab d6 3d d6 d7 05 be 78 31 fb 3d c2 f8 ea 3d
       0.1048194 -0.13070616 0.12265295 0.11473228
000130 f9 53 37 bd ad f3 40 3e f3 7c a7 3c 25 a0 c7 bc
       -0.044757817 0.18842955 0.020445323 -0.024368355
000140 a2 10 80 bd a8 32 86 bd fc 89 9a bd d7 e0 f9 bc
       -0.062531725 -0.06552631 -0.0754585 -0.03050272
000150 aa 81 a5 3c af c4 9c bd af 9f 4c bd bf 16 91 3d
       0.02020343 -0.07654702 -0.049956974 0.070844166
000160 5f a9 dd 3c 74 29 e1 bb 92 1a e7 bd 91 a4 06 bd
       0.027058301 -0.0068713967 -0.11284365 -0.032871787
000170 fb d5 75 3e bf 4b 33 3b 41 33 18 be eb 86 56 bd
       0.24007408 0.002735838 -0.14863302 -0.05237476
000180 8e c5 a3 bd ec 96 ab 3d a9 a1 21 be f6 cb 64 3e
       -0.07996665 0.083783954 -0.15784325 0.2234343
000190 42 9c 08 3e 88 51 99 bd cd be c8 bb 53 19 4b bc
       0.13340858 -0.07486254 -0.006126261 -0.0123961745
0001a0 74 ab 48 bd 89 96 ef bd 00 a2 11 bb c0 ab 0d bb
       -0.048991635 -0.11698634 -0.0022221804 -0.0021617264
0001b0 da b7 83 3d 34 d1 a7 3c dd a6 ed 3d e6 83 90 ba
       0.06431551 0.020485498 0.11604092 -0.0011025637
0001c0 2d 6f 23 3e f4 ca 86 3c bc af d7 bd cb 70 42 3e
       0.15960379 0.016454197 -0.105315655 0.1898834
0001d0 e8 8a 5e be 63 07 2f 3e fb 21 6e bd e0 c3 4a bb
       -0.21732676 0.17092662 -0.058137875 -0.0030939505
0001e0 58 23 9b bd 05 a8 a0 bc 13 66 0f 3b 11 0b 39 bd
       -0.07575101 -0.019611368 0.002188091 -0.04517657
0001f0 d3 9c 2d bb 5a 75 27 3d ba 37 14 be 66 b1 84 bd
       -0.002649118 0.0408834 -0.14474383 -0.064791486
000200 98 41 08 3d da 6d 68 bc 4a 8f 73 3c 6a 0f 91 3e
       0.03326568 -0.014186347 0.014865706 0.28332072
000210 64 71 ab 3d 10 73 95 bd 72 87 eb bd fa 56 02 3d
       0.08371237 -0.07297337 -0.115004435 0.03182123
000220 72 0c fc bd b1 10 6f 3e 5b cb 73 3d fe ae 80 3d
       -0.12307061 0.23346211 0.059520107 0.06283377
000230 f9 cc 6f be 37 b7 84 be f0 c4 14 bd bf b1 37 bd
       -0.23418035 -0.25921032 -0.036320627 -0.044847246
000240 b0 ca f7 bd 0e 07 c7 bc 2c 61 f5 bb f9 cc bc bd
       -0.120992064 -0.024295356 -0.0074883904 -0.09218783
000250 03 be ca bc 21 ef 45 bd c9 0c ef 3d 33 69 ce ba
       -0.024748808 -0.048323754 0.116723605 -0.0015747905
000260 f1 11 2f 3d a1 4d b8 3d 2b f6 9b bc 17 6f 5d 3e
       0.04274172 0.089991815 -0.01903828 0.21624409
000270 70 9e c5 bd 3e dc 97 3b ef 86 04 3e 73 bd be bd
       -0.0964936 0.004634409 0.12942098 -0.09313478
000280 55 45 0c 3d 15 af 67 3e 6a 3d cb bd 11 a3 54 bd
       0.034245808 0.22625382 -0.09923823 -0.051913325
000290 eb 68 17 be 72 ae 48 3e 8b 64 30 bb 1d 0e 96 3d
       -0.14786117 0.19597796 -0.0026915397 0.07326911
0002a0 b0 76 05 be 22 b8 e7 bc 39 36 e5 bd c8 f6 1f bd
       -0.13033557 -0.028286044 -0.11191983 -0.03905371
0002b0 db 53 8c bd a3 ed eb 3d d6 a8 6b be d4 f6 b1 bd
       -0.06851932 0.11519935 -0.23013625 -0.08689657
0002c0 c8 be 3c be 54 ef 8c be 6a dd ea 3d 31 c2 00 be
       -0.18432152 -0.27526343 0.11468013 -0.12574078
0002d0 6a fe 3e 3e 01 c7 d3 3d cf a4 12 3e f9 11 1f be
       0.18651739 0.10340691 0.14320682 -0.155342
0002e0 e7 25 65 bc cd db 24 3e 5e 55 79 3d e6 9c 79 3e
       -0.013986087 0.16099472 0.060872428 0.24376258
0002f0 98 8a ae 3d c1 85 13 3d ff 1a e3 bd 2d 79 d6 3c
       0.085225284 0.03601623 -0.110891335 0.026180828
000300 75 71 9a 3e 7d 74 5c be d2 88 2f be f1 0e 8a bd
       0.30164686 -0.21528812 -0.17142037 -0.06741131
000310 74 6c 69 3d 6d 33 7a bd 7d 6f 10 be 83 f5 47 bc
       0.056988195 -0.0610842 -0.1410503 -0.012204531
000320 fe 20 17 be b4 51 23 3e 90 ca c0 3c bf 00 bc bd
       -0.1475868 0.15949136 0.02353409 -0.0917983
000330 f7 e8 34 bb 9c 95 3b bd ed a3 ce bc 81 43 95 be
       -0.0027604678 -0.045796975 -0.02522465 -0.29153064
000340 11 c9 aa bc 2e 9f 96 bd 5c f3 c4 bb 24 21 2e 3e
       -0.020847829 -0.0735458 -0.006010456 0.1700483
000350 ed 7e 00 be 0c 3d 41 3e 0f 1f d7 bd 52 d9 9c 3c
       -0.12548418 0.18870944 -0.10503971 0.019146595
000360 3d 82 d6 bc 1b 0c b3 3d a5 56 02 3e 3b a1 71 3d
       -0.02618515 0.08742543 0.12728365 0.058991652
000370 d2 bd 05 3e 8c ad 45 3b 46 78 de 3d 4b 2b 88 3d
       0.13060692 0.0030163256 0.10862784 0.066488825
000380 3c 96 43 3c 8e 3c d9 bb f5 6c ae 3a ef 0d d9 bd
       0.011937674 -0.006629533 0.0013307618 -0.10598361
000390 0e ff ff bc ec ff c0 3d b5 bf 16 bd 43 24 08 be
       -0.03124955 0.09423813 -0.03680392 -0.13295083
0003a0 3d c3 eb 3d 48 35 c8 3a 3f 13 3b be e0 5a 2a 3c
       0.11511848 0.0015274668 -0.1826906 0.010397643
0003b0 aa 12 bb 3d 75 42 3c be c0 12 96 bd 13 3e c9 bd
       0.09134419 -0.18384726 -0.07327795 -0.09826293
0003c0 9c ae 28 bd 70 d5 20 be 34 cc 0f be df 57 fe bc
       -0.041182145 -0.1570642 -0.14042741 -0.03104776
0003d0 00 ba 9c 3b 86 0c a0 3c dc 8d 5a bb f1 b6 98 be
       0.004782915 0.019537222 -0.0033348715 -0.29827073
0003e0 69 01 8d 3e 12 83 dd 3d 15 9f 26 3d 41 bb ee 3d
       0.27540138 0.10816015 0.040679056 0.116568096
0003f0 cd 22 43 3e 98 de 57 3e 46 d5 fb 3d fe f0 49 3e
       0.19056244 0.21081007 0.12296538 0.19720837

env_model.fc4_state1.bias f4 [18]
000000 aa ad de bd 02 b5 c2 bd 24 cc 8d bd 1a c3 d7 3d
       -0.108729675 -0.09507181 -0.06923702 0.105352595
000010 c7 e7 f3 3d b9 1a 73 bd 4d cd 0a 3d 0f b6 fb bd
       0.119094424 -0.059351657 0.033887196 -0.12290584
000020 17 f4 0c 3e 6d 99 43 3e e0 80 05 3d 01 48 b8 bb
       0.13764988 0.19101496 0.032593608 -0.005623818
000030 f9 b0 d0 3d 0e 48 b6 bd 73 5f 30 bc 11 65 66 bc
       0.10190005 -0.08900462 -0.010764944 -0.014062182
000040 51 4f fd 3c 5d 3c 6f bc
       0.03092161 -0.014601794

env_model.fc4_state2.weight f4 [18, 32]
000000 72 e3 64 3e 3b fa 57 be a5 b6 5e 3d 06 a4 57 bb
       0.22352389 -0.21091549 0.054373402 -0.0032904162
000010 b2 46 3b bd 27 cc de bd 19 86 ac 3d a2 53 95 3d
       -0.045721717 -0.10878783 0.084240146 0.07291342
000020 5f f5 1a be ca 6e 8e be fe 9a 97 bc 38 fc ed 3c
       -0.15132664 -0.278189 -0.018506523 0.029050931
000030 bf 4d 1e be db d9 36 be 44 ca 7e 3d 58 d4 31 3e
       -0.15459345 -0.17856543 0.062204614 0.17366159
000040 29 55 73 3e db c3 8b bd ce 76 f3 bd 35 b5 ed bd
       0.23762955 -0.06824466 -0.118878946 -0.11606828
000050 97 b3 cc 3d 85 8b 91 bd 4f 76 f5 3c ff b3 07 3e
       0.099951915 -0.07106689 0.02996364 0.13252257
000060 d6 b4 40 3d 00 80 e0 3d 72 82 68 3d 9b 50 1b 3a
       0.04704746 0.10961914 0.056765027 0.0005924792
000070 cc ee 74 3d 21 da db 3d e9 fd 78 ba 56 8c 03 3d
       0.059798047 0.10734964 -0.0009498285 0.032116257
000080 fd f0 98 bd a1 ed 84 bd dd 9d 9b bd 85 a6 a4 bd
       -0.0746784 -0.064906366 -0.075984694 -0.080395736
000090 cc 7a 88 bd 31 03 32 be 35 61 24 3e 5e 41 64 3d
       -0.06664047 -0.1738403 0.16052707 0.0557264
0000a0 95 b6 7f 3e 45 78 93 bd 33 b3 3c 3d df b3 2c 3e
       0.24971993 -0.07200674 0.046069335 0.1686549
0000b0 3b 83 7e 3e 9f 5d 4b be 65 53 f1 bd 11 25 1f 3e
       0.24854748 -0.19859932 -0.11783484 0.15541483
0000c0 de 84 63 bd 3b 5c 98 be ef 2e 97 bc b4 db e1 3d
       -0.055546634 -0.29757866 -0.018454997 0.11028233
0000d0 d1 8a 63 bc c1 61 15 3c 0f 1a 22 3b 7e ed 67 3e
       -0.013888077 0.009117545 0.002473477 0.2264919
0000e0 67 39 9c bd 57 63 ac bd 93 d4 f6 bd 47 00 29 3e
       -0.07628136 -0.08417385 -0.12052264 0.16504012
0000f0 ab 1f 46 3d 28 ce 46 bd 65 22 3f 3e 40 a9 1c 3d
       0.048370045 -0.04853645 0.18665464 0.038247347
000100 ce c6 07 be 6e b5 f5 bd ac bd 92 3e bc 66 ef bd
       -0.13259432 -0.119974956 0.28660333 -0.11689517
000110 af 0a e3 bd 10 13 78 bd f2 13 11 be 5e 09 57 3c
       -0.11086022 -0.060565054 -0.14167765 0.013124792
000120 e1 f1 d0 bd 67 fc 0b 3e 2a b5 23 bb c8 41 3f bd
       -0.10202385 0.13670503 -0.0024979808 -0.046693593
000130 50 51 4b 3d e9 38 8f 3d a5 71 d1 3d 17 df 9c bc
       0.049638093 0.069932766 0.10226754 -0.019149346
000140 d5 d3 1b 3d 3a 8e 41 be 8d 73 2c be 21 ff cc 3d
       0.038043816 -0.18901911 -0.16840954 0.100095995
000150 b8 e8 b0 bd 5d 83 dd 3d c5 fc 99 3d e1 2c ca 3d
       -0.086381376 0.10816071 0.07518915 0.09871841
000160 1f 48 26 3e 89 73 12 3c be 3c 9f 3c 10 ca b0 bc
       0.1623845 0.008938679 0.019438144 -0.021580726
000170 aa be 80 3e c3 1d 8c bd b6 ec 13 3d 2d 25 5c bd
       0.25145465 -0.06841614 0.036114417 -0.05374639
000180 7d d4 2c be 53 ec 33 3b 0d 27 b8 bd 36 05 17 3e
       -0.16877933 0.0027454093 -0.08991823 0.14748082
000190 ec 8b 88 bc 21 03 3f 3d 0e 90 f4 3c 9c fb 59 3d
       -0.016668282 0.046633843 0.029853847 0.05321847
0001a0 7b fa 71 bd 17 54 8e 3d a9 0e c3 3c 85 5f b0 bd
       -0.059076767 0.069496326 0.023810701 -0.08611969
0001b0 94 14 96 3d 91 bd 8b bd e7 e1 cf 3a 05 0c ea 3d
       0.07328144 -0.06823266 0.0015860171 0.11428074
0001c0 a4 1f 71 3d 24 09 17 bd 20 50 96 3c 7a 5d c1 bc
       0.058868065 -0.03687395 0.018348753 -0.023604143
0001d0 b0 15 f5 bd a3 b5 50 3d 0f 27 cc bd cd 32 e3 bd
       -0.11967027 0.050954472 -0.09968387 -0.11093674
0001e0 15 ba 52 be 95 58 12 ba d0 42 65 3d e7 cd 42 3e
       -0.20578797 -0.0005582658 0.05597192 0.19023858
0001f0 13 ac 33 3e 9b 35 35 3e c3 f4 5a be 42 e3 03 bd
       0.1754611 0.1769623 -0.21382432 -0.03219915
000200 72 4a 0c 3e 49 5b 95 3d 86 fb 14 bd 34 ef 82 3e
       0.13700274 0.07292802 -0.036372684 0.25573123
000210 00 05 0e be 6b 34 e3 bd 18 9a 2b bd 4c 9a 65 bd
       -0.13869095 -0.11093982 -0.041895002 -0.056055352
000220 7c 4f 3a 3e 2c f7 1a 3e 1a 6b 08 be 08 33 7a bd
       0.18194383 0.15133351 -0.13322106 -0.061083823
000230 cc a7 96 be f3 79 de bd b1 dd c9 bd 65 d5 b7 bc
       -0.29424894 -0.10863104 -0.098567374 -0.022440622
000240 09 35 95 bd cd 4f 2a 3d 2a c0 f7 bd ac 63 37 3d
       -0.07285506 0.04158001 -0.12097199 0.04477279
000250 fb 65 2a 3e 19 bd 46 be 69 84 86 3c 5c a3 e3 3d
       0.16640465 -0.19408073 0.01642056 0.11115143
000260 4e 72 db bb f0 97 97 bd ae de fd bd 54 e5 98 3d
       -0.006696976 -0.07402027 -0.123959884 0.07465616
000270 40 d1 06 3e dc c7 9a 3a 79 46 0a 3e 01 a0 ea 3d
       0.1316576 0.001180883 0.13503446 0.114562996
000280 06 16 65 3e df 6e 11 3e 6d 79 4a be 1d 0b 37 3d
       0.22371683 0.1420245 -0.19772883 0.044688333
000290 4e 22 0c be 6e b6 a2 3d a2 80 66 3d 93 b6 7e 3c
       -0.13684961 0.07944952 0.056275018 0.015546459
0002a0 91 5f ca 3c 2d 4f 03 be 07 56 e2 bd 4d 51 0d be
       0.024703773 -0.12823172 -0.11051565 -0.13800545
0002b0 ad 45 fb bd 8f 5e 88 3e ab 78 7b bd e6 e9 eb bd
       -0.12269149 0.26634642 -0.061394375 -0.11519222
0002c0 32 62 e7 bd 9f 04 69 be b3 be 8f bd f9 c3 c9 3d
       -0.11298026 -0.22755669 -0.07018795 0.09851832
0002d0 68 1b 15 3e 50 2d 93 3e 24 fd 37 3c ea 6d d0 bd
       0.14561236 0.28745508 0.011229787 -0.101772144
0002e0 7c d3 f1 3d 6b a7 b6 3d b4 b7 be 3c 6b 37 81 bd
       0.118079156 0.08918651 0.023280956 -0.06309398
0002f0 f6 99 4a 3c 61 77 d7 bd 7e 71 f8 3d 5e 63 64 be
       0.012365809 -0.105208166 0.12131022 -0.2230353
000300 d4 f0 84 3e a0 33 d3 bd 4e 3f d4 bd 30 2f dd 3d
       0.25964987 -0.10312581 -0.10363637 0.10800016
000310 12 08 00 3e d3 07 c2 bb cf 39 d2 3d 6a 95 25 3d
       0.12503079 -0.005921343 0.10264932 0.040425695
000320 83 da 46 bd 2d 4f 19 be 18 09 22 bc 34 10 1e 3d
       -0.048548233 -0.1497161 -0.009889863 0.03858967
000330 d4 50 f4 bc f6 75 16 3e ee 42 f5 bd 96 a7 71 be
       -0.029823698 0.14693436 -0.119756564 -0.23599085
000340 2c 89 47 be 96 18 dd 3d f0 b6 07 3e a7 c1 2e bc
       -0.1948592 0.10795705 0.13253379 -0.0106662875
000350 24 e1 01 3d 91 d4 83 bd 27 a4 32 be 59 b7 ad 3d
       0.03170885 -0.06437028 -0.17445432 0.084822364
000360 1e 3b 78 be 55 99 74 bc 8a 60 80 bd 6d b9 8c 3d
       -0.24241301 -0.014929135 -0.06268413 0.06871305
000370 3c be 13 3e 35 b8 67 3d 67 ff 2e bd 4a 5c 84 3e
       0.14428037 0.056572158 -0.04272404 0.2585166
000380 15 33 cf 3d 4d c0 3d be 75 6c 53 bd b1 9c 30 3e
       0.10117165 -0.18530388 -0.051617105 0.17247273
000390 26 b1 30 3e e3 ec 43 bd 19 b1 84 bd d1 9e a7 bd
       0.17255077 -0.047833335 -0.06479091 -0.08184589
0003a0 04 c6 4e 3d e0 c3 6d be 31 25 39 be 6d e0 2d be
       0.05048181 -0.23219252 -0.18080594 -0.16980143
0003b0 e3 5d 26 3e 7e 76 8b 3d fe 96 b1 3c 3d a2 2e 3d
       0.16246752 0.0680971 0.021678444 0.04263519
0003c0 f5 20 16 be 1d 4f 41 3c f0 20 8e bc 0b e7 d8 bd
       -0.1466101 0.011798647 -0.01734969 -0.10590943
0003d0 ca 8a 54 3d 33 0f 3e 3d 1f bd 77 bd bb b4 38 be
       0.051890172 0.046401214 -0.060483094 -0.18037693
0003e0 35 77 5e 3e 54 ed 8b 3c 30 f1 50 bd aa 42 04 be
       0.21725161 0.01708094 -0.051011264 -0.12916055
0003f0 8d c0 f7 3d da 3e e3 3c 98 23 84 3e f3 bb 29 3c
       0.12097273 0.02773993 0.25808406 0.010359752

env_model.fc4_state2.bias f4 [18]
000000 7f de fb bd e3 b8 d2 3d 2c 00 c7 3c 90 54 08 bd
       -0.12298297 0.102891706 0.024292074 -0.03328377
000010 f2 46 23 3d 4b 68 a2 bc 3f 3d 42 bc dc 2e b6 3d
       0.03986258 -0.019825121 -0.0118554225 0.088956565
000020 a4 32 0c bd 07 b2 19 3e 96 cc 37 3d 68 04 bf 3c
       -0.034227982 0.15009318 0.044872843 0.02331753
000030 ee 64 b8 3d d9 a8 2c 3d bd d7 24 3c e3 ff 8c 3d
       0.09003626 0.042153213 0.010061202 0.06884744
000040 17 f9 74 ba d7 23 5e 3c
       -0.00093449786 0.01355835

env_model.fc4_state3.weight f4 [18, 32]
000000 18 13 1e be b0 62 d2 bd 2c 51 9b bd a8 5f a8 3d
       -0.15436971 -0.102727294 -0.07583842 0.0822137
000010 0c d2 bc bd 95 3f ac bd 79 9f e5 bb a7 b1 20 3e
       -0.09219751 -0.08410565 -0.007007536 0.15692769
000020 4a aa d3 bd 57 60 17 3e dc e6 7c 3c 06 75 e5 3d
       -0.103352144 0.14782844 0.015435901 0.11203961
000030 39 6f 46 3e 79 6b ff bc 4f 0a d3 bd c2 21 a5 3b
       0.19378366 -0.031179177 -0.103047006 0.0050394246
000040 52 6b 28 be 34 43 ec 3d c5 d1 b7 bd 82 4b c1 3c
       -0.1644719 0.115362555 -0.08975557 0.023595575
000050 56 33 70 3e b0 6b ca 3d e9 5a 25 be 63 a0 9a 3c
       0.23457083 0.09883821 -0.1614796 0.018875306
000060 3f 33 40 3e eb fc 80 3d 84 59 54 bd 57 00 07 be
       0.18769549 0.0629824 -0.05184318 -0.13183723
000070 ac 3e 04 be 69 82 1d 3e 32 1a 93 bd 7a 22 eb bd
       -0.12914532 0.15381779 -0.07182731 -0.11481185
000080 a7 d9 75 bd 81 49 5b be 9a 5e 3c 3d 99 75 f7 bd
       -0.060022023 -0.21414758 0.045988657 -0.12082977
000090 a2 e6 03 3e 68 a7 8c 3d a0 28 05 be 6b 42 25 bd
       0.12880948 0.06867868 -0.13003778 -0.040346544
0000a0 af 0d f2 bb b2 5a 0c bd d2 f0 28 be 70 85 7b bc
       -0.007386885 -0.03426618 -0.16498116 -0.015351638
0000b0 5a 55 e6 bd 47 16 78 3e f5 58 4f 3d 44 62 45 3d
       -0.11246748 0.24227248 0.050621945 0.048189417
0000c0 54 ee 1a 3d c4 0d ea 3d aa 8c 06 bc 81 77 96 3e
       0.037824944 0.11428407 -0.008212248 0.2938805
0000d0 76 cb 12 3e 84 e4 48 be 15 65 42 3c 60 76 6b be
       0.14335427 -0.19618422 0.01186492 -0.22994375
0000e0 4c b3 a1 bd 7d 3e 86 3e 38 f5 81 bd 65 f1 4c 3e
       -0.07895526 0.2621955 -0.063456 0.2001396
0000f0 9e 57 65 bd 4c b1 db bd 66 57 52 bc 71 9e c4 bd
       -0.05599176 -0.10727176 -0.01283822 -0.09600533
000100 2d 0f 48 be 35 13 ac bd a8 2f a8 3d 56 ac 81 3d
       -0.19537039 -0.08402101 0.08212215 0.063316986
000110 24 e4 0a be ef 7a 05 3e 36 47 36 bd d4 19 1e bc
       -0.13563591 0.13035177 -0.044501506 -0.009649713
000120 5e 85 e4 b9 bb 44 b3 bd fd 58 48 3e 2f 10 0c 3e
       -0.00043586915 -0.08753344 0.19565196 0.13678049
000130 d7 95 b5 bd 58 11 27 3b 91 11 5a 3d ea e7 4f be
       -0.0886647 0.0025492515 0.05323941 -0.20303312
000140 32 75 26 3d ba a6 c4 bd 93 fb cd bd 08 93 35 3d
       0.04063911 -0.09602113 -0.100577496 0.044329673
000150 06 8f 35 bd 35 81 e5 3d ea 95 69 bc 82 79 0b 3e
       -0.04432585 0.11206285 -0.014256934 0.1362057
000160 d2 aa 32 3e 4f c5 80 3c eb 9d 55 bd 6e 0c dd 3d
       0.17447975 0.015719084 -0.052152555 0.107933864
000170 fc 23 fb 3d 79 e8 03 be 04 d6 81 bd f3 26 c2 3d
       0.12262723 -0.1288165 -0.06339648 0.09480085
000180 bb e4 50 be 70 4f 19 3e d1 a8 f8 bd 2c 61 de bb
       -0.20399754 0.14971709 -0.12141574 -0.006786486
000190 9b 3d 51 3e 2c 65 98 3d 00 70 54 be 2f 21 10 3d
       0.20433657 0.07441172 -0.2074585 0.035187896
0001a0 2b 0a 26 3d d9 4f c7 bd ae c3 3f bd e7 7e 29 3e
       0.04053704 -0.097320266 -0.046817474 0.16552316
0001b0 d1 9c 32 bc 49 8d f4 bc 6c c9 ad bd 8e 10 c8 3d
       -0.010901646 -0.029852526 -0.08485684 0.097687826
0001c0 1c 82 86 3d 9c 3d 13 3d 13 60 58 be df 9f 8b 3d
       0.06567785 0.035947427 -0.211304 0.06817602
0001d0 b6 ed e5 bd 48 a5 9c 3d 9a a7 51 bd f7 7a a4 3d
       -0.112269804 0.076487124 -0.051185228 0.08031266
0001e0 88 46 c4 bd 8a 7a c6 bc 53 f8 88 3c 4e b3 9f 3d
       -0.09583765 -0.024228353 0.016719973 0.077978715
0001f0 67 06 20 3e 67 b2 54 3e 88 d0 5d 3c 22 79 6b bd
       0.15627442 0.2077118 0.013538487 -0.057488568
000200 e8 1a 3f 3d c5 9d 4b 3e 77 92 96 3d 46 7a 8e 3e
       0.04665652 0.19884403 0.07352155 0.27827662
000210 af 1e 10 3e b2 e7 03 be 68 7b 20 3e 7a af 1c be
       0.14074205 -0.12881353 0.15672076 -0.15301314
000220 90 84 2c be 24 97 6b 3e a3 b2 8a 3a 05 68 2b be
       -0.16847444 0.23006874 0.0010581802 -0.16738899
000230 db 67 f4 bd 6b bf f5 bc 23 98 9e bd c6 c3 bf ba
       -0.11933871 -0.029998502 -0.077438615 -0.0014630489
000240 e1 2f 31 be 18 b5 fb bd d7 ce 15 be d2 b5 41 3d
       -0.1730342 -0.122904 -0.14629684 0.047292538
000250 66 76 d7 bc 9f f9 5f be 16 0f 46 3e 78 3a 25 bd
       -0.026301574 -0.21872567 0.19341692 -0.040338963
000260 1e 87 6f bd f4 04 ad 3d 58 96 84 bd 41 a8 af 3c
       -0.058478467 0.0844821 -0.06473988 0.021442534
000270 12 f1 0b 3d 7e f0 e4 3d 6a 91 9a bd 57 c3 93 3d
       0.03416545 0.11178683 -0.07547267 0.072149925
000280 94 2e 53 3e 12 28 36 3e a9 6e 5a bd 61 cc c0 bb
       0.20623237 0.17788723 -0.05332819 -0.005883739
000290 15 65 ea 3b 6a 7e ce bc 2e cb 88 bd aa 33 c5 3d
       0.007153163 -0.025206763 -0.066793784 0.09628995
0002a0 1b 05 93 3d b4 4d a5 bd cc f1 3f be 70 a4 31 3d
       0.07178708 -0.08071461 -0.18744582 0.04336971
0002b0 e2 8f 16 be f8 f7 cc 3d d7 88 66 3e 69 0b 7f bd
       -0.14703324 0.10008234 0.22513138 -0.06226674
0002c0 b2 11 0f be c6 ba 8b be f1 db 40 3e 71 75 98 bc
       -0.13971594 -0.27290934 0.18833901 -0.018610688
0002d0 6a 38 22 3e 96 35 02 3e f0 0b ab bd 7b 3d 98 3d
       0.15841833 0.12715754 -0.08351886 0.074336015
0002e0 01 71 12 3d 92 c9 bd bc 61 d5 8b bd 69 dc ef 3d
       0.0357523 -0.023167405 -0.06827808 0.11711962
0002f0 8a 8c 3a be d1 21 ca bd 07 92 47 be 4d 8f eb 3d
       -0.18217674 -0.09869731 -0.19489299 0.11501942
000300 6a 9e a3 3e 7a 8f 1d bd 4c 4f 0c 3e 6c 1e 09 be
       0.31956798 -0.038466908 0.13702124 -0.13390511
000310 99 67 4c 3e 0b 2b d7 bd 7f 30 02 3e 5f 91 f8 3d
       0.19961394 -0.10506257 0.12713812 0.12137102
000320 06 7b ab bc 0a 6c 1f 3e d2 d7 08 be 9a 8e c3 3d
       -0.020932686 0.15568557 -0.13363579 0.095486835
000330 44 fb e5 3b 6a d6 82 3d 24 45 08 bd e9 47 3d be
       0.0070184786 0.063885525 -0.033269063 -0.18484463
000340 7d f1 bb 3c d9 d3 1e be 96 0a 9b bd 9f 59 29 3e
       0.022942299 -0.15510501 -0.075703785 0.16538094
000350 a2 dd 54 be 27 73 ec bc a9 f9 ed bd b7 c1 c1 bd
       -0.20787671 -0.028863503 -0.116198845 -0.09460776
000360 65 54 de bd bc 9a c6 3d 5e 92 f6 bb 23 47 18 be
       -0.10855941 0.09697482 -0.0075247725 -0.14870887
000370 1d 36 00 3e 23 4c 83 3e a5 be 6f 3d 82 01 c6 3c
       0.12520643 0.25644025 0.058531422 0.02417064
000380 63 98 0e 3e c1 08 f8 bd 3c 9a 33 bc da 1a 52 3e
       0.13925318 -0.12111045 -0.010962065 0.20518056
000390 70 3c 28 3d 10 a4 4d be cb e2 17 3e 43 7b e3 bd
       0.041073263 -0.20082116 0.14832608 -0.11107495
0003a0 b5 cb 61 3c 25 24 3a be 7c 76 55 bd 3b d2 9c bd
       0.013781478 -0.1817785 -0.05211495 -0.07657286
0003b0 72 69 34 3e bb ed 9e bd aa c5 45 3e 64 1c 40 be
       0.17618349 -0.07760187 0.19313684 -0.1876083
0003c0 13 ac ce bd ae 68 cb bc df 3c f5 3d 0e e5 e0 bc
       -0.10091414 -0.024830189 0.11974501 -0.027452972
0003d0 85 d4 0a 3c e3 6b c6 3d 6c 9c 9a bc cc d2 b8 be
       0.00847352 0.096885465 -0.018873416 -0.36098325
0003e0 2b 96 3d 3e ee d7 b9 3d a3 18 43 3d 0b 59 cc 3d
       0.18514316 0.090743884 0.047630917 0.09977921
0003f0 33 87 c4 bb c8 87 18 bd 70 43 02 be 1e 3a 24 3d
       -0.0059975623 -0.037238866 -0.12721038 0.040094487

env_model.fc4_state3.bias f4 [18]
000000 86 6f a0 3d cc 8d f9 bd 95 4f 6e bb 4a b9 7e 3d
       0.078337714 -0.12185249 -0.0036363353 0.062188424
000010 d0 29 31 39 a5 bd 08 3c e0 94 10 be d8 50 13 3d
       0.00016895612 0.008345996 -0.14119291 0.03596577
000020 49 27 95 bd 4f d7 f5 3c 06 e3 ff bd dd 38 3b 3e
       -0.07282884 0.030009894 -0.12494473 0.1828341
000030 26 f1 24 bd bc 60 c6 bc a1 de f5 3b 2f d4 80 3c
       -0.04026904 -0.024216048 0.007503346 0.015726177
000040 51 20 f5 bb 86 b9 b6 3a
       -0.007480659 0.0013940788
