SimpleSpread/I2A_simple_spread/agent_2_model.pth (torch, 977699 bytes, 44 tensors)

env_model.fc1.weight f4 [128, 69]
0	0xbe05e2d6	-0.13074812
1	0xbd0cf51c	-0.034413442
2	0x3eaa5ef7	0.33275577
3	0xbd7e72b5	-0.062121112
4	0xbe3b9de5	-0.1832195
5	0xbd016101	-0.03158665
6	0xbea8e7ba	-0.32989293
7	0x3e2e4c89	0.17021383
8	0xbd17e97c	-0.037087902
9	0x3e4ddada	0.20103016
10	0xbdc0596c	-0.09392056
11	0xbba8d2cd	-0.0051520825
12	0xbcdf2ddd	-0.027243549
13	0x3d9e45dc	0.07728168
14	0xbcdff833	-0.02734003
15	0x3dcc6e56	0.099819824
16	0x3d3510c3	0.04420544
17	0x3d935158	0.071932495
18	0x3c009c62	0.007849785
19	0xbd5fe493	-0.054661345
20	0xbe22072d	-0.1582305
21	0xbcbd5612	-0.02311233
22	0x3e30deff	0.17272566
23	0xbc99b075	-0.0187609
24	0x3e0e98bc	0.13925451
25	0x3e7df1f6	0.24799332
26	0xbe26600f	-0.16247581
27	0x3d177027	0.03697219
28	0x3e79c547	0.24391662
29	0x3cac2266	0.021012496
30	0x3dba3e10	0.09093869
31	0x3e11fc32	0.14256361
32	0xbd8a2e93	-0.067471646
33	0xbda67271	-0.08127297
34	0xbd091b3f	-0.03347325
35	0x3dd035d3	0.10166516
36	0xbdc4be04	-0.09606555
37	0xbdb86ee1	-0.090055235
38	0xbdea6fd8	-0.11447114
39	0x3d05e062	0.03268469
40	0x3d0483ea	0.032352366
41	0xbc8682a3	-0.016419714
42	0xbe0a58a8	-0.13510382
43	0xbdc6797c	-0.0969114
44	0xbdb74fdc	-0.08950779
45	0xbe019b98	-0.1265701
46	0x3ea0704b	0.31335673
47	0xbe0963c1	-0.1341696
48	0x3dd47217	0.103733234
49	0xbe397122	-0.18109563
50	0xbd8ed538	-0.06974262
51	0xbc5bfbae	-0.013426704
52	0xbe121628	-0.14266264
53	0x3e0fc318	0.14039266
54	0x3d310382	0.043216236
55	0x3e2012a7	0.15632115
56	0xbe368ae3	-0.17826419
57	0xbdb9cd41	-0.09072352
58	0x3d890085	0.06689552
59	0x3dcfd427	0.10147887
60	0x3e33ff11	0.17577769
61	0xbe12123b	-0.14264767
62	0xbde1878f	-0.11012184
63	0x3dc430b5	0.09579603
64	0x3d0a4773	0.033759546
65	0xbdbe0e60	-0.092800856
66	0x3dd890b2	0.105744734
67	0xbda90c60	-0.082543135
68	0x3e280356	0.16407523
69	0xbd58f281	-0.052965645
70	0x3d36fe1a	0.044675924
71	0x3e997563	0.2997237
72	0xbd4a63b3	-0.049411487
73	0x3d8d3468	0.06894761
74	0x3d0989ce	0.033578686
75	0x3df7e752	0.12104668
76	0x3d8cf557	0.06882732
77	0xbcf3c017	-0.029754682
78	0x3c6e94c0	0.014561832
79	0xbd842baa	-0.06453641
80	0xbdab4ac4	-0.0836387
81	0x3df5e49c	0.120064944
82	0x3d342880	0.043983936
83	0x3b765ae6	0.00375908
84	0xbd0fda65	-0.035120387
85	0x3d2a585e	0.04158818
86	0x3de6e0a5	0.11273316
87	0x3e32807a	0.17431822
88	0x3b3ed190	0.0029116608
89	0x3e51eab7	0.20499693
90	0x3b870cf0	0.0041214153
91	0x3c0e35b9	0.008679801
92	0x3de24217	0.11047762
93	0x3e400535	0.18751986
94	0xbdd761b4	-0.10516682
95	0x3dcbb01d	0.099457
96	0x3cf98b1c	0.03046184
97	0x3c388460	0.011262029
98	0x3d71b920	0.05901444
99	0x3d074667	0.033026125
100	0xbd490d07	-0.04908469
101	0x3d53898c	0.051644847
102	0x3da59122	0.080843225
103	0x3dd3beef	0.10339152
104	0x3db32bcf	0.0874859
105	0xbd4f740c	-0.05064778
106	0xbcbdb2b8	-0.023156509
107	0x3e72b0e1	0.23700286
108	0x3dd21292	0.10257448
109	0x3df57031	0.119842894
110	0xbd297bf7	-0.041377988
111	0x3a29eb56	0.0006481906
112	0x3d8eff1c	0.06982252
113	0x3e00c495	0.1257499
114	0xbca50662	-0.020144645
115	0x3d32580d	0.043541003
116	0x3d90a611	0.07062925
117	0xba66dcc0	-0.0008806698
118	0xbc826ebf	-0.015921948
119	0xbd102986	-0.03519585
120	0x3d3a63a5	0.045505185
121	0xbd6a8389	-0.057254348
122	0xbd86f033	-0.06588783
123	0x3e0d560f	0.1380236
124	0x3e352992	0.17691639
125	0x3e388d92	0.18022755
126	0x3e946600	0.2898407
127	0x3e2181a5	0.15772112
128	0x3e6df74c	0.23238868
129	0x3e6bd0e1	0.230289
130	0x3eacff16	0.33788365
131	0x3e7187c4	0.23586947
132	0x3e559f54	0.2086156
133	0x3e0ed119	0.13946952
134	0x3ebf4645	0.373583
135	0x3d89211c	0.06695768
136	0x3e69e4ed	0.22841235
137	0x3d7a4b2e	0.061106853
138	0xbdb107d3	-0.086440705
139	0xbdf793c5	-0.12088732
140	0x3e2335b7	0.1593846
141	0xbd2572d5	-0.040392715
142	0x3ca1642b	0.019701084
143	0x3d182f34	0.03715439
144	0xbe03d3b3	-0.12873726
145	0xbd555706	-0.052084945
146	0xbd19003a	-0.03735373
147	0xbd7d8cb4	-0.061901763
148	0xbe67caf6	-0.22636017
149	0xbd58065b	-0.052740436
150	0xbdc623ec	-0.0967482
151	0xbc23ffdc	-0.010009732
152	0xbe3adcd7	-0.18248306
153	0xbd0d6331	-0.034518424
154	0x3dc23008	0.094818175
155	0xbde2a895	-0.11067311
156	0xbc7e3069	-0.015514472
157	0x3da438de	0.08018659
158	0xbdbe566e	-0.09293829
159	0xbcd88bef	-0.026433913
160	0xbe144c33	-0.14482193
161	0xbdcaf7f6	-0.09910576
162	0xbdd60069	-0.10449297
163	0xbe3915ae	-0.18074676
164	0xbdd91e6a	-0.10601504
165	0xbe56cc54	-0.20976382
166	0xbe5ba7d0	-0.21450734
167	0xbe01dc35	-0.12681659
168	0xbe59d9e3	-0.21274523
169	0xbd17546c	-0.036945745
170	0x3d10de9c	0.035368547
171	0x3b8f1382	0.004366339
172	0xbc28905e	-0.010288326
173	0xbdd32729	-0.103102036
174	0x3e5c1a2c	0.21494359
175	0x3dccf1dd	0.10007069
176	0x3d88c4ea	0.066781834
177	0x3e2812b2	0.16413382
178	0xbd60c892	-0.05487878
179	0xbcae1c78	-0.02125381
180	0xbdda8009	-0.10668952
181	0xbe8f5664	-0.27995598
182	0xbd808fcc	-0.06277427
183	0xbe10e737	-0.14150701
184	0xbe03093a	-0.12796488
185	0xbc362146	-0.011116331
186	0x3d92de21	0.07171274
187	0x3d25616d	0.040376116
188	0x3d951eaf	0.07281243
189	0x3d31fa66	0.04345169
190	0xbd40dbe5	-0.047084708
191	0x3c1bcc2f	0.00950913
192	0x3e42c7b2	0.1902149
193	0x3dc6f779	0.097151704
194	0x3da7d73d	0.0819535
195	0x3d3bed59	0.04588065
196	0x3e16fac0	0.14744091
197	0xbd528b36	-0.051402293
198	0x3e6ac748	0.22927582
199	0xbd57487a	-0.052559353
200	0x3d0c54ab	0.034260433
201	0xbbe2ba55	-0.006919185
202	0x3dd900dc	0.10595867
203	0x3c5cf37a	0.013485784
204	0x3ea7b290	0.3275342
205	0x3e18997b	0.14902298
206	0x3e60e01d	0.21960492
207	0xbd22fc77	-0.03979155
208	0xbcbf279a	-0.023334313
209	0x3c285138	0.01027327
210	0x3ba745b7	0.005104746
211	0x3c9c8b78	0.019109473
212	0xbba35f9a	-0.004985762
213	0x3c06eb43	0.008234802
214	0xbc09d198	-0.008411787
215	0xbbb9029d	-0.0056460635
216	0x3cbc1e33	0.022963619
217	0x3c758c1e	0.01498702
218	0x3c685e22	0.014182599
219	0xbbd61473	-0.0065331995
220	0xbc62ac19	-0.013834977
221	0xbd3a72a4	-0.045519486
222	0x3d19de3f	0.037565466
223	0xbdc0e4d2	-0.09418644
224	0x3da5e7d2	0.08100857
225	0x3d90229c	0.07037851
226	0x3def0490	0.11670792
227	0x3ddd3a1f	0.10802101
228	0x3e53d151	0.20685317
229	0xbced62cf	-0.02897778
230	0xbda4adfb	-0.08040997
231	0xbe013dd4	-0.12621242
232	0xbed28b37	-0.41121837
233	0xbe836751	-0.25664762
234	0xbe13a65b	-0.14418928
235	0x3e9ba29a	0.30397493
236	0x3ef04ffd	0.46936026
237	0x3e47fd05	0.19530113
238	0x3eb2777a	0.34856778
239	0xbb473b78	-0.0030400436
240	0x3dcefc86	0.10106759
241	0xbce52119	-0.027969884
242	0xbd826cc3	-0.06368401
243	0xbd0649ca	-0.032785214
244	0xbda93d25	-0.082636155
245	0xbe203b61	-0.15647651
246	0x3d4d0618	0.05005464
247	0x3cafd096	0.021461766
248	0x3ce5840e	0.02801707
249	0x3b3d9ce6	0.002893263
250	0x3cb7bfb6	0.022430282
251	0xbd142083	-0.036163818
252	0x3cd8caf9	0.026463972
253	0xbd1dc6a7	-0.038519528
254	0x3c009883	0.007848862
255	0xbc8e0c10	-0.017339736

env_model.fc1.bias f4 [128]
0	0x3d469c13	0.048488688
1	0x3eb39940	0.35077858
2	0x3e17556b	0.14778678
3	0xbd292aa4	-0.04130043
4	0x3e95f526	0.29288596
5	0x3c84704f	0.016166834
6	0xbed02fa6	-0.40661353
7	0x3d7c29e9	0.061563406
8	0xbe93ca8b	-0.28865466
9	0x3e8dd4f1	0.27701524
10	0xbe0cfc61	-0.1376815
11	0x3e4ea252	0.20179108
12	0xbe3f58d9	-0.18686236
13	0x3ebac650	0.36479425
14	0x3e86d6c1	0.2633572
15	0x3e925d1f	0.2858667
16	0x3e851fc4	0.26000798
17	0x3e833f1b	0.25634083
18	0xbb302a20	-0.0026880577
19	0x3e87e760	0.26543713
20	0x3d062ee9	0.03275958
21	0xbd7255f1	-0.05916399
22	0xbf66695a	-0.90004504
23	0x3e9920a8	0.29907727
24	0x3ea6d5db	0.32585034
25	0x3e21e451	0.15809752
26	0xbe29f92c	-0.16598958
27	0x3e42c2be	0.19019601
28	0x3ea9c11e	0.3315515
29	0x3e92b354	0.28652442
30	0x3e0024e2	0.1251407
31	0x3e5fa798	0.21841276
32	0x3ea901ff	0.33009335
33	0xbdcd91d5	-0.10037581
34	0x3e842ee6	0.2581703
35	0x3b867037	0.0041027325
36	0xbc942056	-0.018081825
37	0x3e86b1a5	0.26307407
38	0x3e86ab2b	0.26302466
39	0x3e497168	0.19672167
40	0x3ec14c0f	0.3775334
41	0x3e68658f	0.22694992
42	0x3e8a6b19	0.27034834
43	0x3e900e8a	0.28136092
44	0x3e9e1ad5	0.30879846
45	0x3e23e003	0.16003422
46	0x3d67332e	0.056445293
47	0x3d3949b2	0.045236297
48	0x3d8d28a7	0.068925194
49	0x3e3b0c0a	0.18266311
50	0x3e829c42	0.2550984
51	0x3ebfcade	0.37459463
52	0x3eaf203e	0.34204286
53	0xbe58086a	-0.2109696
54	0xbe115bc8	-0.14195168
55	0x3e320187	0.17383395
56	0x3c521b25	0.012823855
57	0xbf7f88d7	-0.99818176
58	0x3e481d4d	0.19542427
59	0x3e518c96	0.20463786
60	0xbdf31f68	-0.11871225
61	0x3e4a6386	0.19764528
62	0x3ead01cb	0.3379043
63	0x3e94c15c	0.29053771
64	0x3d47c0a4	0.0487677
65	0x3c32f32e	0.010922236
66	0xbc0b8154	-0.008514721
67	0xbd968413	-0.0734941
68	0xb9d731e3	-0.00041045164
69	0x3dc4eb23	0.09615161
70	0x3ed6a65b	0.41923794
71	0x3d389179	0.04506061
72	0x3e60647b	0.2191333
73	0x3e289c1c	0.16465801
74	0xbd733896	-0.059380136
75	0x3e094442	0.13404945
76	0xbd551706	-0.05202391
77	0x3e725102	0.23663715
78	0xbdd1c269	-0.10242159
79	0xbe67db46	-0.2264224
80	0x3cfa7da7	0.030577494
81	0x3e95fd3f	0.29294774
82	0x3e3fe971	0.18741395
83	0x3cadf31c	0.021234088
84	0xbe1db491	-0.15400912
85	0x3dcc1bd5	0.09966246
86	0x3ea2540a	0.31704742
87	0x3dd6c289	0.104863234
88	0xbe21a7bd	-0.15786643
89	0x3ea06e43	0.31334123
90	0xbcdc2a59	-0.026875662
91	0x3e34a9ab	0.17642848
92	0xbe2a7c11	-0.1664889
93	0xbd5153ff	-0.051105496
94	0x3e8c2446	0.27371424
95	0x3e96d3e1	0.29458526
96	0x3e663ef3	0.2248495
97	0x3eb4c7d5	0.3530871
98	0x3e829b26	0.25508994
99	0x3e9cfd79	0.30662134
100	0x3cda21a0	0.026627362
101	0x3eda59fb	0.42646775
102	0xbdf9975d	-0.121870734
103	0xbeb280f1	-0.34864
104	0x3e4c6ed3	0.19964151
105	0x3ea90cbd	0.3301753
106	0x3d10de0b	0.035368007
107	0xbf7ee402	-0.9956666
108	0x3e00f861	0.12594749
109	0x3e8b08a9	0.27155045
110	0xbdf40c8a	-0.11916454
111	0x3e93835b	0.28811154
112	0x3e3f8570	0.18703246
113	0xbd0736a2	-0.033011086
114	0x3dc6a2b7	0.09699004
115	0x3ce4fa74	0.027951457
116	0x3ea5769c	0.32317054
117	0x3e94fed3	0.29100665
118	0x3e8da7c8	0.2766707
119	0xbf84b5cf	-1.0367984
120	0xbddc8f0a	-0.1076947
121	0x3e33705c	0.1752333
122	0x3ebcff43	0.369135
123	0x3e743623	0.23848777
124	0x3db3aa78	0.08772749
125	0x3e2009e9	0.1562878
126	0xbd320a1a	-0.043466665
127	0x3ef3dbed	0.47628728

env_model.fc2.weight f4 [64, 128]
0	0x3de62b42	0.112387195
1	0xbd9b2c6c	-0.07576832
2	0xbdff6608	-0.12470633
3	0x3e545e0d	0.20739003
4	0xbd9161a4	-0.070987016
5	0x3dae5108	0.08511549
6	0xbe0135d0	-0.12618184
7	0x3d05f316	0.032702528
8	0xbd56620c	-0.0523396
9	0x3d29c790	0.041450083
10	0xbcddf7e2	-0.027095739
11	0xbce61f12	-0.028090987
12	0x3e03a041	0.12854101
13	0xbd8126bb	-0.063062154
14	0x3b101fc2	0.0021991585
15	0x3dd1b320	0.102392435
16	0xbd055547	-0.03255203
17	0xbe92e166	-0.2868759
18	0x3e0ce105	0.13757713
19	0xba08f8be	-0.0005225054
20	0x3e1677de	0.14694163
21	0x3e6b7bfd	0.22996517
22	0xbda59990	-0.0808593
23	0x3db6436b	0.08899578
24	0xbd21902d	-0.039444137
25	0xbe2984a3	-0.16554503
26	0xbc5c2e30	-0.013438746
27	0x3cab3a1a	0.020901728
28	0xbdbb6d4e	-0.091517076
29	0x3d8ba877	0.068192415
30	0x3e83f4f5	0.25772825
31	0x3dedf402	0.116188064
32	0xbcf0cf98	-0.029395863
33	0x3e8f8f5a	0.28039056
34	0xbe0f90d1	-0.14020087
35	0xbe0c892e	-0.13724205
36	0xbd98e9b2	-0.07466449
37	0xbd9c5c37	-0.07634776
38	0x3e0c10b0	0.13678241
39	0x3d62ead3	0.055399727
40	0xbde9f0af	-0.1142286
41	0xbd74bc97	-0.059750166
42	0x3d0cc893	0.03437097
43	0xbdb12593	-0.08649745
44	0x3d39f67f	0.045401093
45	0xbd715cff	-0.05892658
46	0x3e1b7bc2	0.15183929
47	0xbd8afa76	-0.06786053
48	0x3d56ec27	0.052471306
49	0x3db20b91	0.08693612
50	0xbd76e26f	-0.060274538
51	0xbb8c5d4f	-0.004283584
52	0x3e1e2841	0.15445043
53	0x3e820b2f	0.25399157
54	0x3e4d1a84	0.20029646
55	0x3dbffe57	0.09374683
56	0x3d731ee1	0.05935562
57	0xbea0dbe6	-0.3141777
58	0x3d6ab8c9	0.05730513
59	0x3e205b27	0.15659772
60	0x3b3033dc	0.002688638
61	0xbd5aa57b	-0.05338047
62	0xbd4ff03e	-0.050766222
63	0x3ce0912f	0.027412979
64	0x3e586cb1	0.21135212
65	0x3e0fcb92	0.140425
66	0x3c4b0ffb	0.012393947
67	0xbd760f20	-0.060073018
68	0xbe29fc73	-0.16600208
69	0x3e3fd419	0.18733253
70	0x3d1d17e5	0.038352866
71	0x3cc85908	0.024456516
72	0xbcb6b98d	-0.022305274
73	0x3e74e66c	0.23916024
74	0x3b7d33d9	0.003863564
75	0x3c875dea	0.016524274
76	0x3e86ba0e	0.26313823
77	0x3dcb17a3	0.09916618
78	0xbdf2dcba	-0.118585065
79	0x3c8240fd	0.01590013
80	0x3ddfdfc2	0.1093135
81	0x3e6861ac	0.22693509
82	0xbd4571d0	-0.048204243
83	0xbc32a249	-0.01090295
84	0xbddc8075	-0.10766689
85	0xbdc51bf6	-0.09624474
86	0xbe4a7c4e	-0.19773981
87	0xbc00ff40	-0.007873356
88	0x3de7d0a5	0.11319093
89	0x3e05681e	0.13027999
90	0x3c0d33b7	0.008618287
91	0x3e22b2a5	0.1588846
92	0xbc87f7e1	-0.01659769
93	0x3de9ffdc	0.114257544
94	0x3e23619c	0.15955204
95	0x3cc26f65	0.023734758
96	0xbcfa7ffa	-0.030578602
97	0xbd16e28a	-0.03683714
98	0xbbc1e90c	-0.005917674
99	0x3d7936e7	0.060843375
100	0xbdcc5247	-0.09976631
101	0x3e31f7e2	0.17379716
102	0x3dc1e9c4	0.094684154
103	0x3e911c31	0.2834182
104	0x3d10665f	0.03525388
105	0xbdc39377	-0.09549611
106	0xbde7daa4	-0.11320999
107	0x3d4c8ad3	0.04993708
108	0x3d99a988	0.07503039
109	0x3e663bba	0.22483721
110	0xbd6f18b9	-0.058373187
111	0x3e256df4	0.16155225
112	0x3dc1913e	0.09451531
113	0xbd96bc1e	-0.07360099
114	0x3def24e0	0.11676955
115	0x3e550417	0.20802341
116	0x3e14fb2d	0.14548941
117	0xbd5b81fe	-0.053590767
118	0x3b2d5c08	0.002645256
119	0x3e5e4957	0.21707664
120	0x3dc1a4ff	0.09455299
121	0x3cb62fe6	0.022239637
122	0x3e32c83e	0.17459199
123	0x3d0d56be	0.034506552
124	0x3e1bb7bf	0.15206812
125	0x3dc39ff9	0.09551997
126	0x3d96f5da	0.07371111
127	0x3dc6c17b	0.09704872
128	0x3d8a4d0a	0.06752975
129	0xbd82dff0	-0.06390369
130	0x3dabfdf1	0.08398045
131	0x3e18df6c	0.14928979
132	0xbd428e1f	-0.04749882
133	0xbe892c8a	-0.26791793
134	0xbd3280ef	-0.043579992
135	0x3e1c525c	0.15265793
136	0xbd880c2d	-0.06642947
137	0xbe107042	-0.14105323
138	0xbcc7e06b	-0.024399003
139	0xbcb0844f	-0.021547465
140	0xbe0a6638	-0.13515556
141	0xbe38929c	-0.18024677
142	0xbe139d7a	-0.14415541
143	0xbe841647	-0.25798246
144	0x3d9eb739	0.07749791
145	0x3e5faeed	0.21844073
146	0x3e1ecd82	0.15508083
147	0xbd8c7b82	-0.06859495
148	0xbc1e219c	-0.009651568
149	0x3df9ffb5	0.12206975
150	0xbe4a538a	-0.1975843
151	0xbda3bc4f	-0.079949014
152	0xbc69e62b	-0.014276068
153	0x3baa6fdc	0.005201323
154	0x3c5ea755	0.0135897
155	0xbc62b73c	-0.013837632
156	0x3d385298	0.045000643
157	0x3ce02046	0.02735914
158	0x3cdc10c8	0.02686347
159	0x3c87e32d	0.016587818
160	0x3e120efc	0.14263529
161	0xbdc55f6c	-0.09637341
162	0x3dc8e178	0.0980863
163	0x3e11618f	0.14197372
164	0x3e29e191	0.16589953
165	0x3df8e06c	0.1215218
166	0x3dc31524	0.09525517
167	0x3d8da8ed	0.06916986
168	0xbd559129	-0.05214039
169	0x3e6f5e7d	0.23375888
170	0x3e1d5412	0.15364102
171	0xbdc607d3	-0.09669461
172	0x3d93db02	0.07219507
173	0xbd019c81	-0.031643394
174	0xbdb015c2	-0.085979
175	0xbc88c322	-0.01669461
176	0x3e25eaa3	0.16202788
177	0xbd212764	-0.039344206
178	0x3e43c7d2	0.19119194
179	0xbe07faa1	-0.13279201
180	0xbe371930	-0.17880702
181	0x3e025ab4	0.12729913
182	0x3e247724	0.16061074
183	0x3d2ddc56	0.042446457
184	0xbb6e5547	-0.0036366747
185	0x3c7e77f7	0.015531532
186	0x3c5c81eb	0.013458709
187	0x3dbca167	0.092104726
188	0x3e288966	0.16458663
189	0xbda2eabb	-0.079549275
190	0x3e026fb2	0.12737921
191	0xbd2b1a78	-0.04177329
192	0xbe11b527	-0.1422926
193	0x3e2cc4f1	0.16872002
194	0xbdfa4a79	-0.12221236
195	0xbd19dc1c	-0.03756343
196	0x3d1cc62b	0.038274925
197	0xbd27cdd9	-0.040967796
198	0xb99012db	-0.0002747987
199	0x3dd93334	0.10605469
200	0xbc197f75	-0.009368767
201	0xbe10dc2e	-0.14146492
202	0xbd402582	-0.04691077
203	0x3c8a4f49	0.01688351
204	0x3e003c1b	0.12522928
205	0x3d83df03	0.064390205
206	0x3e616eac	0.22014874
207	0x3e35ab20	0.1774106
208	0x3e435d2f	0.19078515
209	0xbe38eb34	-0.18058473
210	0x3c4da52e	0.012551589
211	0x3e947cca	0.29001456
212	0xbdd26a39	-0.102741666
213	0x3dc8d08a	0.09805401
214	0xbd207a61	-0.03917921
215	0x3dc0711f	0.09396576
216	0xbcb6ce60	-0.022315204
217	0x3d72553a	0.05916331
218	0xbcc3ff92	-0.023925576
219	0xbe16d562	-0.14729837
220	0xbda18e3c	-0.07888457
221	0x3d3f1878	0.046654195
222	0xbdb270e8	-0.087129414
223	0xbde292f2	-0.11063184
224	0x3e18e42c	0.1493079
225	0xbc9012d0	-0.017587095
226	0x3d72ac30	0.059246242
227	0x3dab366b	0.08359989
228	0xbd695048	-0.056961328
229	0x3da74755	0.081679024
230	0x3c103976	0.008802762
231	0x3d3004ba	0.042973258
232	0xbcd058c9	-0.025432961
233	0x3daa0f3d	0.08303688
234	0x3dff7aec	0.12474617
235	0x3ea5e183	0.32398614
236	0x385b2a8c	5.2253294e-05
237	0xbd8deef9	-0.06930346
238	0x3e164e2a	0.14678255
239	0xbd631ee0	-0.055449367
240	0x3cd383d5	0.025819698
241	0x3e30c37e	0.17262074
242	0xbe7180ad	-0.23584242
243	0x3dec780d	0.11546335
244	0xbe344952	-0.17606094
245	0xbd2599b0	-0.04042977
246	0xbe6c4d4d	-0.23076363
247	0x3c7a3625	0.015271698
248	0xbc6e4fc6	-0.014545387
249	0xbdb130d4	-0.08651891
250	0xbdb0c0ed	-0.08630548
251	0xbe0da6ec	-0.13833207
252	0x3cbb0dd0	0.022833735
253	0xbcf53086	-0.029930364
254	0x3d52e7eb	0.051490705
255	0x3d95f47a	0.07322021

env_model.fc2.bias f4 [64]
0	0x3d5ac06b	0.05340616
1	0xbd05fd78	-0.03271243
2	0xbc5e034a	-0.013550589
3	0xbd0a701b	-0.03379832
4	0xbba4992f	-0.0050231437
5	0xbd089a51	-0.033350293
6	0x3dcb6c29	0.09932739
7	0x3d5af9b3	0.053460788
8	0xbd648b15	-0.0557967
9	0x3c4a85f6	0.01236104
10	0xbc8872d5	-0.016656319
11	0x3df638a2	0.120225206
12	0xbd971d3b	-0.07378622
13	0xbd22dfb6	-0.03976413
14	0xbce465fd	-0.027880663
15	0xbce6fe47	-0.02819742
16	0x3ba8b9bb	0.005149094
17	0xbdbe3e90	-0.092892766
18	0xbd982850	-0.07429564
19	0x3d01a687	0.031652953
20	0x3df8cfae	0.12148987
21	0x3d769d3b	0.06020854
22	0x3ce0ce6e	0.027442183
23	0x3de47c35	0.11156503
24	0x3cde658a	0.027148027
25	0xbd64ba3e	-0.055841677
26	0xbd4e3aeb	-0.050349157
27	0x3d13dfe6	0.036102198
28	0x3d397e66	0.04528656
29	0xbdb2c6b8	-0.08729309
30	0xbd39bdaf	-0.045346912
31	0x3dba1c54	0.090874344
32	0x3d82f7cb	0.06394919
33	0x3d9eab0b	0.077474676
34	0x3d08151c	0.033223256
35	0x3d8f3807	0.06993108
36	0xbd489c4b	-0.048977178
37	0x3d9622a3	0.07330825
38	0x3d957bd8	0.07299012
39	0x3d54477a	0.051825978
40	0x3d1aaa8e	0.03776031
41	0xbd04d360	-0.032428145
42	0x3de98192	0.11401667
43	0x3dcf3a01	0.10118485
44	0x3c579972	0.013159143
45	0x3deb408d	0.114869215
46	0x3dd2c32e	0.10291134
47	0xbcbac74a	-0.022800107
48	0x3c489974	0.012243617
49	0x3d9c4279	0.07629866
50	0x3d04d9b1	0.03243417
51	0x3dad6643	0.084667705
52	0xbd20488a	-0.03913168
53	0x3d4ee740	0.050513506
54	0x3c1751c0	0.009235799
55	0x3dbc2f26	0.0918868
56	0x3de075c1	0.1095996
57	0x3c82ec39	0.01598178
58	0xbd053fe9	-0.032531653
59	0x3d4b9855	0.049705822
60	0xbd0cad5d	-0.03434502
61	0x3d0c42bf	0.03424334
62	0x3d68237a	0.056674458
63	0xbcc80047	-0.024414195

env_model.fc3.weight f4 [32, 64]
0	0xbe1167b0	-0.1419971
1	0xbe47872e	-0.1948516
2	0xbe594eb9	-0.21221437
3	0x3e1665f2	0.14687327
4	0x3ce41c87	0.027845634
5	0x3ddf6a87	0.1090899
6	0x3da6655a	0.081248
7	0x3dce67ff	0.100784294
8	0xbe2ab41f	-0.16670273
9	0xbd9e2123	-0.07721164
10	0x3e5ac8c0	0.21365643
11	0xbcba7595	-0.022761146
12	0x3dcf4306	0.101202056
13	0x3d3f49da	0.04670129
14	0x3d0746f0	0.033026636
15	0xbd2737ca	-0.04082469
16	0xbcd04da0	-0.02542764
17	0xbcb87f48	-0.02252163
18	0xbe2827d0	-0.16421437
19	0xbe4ff5f3	-0.20308666
20	0xbd9862fc	-0.07440755
21	0x3d1528e6	0.036415957
22	0xbe1d76a6	-0.15377292
23	0x3de45e86	0.111508414
24	0x3d927031	0.07150305
25	0xbdc3d9f8	-0.095630586
26	0x3e6d629e	0.2318215
27	0xbcee57fe	-0.029094692
28	0xbe05a7de	-0.13052318
29	0x3d09a17c	0.03360127
30	0xbbae153d	-0.0053125904
31	0xbabca075	-0.0014391082
32	0x3e4be5fc	0.19911951
33	0x3c97a626	0.018511843
34	0xbd679c6f	-0.05654567
35	0x3e35517d	0.17706867
36	0x3c85f0b5	0.01635013
37	0xbd25a481	-0.040440086
38	0xbe3dc74d	-0.18533058
39	0x3e3a523c	0.18195432
40	0x3d3b76f2	0.045767732
41	0xbdad6a90	-0.08467591
42	0x3e7610f1	0.240299
43	0x3dad4f48	0.08462387
44	0x3d88635d	0.06659577
45	0x3d9d9583	0.07694533
46	0x3d9462be	0.07245396
47	0x3dd43e18	0.10363406
48	0x3cd81780	0.026378393
49	0xbcc0bdc0	-0.02352798
50	0xbe1dcc69	-0.15410008
51	0xbc7242b1	-0.014786408
52	0x3badb6ee	0.005301348
53	0x3e11500c	0.14190692
54	0x3d9ea855	0.077469505
55	0xbc7ee6c1	-0.015557946
56	0x3d62f25a	0.055406906
57	0x3cd7e22b	0.026352962
58	0x3e11a6cc	0.14223784
59	0x3ea557bc	0.322935
60	0x3d88a98d	0.06672964
61	0xbd7eaddc	-0.062177524
62	0xbd75bd4b	-0.059994977
63	0x3df43c8c	0.11925611
64	0xbc9c22c4	-0.019059546
65	0x3d43a246	0.047762178
66	0x3d823abc	0.06358859
67	0x3da99148	0.08279663
68	0x3e7039dd	0.23459573
69	0x3e901d85	0.28147522
70	0x3e25528d	0.16144772
71	0x3dbe3c6c	0.09288868
72	0x3e96c7eb	0.294494
73	0x3deb0a40	0.114765644
74	0x3d358a42	0.044321306
75	0xbde79759	-0.11308164
76	0x3c90cad9	0.01767485
77	0x3d0ca304	0.03433515
78	0x3caaec13	0.020864522
79	0x3d47857b	0.04871128
80	0xbd79ebeb	-0.061016005
81	0xbd7be824	-0.061500683
82	0xbbeb5ef2	-0.007182949
83	0x3e0f167b	0.1397342
84	0xbdf46ec2	-0.11935188
85	0xbdf4b21e	-0.11948036
86	0xbc79b2ce	-0.015240384
87	0x3db81d39	0.08989949
88	0xbe079456	-0.1324018
89	0xbe1c4240	-0.15259647
90	0x3e4eca6a	0.20194402
91	0xbd2763e9	-0.040866766
92	0xbdb72538	-0.08942646
93	0xbbfd8556	-0.007736842
94	0x3dc9be73	0.098507784
95	0xbe9a93df	-0.30190942
96	0xbdab413a	-0.0836205
97	0xbdb5b327	-0.08872061
98	0xbcfca35e	-0.030839618
99	0xbe4633ef	-0.19355749
100	0xbe1bfde7	-0.15233575
101	0x3cfce7a0	0.030872166
102	0xbc6f3639	-0.01460033
103	0xbe36eef2	-0.17864588
104	0xbe0bf585	-0.13667877
105	0xbdfdfa39	-0.12401242
106	0x3e2dae1c	0.16960949
107	0x3e3651b6	0.17804608
108	0x3daa5948	0.0831781
109	0x3c10592d	0.008810324
110	0x3da11e1b	0.0786707
111	0xbda0da9d	-0.07854197
112	0x3e2a83a1	0.16651775
113	0xb7d53d93	-2.5420251e-05
114	0x3e468926	0.19388255
115	0x3e27b632	0.16378096
116	0x3d5ad2de	0.053423755
117	0xbeb1c53d	-0.34720793
118	0x3de60e22	0.11233164
119	0x3dbae109	0.09124953
120	0x3dba22b0	0.09088647
121	0x3e3c09cf	0.18363117
122	0x3e648554	0.22316486
123	0xbd7cb104	-0.061692253
124	0x3e03db63	0.12876658
125	0xbe0b6b54	-0.13615161
126	0xbe171b87	-0.14756595
127	0xbe192988	-0.14957249
128	0xbcbe5e53	-0.023238337
129	0x3ce15eec	0.027511083
130	0x3e26a124	0.16272408
131	0x3de5186a	0.11186297
132	0xbe1a21a9	-0.15051903
133	0xbdbeeea2	-0.09322859
134	0xbdc086e1	-0.09400726
135	0xbdd5f9cf	-0.10448038
136	0x3d9b9acc	0.075978845
137	0xbdf52c4c	-0.119713396
138	0x3e142f85	0.14471252
139	0xbc09226a	-0.008370021
140	0x3e09fb45	0.13474758
141	0x3d9872fa	0.07443805
142	0x3e4247a2	0.18972638
143	0x3d30504e	0.043045335
144	0x3cbf472a	0.023349363
145	0x3df2aae6	0.118490025
146	0xbc40e684	-0.011773709
147	0x3d20c11b	0.03924666
148	0xbc5b7acf	-0.013395979
149	0xbe0b6f16	-0.13616595
150	0x3d62bb90	0.055354655
151	0xbd605b9f	-0.054774877
152	0x3e335855	0.17514165
153	0xbdabb410	-0.083839536
154	0x39d0a2f3	0.00039794258
155	0x3c809227	0.01569469
156	0x3d408c60	0.047008872
157	0xbecede8c	-0.40404165
158	0xbde13716	-0.10996835
159	0x3a39a901	0.00070823735
160	0xbe32609a	-0.17419663
161	0x3e108815	0.14114411
162	0xbd8a1aef	-0.067434184
163	0x3e832645	0.25615135
164	0x3de522fc	0.11188313
165	0xbd85efe9	-0.065399
166	0x3e320919	0.17386283
167	0xbe069ca0	-0.13145685
168	0x3a842ab1	0.0010083524
169	0xbe3269e8	-0.17423213
170	0xbdc7d899	-0.097581096
171	0x3b4016b4	0.0029310407
172	0xbdb1507d	-0.0865793
173	0x3d4f3f5d	0.050597537
174	0x3e194bde	0.14970347
175	0x3cd09f29	0.025466518
176	0x3dd2808a	0.10278423
177	0xbcd955e7	-0.02653022
178	0x3e312e76	0.1730288
179	0xbd9715e3	-0.073772214
180	0x3dd8c547	0.10584503
181	0xbebd4503	-0.36966714
182	0x3e6e00e2	0.23242524
183	0x3e14c124	0.14526802
184	0xbcdc10f2	-0.026863549
185	0xbde2130c	-0.11038789
186	0xbc51a885	-0.012796526
187	0x3dde13c7	0.10843616
188	0x3dedf095	0.11618153
189	0x3d4221a5	0.047395367
190	0xbe0917f6	-0.13388047
191	0xbdb5a07d	-0.08868501
192	0xbd91f5d5	-0.07126967
193	0xbdc9a09d	-0.09845088
194	0xbdc4d762	-0.096113935
195	0x3dbdb075	0.09262172
196	0xbe887d97	-0.26658317
197	0x3e3c6862	0.18399194
198	0x3defd389	0.11710269
199	0x3db529cf	0.08845865
200	0x3e04b699	0.1296028
201	0x3deb3ed2	0.114865914
202	0xbd029d0f	-0.031888064
203	0xbdf6d6d1	-0.12052692
204	0xbe27ab92	-0.16374043
205	0x3e197284	0.1498509
206	0xbdf39173	-0.118929766
207	0xbd7f37e0	-0.062309146
208	0x3e22b04c	0.15887564
209	0x3d9cfd58	0.07665509
210	0xbdaad09b	-0.083405696
211	0xbda14626	-0.07874708
212	0xbc9d671a	-0.019214202
213	0xbe89db8a	-0.26925308
214	0x3e282413	0.16420011
215	0xbe4e309d	-0.20135732
216	0x3d979b36	0.07402651
217	0x3e245be8	0.16050684
218	0x3c330b56	0.010927996
219	0x3d6609ad	0.05616157
220	0xbd1d209a	-0.03836117
221	0xbd8f43c3	-0.069953464
222	0x3e221a9b	0.15830462
223	0xbe4d534e	-0.2005131
224	0xbd9c12e7	-0.07620793
225	0xbc3278ab	-0.010893027
226	0x3ccf567f	0.0253098
227	0xbde9d782	-0.11418058
228	0x3e46f289	0.19428457
229	0xbd882030	-0.06646764
230	0x3dafbef5	0.08581344
231	0x3de950f7	0.11392396
232	0x3df5ba44	0.11998418
233	0xbe09cb94	-0.13456565
234	0x3df5dda6	0.12005167
235	0xbe45ca8d	-0.19315548
236	0xbe3681cb	-0.1782295
237	0x3cfce222	0.030869547
238	0x3dd5c4af	0.10437905
239	0xbdfee8b3	-0.124467276
240	0x3e1b9f1a	0.15197411
241	0xbdfc69e1	-0.12324882
242	0xbe575b30	-0.21030879
243	0xbd968956	-0.073504135
244	0xbc879a7c	-0.016553156
245	0xbe1c583a	-0.15268031
246	0xbaf72124	-0.0018854481
247	0x3ce3f699	0.027827548
248	0xbd8e92b4	-0.06961575
249	0xbe37c689	-0.17946829
250	0xbd0cc954	-0.03437169
251	0x3e1038ae	0.14084122
252	0x3dd9bdd2	0.106319085
253	0xbdf03e75	-0.11730663
254	0xbc923410	-0.017847091
255	0xbe0ba7a0	-0.13638163

env_model.fc3.bias f4 [32]
0	0xbd038329	-0.032107506
1	0xbcc61c3c	-0.024183385
2	0xbc8ffc1f	-0.017576275
3	0x3ca7732c	0.02044066
4	0xbdd20abc	-0.10255954
5	0x3c3ba95c	0.011453953
6	0x3db7f56b	0.08982357
7	0xbd923b25	-0.07140187
8	0x3da82d40	0.08211756
9	0x3c477cdc	0.012175765
10	0xbd8a01a1	-0.06738592
11	0xbdde7d5e	-0.10863756
12	0xbd76cb04	-0.060252205
13	0x3ddd8d51	0.108179696
14	0x3d78f9bb	0.060785037
15	0xbd1d15f0	-0.038351
16	0xbdd63976	-0.104601786
17	0xbdde2898	-0.108475864
18	0xbc1c103e	-0.009525357
19	0x3d3cc966	0.046090506
20	0xba370e9a	-0.0006983072
21	0xbd2dd160	-0.042436004
22	0xbd52e506	-0.051487945
23	0xbd9444d0	-0.072396874
24	0x3b3358fb	0.002736627
25	0xbdefc9da	-0.11708422
26	0x3e091d20	0.13390017
27	0xbcb32a20	-0.021870673
28	0xbb913533	-0.0044313907
29	0x3de24aa4	0.11049393
30	0x3d67345a	0.05644641
31	0x3dae46b4	0.08509579

env_model.fc4_state1.weight f4 [18, 32]
0	0x3d8b5ef4	0.0680522
1	0xbdce80c7	-0.10083156
2	0x3ddc8ffb	0.107696496
3	0x3da47a0c	0.08031091
4	0x3cf0fe38	0.029418096
5	0xbd226d77	-0.039655175
6	0x3d1d1970	0.038354337
7	0xbd14f3cf	-0.036365326
8	0x3e0a2f07	0.13494502
9	0x3e322e3d	0.17400451
10	0xbd9d9150	-0.07693732
11	0xbd005489	-0.03133062
12	0x3e0d4fbb	0.13799946
13	0x3e860b8b	0.26180682
14	0xbe64c869	-0.22342075
15	0xbd3eebc3	-0.04661156
16	0x3dbc50db	0.091951095
17	0xbcc28df5	-0.023749331
18	0xbb10bfbc	-0.002208694
19	0xbdf91dcd	-0.12163887
20	0x3c50eb55	0.01275142
21	0x3cdf4bc2	0.027257804
22	0xbd376dff	-0.044782635
23	0x3e23a9a7	0.15982686
24	0x3e080ee6	0.13286933
25	0xbe1d44b2	-0.15358236
26	0x3dd50b0c	0.10402498
27	0x3d36a267	0.044588473
28	0xbdc5d243	-0.09659245
29	0x3d74c0b6	0.059754096
30	0x3c1dc996	0.009630581
31	0xbda7e17b	-0.08197304
32	0x3d9a69cb	0.0753971
33	0x3e6055a0	0.21907663
34	0xbd9ba855	-0.07600466
35	0xbd7aab95	-0.06119879
36	0x3adee1b2	0.0017004518
37	0xbc852e6e	-0.016257491
38	0x3e29abbe	0.1656942
39	0x3e4cf198	0.20014036
40	0xbe312638	-0.17299736
41	0x3e0ec0a6	0.13940677
42	0xbce7669b	-0.028247168
43	0x3d84191c	0.06450102
44	0x3d99bb7e	0.075064644
45	0xbce680e8	-0.02813764
46	0x3dedd8f8	0.11613649
47	0x3d0f5686	0.034994625
48	0x3e0e5ffe	0.13903806
49	0x3e0e9b51	0.13926436
50	0x3d67086c	0.056404516
51	0xbcaa6c22	-0.020803515
52	0x3ce82bc4	0.028341182
53	0xbde7c037	-0.11315959
54	0xbd6c7eee	-0.057738237
55	0x3e34f434	0.17671281
56	0x3eaa472d	0.33257428
57	0xbe003c31	-0.12522961
58	0xbd625742	-0.055258997
59	0x3d77ba77	0.06048056
60	0x3eaa010d	0.33203927
61	0xbd9c6fcf	-0.07638513
62	0xbb94710a	-0.004530077
63	0xbdfb33ce	-0.1226574
64	0xbe4e62da	-0.20154896
65	0xbde65c09	-0.11248023
66	0x3e42fb8b	0.19041269
67	0x3d666d40	0.056256533
68	0x3c160cf8	0.009158365
69	0xbd6fc215	-0.0585347
70	0x3dcfde0a	0.101497725
71	0x3d8788cd	0.066178896
72	0x3d11cd62	0.03559626
73	0xbe3f0714	-0.18655044
74	0x3dde6890	0.108597875
75	0x3db1a26d	0.086735584
76	0xbd648ece	-0.05580025
77	0x3df2682d	0.11836276
78	0xbce973eb	-0.028497657
79	0xbdb525c2	-0.08845092
80	0xbcd2d32d	-0.025735462
81	0xbd8c46a7	-0.06849413
82	0xbdd8585f	-0.105637304
83	0xbd7989b6	-0.060922347
84	0xbd122fe9	-0.035690222
85	0xbdd50036	-0.10400431
86	0xbdb1a78a	-0.08674534
87	0x3d10e2ef	0.03537267
88	0xbc3e2b14	-0.01160695
89	0xbde155c5	-0.11002687
90	0xbe172f59	-0.14764155
91	0x3c372734	0.01117878
92	0x3e55ba7c	0.2087192
93	0xbc5fe52e	-0.013665481
94	0xbe303c1e	-0.17210433
95	0xbdb6b667	-0.08921509
96	0xbd1d07a8	-0.03833738
97	0x3e1a4cb5	0.15068324
98	0xbdab4cb2	-0.08364238
99	0x3e6863ef	0.22694372
100	0x3e19d6d3	0.15023355
101	0xbd09cf9f	-0.03364527
102	0xbcfe4978	-0.031040892
103	0xbd7beb0e	-0.061503462
104	0x3baeb928	0.005332131
105	0xbe21800a	-0.157715
106	0xbda46f78	-0.080290735
107	0x3d103a08	0.035211593
108	0x3cdc8bbd	0.026922101
109	0x3cac2a77	0.021016343
110	0x3dec79f4	0.11546698
111	0x3cc4c105	0.02401782
112	0x3e28aad4	0.16471416
113	0x3ca67c50	0.020322949
114	0xbdd980f6	-0.106203005
115	0x3e4f8440	0.20265293
116	0xbe44624a	-0.1917812
117	0x3e1b62ae	0.15174362
118	0xbd306951	-0.043069188
119	0xbbc317c9	-0.005953763
120	0xbc9ef5a8	-0.019404247
121	0x3bf46704	0.0074585695
122	0xb98ed18c	-0.00027240475
123	0xbcbe6ac6	-0.023244273
124	0xbc946976	-0.018116694
125	0x3cef3ff0	0.029205292
126	0xbe1f9f2e	-0.15588066
127	0xbdf1a79b	-0.11799546
128	0x3d82f711	0.063947804
129	0xbc931bea	-0.017957646
130	0x3dc194b5	0.09452192
131	0x3e896a23	0.26838788
132	0x3dfd8450	0.12378752
133	0xbcc4e74e	-0.024036076
134	0xbe1037b0	-0.14083743
135	0x3c9ab82d	0.01888665
136	0xbe215f36	-0.15758976
137	0x3e51a882	0.20474437
138	0x3d1abe4e	0.037779145
139	0x3dbe24e1	0.09284378
140	0xbe6fe944	-0.23428828
141	0xbe088dd2	-0.1333535
142	0xbd2c012d	-0.04199331
143	0xbd4d13dd	-0.05006777
144	0xbdffd49f	-0.12491726
145	0xbd852c55	-0.06502596
146	0xbc333035	-0.010936786
147	0xbd96f607	-0.07371145
148	0xbc833f45	-0.01602138
149	0xbd573d1c	-0.052548513
150	0x3ded1f5d	0.11578248
151	0xbd770901	-0.06031132
152	0x3d348bc1	0.044078592
153	0x3d12336e	0.03569358
154	0xbc4268d8	-0.011865817
155	0x3e3951a3	0.18097548
156	0xbe0e6dcf	-0.13909076
157	0xbcc3747a	-0.023859251
158	0x3e021a6d	0.12705393
159	0xbe0018f2	-0.12509516
160	0xbc417b15	-0.01180913
161	0x3e7cdaff	0.24692915
162	0xbe0993fa	-0.13435355
163	0xbd855694	-0.06510654
164	0xbe2c4ad1	-0.16825415
165	0x3e290eae	0.16509506
166	0xbd117eea	-0.035521425
167	0x3d914a8b	0.07094296
168	0xbe1b73be	-0.15180871
169	0xbbe35dc5	-0.0069386684
170	0xbe117912	-0.14206341
171	0xbd8f1aff	-0.06987571
172	0xbdacfd62	-0.084467664
173	0x3e07226e	0.13196728
174	0xbe7632e8	-0.24042857
175	0xbdde1d9d	-0.10845492
176	0xbe4b2a82	-0.19840434
177	0xbe925fe1	-0.28588775
178	0x3df7b50a	0.12095077
179	0xbe0d5643	-0.13802437
180	0x3e236d9c	0.15959781
181	0x3e0bc02e	0.1364753
182	0x3deb7bd4	0.11498228
183	0xbe33b16b	-0.17548148
184	0xbcc71b2b	-0.024304947
185	0x3e095e5e	0.13414904
186	0x3d2c083f	0.04200005
187	0x3e8846c8	0.26616502
188	0x3d8dd47c	0.06925294
189	0xbb0b66a0	-0.0021270886
190	0xbe15c868	-0.1462723
191	0xbc7a5e66	-0.015281295
192	0x3eaf7e51	0.3427606
193	0xbe89fec5	-0.26952186
194	0xbe5cfa7c	-0.21579927
195	0xbda1f65c	-0.079083174
196	0x3da1dffd	0.079040505
197	0xbdc597a4	-0.09648064
198	0xbe352d83	-0.17693143
199	0xbe11e742	-0.14248374
200	0xbdb01316	-0.0859739
201	0x3dd8bb5c	0.10582611
202	0xbb11ad1e	-0.002222843
203	0xbd1202e6	-0.035647295
204	0xbc2dd1d4	-0.010609109
205	0xbc484143	-0.012222591
206	0xbd8b401c	-0.06799337
207	0xbe8f7586	-0.2801935
208	0xbc5419ea	-0.0129456315
209	0xbe0a3fcd	-0.135009
210	0xbdbb4dee	-0.09145723
211	0x3e0d88ab	0.13821666
212	0xbddff564	-0.109354764
213	0x3db4802a	0.08813508
214	0xbdac591b	-0.08415433
215	0xbd65d8ba	-0.05611489
216	0xbd82adb1	-0.06380785
217	0xbcec23db	-0.028825691
218	0x3df9b4d5	0.12192694
219	0x3d541073	0.0517735
220	0x3c6de252	0.014519291
221	0xbbd204f6	-0.006409283
222	0x3e043b23	0.12913184
223	0x3d3ab210	0.04557997
224	0x3cb1902d	0.021675194
225	0xbd88205c	-0.06646797
226	0xbcc34c1a	-0.023839999
227	0xbe0edb8e	-0.13950941
228	0xbca1f81f	-0.019771634
229	0x3d283278	0.041063756
230	0xbd47e7c3	-0.04880501
231	0xbe10276f	-0.14077543
232	0x3d84e125	0.064882554
233	0xbcebd778	-0.028789267
234	0xbe4a6421	-0.19764759
235	0xba835001	-0.001001835
236	0x3d88e6dd	0.06684659
237	0xbe3789cc	-0.17923659
238	0xbdc6d89c	-0.09709284
239	0xbdfe1baa	-0.1240762
240	0xbcd0b72a	-0.025477964
241	0xbe54a860	-0.20767355
242	0xbe2e3d2e	-0.17015526
243	0xbcbd5d91	-0.023115905
244	0xbbb8c157	-0.0056382823
245	0xbc52aa7d	-0.01285803
246	0xbc8f9d1d	-0.017530972
247	0xbeb0f7e7	-0.34564134
248	0x3e7b17dd	0.24520822
249	0x3d2fbb60	0.042903304
250	0x3d090b1a	0.033457853
251	0x3dc0462d	0.09388385
252	0x3e2b18d9	0.16708697
253	0x3e4a0c34	0.19731218
254	0x3df658b3	0.12028637
255	0x3e4b7a66	0.1987091

env_model.fc4_state1.bias f4 [18]
0	0xbdc778ee	-0.097398624
1	0xbd458378	-0.04822108
2	0xbddc0eca	-0.10745008
3	0x3e03b91c	0.12863582
4	0x3de26849	0.11055047
5	0xbda29860	-0.079392195
6	0x3d081f4b	0.03323297
7	0xbe0d0cb0	-0.13774371
8	0x3e0f36f2	0.13985804
9	0x3e2ecdb7	0.17070661
10	0xbc38f531	-0.011288927
11	0x3c46413e	0.012100516
12	0x3de2769c	0.11057779
13	0xbdb85381	-0.09000302
14	0x3cb5f809	0.022212999
15	0x3d24ba40	0.040216684
16	0x3ce75255	0.028237501
17	0xbc331ddb	-0.010932411

env_model.fc4_state2.weight f4 [18, 32]
0	0x3e5a8220	0.21338701
1	0xbe711e9a	-0.2354683
2	0x3cc5711c	0.024101786
3	0xbc64b961	-0.013960213
4	0xbd7f6766	-0.062354468
5	0xbd8b6b1d	-0.068075396
6	0x3d90da2b	0.07072862
7	0x3d864b3e	0.0655732
8	0xbe26b0b6	-0.16278347
9	0xbe8799d5	-0.26484552
10	0xbcb1d395	-0.021707335
11	0x3c7af1fa	0.015316481
12	0xbe2d8c24	-0.1694799
13	0xbe3dd1ea	-0.18537107
14	0x3d3feea7	0.046858456
15	0x3e2a2a5a	0.16617718
16	0x3e69643a	0.2279214
17	0xbda3f2e5	-0.08005313
18	0xbe149df5	-0.14513381
19	0xbe18b0b1	-0.14911152
20	0x3dac4611	0.084118016
21	0xbda39dd2	-0.07989086
22	0x3c86b856	0.01644532
23	0x3dedb6c3	0.11607125
24	0x3ce41166	0.027840327
25	0x3de3e198	0.11127013
26	0x3d3c9fbb	0.04605077
27	0xbb3a7b36	-0.0028454787
28	0x3d3da322	0.046298154
29	0x3dd069ff	0.10176467
30	0xbc803f52	-0.015655193
31	0x3d01c797	0.031684484
32	0xbde9d5f8	-0.114177644
33	0xbdf86052	-0.12127747
34	0xbdbc92b7	-0.09207671
35	0xbdc2398f	-0.09483635
36	0xbd999983	-0.07499983
37	0xbdfe0068	-0.12402421
38	0x3e1b136f	0.15144132
39	0x3d1b167b	0.037863236
40	0x3e5d9378	0.21638286
41	0xbdb94355	-0.09046046
42	0x3c898019	0.016784715
43	0x3e01bc74	0.12669545
44	0x3e707477	0.23481928
45	0xbe5da130	-0.2164352
46	0xbe0593cd	-0.13044663
47	0x3e16644a	0.14686695
48	0xbd4047b1	-0.04694337
49	0xbe8ed78b	-0.2789882
50	0xbd53d613	-0.05171783
51	0x3dc39f85	0.0955191
52	0xbc9f5815	-0.01945118
53	0xbcb1db3c	-0.021710984
54	0xbbe83777	-0.00708669
55	0x3e36522a	0.1780478
56	0xbdbea7c6	-0.09309344
57	0xbe364678	-0.17800319
58	0xbdfb5af8	-0.1227321
59	0x3e0eebc8	0.13957131
60	0x3ca8ff94	0.020629682
61	0xbd93d947	-0.07219177
62	0x3e35c18a	0.1774961
63	0x3cfa4573	0.030550694
64	0xbe1c5964	-0.15268475
65	0xbe0527b9	-0.13003434
66	0x3ea1d7aa	0.3160985
67	0xbddd5157	-0.1080653
68	0xbdee19e0	-0.11626029
69	0xbd13a045	-0.036041517
70	0xbe0f6bfe	-0.1400604
71	0x3b7415ca	0.0037244433
72	0xbd8f536d	-0.06998334
73	0x3df3358c	0.11875448
74	0x3c31b36e	0.010846002
75	0xbd972128	-0.07379371
76	0x3d4903aa	0.04907576
77	0x3d2bc586	0.04193642
78	0x3dd8085f	0.10548472
79	0xbcb0b492	-0.021570478
80	0x3d431f2d	0.047637153
81	0xbe2569b2	-0.16153601
82	0xbe2510ba	-0.16119662
83	0x3dc77627	0.09739333
84	0xbdb20f87	-0.08694368
85	0x3e02344a	0.12715259
86	0x3d8d7973	0.0690793
87	0x3dd0dd57	0.10198467
88	0x3e26591f	0.16244934
89	0x3dc08333	0.09400024
90	0x3c63a25d	0.013893691
91	0x3c8d0714	0.01721529
92	0x3e86152b	0.26188025
93	0xbd8d7f08	-0.06908995
94	0x3d0acc2f	0.03388613
95	0xbd2dc305	-0.042422313
96	0xbe154fcf	-0.14581226
97	0x3ce62615	0.02809433
98	0xbd57fe12	-0.052732535
99	0x3e36496a	0.17801443
100	0xbcc7517c	-0.024330847
101	0x3d8f6ebc	0.07003543
102	0x3d353ada	0.04424558
103	0x3dbacf96	0.09121625
104	0xbd8e4da4	-0.069484025
105	0x3db9b5ed	0.09067903
106	0x3d33b969	0.043877993
107	0xbdde5253	-0.10855546
108	0x3da24cd9	0.07924814
109	0xbcf3f287	-0.029778732
110	0x3cb8a59c	0.022539906
111	0x3e1707bd	0.14749046
112	0x3d688e2b	0.056776207
113	0xba67e3db	-0.0008845904
114	0x3d254c03	0.040355694
115	0xbc9159d5	-0.01774303
116	0xbddf8276	-0.10913555
117	0x3dd7dee4	0.1054056
118	0xbdbe2cef	-0.09285914
119	0xbd9ad694	-0.07560459
120	0xbe3b5797	-0.18295132
121	0x3dcea594	0.10090175
122	0x3d96e7ae	0.07368408
123	0x3e3f345e	0.1867232
124	0x3e4f1b49	0.20225252
125	0x3e41a6ab	0.18911235
126	0xbe5f3345	-0.21796902
127	0xbc080ed0	-0.008304313
128	0x3e1649f8	0.14676654
129	0x3d26c754	0.040717438
130	0xbdc5e9a6	-0.096637055
131	0x3e5f838d	0.21827526
132	0xbe137d57	-0.14403282
133	0xbe2f7df0	-0.17137885
134	0xbd684bd6	-0.056712948
135	0xbd63d937	-0.055627074
136	0x3e08ebae	0.13371155
137	0x3d76494b	0.06012849
138	0xbe083c28	-0.13304198
139	0xba891fdc	-0.0010461765
140	0xbe9d6e9d	-0.30748454
141	0xbdc21fc3	-0.09478714
142	0xbdebbf9d	-0.11511157
143	0xbceef5e8	-0.029169992
144	0xbd88f09b	-0.06686517
145	0x3d000d88	0.031262904
146	0xbe1c484c	-0.15261954
147	0x3d3194fc	0.043354973
148	0x3e1f5ae1	0.15562011
149	0xbe6c54d7	-0.23079239
150	0x3bceea93	0.0063145845
151	0x3dbd5bb7	0.09246009
152	0xbd023052	-0.031784363
153	0xbecbedda	-0.39829904
154	0xbe06ebe3	-0.13175921
155	0x3cb4ffad	0.022094572
156	0x3de2f4ac	0.11081824
157	0x3aac6495	0.0013152534
158	0x3dfb8ee8	0.122831166
159	0x3dcbdbd9	0.09954042
160	0x3e2fc94c	0.17166632
161	0x3dc43736	0.09580843
162	0xbe5f6c5c	-0.2181868
163	0x3d14e2eb	0.03634922
164	0xbe15d45c	-0.1463179
165	0x3d1daf27	0.038497116
166	0x3d570e6b	0.052503984
167	0x3c241f52	0.010017233
168	0x3c816848	0.015796795
169	0xbd999add	-0.07500241
170	0xbe16ce1a	-0.14727059
171	0xbe1c96d2	-0.15291908
172	0xbe0ad102	-0.13556293
173	0x3e868afc	0.26277912
174	0xbd648e54	-0.055799797
175	0xbe07d616	-0.13265261
176	0xbdeded12	-0.11617483
177	0xbe2fdfa9	-0.17175163
178	0xbd60977b	-0.054831963
179	0x3de4560d	0.111492254
180	0x3e0c1aef	0.1368215
181	0x3e958d87	0.2920954
182	0xba7051ee	-0.0009167482
183	0xbe0473b1	-0.12934758
184	0x3e0afb43	0.13572411
185	0x3dbddaf3	0.09270277
186	0x3cf738d4	0.030178465
187	0xbd3c2d3b	-0.045941573
188	0x3a531e5a	0.0008053534
189	0xbe14af8b	-0.1452009
190	0x3dd898c3	0.10576012
191	0xbe6f8b63	-0.23393016
192	0x3e898184	0.26856625
193	0xbddcaed0	-0.1077553
194	0xbe408e0c	-0.18804187
195	0x3db33452	0.08750214
196	0x3e14707a	0.14496031
197	0xbd798d13	-0.060925554
198	0x3d8892ae	0.06668602
199	0xbdc300e9	-0.09521658
200	0x3887096e	6.439058e-05
201	0xbe59aa04	-0.21256262
202	0xbdbbc1fa	-0.091678575
203	0x3dd95324	0.10611561
204	0xbd64650f	-0.05576044
205	0x3e3bd033	0.1834114
206	0xbe320d6e	-0.17387936
207	0xbe707d94	-0.23485404
208	0xbe5ee39d	-0.21766515
209	0x3d055d00	0.032559395
210	0x3d2ec466	0.04266777
211	0xbd64b815	-0.055839617
212	0x3d27c09b	0.040955167
213	0xbe3c8164	-0.18408734
214	0xbe35e88a	-0.17764488
215	0xbca3136d	-0.019906724
216	0xbe9230e5	-0.2855293
217	0xbe1dc16d	-0.15405817
218	0xbda9fd7f	-0.08300304
219	0x3c2ec62b	0.010667364
220	0x3d0b92b1	0.034075443
221	0x3cef242d	0.029192055
222	0xbd54ffce	-0.052001767
223	0x3e61bca5	0.22044618
224	0x3d5c2273	0.05374379
225	0xbe2e15ad	-0.17000456
226	0xbded0d46	-0.11574797
227	0x3e1a7d02	0.15086749
228	0x3e26a51f	0.16273926
229	0xbda75004	-0.08169559
230	0xbda9defa	-0.082944825
231	0xbdbcea43	-0.092243694
232	0x3d8dd125	0.06924657
233	0xbe7c8e13	-0.24663572
234	0xbe4f560c	-0.20247668
235	0xbe32fd2a	-0.17479387
236	0x3e1ff6f9	0.15621556
237	0x3d312f78	0.04325816
238	0x3a5271cd	0.0008027822
239	0x3c68c152	0.014206247
240	0xbe0d6988	-0.13809788
241	0xbc3ab7f7	-0.0113964
242	0xbca419c9	-0.020031827
243	0xbdd2702a	-0.102753
244	0x3d12e48a	0.035862483
245	0x3d147e8c	0.036253497
246	0xbd8ced11	-0.06881154
247	0xbe4b7e13	-0.19872312
248	0x3e4b1378	0.19831645
249	0xbd63f731	-0.055655662
250	0xbd90575b	-0.07047912
251	0xbe07e76c	-0.13271874
252	0x3dce657a	0.10077949
253	0x3c99b9c7	0.018765343
254	0x3e7e76ae	0.2484996
255	0xbce9cb48	-0.028539315

env_model.fc4_state2.bias f4 [18]
0	0xbdf886fd	-0.12135122
1	0x3dd43492	0.103615895
2	0x3cb4ba88	0.022061601
3	0xbb74f3c6	-0.0037376746
4	0x3d0dfbfb	0.034664135
5	0xbcb9a80b	-0.022663137
6	0xbcc1be87	-0.02365042
7	0x3d5fc0fa	0.054627396
8	0xbca2ac37	-0.019857509
9	0x3e0ae106	0.13562402
10	0x3d1f10ee	0.038834505
11	0x3c01bbca	0.007918308
12	0x3dc44e0a	0.09585197
13	0x3dce997e	0.1008787
14	0x3d04d689	0.03243116
15	0x3dba7d67	0.0910595
16	0xbc697c60	-0.014250845
17	0x3cede0ca	0.029037852

env_model.fc4_state3.weight f4 [18, 32]
0	0xbe0992f8	-0.1343497
1	0xbe00e04c	-0.12585562
2	0xbd63fb55	-0.05565961
3	0x3da644c1	0.081185825
4	0xbd598aea	-0.053110994
5	0xbde5c1c3	-0.11218598
6	0xbcc58848	-0.024112836
7	0x3dd5f211	0.10446561
8	0xbdff10a0	-0.12454343
9	0x3e3daa0d	0.185219
10	0x3bc9aa47	0.006154332
11	0x3e0eb78a	0.13937202
12	0x3e4ad25d	0.1980681
13	0x3cf4c447	0.029878749
14	0xbdef3c8b	-0.116814695
15	0xbc95741a	-0.018243838
16	0xbe35a54f	-0.17738841
17	0x3e0eb8d8	0.139377
18	0xbdd05761	-0.10172916
19	0x3d78ec72	0.060772367
20	0x3e631d46	0.22179136
21	0x3d4d54b5	0.05012961
22	0xbe31d0b8	-0.17364776
23	0xbc2ddeda	-0.010612214
24	0x3e2f76fa	0.1713523
25	0x3cd2a303	0.025712496
26	0xbd836ed5	-0.06417624
27	0xbe120845	-0.14260967
28	0xbe217204	-0.1576615
29	0x3e1afb57	0.15134941
30	0xbd7ccab9	-0.06171677
31	0xbe182b4e	-0.1486027
32	0xbd9ad412	-0.075599805
33	0xbe48d6d4	-0.196132
34	0x3df2d691	0.118573315
35	0xbde8afac	-0.11361632
36	0x3e02c7a0	0.12771463
37	0x3d669cdd	0.05630194
38	0xbe0dcb9d	-0.13847204
39	0xbd9b3370	-0.0757817
40	0x3c551423	0.013005289
41	0xbd232d3c	-0.03983806
42	0xbe315af1	-0.17319848
43	0xbcddd2aa	-0.027077992
44	0xbddf67e1	-0.10908485
45	0x3e866372	0.26247746
46	0x3d59cb50	0.05317241
47	0x3d4cfadc	0.050043926
48	0x3c51d5a6	0.012807285
49	0x3dd0891b	0.10182401
50	0xba54f37e	-0.00081234414
51	0x3e9c9b6d	0.3058733
52	0x3e07b43b	0.13252346
53	0xbe4a7dbb	-0.19774525
54	0xbb8b1453	-0.004244366
55	0xbe612702	-0.21987537
56	0xbdc39336	-0.09549563
57	0x3ea3ddc4	0.3200513
58	0xbd8eebac	-0.069785446
59	0x3e54eb7f	0.2079296
60	0xbd59e770	-0.05319923
61	0xbdcbe8ec	-0.09956536
62	0xbd2dd8ee	-0.04244321
63	0xbde5198b	-0.111865126
64	0xbe6f4b10	-0.23368478
65	0xbdbe7b66	-0.0930088
66	0x3dfd7819	0.123764224
67	0x3db4ef62	0.08834721
68	0xbe2d2b5f	-0.16911076
69	0x3de95a50	0.11394179
70	0xbd21b8ae	-0.039482765
71	0x3ce81ad8	0.028333113
72	0x3d5033bb	0.050830584
73	0xbdc2cc08	-0.09511572
74	0x3e5746a2	0.21023038
75	0x3dc0192c	0.09379801
76	0xbda124c3	-0.0786834
77	0x3c391eff	0.011298894
78	0x3db66f5e	0.0890796
79	0xbe359b1d	-0.17734952
80	0x3d191993	0.037377905
81	0xbd0878c3	-0.033318292
82	0xbd4aeff9	-0.049545262
83	0x3d9f5854	0.07780519
84	0xbcfdf7b5	-0.031001905
85	0x3e46c842	0.1941233
86	0xbc147cd4	-0.0090629645
87	0x3e47d291	0.19513918
88	0x3e4c84a0	0.19972467
89	0x3deea7e5	0.11653117
90	0xbd302199	-0.04300079
91	0x3e0e8e75	0.1392153
92	0x3e218a85	0.15775497
93	0xbdf812bc	-0.12112948
94	0xbd9f52c1	-0.07779456
95	0x3ddbd576	0.10734074
96	0xbe1e6e4c	-0.15471762
97	0x3e524297	0.20533215
98	0xbe342d7d	-0.17595477
99	0x3cb81ed4	0.022475637
100	0x3e816d42	0.2527867
101	0x3da6c74d	0.08143482
102	0xbe4171a9	-0.18891014
103	0x3d5db51e	0.054127805
104	0x3d4370df	0.047715064
105	0xbd06d1f2	-0.032915063
106	0xbd8c8e1c	-0.06863043
107	0x3df91ed9	0.12164087
108	0xbb57e1e8	-0.0032941047
109	0x3c0759bc	0.00826114
110	0xbd7cd557	-0.061726894
111	0x3ddc45d9	0.1075551
112	0x3db1e8ed	0.08687005
113	0x3d8203a3	0.0634835
114	0xbe3adb61	-0.18247749
115	0x3daef374	0.08542529
116	0xbdabc5f0	-0.08387363
117	0x3db8f8af	0.09031808
118	0xbccc9bda	-0.02497666
119	0x3d8c40de	0.0684831
120	0xbd751f6a	-0.059844412
121	0xbde7fb18	-0.11327189
122	0x3d2d5292	0.042315073
123	0x3dba73e9	0.09104139
124	0x3e2d39e5	0.16916616
125	0x3e577c45	0.21043499
126	0x3d2c8cb2	0.042126365
127	0xbd35017a	-0.04419086
128	0x3df15e48	0.11785561
129	0x3e90212e	0.28150314
130	0x3d97106b	0.07376178
131	0x3e92e678	0.2869146
132	0x3e1d3e73	0.15355854
133	0xbd90dd43	-0.07073452
134	0x3e4f37af	0.20236085
135	0xbde56ffb	-0.11202999
136	0xbe1221e7	-0.14270745
137	0x3e76f488	0.24116719
138	0x3cfc318f	0.03078535
139	0xbe09b5db	-0.13448279
140	0xbdb7aae7	-0.08968144
141	0x3c20dc9a	0.0098182205
142	0xbd39e748	-0.045386583
143	0x3d16f347	0.0368531
144	0xbe1a8b51	-0.15092207
145	0xbe20758d	-0.15669842
146	0xbdefd8a4	-0.11711243
147	0x3d404404	0.046939865
148	0x3c9cfa5e	0.019162353
149	0xbe3e9c5b	-0.18614332
150	0x3e6b2fd1	0.2296746
151	0xbc05e309	-0.008171805
152	0xbd01941f	-0.0316354
153	0x3e1a88d4	0.15091258
154	0xbcdac467	-0.02670498
155	0x3d1a85fe	0.03772544
156	0x3d88981f	0.0666964
157	0x3e14ae2b	0.14519565
158	0xbd26202e	-0.040558033
159	0x3df83c61	0.12120891
160	0x3e46bbec	0.19407624
161	0x3df61d60	0.120173216
162	0xbce52e99	-0.027976321
163	0x3b708faf	0.0036706736
164	0x3d5597ba	0.05214665
165	0xbca976e3	-0.020686572
166	0xbdd3a672	-0.10334481
167	0x3d454fce	0.04817181
168	0x3d6e6894	0.058205202
169	0xbdd7f7fd	-0.10545347
170	0xbe43fe10	-0.19139886
171	0x3daf5615	0.08561341
172	0xbe2ad609	-0.1668321
173	0x3d82ac7a	0.063805535
174	0x3e4b99ba	0.19882861
175	0xbd9fdb61	-0.07805515
176	0xbdf4dda8	-0.1195634
177	0xbe6bfcec	-0.23045701
178	0x3e1d4c76	0.15361199
179	0xbbb94545	-0.0056540095
180	0x3e095cf5	0.13414367
181	0x3dd42da0	0.10360265
182	0xbddca103	-0.10772898
183	0x3d7e02d4	0.062014416
184	0x3d1cb99e	0.038262956
185	0xbd57f813	-0.052726816
186	0xbdbc456e	-0.0919293
187	0x3e2e741f	0.17036484
188	0xbe5556cb	-0.2083389
189	0xbde04760	-0.10951114
190	0xbe4a9c26	-0.19786128
191	0x3da9ab91	0.08284677
192	0x3eb110dd	0.34583178
193	0xbd78db0a	-0.060755767
194	0x3d892db1	0.06698168
195	0xbe210560	-0.15724707
196	0x3e64d17b	0.22345535
197	0xbda3e5c2	-0.08002807
198	0x3e01526c	0.12629098
199	0x3d8b1c67	0.06792527
200	0xbc6a1d24	-0.014289174
201	0x3e2c3476	0.16816887
202	0xbe2cee4e	-0.16887781
203	0x3e16fda6	0.14745197
204	0xbc3e27e1	-0.011606188
205	0x3d46109b	0.04835568
206	0xbd83f133	-0.064424895
207	0xbe486032	-0.19567946
208	0x3cfc0feb	0.030769309
209	0xbe41e856	-0.18936285
210	0xbe06f3f9	-0.13179006
211	0x3df5f685	0.120099105
212	0xbe572cd6	-0.21013197
213	0xbdbdb201	-0.09262467
214	0xbde4b5f5	-0.11167518
215	0xbe302615	-0.17202027
216	0xbe1df1fa	-0.15424338
217	0x3b9a6ebf	0.004712909
218	0xbb179bb2	-0.0023133573
219	0xbe4f4930	-0.20242763
220	0x3d871468	0.06595689
221	0x3e72e144	0.23718745
222	0x3d9cdeef	0.07659709
223	0x3d00935e	0.03139054
224	0x3d91a852	0.07112183
225	0xbe39b4b5	-0.1813534
226	0xbcd8bf40	-0.026458383
227	0x3e393066	0.18084869
228	0xbd131358	-0.03590712
229	0xbe8cfbed	-0.27535954
230	0x3d9b48c6	0.0758224
231	0xbe3f3075	-0.18670829
232	0xbce9ac05	-0.028524408
233	0xbe695e4c	-0.22789878
234	0xbd98d928	-0.07463294
235	0xbdabde94	-0.08392063
236	0x3e01bd9a	0.12669984
237	0xbddce152	-0.10785164
238	0x3e055ae8	0.13022959
239	0xbe72f385	-0.23725708
240	0xbe153082	-0.14569286
241	0xbd6dce0f	-0.05805784
242	0x3d8f838d	0.07007513
243	0xbd193845	-0.03740718
244	0xbd6f45b6	-0.05841609
245	0x3ced5bd6	0.028974455
246	0xbd8b1fbc	-0.06793162
247	0xbeae4543	-0.34037217
248	0x3e0116b1	0.12606312
249	0x3d270dc7	0.040784623
250	0xbc8c2c95	-0.017111102
251	0x3dadc366	0.08484535
252	0xbd9f2895	-0.07771412
253	0xbdadd5f4	-0.08488074
254	0xbe2cea3d	-0.1688623
255	0xbd6deb9c	-0.058086023

env_model.fc4_state3.bias f4 [18]
0	0x3d5b9b4b	0.053614896
1	0xbe0496ee	-0.129482
2	0x3cb5adc1	0.022177579
3	0x3da1f55d	0.079081275
4	0x3d074d86	0.033032916
5	0x3baca7e7	0.005269039
6	0xbe209096	-0.15680155
7	0xbc800162	-0.01562566
8	0xbdaba098	-0.0838024
9	0x3da83bb7	0.08214515
10	0xbdd7b3a8	-0.105323136
11	0x3e343f73	0.17602329
12	0xbdcd4edb	-0.10024806
13	0xbd17aaed	-0.037028242
14	0xbd40af87	-0.047042396
15	0x3c76715c	0.015041675
16	0x3b9adcdc	0.0047260355
17	0x3bab4a98	0.005227398
