SimpleSpread/I2A_simple_spread/agent_1_model.pth (torch, 977699 bytes, 44 tensors)

env_model.fc1.weight f4 [128, 69]
0	0xbe0120fb	-0.12610237
1	0xbd29c062	-0.041443236
2	0x3e37019d	0.17871709
3	0xbd664e2c	-0.056226894
4	0xbe184735	-0.14870913
5	0xbc36100b	-0.011112223
6	0xbe865b92	-0.26241738
7	0x3e411c2b	0.18858401
8	0xbd15c274	-0.036562398
9	0x3e40bc24	0.1882177
10	0xbeb3c974	-0.35114634
11	0xbcfe9942	-0.031078938
12	0xbe2983be	-0.16554162
13	0x3d842aa4	0.064534456
14	0xbdad8595	-0.084727444
15	0x3dd90a23	0.105976366
16	0x3d64d625	0.055868287
17	0x3c58fdbb	0.013244088
18	0xbdbc0f38	-0.0918259
19	0xbe728f84	-0.2368756
20	0xbe097d1e	-0.13426635
21	0x3d86f92d	0.06590495
22	0x3da46146	0.08026366
23	0xbcd27112	-0.025688682
24	0x3e036e67	0.12835084
25	0x3e341ff6	0.17590317
26	0xbd26270d	-0.040564585
27	0x3e1a414d	0.15063973
28	0x3e57728d	0.21039791
29	0xbcf5ed1a	-0.030020285
30	0x3e3b22da	0.18275014
31	0x3d48f150	0.04905826
32	0xbd87b9d4	-0.06627241
33	0xbb5017fd	-0.003175258
34	0xbd1ecc2c	-0.038768932
35	0x3e1e17c6	0.15438756
36	0xbdfa9952	-0.12236275
37	0x3adebdea	0.0016993855
38	0xbd94f47b	-0.072731934
39	0x3e03a8ea	0.12857404
40	0xbd076cfb	-0.033062916
41	0xbd33fe75	-0.04394384
42	0xbdf7e812	-0.12104811
43	0xbe0152b2	-0.12629202
44	0xbd931068	-0.071808636
45	0xbdaabb33	-0.08336487
46	0x3e829757	0.25506088
47	0xbe1b39c3	-0.15158753
48	0x3cf160af	0.029465048
49	0xbe592996	-0.2120727
50	0xbd710ccf	-0.058850106
51	0xbbb813d4	-0.005617598
52	0xbcaf698f	-0.021412639
53	0x3db85b97	0.090018444
54	0xbc2e99a1	-0.010656745
55	0x3dd0a53e	0.101877674
56	0xbe6e4b1b	-0.23270838
57	0xbe14a775	-0.14517005
58	0x3c43a2e1	0.011940689
59	0x3dcf21a5	0.10113839
60	0x3e33712c	0.1752364
61	0xbe49f956	-0.1972402
62	0xbde2a3ee	-0.11066423
63	0x3dc2d717	0.095136814
64	0xbcbcbb18	-0.023038432
65	0xbe166f50	-0.146909
66	0x3d5128a1	0.051064137
67	0xbe0c846c	-0.1372239
68	0x3de547e8	0.11195356
69	0xbc96f8c7	-0.018429173
70	0xbc9bd08e	-0.019020345
71	0x3e75473e	0.23952958
72	0xbde906f8	-0.11378282
73	0xbd0314a5	-0.03200211
74	0xbcbf92e6	-0.023385476
75	0x3e03533a	0.12824717
76	0xbd5d8e99	-0.05409107
77	0xbd674a26	-0.056467198
78	0x3cd55e58	0.026045963
79	0xbd042812	-0.032264777
80	0xbdc112e9	-0.09427435
81	0x3d1bc332	0.03802795
82	0xbd85397b	-0.06505104
83	0xbd28bdde	-0.041196696
84	0x3c94e290	0.01817444
85	0xbc4583b6	-0.012055328
86	0x3d469901	0.04848576
87	0x3e08b02a	0.13348451
88	0xbcecfe68	-0.028929904
89	0x3dc29614	0.095012814
90	0xba3c17f7	-0.0007175202
91	0x3c019324	0.007908616
92	0xbd917f2e	-0.07104336
93	0x3e0e8d5b	0.1392111
94	0xbe14f28e	-0.14545652
95	0x3db8f108	0.09030348
96	0xbe114970	-0.1418817
97	0xbc733171	-0.014843331
98	0x3d9ac9ad	0.07557998
99	0x3e1fd9a8	0.15610373
100	0xbcc24060	-0.023712337
101	0x3de364a5	0.11103181
102	0x3e5ad23a	0.21369258
103	0x3e6339c7	0.22190009
104	0x3e5206af	0.20510362
105	0x3c9ad74a	0.018901486
106	0x3c5243c3	0.012833538
107	0x3e770f9e	0.24127051
108	0x3cbfa1f4	0.023392655
109	0x3e64a84d	0.22329827
110	0xbd8f190e	-0.06987201
111	0x3b99d65d	0.0046947435
112	0x3b0d738a	0.002158376
113	0x3d9c077e	0.076186165
114	0xbde7c1bf	-0.11316251
115	0x3c25dfd8	0.010124169
116	0x3e13cf22	0.14434484
117	0x3dee9fe8	0.116515934
118	0xbd2b7e6d	-0.041868616
119	0x3d360a47	0.044443395
120	0x3e101adf	0.1407275
121	0xbe29844d	-0.16554375
122	0x3d554516	0.05206784
123	0x3e26b843	0.16281228
124	0x3e4c05b7	0.19924055
125	0x3e4f69b7	0.20255171
126	0x3e9fd4a2	0.31216913
127	0x3e3a13e2	0.18171647
128	0x3e712858	0.23550546
129	0x3e6e333c	0.23261732
130	0x3ebb8261	0.3662291
131	0x3e73eaa4	0.23819977
132	0x3e580aca	0.21097866
133	0x3e28b683	0.16475873
134	0x3ecb4473	0.3970066
135	0x3db878ae	0.09007393
136	0x3e80c7c3	0.25152406
137	0x3da84d89	0.08217914
138	0xbe00c582	-0.12575343
139	0xbe08def6	-0.13366303
140	0x3d5fe433	0.054660987
141	0xbde6e831	-0.11274756
142	0xbdb4f1f5	-0.08835212
143	0xbdca9576	-0.09891789
144	0xbe01fc43	-0.12693886
145	0xbd43c4d3	-0.047795128
146	0xbbc0ce90	-0.005883999
147	0xbdd38faa	-0.10330136
148	0xbde645aa	-0.11243756
149	0x3d441fc7	0.047881868
150	0xbe59e9dc	-0.21280617
151	0x3d974755	0.073866524
152	0xbe0f317a	-0.13983718
153	0x3c8dbdb3	0.01730237
154	0x3d45f42a	0.048328556
155	0xbdf06aff	-0.11739158
156	0xbdc24388	-0.09485537
157	0x3dd0ca6d	0.1019486
158	0xbe4e72ef	-0.20161031
159	0x3dbf9fcc	0.09356651
160	0xbda37002	-0.07980348
161	0xbdd19ef8	-0.10235399
162	0xbe5a8a3b	-0.21341793
163	0xbe531bba	-0.20616046
164	0x3dc1c2ce	0.09460984
165	0xbe045916	-0.12924609
166	0xbd5fdae4	-0.05465211
167	0xbe168312	-0.14698437
168	0xbec9b760	-0.39397717
169	0x3c9a26d9	0.018817352
170	0x3e315ef2	0.17321375
171	0x3dccc7ff	0.09999084
172	0xbae802c8	-0.0017701024
173	0xbd07e552	-0.03317768
174	0x3df1ed74	0.11812869
175	0x39c5fc40	0.0003776271
176	0xbc0b3a66	-0.00849781
177	0x3e78dce4	0.24303013
178	0x3d3b071e	0.045661084
179	0xbc6871c7	-0.014187283
180	0xbd25c692	-0.040472575
181	0xbe9763a8	-0.2956822
182	0xbd4df39c	-0.050281152
183	0xbe57a7f0	-0.21060157
184	0xbd00f54f	-0.031483945
185	0x3d82649b	0.06366845
186	0x3dcf9461	0.10135723
187	0x3e5f4bf3	0.21806316
188	0x3d3809ed	0.04493134
189	0x3ce7e504	0.028307445
190	0xbdf35180	-0.11880779
191	0x3d69cedb	0.05708204
192	0x3e3d571c	0.18490261
193	0x3db45c08	0.08806616
194	0x3d953c28	0.072868645
195	0x3d16b743	0.036795866
196	0x3e0ec86f	0.13943647
197	0xbd197a6a	-0.03747026
198	0x3e794229	0.24341644
199	0xbd433d13	-0.047665667
200	0x3d4642f8	0.04840371
201	0x3be8516c	0.0070897844
202	0x3dcb9d60	0.09942126
203	0x3bc7719a	0.0060865404
204	0x3ea3c95d	0.31989565
205	0x3e10c7d0	0.14138722
206	0x3e55d9a5	0.20883806
207	0xbcfcb684	-0.030848749
208	0xbb6d6b1f	-0.003622718
209	0x3c4f4ae8	0.012652136
210	0x3e5d9b8e	0.2164137
211	0x3dd35685	0.10319237
212	0xbe49b80a	-0.19699112
213	0x3dd87818	0.10569781
214	0xbe8ca794	-0.27471602
215	0xbda4491b	-0.08021756
216	0xbe877b59	-0.26461294
217	0x3d03ce96	0.032179438
218	0x3e648805	0.22317512
219	0xbd6c0df2	-0.057630487
220	0x3e2a8ffe	0.16656491
221	0xbd27f880	-0.041008472
222	0x3d0540e4	0.032532588
223	0xbdb11005	-0.086456336
224	0x3db5192b	0.08842691
225	0x3dac115f	0.08401751
226	0x3e4baab3	0.19889335
227	0xbaf4cfb2	-0.0018677621
228	0x3de7ab34	0.11311951
229	0xbd46afd6	-0.048507534
230	0xbbd3a73a	-0.006459144
231	0xbd7bf53c	-0.06151317
232	0xbddcb38e	-0.10776435
233	0xbc770ce0	-0.015078753
234	0xbd3ad145	-0.04560973
235	0x3d2bef79	0.041976426
236	0x3dd14552	0.102183
237	0x3b31ca98	0.0027128812
238	0x3d55bde4	0.052183047
239	0xbcf1e59c	-0.029528432
240	0x3d5476d2	0.05187113
241	0xbd1247ed	-0.035713125
242	0xbde83d11	-0.113397725
243	0x3c0079ff	0.007841586
244	0xbdbaf40c	-0.091285795
245	0xbe458ef8	-0.1929282
246	0x3df410d3	0.119172715
247	0x3d4f0b5c	0.050547943
248	0xbd1d2e5a	-0.038374282
249	0x3d94ac6f	0.072594516
250	0x3c8e1977	0.017346127
251	0xbd736e2c	-0.05943124
252	0xbc1d7fef	-0.009613021
253	0xbd1e2fef	-0.03861993
254	0x3cab8cf2	0.020941231
255	0x3c7da7ba	0.015481884

env_model.fc1.bias f4 [128]
0	0xbbc24c86	-0.0059295325
1	0x3ebf7925	0.37397113
2	0x3e0f1b2e	0.13975212
3	0xbba76ff6	-0.0051097823
4	0x3ecfbbfd	0.4057311
5	0x3d543186	0.05180504
6	0xbeb118ca	-0.34589225
7	0xbda669c5	-0.08125643
8	0xbe8b3156	-0.27186078
9	0x3eba9d71	0.36448243
10	0x3ca49c6f	0.020094125
11	0x3e9f0178	0.31055808
12	0xbcf97f0f	-0.030456094
13	0x3ec198a5	0.3781177
14	0x3e5bcbb3	0.21464424
15	0x3e8005ac	0.25004327
16	0x3ea78cc4	0.32724583
17	0x3e7b22d8	0.2452501
18	0x3dfe8e01	0.12429429
19	0x3ea9aeae	0.33141083
20	0x3e2c9dbb	0.16857044
21	0x3d9760d9	0.07391519
22	0xbf60626f	-0.876502
23	0x3e7ddfd4	0.24792415
24	0x3eae84e6	0.34085768
25	0x3e79d1af	0.24396394
26	0xbd29b3ca	-0.041431226
27	0x3e736731	0.23769833
28	0x3ead04b3	0.33792648
29	0x3e6e22c6	0.23255453
30	0x3d37fe61	0.04492033
31	0x3e402d78	0.18767345
32	0x3e9cb1e8	0.30604482
33	0xbe5a9849	-0.21347155
34	0x3ea0ee2f	0.3143172
35	0x3e725e13	0.23668699
36	0xbcd7068a	-0.026248235
37	0x3e8c04aa	0.27347308
38	0x3eb1e3fb	0.34744248
39	0x3e809782	0.2511559
40	0x3e75d152	0.2400563
41	0x3e3d1f2c	0.18468922
42	0x3eb39c73	0.350803
43	0x3ea16acc	0.31526792
44	0x3eadddda	0.33958322
45	0x3e574eb5	0.21026118
46	0x3e01c48c	0.12672633
47	0xbc8359db	-0.016034057
48	0x3e2105e8	0.1572491
49	0x3e3c6ff8	0.18402088
50	0x3e87cd8f	0.26524016
51	0x3ebbc8f3	0.3667675
52	0x3e9b48c6	0.3032896
53	0xbd886494	-0.06659809
54	0x3d833bbc	0.06407878
55	0x3e4b4e8d	0.19854183
56	0xbe20da45	-0.15708263
57	0xbf8a22a3	-1.079182
58	0x3e7ccdeb	0.24687926
59	0x3e64163a	0.22274104
60	0xbe09b19f	-0.13446663
61	0x3e012afb	0.12614052
62	0x3ec79874	0.389835
63	0x3e3a3a25	0.18186243
64	0xbe1b9a46	-0.1519557
65	0x3e78e187	0.24304782
66	0xbce5ccab	-0.028051695
67	0xbd666ef5	-0.05625816
68	0x3e253681	0.16134073
69	0x3ebe5b20	0.37178898
70	0x3ee21046	0.4415304
71	0xbdd6086a	-0.104508236
72	0x3e7d334b	0.24726598
73	0x3e7d2f80	0.24725151
74	0xbd110289	-0.03540281
75	0x3defff84	0.117186576
76	0x3cae7247	0.021294726
77	0x3e68cfd7	0.22735535
78	0x3b17fcd2	0.0023191464
79	0xbe1d92f7	-0.15388094
80	0x3e29fa4a	0.16599384
81	0x3e354093	0.17700414
82	0x3e73139c	0.23737949
83	0xbdad5a7e	-0.08464526
84	0xbddcf6bc	-0.10789248
85	0x3e7e966c	0.24862069
86	0x3e994ebf	0.2994289
87	0x3e05c305	0.13062675
88	0xbdc69f5d	-0.09698365
89	0x3ee5e914	0.44904387
90	0x3c2c9835	0.010534336
91	0x3e51b4f5	0.20479186
92	0xbda2bf02	-0.07946588
93	0x3d1fcfdc	0.03901659
94	0x3e7b020b	0.24512498
95	0x3e47990a	0.19491974
96	0x3e9edb70	0.31026793
97	0x3ec0c71a	0.37651902
98	0x3eae5660	0.34050274
99	0x3ed11617	0.40837166
100	0xbd08ae8e	-0.033369593
101	0x3eae8fca	0.34094077
102	0xbe102152	-0.1407521
103	0xbcd20492	-0.025636945
104	0x3e476647	0.1947261
105	0x3ebb3ce1	0.36569884
106	0x3e4127b6	0.18862805
107	0xbf6d65e1	-0.9273358
108	0x3c80291e	0.015644606
109	0x3e2cd55f	0.1687827
110	0xbe8e6c8f	-0.278172
111	0x3e7895fe	0.24275967
112	0x3e367578	0.17818248
113	0x3e8efb3a	0.27926046
114	0xbd6ec343	-0.058291685
115	0x3dea7e08	0.1144982
116	0x3ed27a94	0.41109145
117	0x3ea39bf9	0.31954935
118	0x3e960267	0.29298708
119	0xbf863e70	-1.0487804
120	0xbe50bf32	-0.20385435
121	0x3e6aecd5	0.22941907
122	0x3eaa3803	0.3324586
123	0x3e578d41	0.21049978
124	0x3dabf9a8	0.083972275
125	0x3e679f68	0.22619402
126	0xbbf292a5	-0.0074027353
127	0x3eea5a19	0.45771864

env_model.fc2.weight f4 [64, 128]
0	0x3dc6abef	0.097007625
1	0xbdba6e62	-0.09103085
2	0x3d3259d9	0.043542717
3	0xbb8632a0	-0.0040953904
4	0xbaed1101	-0.0018086733
5	0x3de26646	0.11054663
6	0xbdddd06e	-0.108307704
7	0xbd898cd6	-0.067163154
8	0xbdf16f0c	-0.11788759
9	0x3d955f1b	0.072935306
10	0xbd809614	-0.06278625
11	0xbd8f9b86	-0.070120856
12	0x3db545ec	0.08851227
13	0xbd4920fc	-0.049103722
14	0x3b9d0e81	0.0047929888
15	0x3e2a2472	0.16615465
16	0xbcce0c06	-0.025152218
17	0xbea44fa3	-0.32092008
18	0xbd87a228	-0.06622726
19	0x3d761cf0	0.06008619
20	0x3d0ebf78	0.034850568
21	0xbccd52a6	-0.025063824
22	0x3e11a1be	0.14221856
23	0x3df2609e	0.118348345
24	0xbd8489e1	-0.06471611
25	0xbe29ab8d	-0.16569348
26	0x3cd63afa	0.02615117
27	0x3c6a3988	0.014295943
28	0xbddd55f7	-0.10807412
29	0x3d415c02	0.047206886
30	0x3e3b959e	0.18318793
31	0x3d869e97	0.06573217
32	0xbc81d527	-0.01584871
33	0x3e95ed87	0.2928278
34	0xbe20047f	-0.15626715
35	0xbb4b20a2	-0.0030994792
36	0xbcb30aaa	-0.021855671
37	0xbd912036	-0.07086222
38	0x3d61438d	0.054996062
39	0x3d96e54c	0.07367954
40	0xbdbf0ae4	-0.09328249
41	0xbdab10fe	-0.083528504
42	0x3d3bdd1b	0.04586516
43	0xbca1f947	-0.019772185
44	0x3d13e600	0.036108017
45	0xbdbf6f75	-0.093474306
46	0x3e2304f0	0.15919852
47	0xbe09acb4	-0.13444787
48	0x399c3eb2	0.0002980135
49	0x3dadb6ce	0.08482133
50	0xbdd30b7c	-0.10304925
51	0xbd858727	-0.06519919
52	0x3e3734a8	0.1789118
53	0x3e162baf	0.14665101
54	0x3d003810	0.031303465
55	0xb8bab2d2	-8.902479e-05
56	0x3d828991	0.06373895
57	0xbe65df13	-0.22448377
58	0x3d509a52	0.05092842
59	0x3e05de89	0.13073172
60	0x3de62111	0.11236776
61	0x3d9afb3f	0.07567453
62	0xbd7efa8d	-0.062250663
63	0x3ddcbad3	0.107778214
64	0x3e28eb7b	0.16496079
65	0xbcc89f4f	-0.024490027
66	0x3c7e88d6	0.015535554
67	0xbc9f970d	-0.019481206
68	0xbccb277a	-0.024799097
69	0x3de3795a	0.1110713
70	0x3d3ce251	0.04611427
71	0x3cec3a78	0.028836474
72	0xbdeafe04	-0.11474231
73	0x3e96c81a	0.2944954
74	0x3d9dffb9	0.07714791
75	0x3d7d64a1	0.061863545
76	0x3dfac5f1	0.122447856
77	0x3e137c18	0.14402807
78	0x3bceac93	0.0063071935
79	0x3e1f0f9d	0.155333
80	0x3d49b024	0.049240246
81	0x3e60b6a9	0.2194468
82	0xbde158cf	-0.11003267
83	0xbdf6c8a8	-0.12049991
84	0xbd3b2d3d	-0.04569744
85	0xbd2928a5	-0.041298527
86	0xbe580ad9	-0.21097888
87	0x3ba73678	0.0051029287
88	0x3d74beed	0.059752394
89	0x3dbc8494	0.09204975
90	0x3dac5de9	0.084163494
91	0x3e56ad1c	0.20964473
92	0xbc3b5bb0	-0.011435434
93	0xb9fa9334	-0.0004779339
94	0x3e10fb3d	0.1415834
95	0x3da90353	0.08252587
96	0xbd363100	-0.044480324
97	0xbd86654a	-0.06562288
98	0xbd7dd133	-0.061967086
99	0x3d56adee	0.052411966
100	0xbdbc09b3	-0.091815375
101	0x3e21ea12	0.15811947
102	0x3e0f46f2	0.13991907
103	0x3e7ba321	0.24573947
104	0xbd0d9b6b	-0.034572046
105	0xbe121fa4	-0.14269882
106	0xbdb1c875	-0.08680812
107	0xba0880e6	-0.00052071956
108	0x3d623a5e	0.055231445
109	0x3e6fffa5	0.23437364
110	0xbd51c5b5	-0.05121394
111	0x3df08ac0	0.117452145
112	0x3cb032d2	0.021508608
113	0xbd28cd4e	-0.04121142
114	0x3e1f8bd3	0.15580682
115	0xbda15c80	-0.07878971
116	0x3e2cec8a	0.16887107
117	0xbd302f7b	-0.04301403
118	0x3d2cf7b2	0.04222841
119	0x3ea662ff	0.32497403
120	0x3e2d5dc4	0.169303
121	0xbcb49a78	-0.022046313
122	0x3e482799	0.19546355
123	0x3da5bcce	0.08092652
124	0x3d80cf61	0.062895544
125	0x3e270421	0.16310169
126	0x3df903a8	0.121589005
127	0x3d64accb	0.05582885
128	0x3d300869	0.04297677
129	0xbc812447	-0.015764369
130	0x3d9e826f	0.07739722
131	0x3cc7ae11	0.024374994
132	0x3bed0da2	0.007234291
133	0xbe91d7bd	-0.28484908
134	0xbd923269	-0.07138521
135	0x3e68db88	0.22739995
136	0x3dbf6842	0.093460575
137	0xbdccf3c2	-0.100074306
138	0x3d6db778	0.058036298
139	0x3e59788f	0.21237396
140	0xbe1ad186	-0.1511899
141	0xbd8f4559	-0.06995649
142	0xbca30a53	-0.019902384
143	0xbe73449c	-0.23756641
144	0x3d90cb9b	0.07070085
145	0x3e67cb46	0.22636136
146	0x3e4ec1c4	0.20191103
147	0xbcbb0f93	-0.022834575
148	0xbd067d6a	-0.032834448
149	0x3dba640f	0.09101116
150	0xbe751559	-0.23933925
151	0xbd2a37eb	-0.041557234
152	0xbd835d49	-0.06414277
153	0x3d4c7dee	0.049924783
154	0xbce86dbb	-0.028372636
155	0x3daf5ffa	0.08563228
156	0x3cc993a8	0.02460654
157	0x3de95e47	0.11394935
158	0x3e032d5d	0.12810273
159	0x3df6ebec	0.12056717
160	0x3e177c40	0.14793491
161	0xbe2acc7e	-0.1667957
162	0x3e1790cb	0.14801328
163	0x3e44594c	0.19174689
164	0x3e7beb91	0.2460158
165	0x3e229d6b	0.15880363
166	0x3e917bdd	0.28414813
167	0x3e39de42	0.18151191
168	0xbd75dfa0	-0.06002772
169	0x3e924018	0.28564525
170	0x3e19e1a2	0.15027478
171	0x3caae73c	0.020862214
172	0x3dc31fb6	0.09527533
173	0x3c78ee4a	0.015193531
174	0xbcac5d74	-0.021040656
175	0x3dd4251f	0.10358643
176	0x3defc73b	0.11707922
177	0x3d4587f3	0.048225354
178	0x3e4fdd7e	0.20299336
179	0xbdb7c372	-0.08972825
180	0xbe08367a	-0.13302031
181	0x3e0080cc	0.12549132
182	0x3d0457ff	0.032310482
183	0x3ca64a0e	0.020298984
184	0x3dd5f981	0.1044798
185	0x3d03db5d	0.032191623
186	0x3dffc1c1	0.124881275
187	0x3e2dd191	0.16974474
188	0x3e46b758	0.19405878
189	0x3d4e03e5	0.050296683
190	0x3e408ba8	0.18803275
191	0xbc66eb67	-0.01409421
192	0xbdefb895	-0.11705128
193	0x3e40b034	0.18817216
194	0xbdc7454a	-0.09730013
195	0xbd1a55c8	-0.037679464
196	0x3d9bda80	0.07610035
197	0xbe0f2618	-0.13979375
198	0xbcb7e894	-0.02244977
199	0x3d9b4879	0.075821824
200	0x3d8cbee9	0.06872351
201	0xbe062c9a	-0.13102952
202	0xbdd79fff	-0.10528564
203	0x3d62d972	0.055383153
204	0x3ddebf35	0.108763136
205	0x3e092ba4	0.13395554
206	0x3e76c778	0.24099529
207	0x3e5661cd	0.20935746
208	0x3e538737	0.20657049
209	0xbe0dfde4	-0.13866383
210	0x3cc3cbd1	0.023900898
211	0x3e4d97e5	0.20077474
212	0xbda8a8d4	-0.082353264
213	0x3e02baea	0.12766615
214	0xbcf0d638	-0.029399022
215	0x3e207856	0.15670905
216	0x3c5f3100	0.013622522
217	0x3df11d13	0.117731236
218	0x3e5b8910	0.21439004
219	0xbe015609	-0.12630476
220	0xbdad503a	-0.084625676
221	0xbccf0a77	-0.025273545
222	0xbb98d770	-0.004664354
223	0xbdb76037	-0.089538984
224	0x3e316dfd	0.17327113
225	0x3c3f4f0a	0.011676559
226	0x3e25d01d	0.1619267
227	0x3e767f58	0.24072015
228	0xbc9c793a	-0.019100774
229	0x3da2a375	0.07941333
230	0xbc644ca5	-0.013934289
231	0x3c2877fb	0.010282512
232	0x3ce2729f	0.027642546
233	0x3dc98823	0.09840419
234	0x3dedb805	0.116073646
235	0x3ecec8ee	0.40387672
236	0x3e1cdcef	0.15318654
237	0x3cc099b7	0.023510797
238	0x3daff0d3	0.085908554
239	0xbcd87a9e	-0.026425656
240	0x3de2748b	0.11057385
241	0x3e11b623	0.14229636
242	0xbe61b64b	-0.22042195
243	0x3e6e5859	0.2327589
244	0xbde57ebe	-0.11205815
245	0xbd7b6c37	-0.0613825
246	0xbe6d11dd	-0.23151346
247	0x3c8e4413	0.017366445
248	0x3e22f7cd	0.15914841
249	0xbdb572b0	-0.088597655
250	0xbd870924	-0.0659354
251	0xbe037c37	-0.12840353
252	0x3e0140a6	0.12622318
253	0x3d92a6e6	0.071607396
254	0x3da843df	0.082160704
255	0x3e2ac4fe	0.16676709

env_model.fc2.bias f4 [64]
0	0x3d70cc68	0.058788687
1	0xba9358e6	-0.0011241704
2	0xbc37fc37	-0.011229566
3	0xbd34bc13	-0.044124674
4	0xbc942482	-0.018083815
5	0xbbdb3716	-0.0066899164
6	0x3df18a50	0.11793959
7	0x3d3625d1	0.04446966
8	0xbd02c8fa	-0.031929947
9	0x3b54e61e	0.0032485793
10	0xbc8e639b	-0.01738148
11	0x3daf2ae1	0.085531004
12	0xbd8ef835	-0.069809355
13	0x3be3b71d	0.006949319
14	0xbd19466e	-0.037420683
15	0x3d002624	0.031286374
16	0x3c13b16d	0.00901447
17	0xbd4371a5	-0.0477158
18	0xbd9d101b	-0.076690875
19	0x3c9ad9fc	0.018902771
20	0x3dc9a72c	0.09846339
21	0x3c8abab1	0.016934725
22	0x3cf2d538	0.029642686
23	0x3de760e3	0.112977766
24	0x3cb5c1f1	0.022187205
25	0xbd930921	-0.071794756
26	0xbcee5d4c	-0.029097222
27	0x3d85550f	0.06510364
28	0x3d50f65d	0.0510162
29	0xbc8bc773	-0.017062878
30	0x391d6254	0.00015009317
31	0x3d28db6a	0.041224875
32	0x3cf0a467	0.029375268
33	0x3d9a23f3	0.07526388
34	0x3c9ed9d1	0.019390972
35	0x3d6be5de	0.057592265
36	0xbbfc0f7a	-0.0076922746
37	0x3de829f2	0.113361254
38	0x3d9e831c	0.07739851
39	0x3d37679a	0.044776537
40	0x3ce9600a	0.028488178
41	0xbd8b1117	-0.06790369
42	0x3e1bd6f9	0.15218724
43	0x3dcbe6c4	0.099561244
44	0xbcf67c45	-0.030088553
45	0x3e0c0152	0.13672379
46	0x3dfbf84c	0.12303218
47	0x3c484cd6	0.01222535
48	0xba623bc8	-0.0008630124
49	0x3d24e13e	0.04025387
50	0x3d028628	0.031866223
51	0x3d9e2cc3	0.07723381
52	0xbd3257e6	-0.043540858
53	0x3d8d8c3e	0.06911515
54	0xbbab1ddb	-0.005222065
55	0x3e05d8c9	0.13070978
56	0x3da36943	0.079790615
57	0x3cff1cd5	0.031141678
58	0xbba59abb	-0.0050538457
59	0x3d4f928a	0.05067686
60	0xbcc1cf59	-0.023658441
61	0xbc0099e1	-0.007849188
62	0x3dccaafa	0.09993549
63	0xbc8c3cb1	-0.017118784

env_model.fc3.weight f4 [32, 64]
0	0xbe052366	-0.13001785
1	0xbd8e4dc6	-0.06948428
2	0xbdc43e09	-0.09582145
3	0x3e6b07a7	0.22952138
4	0xbc919aaf	-0.017773954
5	0x3e3586d1	0.1772721
6	0x3e01e77f	0.12685965
7	0x3ddcf7a8	0.10789424
8	0xbe37054f	-0.17873119
9	0xbd18932d	-0.037249733
10	0x3e5068c7	0.2035247
11	0x3db9ca8d	0.090718366
12	0x3d50a138	0.050935
13	0x3dda0ab5	0.106465735
14	0x3bb2862a	0.0054481225
15	0x3e0d1a5c	0.13779587
16	0xbc3daa35	-0.011576225
17	0xbd1128a7	-0.03543916
18	0xbe6000ae	-0.2187526
19	0xbe4bd668	-0.19906008
20	0xbe03ab57	-0.1285833
21	0x3de7ae57	0.113125496
22	0xbdbc235d	-0.091864325
23	0x3e284a9c	0.16434711
24	0x3d210995	0.03931578
25	0xbd9f7e0b	-0.07787713
26	0x3e78c373	0.24293308
27	0xbd886a37	-0.06660884
28	0xbe2ce79d	-0.16885228
29	0x3d67c742	0.05658651
30	0xbd214e36	-0.03938123
31	0xbe5c5c5b	-0.21519606
32	0x3e0a77c1	0.13522245
33	0x3bb265d6	0.0054442687
34	0xbe0628a5	-0.13101442
35	0x3e48eb85	0.19621094
36	0x3d7b5953	0.061364483
37	0x3d46bc59	0.048519466
38	0xbe4b1004	-0.19830328
39	0x3df236d1	0.11826862
40	0xbd75526c	-0.059893057
41	0xbe04cca2	-0.12968686
42	0x3e8de8c5	0.27716652
43	0x3d234f95	0.039870817
44	0x3d6c3516	0.057667814
45	0x3d97347b	0.07383057
46	0x3d2adeea	0.041716494
47	0x3e05ffbe	0.13085839
48	0xbc8bacd0	-0.017050177
49	0xbdc8dedf	-0.09808134
50	0xbe0c4bff	-0.13700865
51	0x3d0cd466	0.034382246
52	0x3baffed8	0.005370956
53	0xbe157c33	-0.1459816
54	0x3dea4fc1	0.11440993
55	0x3b8af090	0.004240103
56	0x3de5d663	0.11222532
57	0x3c85fe6f	0.016356675
58	0x3e2044f8	0.1565131
59	0xbcda8ef7	-0.0266795
60	0x3da86cac	0.082238525
61	0xbde712a5	-0.11282853
62	0xbc68dbec	-0.01421259
63	0x3e57cd4e	0.21074411
64	0x3cf02eb7	0.02931915
65	0x3db3aadd	0.08772824
66	0x3dc07f49	0.09399278
67	0x3df5eec8	0.120084345
68	0x3e35a88d	0.17740078
69	0x3e82fbf9	0.25582865
70	0x3e4afe3e	0.19823548
71	0x3e117bc2	0.14207366
72	0x3e767284	0.24067122
73	0x3e3013c7	0.17195044
74	0x3d93a46f	0.072090976
75	0xbcba4ee3	-0.022742694
76	0x3ca616e1	0.020274581
77	0x3d7a9afb	0.061182957
78	0x3c1cf44c	0.009579729
79	0x3bcdd100	0.0062810183
80	0xbccbe664	-0.024890132
81	0xbd6a7ee0	-0.057249904
82	0xbc376133	-0.011192608
83	0x3e445de2	0.19176438
84	0xbde4d7bb	-0.1117396
85	0xbe173fbd	-0.14770408
86	0x3cac6180	0.021042585
87	0xbca22547	-0.019793166
88	0xbdd8372c	-0.10557398
89	0xbe0b2cf3	-0.13591366
90	0x3e5200d8	0.20508134
91	0xbd67a46b	-0.056553286
92	0xbd0b04e5	-0.033940215
93	0x3bfebd68	0.007774044
94	0x3e0454ee	0.12923023
95	0xbda870ff	-0.08224677
96	0xbdbaeb03	-0.09126856
97	0xbd440f28	-0.047866017
98	0xbc802335	-0.015641788
99	0xbdfe7fa9	-0.12426693
100	0xbdbc633b	-0.09198614
101	0x3da044a0	0.07825589
102	0x3cc29b6b	0.02375575
103	0xbe4952ec	-0.19660538
104	0xbd04e4df	-0.03244483
105	0xbdb24d0b	-0.08706101
106	0x3e5adb98	0.21372831
107	0x3e555c4f	0.20835994
108	0x3e179893	0.14804296
109	0x3d713b74	0.05889459
110	0x3dce28c5	0.1006637
111	0xbd6ffccb	-0.05859069
112	0x3e555c82	0.2083607
113	0xbd21dec7	-0.039519098
114	0x3e6e8dad	0.23296233
115	0x3e69297d	0.22769733
116	0x3d90778d	0.070540525
117	0xbe4b97c1	-0.19882108
118	0x3e31f86a	0.17379919
119	0x3da0448e	0.07825576
120	0x3e238c72	0.15971544
121	0x3e57cbb4	0.210738
122	0x3e82299e	0.25422376
123	0xbda6b588	-0.08140093
124	0x3e251940	0.16122913
125	0xbdf95226	-0.12173872
126	0xbdeaf891	-0.114731915
127	0xbcb70099	-0.022339152
128	0x3bd19ec5	0.0063971006
129	0x3e0c9114	0.13727218
130	0x3e5194e3	0.20466952
131	0x3e0a0434	0.13478166
132	0xbe08936e	-0.1333749
133	0xbd1a1f1b	-0.03762732
134	0xbd2e3571	-0.042531434
135	0xbde8ba7b	-0.11363693
136	0x3d248410	0.040165007
137	0xbe003843	-0.12521462
138	0x3e622ec2	0.22088149
139	0xbd742873	-0.059608888
140	0x3e123b5d	0.14280458
141	0x3da524e2	0.080636755
142	0x3e38a62e	0.18032143
143	0x3e494bdc	0.19657844
144	0x3d449b7e	0.04799985
145	0x3dd329a8	0.1031068
146	0xbc6ccc22	-0.014452966
147	0x3ccd14e9	0.025034385
148	0xbc9e30d8	-0.0193104
149	0xbde8ef24	-0.113737375
150	0x3d351272	0.044207044
151	0xbd7283e6	-0.05920782
152	0x3e2d18c0	0.16903973
153	0xbdc92d4e	-0.09823094
154	0x3d36dc86	0.0446439
155	0x3e119a79	0.14219083
156	0x3d6b20cc	0.057404324
157	0xbdf7657d	-0.12079904
158	0xbd57007c	-0.052490696
159	0xba09a626	-0.00052508933
160	0xbe2c4bdf	-0.16825818
161	0x3e1b86db	0.15188162
162	0xbd17f13a	-0.037095286
163	0x3e910c49	0.28329685
164	0x3e0cbfc7	0.13745032
165	0xbd0dc73e	-0.03461384
166	0x3e478b19	0.19486655
167	0xbe12a5ca	-0.14321056
168	0xbcd7ff96	-0.02636699
169	0xbe2455da	-0.16048375
170	0xbd5feb72	-0.054667898
171	0x3c0f97b9	0.008764201
172	0xbd073146	-0.033005975
173	0x3dccb727	0.09995871
174	0x3e2e7f68	0.17040789
175	0x3d735d29	0.059415016
176	0x3dbeef24	0.09322956
177	0xbdb6b65c	-0.08921501
178	0x3e4466e6	0.19179878
179	0xbdbffb88	-0.09374148
180	0x3e0371bf	0.1283636
181	0xbd9576b1	-0.07298029
182	0x3e7875f1	0.24263741
183	0x3e2ba145	0.16760738
184	0xbcb0febc	-0.021605842
185	0xbd88c01b	-0.06677266
186	0x3d0d260b	0.03446011
187	0x3d764135	0.06012078
188	0x3e120d90	0.14262986
189	0x3dbe9be8	0.093070805
190	0xbe0c0281	-0.1367283
191	0xbc7c5c58	-0.015402876
192	0xbc9d26ac	-0.01918348
193	0x3c03cd62	0.008044573
194	0xbd8f8c8c	-0.07009229
195	0x3e0330a7	0.12811528
196	0xbe564a02	-0.20926669
197	0x3e5058f1	0.20346428
198	0x3e4e3f56	0.20141348
199	0x3e24ade3	0.16081958
200	0x3e37cc7f	0.17949103
201	0x3e5f5567	0.21809922
202	0x3d711cf3	0.0588655
203	0x3c98f622	0.018672053
204	0xbdff5882	-0.124680534
205	0x3e50645f	0.20350789
206	0xbd3e74c6	-0.046498083
207	0x3c90df18	0.017684504
208	0x3e61e703	0.2206078
209	0x3e0943f2	0.13404825
210	0xbb6bcc10	-0.0035979785
211	0xbd435ab6	-0.04769393
212	0x3d23e525	0.04001345
213	0xbe6a03f2	-0.22853068
214	0x3e64061c	0.22267956
215	0xbe37198b	-0.17880838
216	0x3e2fcaef	0.17167257
217	0x3e5a6468	0.21327364
218	0x3dd6e7d4	0.104934365
219	0x3da6eadb	0.08150264
220	0x3c87626a	0.01652642
221	0xbd89b717	-0.06724375
222	0x3e5716ec	0.21004838
223	0x3d4b2f26	0.04960551
224	0xbb8f236a	-0.0043682354
225	0x3d244429	0.040104065
226	0x3df60743	0.12013104
227	0xbd25d170	-0.04048294
228	0x3e889239	0.2667406
229	0xbb5f01cb	-0.0034028168
230	0x3e1cea1c	0.1532368
231	0x3e152efb	0.14568703
232	0x3e4c57c6	0.19955358
233	0xbdafaf62	-0.085783735
234	0x3e528f29	0.20562424
235	0xbe0542f1	-0.13013817
236	0xbdc7047a	-0.09717651
237	0x3df01bf0	0.11724079
238	0x3e3067f7	0.1722716
239	0xbd93cf8a	-0.07217319
240	0x3e5ed2f6	0.21760163
241	0xbd2892f6	-0.041155778
242	0xbe1e0d91	-0.15434863
243	0xbd5272eb	-0.051379126
244	0x3d2986a8	0.041388184
245	0xbe0179d6	-0.12644133
246	0x3d9ce26b	0.07660373
247	0x3d94cff5	0.07266227
248	0x3d42a4ff	0.047520634
249	0xbdf665a2	-0.12031104
250	0x3d0136a3	0.031546246
251	0x3e30a3bf	0.17249964
252	0x3e2bc7a4	0.16775376
253	0x3e20a9f5	0.15689833
254	0x3ce13ebc	0.027495734
255	0xbdd59fd4	-0.104308754

env_model.fc3.bias f4 [32]
0	0xbcc952e5	-0.02457566
1	0x3c5726fd	0.013131854
2	0xbbd55309	-0.0065101427
3	0x3da2b0ae	0.07943855
4	0xbd14fa4c	-0.036371514
5	0x3d771472	0.060322233
6	0x3dbd0e05	0.0923119
7	0xbdb9f8dc	-0.09080669
8	0x3d8fe186	0.07025437
9	0x3cf01870	0.029308528
10	0xbd4feea1	-0.050764684
11	0xbdf936be	-0.12168644
12	0xbd42f574	-0.047597364
13	0x3da95310	0.08267796
14	0x3d9edbf6	0.07756798
15	0xbd8e4e25	-0.06948499
16	0xbd7db29d	-0.061937917
17	0xbd62b083	-0.055344116
18	0xbcdeb2ce	-0.02718487
19	0x3d90ed4c	0.07076511
20	0x3ca27708	0.01983215
21	0xbd1c7ae0	-0.03820312
22	0xbdbc5958	-0.091967285
23	0xbda092d4	-0.07840505
24	0x3ba511db	0.005037529
25	0xbe1e4f9e	-0.15460059
26	0x3dda0e46	0.10647254
27	0x3c008dca	0.007846305
28	0xbb7186d5	-0.0036854048
29	0x3deff680	0.11716938
30	0x3cc7f0b6	0.024406772
31	0x3d4929b7	0.049112048

env_model.fc4_state1.weight f4 [18, 32]
0	0x3c7f824a	0.015595028
1	0xbe0623c5	-0.13099582
2	0x3d8a08cf	0.06739961
3	0x3d975d38	0.07390827
4	0xbce65e9e	-0.028121289
5	0xbd1cc2a8	-0.038271576
6	0x3cd4a352	0.025956783
7	0xbc81f419	-0.015863465
8	0x3da2fee3	0.07958772
9	0x3e1fe6c5	0.15615375
10	0xbd48bf92	-0.04901082
11	0xbda3c7b2	-0.07997073
12	0x3dfa43cc	0.122199625
13	0x3e62eb25	0.22160013
14	0xbe8fcc9a	-0.28085786
15	0xbc7738d6	-0.015089234
16	0x3dce8144	0.10083249
17	0xbd9b7f1a	-0.07592602
18	0xbcf6855e	-0.030092891
19	0xbe178f0b	-0.1480066
20	0xbc58ba85	-0.0132280635
21	0x3d838faf	0.0642389
22	0xbd90a360	-0.07062411
23	0x3e2546fa	0.16140357
24	0x3dcd26d8	0.100171745
25	0xbe26f03c	-0.1630258
26	0x3db541d8	0.08850449
27	0x3e51b296	0.20478281
28	0xbe02631e	-0.12733123
29	0x3cd97f0f	0.026549844
30	0x3b7f6cd5	0.003897478
31	0xbd9f5109	-0.07779128
32	0x3e3fc27a	0.1872653
33	0x3e5a3b33	0.21311645
34	0xbcf68eeb	-0.030097445
35	0x3c370f66	0.011173105
36	0x3dbc2464	0.091866285
37	0x3cc676cd	0.02422657
38	0x3e26a5d0	0.1627419
39	0x3e565b34	0.20933229
40	0xbe75e708	-0.24013913
41	0x3e155bfa	0.14585868
42	0xbcc77162	-0.024346057
43	0x3d6f6394	0.058444574
44	0x3d9de6c6	0.07710032
45	0x3cb04103	0.021515375
46	0x3e03b982	0.12863734
47	0x3ddad146	0.10684447
48	0x3e146605	0.14492042
49	0x3e1f5ac2	0.15561965
50	0x3d089ab6	0.03335067
51	0x3d33706b	0.043808382
52	0x3d65c956	0.056100212
53	0xbe277175	-0.16351874
54	0xbcd5b4c9	-0.026087182
55	0x3e3106fa	0.17287818
56	0x3ebe3489	0.37149456
57	0xbe4e4d94	-0.20146781
58	0xbc0f49fb	-0.008745666
59	0x3e029013	0.12750272
60	0x3e9e68bb	0.30939278
61	0xbd9df45e	-0.07712625
62	0x3d8a81d1	0.06763042
63	0xbe28d334	-0.16486818
64	0xbe40d38f	-0.18830703
65	0xbcdd76b8	-0.027034149
66	0x3e88efe5	0.26745525
67	0x3d849776	0.064742014
68	0x3c0b74f5	0.008511771
69	0xbd55201a	-0.052032568
70	0x3e0b5b17	0.13608967
71	0x3dca8ed8	0.098905265
72	0x3e012cdb	0.12614767
73	0xbddb0b5d	-0.10695527
74	0x3e15f4b8	0.14644134
75	0x3deaf8c2	0.11473228
76	0xbcb90ab4	-0.022588111
77	0x3e55b3ce	0.20869371
78	0xbc64e09f	-0.0139695695
79	0x3d546fcb	0.051864427
80	0xbd99dd04	-0.075128585
81	0xbdc4e579	-0.09614081
82	0xbda8404d	-0.082153894
83	0xbb45ab39	-0.003016187
84	0x3a2b4f1b	0.000653492
85	0xbd67fd7f	-0.056638237
86	0xbdcdf3c4	-0.1005626
87	0x3daff2f3	0.08591261
88	0xbb9658a1	-0.004588202
89	0xbc9b7374	-0.01897595
90	0xbdc7e593	-0.09760585
91	0x3cfc8379	0.03082441
92	0x3e641ffa	0.22277823
93	0xbbb81e90	-0.0056188777
94	0xbe1a6961	-0.15079261
95	0xbd200944	-0.039071336
96	0xbde0f412	-0.10984053
97	0x3db6176d	0.08891187
98	0xbe16a99a	-0.14713135
99	0x3e71c2b9	0.23609437
100	0x3e0206b9	0.12697877
101	0xbd857be8	-0.06517774
102	0x3b0a24c0	0.0021079034
103	0x3c088e14	0.008334655
104	0x3b5029f5	0.003176329
105	0xbdda6c4a	-0.10665186
106	0x3cf6d879	0.03013252
107	0xbb0dabc0	-0.0021617264
108	0x3dd75015	0.10513321
109	0x3da5aef2	0.08090009
110	0x3df3667d	0.118847825
111	0x3d049d64	0.032376662
112	0x3e144fd8	0.14483583
113	0xbb96cd30	-0.004602097
114	0xbde5ada4	-0.1121476
115	0x3e4b9dd5	0.19884427
116	0xbe69b4da	-0.22822896
117	0x3e08c71a	0.13357201
118	0xbcb7fd26	-0.022459578
119	0x3ccd9b8e	0.025098588
120	0xbd8a8fad	-0.06765685
121	0x3b98a6b8	0.0046585463
122	0x3cdaa356	0.026689213
123	0xbccf5881	-0.025310757
124	0xbc4b32df	-0.012402265
125	0x3cc0034d	0.023439074
126	0xbe1ca7ce	-0.15298387
127	0xbdd5a6a6	-0.10432176
128	0x3d0527f2	0.032508798
129	0xbc42cc24	-0.011889491
130	0x3ce32ccc	0.027731322
131	0x3ea0aff5	0.31384245
132	0x3dc149a7	0.09437876
133	0xbd98147f	-0.07425784
134	0xbe017f31	-0.12646176
135	0x3c844e64	0.01615066
136	0xbdea8550	-0.114512086
137	0x3e8c8966	0.27448577
138	0x3da5a12c	0.08087382
139	0x3d80aefe	0.06283377
140	0xbe739aa5	-0.23789461
141	0xbe8ca791	-0.27471593
142	0xbd410f19	-0.04713354
143	0xbc8d238a	-0.01722886
144	0xbe0d5406	-0.13801584
145	0xbca8cabc	-0.020604484
146	0xbd8806b9	-0.06641907
147	0xbda45f46	-0.080259845
148	0xbcf0992a	-0.02936991
149	0xbdaf9e38	-0.085751
150	0x3e0627b4	0.13101083
151	0x3c5fb664	0.013654325
152	0x3d4977ca	0.049186505
153	0x3d6f5de9	0.05843917
154	0xbcf02043	-0.029312259
155	0x3ec89304	0.39174664
156	0xbdca4edf	-0.09878325
157	0xbb71cd31	-0.0036895985
158	0x3e2665f0	0.16249824
159	0xbd2f54c4	-0.04280545
160	0x3d055ed1	0.032561127
161	0x3e629aaa	0.22129312
162	0xbdcef703	-0.101057075
163	0xbd684758	-0.056708664
164	0xbe1b3a88	-0.15159047
165	0x3e579e22	0.21056417
166	0xba82fdde	-0.0009993871
167	0x3dc4419c	0.095828265
168	0xbe0adb17	-0.13560139
169	0xbc873ddc	-0.016508989
170	0xbdd5f937	-0.104479246
171	0xbd1ff6c8	-0.03905371
172	0xbd8d3807	-0.06895452
173	0x3de0aef2	0.10970868
174	0xbe6667d0	-0.22500539
175	0xbde8a980	-0.113604546
176	0xbe3b1b5e	-0.18272159
177	0xbe847923	-0.2587367
178	0x3dae6a45	0.08516363
179	0xbe026ef7	-0.12737642
180	0x3e409103	0.18805318
181	0x3dec767d	0.11546037
182	0x3e1263ae	0.14295837
183	0xbe1d0b57	-0.15336357
184	0xbc1f6590	-0.009728804
185	0x3df2a362	0.11847569
186	0x3d92b4f9	0.07163424
187	0x3e469661	0.19393303
188	0x3db8ee7a	0.09029861
189	0x3d05ae08	0.032636672
190	0xbe00923b	-0.12555782
191	0x3d82e13c	0.06390616
192	0x3e906f3e	0.2820987
193	0xbe72e788	-0.23721135
194	0xbe45ba8c	-0.19309443
195	0xbdcd008b	-0.10009869
196	0x3d15b2ca	0.03654746
197	0xbd0e8d63	-0.034802806
198	0xbe26bd3b	-0.16283123
199	0xbd1c91ed	-0.038225103
200	0xbe0376e4	-0.12838322
201	0x3e18fbaf	0.1493976
202	0xbb1381bd	-0.002250775
203	0xbdbc00bf	-0.0917983
204	0xbcf2f827	-0.029659344
205	0xbd88301a	-0.066498
206	0xbc72c82d	-0.014818233
207	0xbed080a6	-0.4072315
208	0xbd48fe61	-0.04907072
209	0xbd8b8276	-0.06811993
210	0xbd810319	-0.06299419
211	0x3def6c54	0.11690584
212	0xbe086dce	-0.13323137
213	0x3e17d6e4	0.14828068
214	0xbda35740	-0.07975626
215	0xbc9a9993	-0.018872058
216	0xbc46b1a9	-0.012127318
217	0x3d9f8ebb	0.077908956
218	0x3deead7f	0.116541855
219	0xbcb6e81e	-0.022327479
220	0x3dee1fbf	0.11627149
221	0xbc555c4e	-0.013022495
222	0x3da60b2e	0.08107601
223	0x3d355df0	0.04427904
224	0x3d1e57e5	0.03865804
225	0x3c232bb5	0.009959151
226	0x3d0d9356	0.03456434
227	0xbdc0c4fe	-0.09412573
228	0xbc7fafaa	-0.015605846
229	0x3e27580a	0.16342178
230	0xbc55023f	-0.013001024
231	0xbdcdac4b	-0.10042628
232	0x3e13d592	0.1443694
233	0xbcbed382	-0.023294214
234	0xbe2d6171	-0.16931702
235	0x3c2a5ae0	0.010397643
236	0x3c842ca5	0.01613457
237	0xbe411023	-0.18853812
238	0xbda29922	-0.07939364
239	0xbe130e38	-0.14360893
240	0x3be0b2f6	0.0068572713
241	0xbe055364	-0.13020092
242	0xbe23e96c	-0.16007012
243	0xbcbd8129	-0.023132877
244	0x3d30d89e	0.043175332
245	0x3d5581cf	0.05212575
246	0x3d816160	0.06317401
247	0xbe8c1fd5	-0.27368036
248	0x3e914ead	0.28380337
249	0x3d97df4e	0.07415639
250	0xbb370cd5	-0.0027931232
251	0xbd27524f	-0.04084998
252	0x3e5d537c	0.21613878
253	0x3e439ddf	0.19103192
254	0x3df0a9c2	0.11751129
255	0x3e3d4bcc	0.18485945

env_model.fc4_state1.bias f4 [18]
0	0xbdf48f9b	-0.11941453
1	0xbd119c2e	-0.035549335
2	0xbda9951d	-0.08280394
3	0x3dc09300	0.09403038
4	0x3de35657	0.111004524
5	0xbd46afc7	-0.048507478
6	0x3cb13164	0.021629997
7	0xbdd9b275	-0.10629741
8	0x3db74659	0.089489646
9	0x3e5bdb41	0.21470357
10	0x3d13d972	0.036096044
11	0x3c155faf	0.009117051
12	0x3de27e68	0.11059266
13	0xbda32eec	-0.07967934
14	0x3a6f3a8b	0.000912585
15	0xbc5944e3	-0.013261053
16	0x3d167578	0.03673312
17	0x3a6c98ef	0.00090254744

env_model.fc4_state2.weight f4 [18, 32]
0	0x3e657ff2	0.22412089
1	0xbe5db6a9	-0.2165171
2	0x3d5f4d50	0.05451709
3	0xbc3389a0	-0.010958105
4	0xbd06d3d1	-0.032916848
5	0xbd532765	-0.05155124
6	0x3d890c5e	0.06691812
7	0x3d8a27a5	0.06745843
8	0xbe976fad	-0.2957739
9	0xbe9b0a86	-0.30281466
10	0xbd34ef87	-0.044173744
11	0x3cedfc38	0.029050931
12	0xbe47a02a	-0.19494691
13	0xbe5bef88	-0.21478093
14	0x3d92fb46	0.07176833
15	0x3e0e4941	0.13895132
16	0x3e6e2136	0.23254856
17	0xbd7e6d0a	-0.062115707
18	0xbe44de96	-0.19225535
19	0xbde43aec	-0.11144051
20	0x3de73582	0.11289503
21	0xbdceaf3a	-0.100920156
22	0x3dc72003	0.097229026
23	0x3de6822e	0.112552986
24	0x3d436cc4	0.04771115
25	0x3dfb8ac6	0.12282328
26	0x3d090eec	0.033461496
27	0xbdc3c5ea	-0.095592335
28	0x3d929d6e	0.071589336
29	0x3dd53801	0.104110725
30	0x3bd27efc	0.006423829
31	0x3d2d5df2	0.04232592
32	0xbdbf856c	-0.0935162
33	0xbd8b43f2	-0.06800069
34	0xbd9fe508	-0.07807356
35	0xbdb33425	-0.0875018
36	0xbd889d49	-0.06670625
37	0xbe23c811	-0.15994288
38	0x3e2459df	0.16049908
39	0xbbe8fd19	-0.0071102497
40	0x3e8f1805	0.27948013
41	0xbd984bbb	-0.074363194
42	0x3d7c3e42	0.06158281
43	0x3e2cb3df	0.1686549
44	0x3eb2dcf2	0.34934193
45	0xbe67aa56	-0.22623572
46	0xbd95bc7a	-0.0731134
47	0x3e6c69ef	0.23087285
48	0xbd9c1a3d	-0.07622192
49	0xbe90b3d1	-0.2826219
50	0xbd534a44	-0.051584497
51	0x3dc91cc8	0.09819943
52	0xbd1758e1	-0.036949996
53	0xbdb36822	-0.08760096
54	0x3cb39102	0.021919731
55	0x3e5d8c5d	0.21635576
56	0xbd606ab2	-0.054789253
57	0xbda0ad72	-0.07845582
58	0xbd7f5f60	-0.062346816
59	0x3e322967	0.17398606
60	0x3d5b62f6	0.053561173
61	0xbd1a0a04	-0.037607208
62	0x3e484d7b	0.19560806
63	0x3d4c07c3	0.04981209
64	0xbe135600	-0.14388275
65	0xbe0a4784	-0.13503844
66	0x3e90047e	0.28128427
67	0xbe0f2bb6	-0.13981518
68	0xbdf8d03f	-0.12149095
69	0xbd16cb44	-0.036814943
70	0xbe1ff005	-0.15618904
71	0xba2d0c0d	-0.0006601222
72	0xbdf6f3de	-0.12058233
73	0x3dd6e08a	0.10492046
74	0xbb96010c	-0.0045777615
75	0xbd3f41c8	-0.046693593
76	0x3e229abd	0.1587934
77	0xbd4034bd	-0.046925295
78	0x3e16b584	0.1471768
79	0x3d9610fb	0.073274575
80	0x3d101c03	0.035182964
81	0xbe2cb5ee	-0.16866276
82	0xbe4114c2	-0.18855575
83	0x3d84eb69	0.064902134
84	0xbdc7a389	-0.09747989
85	0x3d5d4da3	0.05402912
86	0x3de9275a	0.11384459
87	0x3da0d3e8	0.07852918
88	0x3e224afe	0.1584892
89	0xbb059066	-0.0020380258
90	0x3e0a3bce	0.13499376
91	0xbd079ae8	-0.033106714
92	0x3e820650	0.2539544
93	0xbd8796ad	-0.06620536
94	0x3cdca2aa	0.026933033
95	0xbcd822bf	-0.026383756
96	0xbdd9fd4a	-0.10644014
97	0x3d28f14e	0.04124575
98	0xbce281f9	-0.027649866
99	0x3e50785e	0.20358416
100	0x3ccedf5d	0.025252992
101	0x3dbdb0e1	0.092622526
102	0x3d6eebd3	0.05833037
103	0x3d3e56bf	0.046469446
104	0x3d62ad99	0.055341337
105	0x3df20774	0.11817828
106	0x3d9a217c	0.07525918
107	0xbdb05f85	-0.08611969
108	0x3d88481a	0.06654377
109	0xbdc300aa	-0.09521611
110	0x3cf810c1	0.030281426
111	0x3e193d6f	0.14964841
112	0x3df72881	0.120682724
113	0x3c4705b2	0.012147354
114	0x3e627c04	0.2211762
115	0x3caa20fc	0.020767681
116	0xbd95f543	-0.073221706
117	0x3e80fc4a	0.2519248
118	0xbd62b007	-0.055343654
119	0xbd698ae1	-0.05701721
120	0xbe1ba50a	-0.15199676
121	0xba0dadca	-0.000540462
122	0x3d756b0c	0.05991654
123	0x3eaefe99	0.34178618
124	0x3e57d67a	0.2107791
125	0x3e5bcbe5	0.21464498
126	0xbe386d8b	-0.18010537
127	0xbc550dc7	-0.013003773
128	0x3e18692e	0.14883873
129	0x3d8d0660	0.068859816
130	0xbce3c0da	-0.02780192
131	0x3e7f5b94	0.24937278
132	0xbe048933	-0.12942962
133	0xbdff67f6	-0.12471001
134	0xbd2fa620	-0.04288304
135	0xbdbba85b	-0.09162971
136	0x3de50d18	0.11184138
137	0x3e1efe81	0.15526773
138	0xbe061d43	-0.130971
139	0xbd7a3308	-0.061083823
140	0xbe9440cc	-0.28955686
141	0xbde56d15	-0.11202446
142	0xbddc2cb4	-0.10750714
143	0xbd694818	-0.05695352
144	0xbd836277	-0.06415265
145	0x3d2c9391	0.042132918
146	0xbe37b911	-0.17941691
147	0x3d1548ef	0.036446508
148	0x3e29f7af	0.1659839
149	0xbe41dbc5	-0.18931492
150	0x3c2aeb7c	0.01043212
151	0x3dd5b338	0.10434574
152	0xbc0487d6	-0.008089026
153	0xbd6232eb	-0.05522434
154	0xbe0b4bdf	-0.13603161
155	0x3e324768	0.17410052
156	0x3e0c0ac2	0.13675979
157	0x3c072882	0.008249404
158	0x3e2e2b11	0.17008616
159	0x3e1775b1	0.1479099
160	0x3e2e82e7	0.17042123
161	0x3e0983da	0.13429204
162	0xbe64ae06	-0.2233201
163	0x3c50af52	0.012737112
164	0xbe1ea246	-0.1549159
165	0x3d5f819f	0.054566976
166	0x3d83b004	0.06430057
167	0x3dbe22ee	0.09284006
168	0x3d3ea9c1	0.04654861
169	0xbe158877	-0.14602838
170	0xbdfd6a10	-0.123737454
171	0xbe0d514d	-0.13800545
172	0xbe143454	-0.14473087
173	0x3e9914b5	0.2989861
174	0xbdad88d3	-0.08473363
175	0xbe284ed3	-0.16436319
176	0xbe1827af	-0.14858888
177	0xbe8269bc	-0.25471294
178	0xbddee64a	-0.10883768
179	0x3d9f339f	0.07773518
180	0x3e0e9fe1	0.13928176
181	0x3ea8dd44	0.32981312
182	0xbb90ba8e	-0.0044167703
183	0xbe0640e5	-0.13110693
184	0x3dbdf71f	0.0927565
185	0x3d9b84f0	0.07593715
186	0x3cf6c505	0.030123243
187	0xbdd7a92c	-0.10530314
188	0x3c96766e	0.018367019
189	0xbdefe8ca	-0.11714323
190	0x3d528033	0.05139179
191	0xbe3f8f7a	-0.18707076
192	0x3e8447a6	0.25835913
193	0xbde1218d	-0.109927274
194	0xbdff4d93	-0.12465968
195	0x3dc36ed5	0.09542624
196	0x3e039113	0.1284831
197	0xbcd6ee3f	-0.026236651
198	0x3de25297	0.11050909
199	0x3d343f43	0.044005644
200	0xbd754453	-0.059879612
201	0xbe280c09	-0.16410841
202	0xbd125225	-0.03572287
203	0x3d1e1034	0.03858967
204	0xbd0e7cb2	-0.034786887
205	0x3e1e4a2b	0.1545798
206	0xbde6dea3	-0.11272933
207	0xbe558e69	-0.20855106
208	0xbe4c2963	-0.19937663
209	0x3ddea0da	0.10870524
210	0x3da7cc82	0.08193304
211	0xbccaf48c	-0.024774812
212	0x3cfc6325	0.030808995
213	0xbd8c3413	-0.0684587
214	0xbe390bc8	-0.180709
215	0x3d80b4a3	0.06284454
216	0xbe84e7bb	-0.25958046
217	0xbcd10b08	-0.025517955
218	0xbd33fb2c	-0.043940708
219	0x3dc72745	0.09724287
220	0x3e2b6631	0.16738202
221	0x3d764c31	0.060131256
222	0xbd228d07	-0.039685275
223	0x3e91875e	0.2842359
224	0x3e014666	0.12624511
225	0xbe309159	-0.17242946
226	0xbcb02099	-0.021499919
227	0x3e264c83	0.16240124
228	0x3e3835de	0.17989299
229	0xbc488bc2	-0.012240352
230	0xbd734e9b	-0.059401136
231	0xbddd217c	-0.10797402
232	0x3dcdda3a	0.10051389
233	0xbe7f0203	-0.24903111
234	0xbe3ff7df	-0.18746899
235	0xbe2de06d	-0.16980143
236	0x3e08a407	0.13343821
237	0x3de7c056	0.11315982
238	0x3d18a2b9	0.03726456
239	0x3c8e1646	0.017344605
240	0xbdfb27f5	-0.122634806
241	0x3c137f03	0.00900245
242	0x3d167fbe	0.03674292
243	0xbe049652	-0.12947968
244	0x3d8d6ba6	0.06905298
245	0x3d89b48d	0.067238905
246	0xbd945224	-0.072422296
247	0xbe3b706a	-0.18304601
248	0x3e62c703	0.2214623
249	0xbc6a850e	-0.014313949
250	0xbb96ff7e	-0.0046080938
251	0xbe499c35	-0.19688495
252	0x3e05ed32	0.13078764
253	0x3d891981	0.066943176
254	0x3e80edd7	0.25181457
255	0xbc7b23f5	-0.015328397

env_model.fc4_state2.bias f4 [18]
0	0xbdf6953e	-0.120401844
1	0x3dd8d3df	0.10587286
2	0x3ca09373	0.01960156
3	0x3b891b9c	0.0041841995
4	0x3cc25a8c	0.023724817
5	0xbc912717	-0.017718835
6	0x3b3cd920	0.002881594
7	0x3dc92940	0.09822321
8	0xbcb941de	-0.022614416
9	0x3dfdd9f6	0.123950884
10	0x3d481d23	0.048855912
11	0x3d07deb0	0.033171356
12	0x3dc22b4a	0.09480913
13	0x39e1d4ee	0.0004307399
14	0x3bd619f8	0.0065338574
15	0x3d9f220e	0.07770167
16	0xba4c58b3	-0.00077951996
17	0x3c9e2fd7	0.019309921

env_model.fc4_state3.weight f4 [18, 32]
0	0xbe12d00b	-0.14337175
1	0xbdcce6c0	-0.100049496
2	0xbdabf813	-0.08396926
3	0x3dbac57b	0.09119698
4	0xbdc191f4	-0.094516665
5	0xbde8acc3	-0.11361077
6	0xbc3030a4	-0.010753784
7	0x3e25f6bc	0.16207403
8	0xbdf40d53	-0.11916604
9	0x3e274111	0.16333415
10	0x3cc628de	0.024189409
11	0x3de57506	0.11203961
12	0x3e41804c	0.18896598
13	0xbd00c20b	-0.031435054
14	0xbe09652c	-0.134175
15	0x3d52810a	0.051392592
16	0xbe2ac441	-0.16676427
17	0x3dc7dc83	0.09758856
18	0xbd39fa17	-0.04540452
19	0x3d51ef94	0.05125387
20	0x3e6eb9ee	0.23313114
21	0x3de91df0	0.11382663
22	0xbe407eb6	-0.18798336
23	0x3cc23503	0.023706919
24	0x3e2cf644	0.16890818
25	0x3d47fd30	0.048825443
26	0xbd966f98	-0.073455036
27	0xbe144f34	-0.14483339
28	0xbe193889	-0.14962973
29	0x3e17611f	0.14783143
30	0xbd118e5f	-0.035536166
31	0xbdb080d7	-0.08618324
32	0xb8f41971	-0.000116395655
33	0xbe3b7081	-0.18304636
34	0x3d9a7b01	0.075429924
35	0xbd9357f6	-0.071945116
36	0x3e2e350c	0.17012423
37	0x3da1bcd0	0.07897341
38	0xbdd966e0	-0.10615325
39	0xbd165832	-0.036705203
40	0xbd5adabb	-0.053431254
41	0x3c8423f9	0.016130434
42	0xbe02792f	-0.1274154
43	0xbc7b8570	-0.015351638
44	0xbde3749d	-0.111062266
45	0x3e537e3f	0.20653628
46	0x3d92a667	0.07160645
47	0x3d08f8ef	0.033440527
48	0x3d8e0c79	0.06935973
49	0x3e224792	0.15847614
50	0x3c86f1a4	0.016472645
51	0x3eac6621	0.33671668
52	0x3e2e1173	0.16998844
53	0xbe2e2127	-0.17004834
54	0x3ca3f18f	0.020012645
55	0xbe4c6355	-0.19959767
56	0xbd51bbd2	-0.05120451
57	0x3e80ae2d	0.25132886
58	0xbd6e72a6	-0.058214806
59	0x3e9e89e4	0.30964577
60	0xbcbf3d20	-0.023344576
61	0xbd9234e7	-0.071389966
62	0x3d8e70a1	0.06955076
63	0xbdcb04b2	-0.09913005
64	0xbe674856	-0.22586188
65	0xbdd3c8e1	-0.10341049
66	0x3d9d2f86	0.0767508
67	0x3d2c6058	0.042084068
68	0xbe1661b7	-0.14685713
69	0x3dfb5383	0.12271788
70	0xbd54d146	-0.05195739
71	0xbb90b0e6	-0.004415619
72	0xbdea1d0d	-0.11431322
73	0xbe01db03	-0.12681203
74	0x3e3e319c	0.18573612
75	0x3e0c102f	0.13678049
76	0xbdabedee	-0.08394991
77	0x3b580c1e	0.0032966207
78	0x3d9c7444	0.076393634
79	0xbe24fa92	-0.1611121
80	0x3bf6b144	0.007528456
81	0xbddd4934	-0.10804978
82	0xbe558e37	-0.20855032
83	0x3d6c47ef	0.05768579
84	0xbd7ee8f1	-0.06223387
85	0x3c53b22f	0.0129209
86	0xbcd7a3e6	-0.02632327
87	0x3df23f66	0.118284985
88	0x3e2279f4	0.15866834
89	0x3b18eaf9	0.0023333414
90	0xbc2b554d	-0.010457349
91	0xbbd26342	-0.006420524
92	0x3ded1a84	0.11577323
93	0xbe0f76ad	-0.14010115
94	0xbdc230cd	-0.09481964
95	0x3de88c63	0.11354902
96	0xbe489aab	-0.19590251
97	0x3e1760a2	0.14782956
98	0xbdfa4d5d	-0.12221787
99	0x3bc72922	0.0060779015
100	0x3e542228	0.20716155
101	0x3dcc8cd7	0.099878006
102	0xbe56f553	-0.20992021
103	0x3dc4d0ab	0.09610113
104	0x3d2c1e93	0.042021345
105	0xbd28787b	-0.041130524
106	0xbd2625ab	-0.040563267
107	0x3e297ee7	0.16552316
108	0xbd4c3613	-0.049856257
109	0xbd4ef26d	-0.050524164
110	0xbdc066a6	-0.09394579
111	0x3dd7c5b7	0.10535758
112	0x3d61b9b4	0.05510874
113	0x3d61858b	0.055058997
114	0xbe6cbf92	-0.23119953
115	0x3de99f77	0.11407369
116	0xbdb93fbd	-0.0904536
117	0x3d92f02c	0.071747154
118	0xbd662a1a	-0.056192495
119	0x3dc96fbd	0.098357655
120	0xbde5470f	-0.11195194
121	0x3c0310c6	0.007999605
122	0x3c5fcf73	0.0136603
123	0x3df2b6b7	0.11851256
124	0x3e24c292	0.16089848
125	0x3e3be210	0.18347955
126	0xba0cb787	-0.0005367924
127	0xbc635518	-0.013875268
128	0x3cba7f9c	0.022765927
129	0x3e29867a	0.16555205
130	0x3d34d150	0.04414493
131	0x3e8437ad	0.25823727
132	0x3de19c31	0.11016119
133	0xbdff0930	-0.12452924
134	0x3df8472c	0.1212295
135	0xbe362dcc	-0.17790908
136	0xbe2f130c	-0.1709711
137	0x3e552e23	0.20818381
138	0xbd202be9	-0.039104376
139	0xbe2b6805	-0.16738899
140	0xbe14becf	-0.14525913
141	0xbc136f81	-0.008998753
142	0xbdee8ef5	-0.11648361
143	0xbd979f07	-0.07403379
144	0xbe3eda94	-0.18638068
145	0xbe195b86	-0.1497632
146	0xbe37312e	-0.17889854
147	0x3c8c2b54	0.017110504
148	0xbd553ce5	-0.052060027
149	0xbe819ddc	-0.2531575
150	0x3e31dc19	0.17369117
151	0xbd50a005	-0.050933857
152	0xbda971c2	-0.08273651
153	0x3dcd46f1	0.100232966
154	0xbdb3f9d5	-0.08787886
155	0x3cb9923b	0.022652736
156	0xbb78f84a	-0.0037989789
157	0x3d753615	0.05986603
158	0xbdeb86d9	-0.115003295
159	0x3ddac8a3	0.106828
160	0x3e5f5163	0.2180839
161	0x3e50bfd1	0.20385672
162	0xbcbba4bf	-0.022905705
163	0x3cd1e416	0.025621455
164	0x3cecbbfd	0.028898234
165	0x3d02d218	0.031938642
166	0xbd652b87	-0.055949714
167	0x3e56be59	0.2097105
168	0x3d7474f8	0.059681863
169	0xbd5a697d	-0.053323258
170	0xbe3381d2	-0.17529991
171	0x3d31a470	0.04336971
172	0xbe75a32f	-0.23988031
173	0x3e3fbc19	0.18724097
174	0x3e66695c	0.22501129
175	0xbdea5219	-0.1144144
176	0xbdf567d0	-0.11982691
177	0xbe7a2830	-0.24429393
178	0x3e506e89	0.20354666
179	0x3cbfa834	0.023395635
180	0x3e50385c	0.20334
181	0x3e8951ef	0.26820323
182	0xbd789c7f	-0.06069612
183	0x3dd5a47a	0.10431762
184	0x3d3871d2	0.045030423
185	0xbd24d970	-0.040246427
186	0xbd686b0b	-0.05674271
187	0x3d25af47	0.04045036
188	0xbe28c496	-0.16481242
189	0xbdbdf4d6	-0.092752144
190	0xbe479cab	-0.19493358
191	0x3ddd1353	0.107947014
192	0x3ea8ffdd	0.33007708
193	0xbd35307b	-0.044235688
194	0x3e0a933a	0.13532725
195	0xbe0f7ea8	-0.1401316
196	0x3e49f146	0.19720945
197	0xbde72cca	-0.1128784
198	0x3df3d5c3	0.11906006
199	0x3dc92247	0.09820991
200	0x3d4db516	0.050221525
201	0x3e178edb	0.14800589
202	0xbe23dbdb	-0.16001837
203	0x3dc38e9a	0.095486835
204	0xbd470766	-0.04859104
205	0x3e0a2543	0.13490777
206	0xbd7cb3ee	-0.06169503
207	0xbe93df3d	-0.28881255
208	0x3d5e0e29	0.054212723
209	0xbe18f54f	-0.14937328
210	0x3e038bbd	0.12846275
211	0x3e0a056f	0.13478635
212	0xbe564e74	-0.20928365
213	0x3e10d912	0.14145306
214	0xbe015541	-0.12630178
215	0xbdecc4b7	-0.11560958
216	0xbde98bc5	-0.11403612
217	0x3df971e6	0.121799275
218	0xbd4c01d1	-0.04980642
219	0xbdc50170	-0.09619415
220	0x3dfa5ffc	0.12225339
221	0x3e75996d	0.23984309
222	0x3d552b37	0.052043166
223	0xbb1db0bb	-0.0024061638
224	0x3e3b9198	0.18317258
225	0xbda7122d	-0.08157764
226	0x3c78b466	0.015179729
227	0x3e5b65ea	0.21425596
228	0x3d8dab8f	0.06917488
229	0xbe3d9fa8	-0.18517935
230	0x3e1b7ee4	0.15185124
231	0xbda53840	-0.080673695
232	0xbd8a03fa	-0.0673904
233	0xbe409de4	-0.1881023
234	0xbc2537f7	-0.010084144
235	0xbd9cd23b	-0.07657286
236	0x3e40ebcf	0.18839954
237	0xbd468fc2	-0.048476942
238	0x3e566ebd	0.20940681
239	0xbe17e2e9	-0.14832653
240	0xbd9174eb	-0.071023785
241	0xbc4c7784	-0.012479667
242	0x3e0243b6	0.12721142
243	0xbc844052	-0.016143952
244	0x3cd6f104	0.026237972
245	0x3e058b89	0.1304151
246	0x3c032558	0.008004509
247	0xbeb0f5b0	-0.34562445
248	0x3e4f8f80	0.20269585
249	0x3d301e05	0.04299738
250	0x3d9921ae	0.07477127
251	0xbd324628	-0.043523937
252	0x3c3c9416	0.011509916
253	0x3ccb9041	0.024849059
254	0xbdbc2629	-0.09186966
255	0xbc05dd6d	-0.008170468

env_model.fc4_state3.bias f4 [18]
0	0x3d74e395	0.05978735
1	0xbdb0c48b	-0.086312376
2	0xbb645068	-0.0034837965
3	0x3d80a399	0.06281204
4	0xbd2ce8d2	-0.042214222
5	0x3cc6383c	0.024196737
6	0xbe20a04f	-0.15686153
7	0x3d1b9ebe	0.037993185
8	0xbdaf0070	-0.08545005
9	0x3d26133d	0.04054569
10	0xbde383ce	-0.11109124
11	0x3e2f91e8	0.17145503
12	0xbd2d7d45	-0.042355794
13	0x3bc8dc04	0.0061297435
14	0x3aaa3f48	0.001298883
15	0x3b5712f3	0.003281769
16	0x3c2383b7	0.009980134
17	0xbc63f76e	-0.013913972
