TreasureFinder/A2C_TreasureFinder/A2Cagent_0.pth (torch, 189611 bytes, 11 tensors)

features.0.weight f4 [128, 3, 3, 3]
000000 7d 1f e2 3d 8f fa 92 3d 14 18 19 3e c8 63 69 be
       0.11041162 0.071766965 0.14950591 -0.2279197
000010 07 12 f0 3d 2a f7 50 be 33 90 14 3e 77 15 eb bd
       0.117221884 -0.20406786 0.14508133 -0.114787035
000020 17 ee 75 be 24 50 ae 3c 81 82 ab bd 86 6c 91 bd
       -0.24016605 0.021278448 -0.08374501 -0.07100777
000030 68 d3 13 be 7a 71 08 be 69 e9 41 3e a2 e9 c5 bd
       -0.14436114 -0.13324538 0.18936695 -0.096637025
000040 f3 9e 16 3e 7e e4 4f be d0 1a e8 3d 13 44 5f be
       0.14709072 -0.20302007 0.11333239 -0.21803312
000050 d7 78 2e be 8b 5b 93 be 48 8b bf bd 77 65 99 3c
       -0.17038284 -0.2878078 -0.09352738 0.01872514
000060 06 ca b8 bd 38 1a d0 3d ab 4d 0a bc f0 f7 1f 3e
       -0.09022908 0.10161251 -0.008441369 0.15621924
000070 e8 ff 5c 3e 6b 18 26 3e bd b9 3e bc 29 a3 3c 3e
       0.21581995 0.16220252 -0.011640963 0.18421616
000080 75 12 1c 3e 99 eb 89 bd e1 be cd 3d f6 9b 5c 3d
       0.15241416 -0.0673439 0.10046173 0.053859673
000090 f5 0e 80 3d f3 fb b6 3c 37 ec e5 3c 89 b7 23 3e
       0.06252853 0.022336936 0.028066738 0.15987982
0000a0 85 c6 40 3e be c5 3f be c9 b9 fa bd 89 32 83 3d
       0.18825729 -0.18727776 -0.12242467 0.06406123
0000b0 a7 b6 86 3c 4e 39 df bd 3b fa 66 be d3 55 d8 be
       0.016444517 -0.10899602 -0.22556393 -0.4225298
0000c0 f2 09 94 be f5 58 d0 be 09 57 8f bc e8 46 88 be
       -0.28913838 -0.4069287 -0.017497556 -0.26616597
0000d0 1b 49 8a 3b c7 fe 9c be 86 c5 72 bb a0 86 37 be
       0.0042201406 -0.3066313 -0.0037044003 -0.17922449
0000e0 9b 35 8f bc fc 06 6c 3d 1b 35 99 bc 8b d8 dc 3d
       -0.017481616 0.05762385 -0.01870208 0.1078349
0000f0 89 21 b5 bd 70 cd 07 3e cb 1c a3 bd 94 84 48 be
       -0.08844287 0.13261962 -0.07964476 -0.19581825
000100 72 46 34 be 95 e7 f4 bd d9 7a 46 3d a0 64 a1 bc
       -0.17604998 -0.11958233 0.048457 -0.019701302
000110 5a e9 86 3d 45 7e 9e bd 49 47 97 3c f9 a3 16 3e
       0.06587477 -0.07738928 0.018466609 0.14710988
000120 12 2c 4d be 2e 5a 2d 3c fb b3 04 be 86 02 36 3e
       -0.20036343 0.010580583 -0.12959282 0.177744
000130 68 a5 0e 3e c7 c9 ae 3d 77 ce 40 3e 5d 0d 0f be
       0.13930285 0.0853458 0.1882876 -0.13969941
000140 11 59 2b 3d 9f a0 47 bd c9 fb 4c 3e 39 93 74 3e
       0.041832987 -0.048737165 0.20017923 0.23884286
000150 69 71 32 3e f5 9f 41 3e c7 54 47 bb 29 3b e9 3d
       0.17426075 0.18908675 -0.0030415521 0.11388237
000160 6c f8 0f be e9 1c 17 3d 0c df c8 bb 53 39 71 3e
       -0.14059609 0.036892805 -0.006130105 0.23557024
000170 80 67 ba bd 48 88 a0 3d c5 b5 0b 3e d7 8f 3a be
       -0.09101772 0.078384936 0.13643558 -0.18218933
000180 c5 55 d9 bd 0d b3 81 3d 8d 9e 7a 3d d5 63 66 bd
       -0.10612062 0.06332979 0.061186362 -0.05624755
000190 13 dd 73 bd d5 ae 28 be e1 e1 79 bd b8 19 d7 3c
       -0.059537005 -0.16472943 -0.06100643 0.02625738
0001a0 f2 93 5b be f0 83 22 be 7c 2e a8 be 07 12 aa be
       -0.21443155 -0.15870643 -0.32847965 -0.3321688
0001b0 22 b2 af 3d 6a 7b aa 3d 1f 51 2d be cd 1d 0a 3d
       0.08578898 0.083243206 -0.16925476 0.033719826
0001c0 32 5c 87 bd 81 29 66 3d 16 df bf 3d f4 55 16 bc
       -0.06609382 0.056191925 0.09368722 -0.009175766
0001d0 81 2f 6c 3d 04 3f 08 bd b6 fb 9f 3d a7 50 61 be
       0.05766249 -0.03326322 0.07811682 -0.22003423
0001e0 8b 2e 71 3d 90 90 3c bc dc 94 7d 3d 19 99 59 3d
       0.058882277 -0.011509076 0.06190954 0.05312452
0001f0 b9 83 65 be a2 14 06 3e 03 ce 44 3e c5 76 11 3e
       -0.2241353 0.13093808 0.19219212 0.14205463
000200 c4 e1 4f bd 15 da 7f bd a4 dc a2 bd bc 87 33 3c
       -0.050752416 -0.06246384 -0.0795224 0.010957655
000210 26 88 43 bc f2 82 2b be 84 62 b6 3d 6d c5 2c be
       -0.011934316 -0.1674917 0.08905509 -0.16872187
000220 af 21 3b 3e a9 15 80 3c fb 43 c4 bd a1 b9 a9 bd
       0.18274568 0.015635328 -0.09583279 -0.08287359
000230 b9 5c 2e 3e a9 d6 09 be 25 c0 41 be 87 cf 21 be
       0.17027558 -0.13460793 -0.18920954 -0.15801822
000240 ea e0 22 3e d8 d3 41 bd a4 a4 bb 3c ab b6 1a 3d
       0.1590611 -0.04732117 0.022905655 0.037771862
000250 a6 02 fe bd 52 88 ee 3d ff 8a 21 3e f9 ec e3 bd
       -0.12402849 0.11647095 0.15775679 -0.11129183
000260 c7 61 7f 3e d0 1d 82 be 2e b8 d5 3a 43 45 93 bd
       0.24939643 -0.2541337 0.00163055 -0.07190945
000270 8b 27 b2 bd 02 87 53 be 0a 2c 2e 3e d9 b6 2f bd
       -0.086989485 -0.2065697 0.17008987 -0.042898986
000280 30 e4 96 3c 57 e5 1b 3d 56 c3 22 be ca cf 63 be
       0.018419355 0.038060512 -0.15894827 -0.22247234
000290 a4 ff bd bc e9 64 c7 3d 49 9b 21 be 94 d2 35 3e
       -0.023193188 0.09736044 -0.15781893 0.1775611
0002a0 4e e3 82 3c e1 e2 f5 3d 3c 13 3c 3e 7e 2b f1 bd
       0.015977528 0.12006164 0.18366712 -0.117758736
0002b0 90 79 ea 3d c0 db c3 bd 4a b1 8e 3c a8 82 53 3d
       0.114489675 -0.09563398 0.017418522 0.051638275
0002c0 81 60 1d 3e 89 00 39 be 8d b4 2b be ac 7b 98 bd
       0.15368845 -0.1806661 -0.16768093 -0.074454635
0002d0 9d 9b 4d bd f0 ab 06 be 0c 54 1f be a3 49 e7 bd
       -0.050197233 -0.13151526 -0.15559405 -0.11293342
0002e0 67 2a 1f 3d 3a 0a 0d be 19 fd f6 bd 30 2f 41 be
       0.038858797 -0.13773432 -0.12059993 -0.18865657
0002f0 40 4d ee 3d c9 72 3a be 51 27 43 3d 8e c6 4d 3e
       0.11635828 -0.1820785 0.047644917 0.20095274
000300 42 69 5a be 08 fa 35 be c0 07 46 be 8c a3 08 be
       -0.21329215 -0.1777116 -0.19338894 -0.13343638
000310 3d 80 87 be be 7e 24 bd ad e0 0f 3e 7f 82 03 be
       -0.26465026 -0.040159933 0.14050551 -0.12842749
000320 66 66 62 3e f4 39 f7 3d e0 ca 18 3c e7 4f 25 3e
       0.22109374 0.120716006 0.009325713 0.16143762
000330 ea c2 b5 3d e8 28 dd bd d4 35 8e 3d c1 8c 39 3e
       0.088750675 -0.10798818 0.06943861 0.181201
000340 69 4b 48 3e 9c bd 22 3e 20 f6 73 3d ab 53 0e 3e
       0.19560017 0.15892643 0.059560895 0.13899104
000350 78 af cd 3d d3 d1 85 bc f0 63 c8 3c 65 f1 2b 3e
       0.10043234 -0.016335404 0.024461716 0.16791303
000360 c1 fd a4 bd 0d 9d b8 3d 3d f2 9c 3d b3 19 cb bd
       -0.08056212 0.0901433 0.07663391 -0.09917011
000370 81 32 44 3e 39 a7 5c be 64 99 04 be 17 a5 c9 bd
       0.1915989 -0.21548165 -0.12949139 -0.098459415
000380 0f a4 4f be bb dd 2d 3e 17 bc 3d 3e 2d b2 d7 bc
       -0.20277427 0.16979115 0.18528782 -0.026330078
000390 1d 82 8d 3c f8 9f 2a be 7b 03 44 3e 77 6a fd be
       0.017273957 -0.16662586 0.19141953 -0.4949529
0003a0 83 f7 e9 3d 45 c2 17 bf 3a 78 1b 3d e6 5f 56 3c
       0.11424162 -0.59280807 0.037956454 0.013084387
0003b0 2a c3 f6 3d e3 23 fd bc 8b 7d 0b 3e 79 e3 34 be
       0.12048943 -0.030900901 0.1362211 -0.17664899
0003c0 74 c8 af bb 40 21 b5 3d 9b 6b 91 bd d2 77 1c be
       -0.005364472 0.088442326 -0.07100602 -0.15280083
0003d0 64 db 7d bc 4b 92 fb bd 70 db d9 bc 51 4b 3b 3e
       -0.015494201 -0.122837625 -0.026593894 0.1829045
0003e0 57 b5 27 bd 4d 29 e6 bd c7 9b 7f be 9c 3c 8e bd
       -0.040944424 -0.11238346 -0.24961768 -0.06945154
0003f0 d4 a4 51 3e 34 b9 f4 3c 81 15 51 3e 58 2a 07 3e
       0.20473033 0.029873468 0.2041836 0.13199747

features.0.bias f4 [128]
000000 e2 96 3f 3e f4 b8 df bb 2f b2 43 3e d6 8c 08 3d
       0.18709901 -0.006827468 0.1911094 0.033337437
000010 f1 c3 77 bd 1f 9b e1 3b cc 58 08 bd 30 49 58 3d
       -0.0604896 0.006884947 -0.03328781 0.052804172
000020 df be 41 3e c7 0b 5c 3d 7b 73 21 3e a3 00 0d 3e
       0.18920468 0.05372217 0.15766709 0.13769774
000030 30 c8 4d 3e af b6 23 bc a9 a6 53 3e 5b 22 66 3c
       0.20095897 -0.009992286 0.20669045 0.014046277
000040 cb 49 26 bd 1b bc 1d be 0c b1 38 3e 36 6b 9c bd
       -0.04059772 -0.15403788 0.18036288 -0.07637636
000050 89 75 65 3e e4 1f 30 3e da c6 26 bd 06 6c 7c 3c
       0.22408117 0.17199665 -0.040716983 0.015406614
000060 73 d7 fb ba 52 d2 7b 3e 80 f9 4d 3e 2f dd c8 bd
       -0.0019213989 0.2459195 0.20114708 -0.098078124
000070 fe 49 93 3c b3 a9 a6 3d b2 42 cc bd fa f4 aa 3e
       0.017979618 0.08137836 -0.099736586 0.33390027
000080 8a b7 8f 3e e2 d8 8a 3e dc 3c 46 be 71 7b 4e 3e
       0.28069717 0.27118593 -0.19359154 0.20164277
000090 a2 33 1d 3d c4 0e 85 3e 3b 9c be bd 93 64 a0 3e
       0.03837932 0.25987828 -0.09307142 0.31326732
0000a0 71 b6 2b be 13 09 9b 3e 26 7f 08 bd 79 71 59 3a
       -0.16768815 0.3028036 -0.033324383 0.0008294802
0000b0 0e 2d fe 3d a3 cc df bd 4d a7 57 3e e2 7a 11 3e
       0.12410937 -0.10927703 0.21059914 0.14207032
0000c0 52 40 fb bd 9e db 91 3d f5 7d db bc 61 1b 70 3e
       -0.122681275 0.07121967 -0.02679346 0.23447944
0000d0 2d 8d 87 3e a0 87 ef bb 6b da 67 bd 50 57 7f 3d
       0.26474896 -0.007309869 -0.056604784 0.062339127
0000e0 b6 d7 94 3c 61 30 41 3e e4 b3 03 be 89 d7 3a bd
       0.018169265 0.18866111 -0.12861592 -0.045615707
0000f0 a2 fe 57 3e 0b 7e 87 3e ba a6 5b 3e cb 0a 80 3d
       0.21093228 0.2646335 0.2145032 0.062520586
000100 4f d7 8d 3e ec 76 ae 3d 63 bc 25 3c 45 7f 87 3e
       0.2770333 0.08518776 0.010115716 0.26464286
000110 54 3c f5 bd 62 b7 25 3e ea 68 40 be 68 08 15 be
       -0.11974397 0.16183236 -0.18790022 -0.14553988
000120 30 76 5e bd 08 ce a1 3e 31 85 68 be 19 a2 4c bc
       -0.05431193 0.31602502 -0.22707058 -0.012489819
000130 08 7e 96 3e 04 c0 e1 3d c1 e9 27 3e 20 3d 62 3c
       0.2939303 0.11022952 0.16397764 0.013808519
000140 06 38 1e 3e 7c d8 81 3e 40 2b 10 3e 81 de 37 be
       0.15451059 0.25360477 0.14078999 -0.17955972
000150 24 79 1a 3e ae 2d 89 3e 3c 53 ad bd dd 0f 75 3e
       0.15085274 0.26792663 -0.08463141 0.23931833
000160 20 e5 55 3e 73 c1 93 bc 9f 3e 71 3e 28 a2 0a 3e
       0.20888186 -0.01803658 0.23559044 0.1353842
000170 1a 2f 8d 3e 28 03 73 bd f0 78 ce bb b4 c5 c8 3d
       0.27574998 -0.059329182 -0.006301038 0.09803334
000180 75 52 9f bd 04 cd 21 3e 18 3e 7a bd e5 a0 ac 3d
       -0.07779399 0.15800864 -0.061094373 0.08429126
000190 ee 59 3c bd 71 61 af bd 93 0d 96 3e 22 4e 29 3d
       -0.0459842 -0.08563507 0.2930723 0.04133428
0001a0 f0 07 17 be dd f9 77 3e a4 d1 0e 3d 98 79 8b 3c
       -0.14749122 0.24216409 0.034867898 0.017025754
0001b0 5c 0b 99 bd bb 94 6e 3d 43 3f 28 bd a5 87 88 3e
       -0.0747287 0.05824731 -0.041075956 0.2666599
0001c0 25 04 f3 3d bc f1 03 be a5 7f 91 3e c0 77 00 3e
       0.11866025 -0.12885183 0.28417698 0.12545681
0001d0 e7 c4 ae 3d 44 61 02 3d d4 03 12 be 64 9a 3b 3e
       0.0853365 0.03183104 -0.14259273 0.18320614
0001e0 a0 7b fa 3b 83 40 12 be e5 a5 89 3e 04 9a 15 3d
       0.007644132 -0.14282422 0.2688438 0.036523834
0001f0 d1 2d d0 bb d7 03 ef 3d 70 04 0d 3e 91 63 9a 3d
       -0.006353118 0.11670654 0.13771224 0.07538522

features.2.weight f4 [64, 128, 1, 1]
000000 6e a8 80 3d d8 3d 62 3d b1 95 b5 bd 94 d2 8d bd
       0.062821254 0.05523476 -0.08866442 -0.0692493
000010 02 a8 a9 bd 8b fb de bb 10 9f 21 3c 19 15 f0 3c
       -0.08283998 -0.0068048886 0.009864584 0.029306935
000020 05 7a 40 3c a8 03 40 bb 8f 90 77 bd 32 5f 20 bd
       0.011747842 -0.0029299054 -0.060440596 -0.039153285
000030 79 0c 11 bd 71 2a 53 3d 98 29 3e 39 28 61 f3 3c
       -0.035412285 0.051554147 0.00018135307 0.029709414
000040 0d 6e 30 3d a0 88 8b 3b 04 a6 a0 3d 64 48 6c bd
       0.043073703 0.0042582303 0.07844165 -0.057686225
000050 53 f6 a1 bd 23 f3 1f bd 38 7e 8f 3d 9e 2d ea bc
       -0.07908311 -0.039050233 0.07006496 -0.028586205
000060 a7 32 8e bb ed 5a c7 bc 89 ad 68 3d 0a 28 6e 3c
       -0.0043395343 -0.024335349 0.05680612 0.014535913
000070 e1 09 84 bd 8b c2 1c 3c 76 36 b1 bd 3b 7a 5c bd
       -0.06447197 0.009567867 -0.08652966 -0.053827506
000080 42 97 27 3d 4d 93 98 bd fa 1c 41 3d f0 14 a7 3c
       0.040915735 -0.074499704 0.047146775 0.020395726
000090 5d 72 60 3c 5f 3e c7 3c ce 6a 89 3c e1 f3 9d bd
       0.013699141 0.024321733 0.016774561 -0.07712532
0000a0 9e 5b 93 3d ad c7 58 bd 5a e1 6e 3d ad c7 ae bd
       0.07195209 -0.0529248 0.05832038 -0.08534179
0000b0 ff d0 ec bc f3 c9 ae bd 11 a8 62 bd 2f 71 3a bd
       -0.02890825 -0.085346125 -0.055336062 -0.045518097
0000c0 aa d9 a7 bd 87 7a 2f 3d 10 d4 51 bc d0 7e a2 bd
       -0.08195813 0.04284146 -0.012806907 -0.07934344
0000d0 b0 e2 81 bc 57 2b 88 3d 14 89 24 3d a2 dd 5f 3d
       -0.015855163 0.066488914 0.04016979 0.054654725
0000e0 c2 b1 12 3d 5e cd c3 bd a6 3a 0f 3b 5a 72 42 bd
       0.035814054 -0.09560655 0.0021855026 -0.047472335
0000f0 00 e6 e6 bc bf 24 7c 3d aa fa 93 bd 0f 5e 63 bd
       -0.028185844 0.06155848 -0.07225545 -0.055509623
000100 fb 4a 88 3d e7 c2 f1 3b c8 3e 9f bb 5c 06 60 bd
       0.066549264 0.0073779705 -0.004859779 -0.054693565
000110 91 a6 78 3c 8d a5 8a 3d a0 67 89 3c 60 7e 5e 3c
       0.015176431 0.067698576 0.016773045 0.013579935
000120 62 4e 0e 3d 8d 48 9a ba a2 e5 1b bd 61 02 ef 3c
       0.03474272 -0.0011770889 -0.03806079 0.029175939
000130 b5 fd 54 3d d0 f0 6b bd 5c 8a 68 bc 6f 41 31 3d
       0.051999766 -0.057602704 -0.014193144 0.043275293
000140 9e d1 05 3c b5 4d 96 3d f1 95 2a 3b 40 c6 30 3d
       0.008167652 0.0733904 0.0026029313 0.043157816
000150 1f dd 40 bd 89 8f 7e bb 61 6c 41 bd 0a 88 84 3d
       -0.047085878 -0.0038842878 -0.0472225 0.0647126
000160 ef a1 9a bd cb 0f 2a bd 2f 66 43 3c d0 74 79 bd
       -0.07550418 -0.041518968 0.011926218 -0.060902417
000170 ba 11 0b 3c a8 3b 01 bd bd 64 be 3c f0 3d 21 3c
       0.008488113 -0.031551033 0.023241395 0.009841427
000180 ec bd b9 bd 61 5a a1 bd be 1a b3 bd eb 73 93 bc
       -0.09069428 -0.078785665 -0.08745335 -0.01799961
000190 5f 6a 08 bd 9e 21 87 bd 99 fe 08 bc 2a 07 c6 bc
       -0.03330457 -0.06598209 -0.008361482 -0.024173338
0001a0 3f 51 b3 bd e5 94 a9 3c 90 02 a1 bd da 79 a8 bd
       -0.08755731 0.020700881 -0.07861817 -0.08226366
0001b0 1e 81 38 3d 06 ba 35 bd bf 70 04 3d 83 29 8e 3d
       0.04504501 -0.04436686 0.032334086 0.069415115
0001c0 1a 54 8d bd 88 22 74 3d 80 88 7c 3d 78 33 a8 3c
       -0.06900807 0.059603244 0.061653614 0.020532355
0001d0 a9 40 c1 3c e1 e4 a2 3c 65 87 81 3d c0 61 4d bd
       0.023590403 0.019884529 0.063246526 -0.05014205
0001e0 72 03 69 3d 75 ca 3f bd db a4 92 3d 82 1d 23 bd
       0.05688805 -0.046823937 0.0716035 -0.039823063
0001f0 8c 7a 0c 3d 69 01 88 bc d4 15 3c bd 2f e1 83 3d
       0.034296557 -0.016602235 -0.045919254 0.06439435
000200 2d 79 06 3e f7 ad 8e 3d 67 47 4a 3e 25 23 1f 3e
       0.13132162 0.06966775 0.197538 0.1554075
000210 74 0f 0c 3d 0d c1 00 3d 05 81 13 3e b1 f5 8a bc
       0.034194425 0.031434108 0.14404686 -0.016962858
000220 0b 59 03 3d 55 94 ff 3c 50 ed 20 3e c3 3d 90 bc
       0.03206734 0.03119866 0.15715528 -0.017607575
000230 8c f4 2b 3e 32 bc 4a 3d 1b 04 7d 3e 19 e9 de 3d
       0.16792506 0.049495883 0.24708597 0.108843036
000240 8d 87 89 3d 59 6e 80 bd 50 23 3e 3e 86 ea f0 bd
       0.067153074 -0.06271047 0.18568158 -0.11763482
000250 52 8f 10 3e 0c 53 ca 3c 21 bf 00 3d 08 c6 97 3d
       0.14117172 0.024697803 0.031432275 0.07410818
000260 89 ff 01 3e 2c f9 00 3c a4 45 dc 3d 2d 24 99 3d
       0.12695135 0.007871907 0.107554704 0.07477603
000270 15 b8 45 3d a4 8d 6e 3d 01 6c 92 bd b2 a3 1f 3e
       0.048271257 0.058240548 -0.07149506 0.15589789
000280 ee 08 6d 3e 7c 93 1a 3e 82 f2 60 3c b9 55 d4 3d
       0.23147938 0.15095323 0.013729693 0.10367913
000290 47 0e f3 3d 24 96 28 3e 01 48 77 3d 67 bb 0d 3e
       0.118679576 0.16463524 0.060371403 0.1384102
0002a0 3c d0 38 3e 4b c4 60 3e a8 78 38 bd 5c 15 70 3e
       0.18048185 0.2194988 -0.04503694 0.23445648
0002b0 fa 6f c3 3c 3e 99 f5 3d ca 3b 09 3e 58 11 9f 3d
       0.023857106 0.11992119 0.13401714 0.0776698
0002c0 78 24 0d 3d 9c c9 bf 3d a5 17 ce 3c 7a 21 8c 3d
       0.034458607 0.09364626 0.025157759 0.06842323
0002d0 9a e2 ec 3d 58 3c da 3c 3c 59 07 3e e5 87 9f 3d
       0.11566658 0.026640102 0.13217634 0.07789592
0002e0 54 a7 39 3d 5b 8d 19 3d 1b 45 03 bd fc c7 0d bc
       0.045325592 0.037488323 -0.032048326 -0.008653637
0002f0 33 c7 06 3e 84 a7 9a 3d 35 89 26 3d cf 1d 94 3d
       0.13161926 0.07551482 0.040658195 0.07232248
000300 5d 8c 1a 3e f0 09 8a bb 9d 45 32 bd 3c 29 21 3e
       0.15092607 -0.0042126104 -0.04352342 0.15738386
000310 ed 5d e3 bd 95 a9 24 3e d6 4d 6d 3d 96 15 2a 3d
       -0.11101899 0.16080315 0.05793556 0.041524492
000320 04 3a 52 bd 5d 97 88 3d 71 6e b6 3d 65 7f a1 3d
       -0.05132486 0.06669495 0.08907784 0.07885627
000330 99 78 fb 3d 41 37 e6 bd 33 6d 9f 3d b0 2d 1c 3e
       0.122788616 -0.112410076 0.077845 0.15251803
000340 07 f1 bb 3d 92 df 8d 3d 7b b4 76 3b 94 25 a5 bb
       0.09176832 0.06927408 0.0037644196 -0.00503988
000350 6e 22 b8 3d bc 6b 9a 3d 08 c8 a6 3c a8 81 89 3d
       0.08990942 0.0754008 0.020359054 0.06714183
000360 b0 77 1a 3e c9 50 98 3d 82 04 6d 3d 21 c7 37 3e
       0.1508472 0.074372835 0.057865627 0.17947055
000370 62 af 2c 3e 2e 45 aa 3d b8 13 53 3b 1b 1b 24 3d
       0.16863778 0.08313976 0.0032207798 0.040064912
000380 a4 86 b2 3c 0d 32 e2 3b 40 e1 98 ba 06 ab 0f 3a
       0.021792717 0.006902939 -0.001166381 0.00054805016
000390 d8 73 05 bd 47 ee b3 3b 6e da 1e 3e 23 82 b2 3d
       -0.03258118 0.0054910514 0.15513012 0.08716228
0003a0 8c f6 30 3c c8 8a 16 3e 5e 7f 10 3e 0e af ab bd
       0.010800969 0.14701378 0.14111087 -0.083829984
0003b0 74 2b 67 3d 34 0a 51 3d 23 93 38 3d 81 17 90 3d
       0.056437925 0.05103512 0.045062196 0.07035733
0003c0 e2 2f 1d 3e 03 a0 17 3e 3d e3 d2 3d eb 81 13 3e
       0.15350297 0.14807133 0.102972485 0.14405029
0003d0 93 7f 2f 3e e8 ff 15 3e 03 8e f6 3d 3f d0 27 3e
       0.1713851 0.14648402 0.12038805 0.16388033
0003e0 28 18 c0 3c 74 1c 2c 3e ae a6 20 3e 3b b5 1c 3e
       0.023449019 0.16807729 0.15688583 0.15303509
0003f0 f9 a4 4c 3d 48 6a 0b 3d 07 8f 0c 3e 9b 88 a3 3d
       0.049962018 0.034036905 0.13726436 0.0798504

features.2.bias f4 [64]
000000 83 3b b3 3c 14 a9 6f 3d 0b f5 92 3d 14 30 63 3e
       0.021878963 0.058510855 0.071756445 0.22186309
000010 33 ef 15 3e 45 ab ad 3d 52 6a 72 bd 56 0c 27 bd
       0.14642029 0.08479933 -0.059183426 -0.04078325
000020 da 20 38 3e 06 67 03 3e cb df 91 3d 41 44 04 3e
       0.17981282 0.12832269 0.07122763 0.12916662
000030 4f 24 c7 3c 43 b0 55 3d c9 9d 05 3e 68 40 55 3e
       0.024309305 0.05217005 0.13048472 0.2082535
000040 3f 40 65 3e 20 94 8e bd 9f f3 25 bb b4 75 c7 3c
       0.22387789 -0.06961846 -0.0025322211 0.024348117
000050 4b bc d2 3d 1c 0a 06 3e 31 26 9a bd 23 1b 55 3e
       0.1028982 0.13089794 -0.07526816 0.20811133
000060 20 40 a8 bc ce 1a a0 3d 9d 24 aa bd d6 ae 08 bc
       -0.02053839 0.078176126 -0.08307765 -0.008342465
000070 f3 86 66 bd 54 db b7 bd 95 8d b6 3d cb 70 82 3c
       -0.05628104 -0.089773804 0.089137234 0.015922925
000080 f5 92 90 3d 46 05 5e 3d 1a c2 43 3e a0 43 37 bd
       0.0705928 0.054204248 0.19117013 -0.044742227
000090 dc b2 6a bd 6a 9d 6e 3d 0a 9b 01 bd 53 f3 83 bc
       -0.05729948 0.05825559 -0.031641997 -0.016107237
0000a0 0e cb 0f 3e 08 05 90 bd 6e 89 28 3e ce e7 26 bd
       0.14042303 -0.0703221 0.16458675 -0.04074841
0000b0 1a 3a b8 3d d1 59 fa 3d a9 92 f5 bc f6 a5 55 3e
       0.08995457 0.12224162 -0.02997716 0.2086409
0000c0 5b 50 b7 b8 29 ab cd bc 22 39 6a bd b3 88 9c bd
       -8.7410874e-05 -0.02510603 -0.057183392 -0.07643261
0000d0 1c a1 ae bd a5 40 38 3d 9e cc ee 3d 0b 4a 42 3d
       -0.08526823 0.044983525 0.116601214 0.047433894
0000e0 e3 18 d3 bd 48 a9 87 3d 1a 8d 09 3d e6 55 ab bd
       -0.10307481 0.06624085 0.03358183 -0.08365993
0000f0 dd c3 f3 3d 10 c5 20 3e 2f 05 c9 bd ba 3f 47 bc
       0.11902592 0.15700173 -0.09815442 -0.01216119

fc1_actor.weight f4 [256, 64]
000000 cc ca e6 3d e5 f4 5b bc 20 b0 65 bc ec 00 60 3d
       0.11269149 -0.013425087 -0.014019042 0.05468838
000010 4c 98 07 be 40 c7 c4 3d 95 f0 44 3d 40 95 9c bd
       -0.1324169 0.096083164 0.048081 -0.07645655
000020 f5 8f 8b bd 11 8d 6e bd b8 fe b3 bd 05 9a 25 3d
       -0.06814567 -0.05824 -0.08788818 0.040430088
000030 10 98 37 bd 2f 0f b4 3d 8f 37 4c bd e1 6c cb bd
       -0.044822752 0.087919585 -0.049857672 -0.099328764
000040 0f 45 04 be 86 47 bd 3d d8 10 41 bd 2a 4e bb 3d
       -0.12916969 0.09242158 -0.047135204 0.09145768
000050 5c a4 c3 bc 26 78 92 3d c4 de 47 3d a1 50 ea bd
       -0.023882084 0.07151823 0.04879643 -0.1144116
000060 3d b8 d2 bd cf 08 bb bd d1 9c 85 3d 6e 15 0e 3d
       -0.10289047 -0.091325395 0.06524051 0.034688406
000070 4d 1b 89 3d 15 7a 6d 3d 4d ba 71 bc 80 1f 32 3b
       0.0669466 0.057977755 -0.01475389 0.002717942
000080 24 9b 9a bd d7 93 11 bd d5 7a c8 3d d4 3d 8e 3d
       -0.07549122 -0.03554138 0.09789053 0.069453865
000090 9a b0 be bc 64 0c cd 3a d1 fc 8d bd 72 c0 f0 bd
       -0.02327757 0.0015643951 -0.069329865 -0.11755456
0000a0 db 8f a2 bc 95 3c 3f bd be 80 68 3d 52 3d e3 bd
       -0.019843986 -0.046688635 0.056763403 -0.1109568
0000b0 23 39 8b bd c1 83 70 bd 6b 8d 04 be 1a 35 8c 3d
       -0.06798007 -0.0587194 -0.12944572 0.06846066
0000c0 25 82 a1 3d 87 63 1f be b8 33 65 bc 53 05 73 3d
       0.07886151 -0.1556531 -0.0139893815 0.05933125
0000d0 60 b3 26 bd dc ad 86 bc d3 29 cc 3d 00 29 79 3d
       -0.04069841 -0.016440324 0.09968915 0.060830116
0000e0 e4 ae de bb 62 b0 81 3d 40 bc 74 3d ec 87 e6 3d
       -0.006795751 0.063324705 0.05974984 0.11256394
0000f0 cb 2f a2 bc b6 aa c9 bd 6a cd d2 3d a1 91 12 3d
       -0.01979818 -0.09847014 0.10293086 0.035783414
000100 ab ea de 3d e1 ed 3e 3d ac b3 a3 3d 81 e3 89 3b
       0.10884603 0.046613578 0.07993254 0.004208029
000110 84 4b 8e bd 86 2a 5d 3b ac 0f cb 3d 90 e8 9a 3d
       -0.06947997 0.003374727 0.099150985 0.07563889
000120 66 d7 8a 3b b7 d9 ad 3c fe 2b 91 bd 22 a2 c6 bc
       0.0042371033 0.021221979 -0.07088469 -0.024247233
000130 6e cc 93 3d 63 69 4e 3e a7 1c 36 bd 48 44 a2 3d
       0.07216726 0.2015739 -0.04446092 0.0792318
000140 24 fe f9 bd cb 40 ae 3d 22 9d f5 bc 95 db f5 3d
       -0.122066766 0.08508452 -0.029982153 0.120047726
000150 2d 53 9e bc 88 69 42 bd 29 d0 a9 3d fe b3 9b 3d
       -0.01932677 -0.047463924 0.082916565 0.0760269
000160 97 17 95 3d 2a 8b 84 3e 3a 0b 76 3c 01 94 fc 3d
       0.0727989 0.25887424 0.015017325 0.12332917
000170 0b 2d 1d be 29 00 91 ba ad 40 56 bd 97 6a 3e 3e
       -0.15349214 -0.001106267 -0.052307773 0.18595348
000180 4e d2 aa 3c fc 9d fa bd 65 10 4d bd 38 6c d4 bd
       0.020852234 -0.122371644 -0.050064463 -0.103722036
000190 70 a7 b3 bd 7d 5e b9 3d 22 a4 28 3c 9d fa 0a be
       -0.087721705 0.09051225 0.010293039 -0.13572164
0001a0 9e a7 b9 bd b8 99 c8 bc 92 ef b1 3d d0 96 77 bd
       -0.090651736 -0.024487361 0.086882725 -0.06044656
0001b0 50 dc 21 bc 62 98 82 3e 54 aa 0c 3b c2 a1 40 3d
       -0.009879187 0.25506884 0.0021463828 0.047029264
0001c0 be 6e 0d 3e 7a f9 1e 3e f5 c4 8c bc 30 78 a5 3c
       0.13811776 0.15524855 -0.01718376 0.020198911
0001d0 b6 1e 96 3d e9 1a a6 3c 8a d3 6f bd 53 4b 65 bb
       0.073300764 0.020276504 -0.05855135 -0.0034987524
0001e0 56 cf e5 bc e4 ad 75 be 84 22 bf 3d ae 62 81 bd
       -0.028052967 -0.23992115 0.09332755 -0.0631765
0001f0 b3 ee 57 3d b3 cb 17 3e 3a 4a 05 3e f7 a5 c6 bd
       0.052717876 0.14823799 0.13016596 -0.09699624
000200 7e 84 2f bc 65 ae b7 3d c4 cd 69 bd 1a 8a d5 3d
       -0.010712741 0.0896881 -0.057081 0.104267314
000210 d5 05 a2 3d d2 03 1b bc b7 46 85 3e 8c db c6 3d
       0.079112686 -0.00946136 0.26030514 0.09709844
000220 88 3c 0f be 2f 37 0d 3e f4 4c 8c bd e7 f7 19 bd
       -0.13987935 0.13790582 -0.06850615 -0.037589934
000230 18 d4 09 3b bd a3 42 3c 3a 42 bd bd ca b5 3d bd
       0.0021030959 0.011879859 -0.09241147 -0.046315946
000240 9a ee 4a 3d df 4e 0a 3e cf c3 bb bc 2b 4c 8c 3e
       0.049543954 0.1350665 -0.022920517 0.27401862
000250 c8 68 e5 3c d1 a3 d2 bd 21 13 73 3c 2e 74 da bd
       0.028004065 -0.10285152 0.014836104 -0.10666691
000260 d9 59 13 3d dc f9 48 3e 23 7c b4 3d d2 44 8b bb
       0.035974357 0.19626564 0.0881274 -0.0042501474
000270 c2 74 99 bd 5e 8e 07 3e 91 f6 ae bd f4 6f fe 3d
       -0.07492973 0.13237903 -0.085431226 0.12423697
000280 48 6f 33 3e 16 14 d1 3c ad e3 78 3d 6c 82 e3 bc
       0.17522919 0.025522273 0.060764004 -0.027772151
000290 78 b3 65 bd 1e 5b cb 3b 3f 14 c1 bd e1 4e 18 be
       -0.056079358 0.0062059304 -0.0942769 -0.1487384
0002a0 a8 ab 17 bd e0 ed f7 3d 19 4b 33 bd d2 2c f7 bd
       -0.03702894 0.12105918 -0.04377279 -0.12069096
0002b0 d1 71 0a 3d ee a0 5d 3e 0d b0 be 3d e3 bb 58 bd
       0.03379995 0.21643421 0.09310923 -0.052913558
0002c0 0b fb 61 3e b2 f5 af 3c 8e ff e9 bd 8e 4f ed 3c
       0.22068422 0.021479461 -0.11425696 0.028968599
0002d0 90 57 7c 3d 51 2b 4b bd 33 71 12 3d 6a d3 6a 3d
       0.061606944 -0.049601857 0.035752486 0.057330526
0002e0 7c 80 5e 3d 9f ea 7c bd 14 07 12 3e 44 ee c5 bd
       0.05432175 -0.06174719 0.14260513 -0.09664586
0002f0 d3 87 bb bd d8 8f d2 3d 60 b8 0e 3e 66 be fd 3d
       -0.09156766 0.10281342 0.13937521 0.12389831
000300 dd 50 be 3d b4 c0 d2 bd e0 2d 0b 3d bd 90 b8 bd
       0.09292767 -0.102906615 0.033979297 -0.09011982
000310 13 72 2d 3c d1 f9 d8 3c a7 41 80 3e 30 93 ef 3d
       0.010586279 0.02648631 0.2505009 0.11697996
000320 da f2 5d bb 1e ee 1b 3b 4e 1f ad bd 68 82 ae bd
       -0.0033866675 0.0023793052 -0.084532365 -0.08520967
000330 24 ce 6c 3d 29 f8 e5 3d bc 48 f8 3d 0f 43 b4 3d
       0.05781378 0.112289734 0.12123248 0.08801853
000340 8e ea 9c 3d c3 90 13 bd 6b ac 5b bc ed ba d8 3d
       0.07661925 -0.036026727 -0.013407807 0.10582528
000350 e5 8f 5f bd 98 92 25 bd 3e bf f8 3d df 02 74 3d
       -0.054580588 -0.040423006 0.121458516 0.05957305
000360 be f1 c4 bd 8d 69 5c 3e a6 8a f2 bc b8 ea 46 3c
       -0.09616421 0.2152464 -0.029607128 0.012140922
000370 dc ae 17 bc 50 7b e9 bd 95 ca e8 3d 7a 6c df bd
       -0.009257998 -0.11400473 0.113667645 -0.10909362
000380 c7 b4 e2 bd d0 91 4f 3d 8b c8 f3 3d 1a 85 35 bc
       -0.11069637 0.050676167 0.11903485 -0.011079097
000390 b1 44 dc bd 2b b1 13 bd 6b b2 35 bd 06 3e 07 3e
       -0.10755289 -0.036057632 -0.044359606 0.13207254
0003a0 7e d6 d6 3d 89 01 26 bd d5 72 9b 3d 78 e6 61 3d
       0.1049013 -0.040528808 0.07590262 0.055151433
0003b0 3b c7 62 3d 60 72 4f 3e 55 1c 85 bc 3f 53 4d b9
       0.055365782 0.20258474 -0.016248861 -0.00019581335
0003c0 16 02 fc 3c 97 a5 4b 3e da d8 8f 3e 96 48 b7 bd
       0.030762713 0.19887386 0.28095132 -0.089493915
0003d0 f4 d9 7b 3d ba 5b 95 bd b1 a3 69 bd c3 7f 9c 3d
       0.061487153 -0.07292886 -0.057040874 0.07641556
0003e0 2c 23 89 bc d5 8f 34 3e ea f3 be bd 20 b6 85 bd
       -0.016740404 0.17632993 -0.09323867 -0.06528878
0003f0 7b 4b f8 bd e0 e3 d0 3d ac b0 45 3e 34 cf d3 bd
       -0.12123772 0.10199714 0.19305676 -0.10342255

fc1_actor.bias f4 [256]
000000 46 20 59 bd aa b8 3f bd 5a 83 82 bd e5 a6 5a bd
       -0.053009294 -0.04680697 -0.063727096 -0.05338182
000010 15 91 b5 bd 74 75 96 3c 14 1f c9 3d ac b7 84 3d
       -0.08865563 0.018366553 0.09820381 0.06480345
000020 7f a5 8e 3d d7 fd a6 bd 48 61 e1 3d 80 7b bf 3d
       0.069651596 -0.08153885 0.11004883 0.09349728
000030 ee ce ae 3d ff 60 0d 3e dd ff be bc 26 1c 27 bd
       0.085355625 0.13806532 -0.023315364 -0.04079833
000040 ac af 97 3c 47 0f 6f bd dd 43 08 3e 49 27 28 3e
       0.018516384 -0.05836418 0.13307138 0.16421236
000050 b5 89 22 3e 33 94 1c 3e 19 f5 89 3d 19 5a 44 3e
       0.15872844 0.15290909 0.06736202 0.19174995
000060 f3 37 9d bc 83 dd 58 bd a2 d9 18 bd 6c 94 f0 bd
       -0.019191718 -0.052945625 -0.037316926 -0.11747059
000070 7c 90 81 3c d6 13 a7 bb 7d f9 88 bd bf 23 14 3c
       0.015815966 -0.0050988 -0.06688211 0.009041726
000080 57 1c 96 bc f0 c4 1d bd b3 35 ad 3d 74 97 8c bd
       -0.01832406 -0.038517892 0.08457508 -0.06864825
000090 dc 48 0d 3b 1e b2 c3 3d 8f 62 04 3e a8 08 39 bd
       0.002155832 0.095554575 0.12928222 -0.04517427
0000a0 72 4f e9 3d 8c 45 31 bd ac a2 04 bd c0 f6 0f be
       0.11392106 -0.043279216 -0.0323817 -0.14058971
0000b0 67 77 ca 3d e8 a0 31 3d ce 6e fc 3d 5e a4 fd 3d
       0.098860554 0.043366343 0.12325822 0.12384866
0000c0 6a d6 65 3d fc d0 9f bd 34 bb 63 bd 2e d1 7c 3d
       0.056112684 -0.078035325 -0.055598453 0.061722927
0000d0 cf 8e 83 bd a2 dd bf 3c 01 33 8f bd 14 0d bc 3d
       -0.06423723 0.023421112 -0.0699215 0.09182182
0000e0 2b c3 b4 bd 7a 0e 42 3d 5f 0c 2a 3d b9 d1 d0 3d
       -0.08826288 0.047377087 0.041515704 0.101962514
0000f0 e4 74 ab 3d 65 92 2f 3e 62 be cf 3d fc ab 46 3d
       0.083719045 0.17145689 0.101437345 0.04850386
000100 c9 12 b2 3c 83 63 ae bd b9 87 0b be fe 56 70 bb
       0.021737473 -0.08515074 -0.13625993 -0.0036672945
000110 50 bc 82 bd 01 78 50 3c bb c0 20 be 4b 1d 86 3d
       -0.06383574 0.012723924 -0.15698521 0.06548556
000120 43 a4 8e bd 72 9c c8 3d c4 63 d5 3d dd 7c 50 3d
       -0.06964924 0.097954646 0.104194194 0.05090033
000130 83 19 62 3c 2e c7 7f bd c7 f6 8d bc cb b9 d4 3c
       0.013800028 -0.062445812 -0.017329587 0.0259675
000140 b8 b6 24 bd 66 e9 e2 3d 8f 74 95 bd 28 32 64 3d
       -0.040213317 0.110796735 -0.072976224 0.055711895
000150 63 56 af bd da 9d ab bd 95 ba b1 3d 6b a5 6d 3d
       -0.08561399 -0.08379717 0.08678166 0.058019083
000160 0e e0 45 bc ee 9b 01 bc 18 81 8f 3c ff 7d 8d bd
       -0.012077345 -0.007910712 0.017517611 -0.069087975
000170 0d 42 36 3d a2 f8 f3 3d 98 ca 86 bb 7a 33 a5 bc
       0.044496585 0.11912657 -0.0041135065 -0.020166148
000180 7e 24 0f 3c 97 5b 3b 3d f6 1a d6 bc 1c ca 75 3d
       0.008736728 0.045741644 -0.026135903 0.0600072
000190 6e 98 95 bd 55 49 3f 3d 86 91 b5 bd bc ee 31 bb
       -0.07304464 0.046700794 -0.08865647 -0.0027150353
0001a0 5d 60 3c 3d 58 e9 bd bb 5a fa 04 3e 70 3c 80 bd
       0.045990337 -0.005795639 0.12986127 -0.062615275
0001b0 c8 89 f7 bc ae b2 1e 3e d2 ed 12 3e 49 ae ba 3d
       -0.030217066 0.15497848 0.14348534 0.091152735
0001c0 76 a9 ab 3c 54 aa 17 bd fd 98 92 bd 29 82 13 3c
       0.020954829 -0.037027672 -0.071580864 0.009003201
0001d0 8a 38 ae bd 1e 56 83 bd 4d da e6 3d f3 be 01 be
       -0.08506878 -0.0641291 0.11272106 -0.12670498
0001e0 e2 33 4c 3d 7b c6 1a 3e a1 f2 bc bd 80 62 d7 bd
       0.049854167 0.15114777 -0.09225965 -0.10516834
0001f0 2c 31 d5 3d 85 86 ad bd 81 ce 2e bc 47 78 08 3e
       0.104097694 -0.08472923 -0.010669352 0.13327132
000200 db b6 77 3d 56 47 81 bd 93 cc 91 bd 90 c7 2c 3d
       0.06047712 -0.063124344 -0.071190976 0.042182505
000210 49 3e c0 3d c0 09 d0 3c 27 61 eb 3d ca c9 4e 3d
       0.0938688 0.025395274 0.1149314 0.05048541
000220 11 28 01 3d c0 f2 ce bd f4 5a 02 bc 27 51 84 3c
       0.03153235 -0.10104895 -0.007956255 0.016151978
000230 b5 1e 32 3c ce aa a7 3d 80 62 f2 bd fd 72 3d 3e
       0.010871579 0.08186875 -0.11835194 0.18500896
000240 19 c5 cf 3d c8 1b 2c 3e f8 11 ae bd 4c 1d 63 bd
       0.10145015 0.16807473 -0.08499521 -0.05544786
000250 03 02 8a 3d 63 0f 81 3d 50 e3 94 bc 3c 73 29 3e
       0.06738665 0.06301763 -0.018174797 0.16547865
000260 3f d8 ae 3d 31 b4 ed 3c 26 82 0e bd 62 cc 8b 3d
       0.085373394 0.029016586 -0.034792088 0.06826092
000270 df 6f 24 bc 30 3d f3 bd 45 2a 09 be 1d 08 7f bd
       -0.010036438 -0.11876905 -0.13395031 -0.062263597
000280 cf 1b 78 3a e5 27 c8 bd f9 92 23 bd fe 82 90 bd
       0.0009464593 -0.09773234 -0.039935086 -0.07056235
000290 89 09 67 bc 75 a8 8d bc b4 b2 86 3d fc ba 1a 3e
       -0.014101394 -0.01729224 0.06577054 0.15110391
0002a0 4d 13 8f 3c c8 e2 be bc 17 7d b1 3d 6d 22 f0 3d
       0.017465258 -0.023301497 0.08666437 0.11725316
0002b0 bd bb dc 3d 9e 42 04 3e 72 70 c2 3d 1d b9 e5 bd
       0.10777996 0.12916037 0.094941035 -0.11216948
0002c0 af 2f e0 bd f5 1e 92 3c 4f fd 0e 3e ca 87 5e 3d
       -0.10946595 0.017837027 0.13963817 0.054328717
0002d0 03 4e e7 3d 68 66 df 3d 23 51 28 3e 06 52 d1 bd
       0.112941764 0.10908204 0.16437201 -0.10220723
0002e0 34 79 d8 3d 08 72 1d 3e fb 50 97 bd 0a 66 75 3c
       0.10569993 0.1537553 -0.07388493 0.014977941
0002f0 a9 00 15 be 3e 9a d2 bd cd 0f b8 bc a5 2b 9a bd
       -0.14551033 -0.102833256 -0.022468472 -0.07527856
000300 b1 22 36 3e 99 eb 25 3d 61 1a 0d bd 9e 60 af bc
       0.17786671 0.040507887 -0.034448985 -0.021408375
000310 03 e1 88 3b b2 86 6d bc 31 fe c5 3d ec 38 7e 3c
       0.004177214 -0.014497446 0.09667624 0.015516501
000320 0d 2b a0 bd da 8f 39 bd f8 ef dd bc 2d d5 0f 3b
       -0.07820711 -0.045303203 -0.027091965 0.002194713
000330 32 a1 01 3e a1 49 13 3d 54 ff 12 bc 40 34 3f 3e
       0.12659147 0.03595889 -0.008972008 0.18672276
000340 b6 39 1e bd 2f d0 0b 3d 28 0d 2d 3d 9f 7a 0e bd
       -0.038629256 0.034134086 0.042248875 -0.03478491
000350 7a 78 83 3c bf 0b 07 3e 5f 84 0a 3e 6f bf c6 3d
       0.016048659 0.13188075 0.13527058 0.09704482
000360 bb fd 5f ba e6 24 9b 3d b0 4d 9f 3d aa 1f e7 bd
       -0.00085445837 0.07575397 0.077784896 -0.11285336
000370 dd 69 10 bd 25 09 ab 3d f5 e9 d2 3d cd 42 2f 3d
       -0.03525721 0.083513536 0.1029853 0.042788316
000380 be 6a ca bd ae 0d fb bd e4 32 a4 bd d4 ac a1 bc
       -0.09883641 -0.122584686 -0.08017519 -0.019735731
000390 6d ae 82 bc b6 b1 d2 bc 3a 24 5e 3d f8 11 c3 3d
       -0.015952313 -0.025719505 0.054233767 0.09524912
0003a0 9b 14 5d 3d 07 00 9b bd 61 2d 9c 3c 84 8d 14 3d
       0.05397473 -0.075683646 0.019064607 0.036267772
0003b0 83 b8 55 3c 48 3a 18 bc 3b 1c be 3d 1f d7 8f 3c
       0.013044479 -0.009291239 0.09282728 0.017558632
0003c0 f3 d2 cc 3d cb e8 bd 3d 5b 57 34 3d 4d ea d3 3d
       0.10001173 0.09272917 0.04402862 0.10347424
0003d0 cc 11 0f be c5 dd 49 3d 2c 31 46 bd d7 3d 98 3d
       -0.13971633 0.04928376 -0.048386738 0.0743367
0003e0 af dd c7 bd b2 e6 5e bd 60 b8 34 3d bd ef b4 bc
       -0.0975908 -0.054419227 0.044121146 -0.022086972
0003f0 7d 08 54 3d 98 0c b3 bc f5 87 db bd db ff 97 bd
       0.051765908 -0.021856591 -0.10719291 -0.074218474

fc2_actor.weight f4 [4, 256]
000000 dd b3 03 bd 0b 75 d6 3b 0a 6d 9b 3d 19 66 1a 3d
       -0.032153953 0.0065447143 0.07589157 0.037695024
000010 82 8b 61 3d d1 86 b4 bd bd 8c 98 bb bb 97 e1 bd
       0.055064686 -0.08814777 -0.004655449 -0.110152684
000020 e1 2a 82 3d 44 e3 2c 3d 1e b6 f7 bd 2f 4d ad 3d
       0.06355835 0.042208925 -0.12095283 0.08461987
000030 b2 59 7d bd b0 17 94 bd da d9 57 3d 58 a2 19 bd
       -0.06185312 -0.072310805 0.052697994 -0.03750834
000040 fd ed 16 3d bd 6a 58 3c 39 f9 95 3d 99 df 1f 3d
       0.036848057 0.013209042 0.07322926 0.0390316
000050 94 30 29 3d 9e ab 3f 3d 95 81 56 bd d0 e4 4a be
       0.041306093 0.046794526 -0.052369673 -0.19813848
000060 9f de cc 3c b7 70 3a bb ff 32 fd bd 06 5b 67 bb
       0.025008498 -0.002844853 -0.12363242 -0.0035302057
000070 26 e8 3d bd 18 62 1a be a2 6e 78 bd c6 92 60 3d
       -0.046363972 -0.15076482 -0.060652383 0.054827474
000080 83 d0 eb bb fe e6 ca 3c b4 72 a5 bc 96 05 db 3c
       -0.0071964874 0.024768349 -0.020196296 0.026736062
000090 4a 8b b2 bd bb 9e 83 3d e2 a5 23 be 89 dd 11 be
       -0.087179735 0.0642676 -0.15981248 -0.14244665
0000a0 60 85 95 3d d4 82 ee bc 2d c5 19 3d df 81 98 3d
       0.0730083 -0.029115118 0.037541557 0.07446646
0000b0 85 67 89 3c 47 65 6f bd 11 7f 03 be 0a 04 01 be
       0.016772995 -0.058446195 -0.1284144 -0.12599197
0000c0 91 55 35 bd a5 d6 bf 3a c3 01 d3 bd 55 72 bb bc
       -0.044271056 0.0014636113 -0.103030704 -0.022881666
0000d0 86 04 1d bd fb e5 ba 3d d1 a3 fa bd a6 c1 56 3d
       -0.038334392 0.091258965 -0.12238277 0.05243077
0000e0 76 be 45 bd 1d 6d 9d bd 8f 2d ea bd 20 fb d1 3b
       -0.04827734 -0.07686827 -0.11434471 0.0064081103
0000f0 53 1e 5d 3d 7e 89 67 3d c7 34 8e bd b1 f4 03 3d
       0.053983998 0.056527607 -0.0694366 0.032215778
000100 9d 38 87 bd ce 62 5c bd df d8 5c 3d 7d b3 b3 3d
       -0.06602595 -0.053805165 0.053917762 0.08774469
000110 e8 4f 72 3c 2f ed dc 3c a0 9e 8f 3d b7 3b f3 3c
       0.014789559 0.026968567 0.07012677 0.02969156
000120 b5 e5 47 3d 20 29 15 3d e5 69 a2 3c 5f 18 a1 3c
       0.04880305 0.036416173 0.019825885 0.019664941
000130 c2 29 17 3d 1e eb a8 bd 47 df ac 3d d5 65 b3 bd
       0.036905058 -0.0824797 0.08441024 -0.08759657
000140 53 8d d0 bc ab 37 a6 3c cf a4 07 be 24 3f 24 bd
       -0.025458014 0.020290216 -0.13246463 -0.040099278
000150 3b 50 01 3d f2 aa 2e 3d 57 fe 1b bd 73 a8 e6 3b
       0.031570654 0.042643495 -0.038084354 0.0070391237
000160 34 22 d5 3a e1 b0 7f 3c e0 59 08 3d b3 46 56 3d
       0.0016260804 0.015606136 0.033288836 0.052313518
000170 19 10 01 be 60 44 c9 bd a9 c1 f3 bc 72 11 55 3d
       -0.12603797 -0.098274946 -0.02975543 0.05201859
000180 d2 14 07 3d 9f e3 d7 bc 40 d6 90 3d e6 e7 b8 3c
       0.03297884 -0.026353655 0.07072115 0.022571515
000190 0a b7 28 bd 1a 43 a8 3a cb d4 54 bd f0 c7 c9 bd
       -0.041190185 0.0012837381 -0.051960748 -0.09852588
0001a0 62 ed e4 3c 72 ce b5 bd b6 fb bb 39 22 8d 50 bd
       0.027945224 -0.08877267 0.0003585496 -0.050915845
0001b0 a0 fb 59 bd 66 f6 97 bc 3d a1 e5 bd 20 d0 d0 bd
       -0.053218484 -0.01855011 -0.112123944 -0.10195947
0001c0 5b c7 fa bd bd d1 e0 bd aa 5d d6 bd b2 e9 d8 3c
       -0.12245055 -0.109775044 -0.10467084 0.026478622
0001d0 3e 04 db 3c 7a 5a e3 bd f5 d8 74 3d 79 69 9b 3c
       0.026735421 -0.111012414 0.05977722 0.018971192
0001e0 1e b4 de 3c 1a 71 36 bd d8 d0 fc bc 02 64 8a 3d
       0.027185496 -0.044541456 -0.030861303 0.06757356
0001f0 f8 8e e3 3c aa 9e d7 3c ae 82 26 bd ee 5c fb bd
       0.027778134 0.026320774 -0.04065197 -0.12273584
000200 91 f2 48 3c 94 08 72 3d 53 31 d5 bc 58 9d 1f bd
       0.012264864 0.059090212 -0.026024496 -0.038968414
000210 2d 3e 45 bd b8 1b 25 bd 58 35 88 bc 37 95 68 3d
       -0.048155 -0.040309638 -0.016626999 0.056782927
000220 d5 cd 7e 3c b4 9a 95 3c f1 40 a0 3d 15 55 fa bd
       0.015552004 0.018262245 0.078248866 -0.12223259
000230 83 b2 65 bc 9f 82 cc 3d 3e cd 1b bd d5 2c ad 3d
       -0.014019611 0.099858515 -0.03803753 0.08455817
000240 cd 43 af 3d bb 27 44 3d 5f 60 45 3d 1a 96 31 bd
       0.08557854 0.047889452 0.04818761 -0.04335604
000250 63 00 87 3c 60 c8 78 3c 00 57 aa 3b 95 42 86 bd
       0.016479677 0.015184492 0.0051983595 -0.06555668
000260 46 4e 59 3d 17 be 92 bd 37 f8 d9 3c b6 ed 96 bc
       0.053053163 -0.07165163 0.026607616 -0.018423896
000270 c0 1c 1a 3d 2c 69 c6 3c 18 e9 b5 3d 63 96 0f bd
       0.037625074 0.024220072 0.0888235 -0.03505553
000280 cb db a6 bd 45 1b e8 3c b6 de 14 be f6 a8 6a 3d
       -0.08147391 0.028333316 -0.14538082 0.05729004
000290 31 8c 4b bd 68 d3 a5 bd 7e 98 f7 bd 13 ac 2d be
       -0.049694244 -0.08096963 -0.120896325 -0.16960172
0002a0 a6 67 3f bd 10 fd 9f 3c 69 c8 3a bd b6 67 23 3d
       -0.046729706 0.01952985 -0.045601282 0.03989383
0002b0 99 53 2b 3e 33 08 ff bd 82 ab ff bd 48 eb 20 bd
       0.16731109 -0.12452736 -0.124838844 -0.03928688
0002c0 f5 39 46 3d 5c 58 37 bc b3 9e f9 3c 06 10 80 bd
       0.048395116 -0.0111905 0.030471181 -0.06253056
0002d0 7e 6e cf bd 8c 48 c8 3c bc 27 e4 3c 3e 5d 9f bc
       -0.101284966 0.024448656 0.027850978 -0.019453641
0002e0 13 6b f8 bc c5 42 27 3d 0b 71 78 3c ea f3 9a bc
       -0.030324494 0.04083516 0.01516367 -0.018915135
0002f0 c9 85 25 3d 70 40 16 bc f0 02 b6 bc d5 0d 16 3d
       0.04041079 -0.009170637 -0.022218198 0.036634285
000300 72 ae 70 3d 62 33 69 3d 9a 5b 60 3d 10 0f 35 bc
       0.058760114 0.056933768 0.054774858 -0.011050954
000310 43 bf 82 bc b2 0c bc 3c 83 01 90 bd 15 b3 df bd
       -0.015960341 0.022955272 -0.07031538 -0.10922829
000320 d1 10 83 3c de 4a d4 3c 90 ff 5a 3d b9 b9 23 bc
       0.01599923 0.025914606 0.05346638 -0.00999301
000330 05 fc 17 be c5 f8 43 3c 0f 61 ba 3d 0a 57 5f 3d
       -0.14842232 0.011961167 0.09100544 0.054526366
000340 26 4c 30 3d 74 8e 72 bd b1 7a 28 3b 0f 3b 9b 3d
       0.04304137 -0.059217885 0.0025707895 0.07579624
000350 96 70 ba bd 32 1d 1c be eb 1c 0d be 2d 15 77 3d
       -0.09103505 -0.15245512 -0.13780563 0.06032293
000360 c7 53 df 3c c1 2e cc 3d 59 58 9c 3c 40 e0 1e bb
       0.027261628 0.09969855 0.019085096 -0.002424255
000370 ee 32 7f bc 62 42 23 3c 12 01 05 3d 76 2a ad bc
       -0.015576107 0.009964557 0.032471724 -0.021138411
000380 e7 ac 03 3d a8 27 6b bc 90 ed 6e bd 72 2b de 3b
       0.032147314 -0.0143527165 -0.058332026 0.0067800814
000390 dc 65 b8 3c 98 a3 ab bc 5f 45 7d bd 74 37 0f be
       0.022509508 -0.020952031 -0.061833736 -0.13985997
0003a0 89 34 1c 3c 5e 43 ef 3c 58 e6 31 3c f1 61 0b 3d
       0.00953401 0.029206928 0.010858141 0.03402895
0003b0 63 da 7b bc 5d b0 98 bd 97 5c 17 bd 07 ff af 3c
       -0.015371892 -0.074555136 -0.036953535 0.021483911
0003c0 91 1b b7 3c 35 a9 d7 bd 3e b2 78 bd 80 66 cf bd
       0.022352012 -0.105303206 -0.06071686 -0.10126972
0003d0 cf f6 a1 3d 11 1f 0e 3d f0 d6 54 3c 46 06 91 3c
       0.07908403 0.034697596 0.012990698 0.017703187
0003e0 fa 78 7b 3d 99 72 c5 3c 0f ff 3d 3d e0 e9 48 3a
       0.06139467 0.024102496 0.04638582 0.00076642446
0003f0 65 43 87 bc 43 2d 2d bc 23 86 1a 3d 94 74 05 bd
       -0.016511628 -0.010569873 0.03772558 -0.03258188

fc2_actor.bias f4 [4]
000000 11 73 8f bd 42 c5 06 3e 18 77 e7 bd 1d bc b5 3c
       -0.07004369 0.13161185 -0.11302012 0.022184426

fc1_critic.weight f4 [256, 64]
000000 64 68 a9 bd f4 57 1c 3d 20 aa d7 3b 24 5a ca bd
       -0.08271864 0.038169816 0.00658156 -0.09880474
000010 86 50 82 3d 62 3a b3 bd 0a ec 9e 3d 32 33 8a 3d
       0.06363015 -0.0875137 0.07759865 0.06748046
000020 02 20 ee bd d0 99 d0 bc a4 7e 5a bd e0 a8 22 bd
       -0.11627199 -0.025463969 -0.05334343 -0.039711833
000030 2c 50 92 3d ec 13 c7 bd 54 d4 c7 3d 54 47 c8 bd
       0.07144198 -0.09720597 0.09757295 -0.0977923
000040 9a 6b c8 3d 30 6d 05 3c c0 1b c8 3c 70 51 3b 3d
       0.09786148 0.008143708 0.024427295 0.04573196
000050 82 22 ee bd fe d6 a5 bd 08 15 95 bc 28 34 92 bc
       -0.116276756 -0.08097647 -0.018198505 -0.017847136
000060 c0 23 8d 3d c0 da 0d bd c0 88 df 3d 1e f1 95 3d
       0.068915844 -0.034632444 0.10914755 0.0732138
000070 e0 a8 8d bd 74 3c 54 3d a8 70 63 bd 20 f4 d9 bb
       -0.06916976 0.051815465 -0.05552736 -0.0066514164
000080 2c 82 2e bd 88 73 d1 3d 6e 2e e3 3d 8a d0 f9 bd
       -0.04260461 0.10227114 0.1109284 -0.12197979
000090 ec 58 f3 3d a0 c6 8c 3d f8 e1 fc 3d 82 20 c6 3d
       0.11882195 0.06873822 0.123477876 0.09674169
0000a0 a0 24 64 bd 78 7d 9e 3c e0 3e d9 3c b0 fe 46 bd
       -0.05569899 0.019346938 0.026519239 -0.048582733
0000b0 1a 56 fe 3d e6 80 87 bd 80 4e e8 3d 80 4e 33 bc
       0.12418766 -0.06616382 0.11343098 -0.010944009
0000c0 8c f9 c3 bd 4c 2f 43 3d 0a fb e2 bd 06 c2 d7 bd
       -0.09569082 0.047652528 -0.11083038 -0.10535054
0000d0 9c 57 83 3d ec ae 7b 3d 80 0c cb bc a0 26 de 3c
       0.064131945 0.061446115 -0.024786234 0.027118027
0000e0 e0 ff 17 3c 00 3e 99 bd 10 9c 40 bc c0 79 a1 3c
       0.009277314 -0.07482529 -0.011755958 0.019711375
0000f0 70 0f 9c bc 10 9c 82 bc 0c eb 5d bd 28 ce a2 bd
       -0.01905033 -0.015943557 -0.054179236 -0.079494774
000100 58 c0 eb bc 3c 4a 08 3e bc 7d 0d bd 38 1f 08 3e
       -0.02877824 0.13309568 -0.034543738 0.13293159
000110 0e c6 a3 3d 70 1d 55 3e 28 40 ca bd 7c 80 4f bd
       0.0799676 0.20812011 -0.09875518 -0.05065964
000120 04 88 03 3d 15 1a 4e 3e 2f 1b 86 3e 76 09 54 3e
       0.032112136 0.20127137 0.26192614 0.20706734
000130 c9 b2 82 3c 40 22 3d bc 07 d5 73 3d 95 2f 60 3e
       0.015954392 -0.01154381 0.05952933 0.21893151
000140 bc fe 54 3e 1d 25 9f 3d 25 56 58 3d 77 c2 d5 3d
       0.20800298 0.07770751 0.05281653 0.10437482
000150 5d a3 ce 3d 89 98 65 3e 96 69 ea bd 09 11 c0 3d
       0.10089753 0.22421469 -0.1144592 0.09378249
000160 e2 aa 2f 3e a6 1b c8 3d f9 d3 86 bd 39 dd bc bd
       0.1715503 0.097708985 -0.06583399 -0.092218824
000170 71 0a da 3c 6d 5a 8f 3c 52 5e 3f 3e 0a 02 27 3e
       0.026616307 0.017499173 0.18688324 0.16309372
000180 e1 40 3f 3e 77 1b ba bc 49 8d 9c 3c 51 2e 15 3e
       0.18677093 -0.022718174 0.019110339 0.1456845
000190 a2 4a 1a bd 2e dc e1 3d 21 18 d1 bd 5b bf 23 bc
       -0.03766883 0.11028324 -0.1020968 -0.009994353
0001a0 e8 e8 88 3d d5 b4 3d 3d 62 bc 1f 3e e7 94 f6 bd
       0.06685048 0.046315033 0.15599206 -0.120401196
0001b0 1b e7 31 3e b9 b3 39 3e 8a 49 58 bd 57 59 2d 3e
       0.17373316 0.18134965 -0.052804507 0.16928612
0001c0 83 ac 80 3d ca ba 23 bc 27 0f 95 3d a4 08 10 3e
       0.06282904 -0.009993264 0.07278281 0.14065796
0001d0 34 01 b1 bd 37 4d 23 3d 0e 8a 71 bc 40 60 b0 bd
       -0.086428076 0.03986856 -0.014742387 -0.08612108
0001e0 d4 a7 b6 3d 9e ff 60 3d 04 12 04 3e d0 07 f8 bc
       0.089187294 0.054931276 0.12897497 -0.030277163
0001f0 a4 9e 80 3d 71 e8 59 3e 20 61 84 bd f4 8d f6 3d
       0.06280258 0.21280076 -0.064638376 0.12038794
000200 f3 8e bf 3d 38 84 55 3d f6 ee 95 bd 4d f2 9d 3c
       0.09353437 0.052128047 -0.07320969 0.019280577
000210 03 4b 94 bd 7b a1 93 3c 46 2f 20 bd 00 e3 1b bb
       -0.0724087 0.018021336 -0.039107583 -0.0023786426
000220 f2 5d 02 3e 71 76 0e 3e 12 20 d4 3d a3 43 7e 3d
       0.1273115 0.1391237 0.103576794 0.062076222
000230 05 77 24 bd b7 7d a5 bc c0 d5 06 3c 9a 32 14 3e
       -0.04015257 -0.020201547 0.008229673 0.14472428
000240 30 d2 86 3d 0f dd f8 3d ed 5c 38 3e cd 6c 6c 3d
       0.06583059 0.121515386 0.18004198 0.057720948
000250 34 de eb 3d 0a fe 06 3e 01 c9 d3 bd 2d 14 03 3d
       0.11516991 0.13182846 -0.10341073 0.032001663
000260 fb 9d dc 3d 0b 50 09 3e 49 93 6d 3d df 5a 02 3e
       0.1077232 0.1340944 0.05800179 0.12729977
000270 95 94 2f bd d0 ce 0f 3d 88 4c 96 bd b1 d3 31 be
       -0.04286631 0.03510934 -0.07338816 -0.1736591
000280 d7 07 36 3d 30 d1 5b bb cb 66 13 3e f0 1f 1f 3e
       0.04444107 -0.0033541434 0.14394681 0.15539527
000290 bc 64 a5 3d 4a f5 1e 3e 6f 20 95 3b 0b 1e 8f 3d
       0.08075854 0.15523258 0.0045509855 0.06988152
0002a0 6e 60 95 bd 57 cb 25 3d 69 3c 82 bd 48 cd bf bd
       -0.07293783 0.040477123 -0.063591786 -0.09365326
0002b0 03 2a 1e bd 26 52 49 bd 11 ea 3c bd 05 23 b0 bd
       -0.038614284 -0.04915061 -0.04612166 -0.086004294
0002c0 e0 f2 4b 3e cd af c8 3d fc 17 e1 3d 36 be 79 bd
       0.19916868 0.09799156 0.10990903 -0.060972415
0002d0 7c ed f8 3d b3 67 aa 3d aa 5a 02 3e 5c 4e 91 3d
       0.121546715 0.0832056 0.12729898 0.07095024
0002e0 31 37 46 3d d6 17 b5 bd bc 84 51 3b 2a b2 92 bd
       0.04839248 -0.08842437 0.0031969985 -0.07162888
0002f0 f5 3a 27 3d 11 f0 17 bd d9 f7 9b 3d 70 fd d3 3d
       0.04082771 -0.03709418 0.076156326 0.10351074
000300 28 54 49 bd c0 1f 2a 3b 5c f0 42 3d 82 d4 8b bd
       -0.049152523 0.0025958866 0.047592506 -0.06827642
000310 a4 69 a4 bd 40 87 3b bb 04 0e 71 3d ec 46 20 bd
       -0.08027962 -0.002861455 0.058851257 -0.039130136
000320 42 d1 d3 3d 20 1b 2a 3d 8c 57 58 3d 04 9e 41 3d
       0.10342647 0.041529775 0.052817866 0.047269836
000330 00 48 93 b9 ae 6b 9f 3d 0e a5 da bd 40 d9 17 bb
       -0.0002809167 0.0778421 -0.10676013 -0.0023170263
000340 8c 90 b0 bd 48 bd 86 bd 10 c5 fe 3c c0 8a 7e bc
       -0.0862132 -0.06579071 0.031099826 -0.01553601
000350 40 cc 16 3d c0 f0 ab bc 7c d8 66 bd 80 08 aa bd
       0.03681588 -0.020988822 -0.0563588 -0.083024025
000360 a4 df fd 3d 7c 53 1a bd 14 9b 2a 3d 80 d4 65 bb
       0.12396172 -0.037677273 0.0416518 -0.0035069287
000370 52 0b b3 bd a0 cd a5 3d 80 50 19 bd 90 32 08 bc
       -0.087423936 0.080958605 -0.037430286 -0.008312836
000380 fa 0c e0 bd 50 28 58 3d fa c8 e8 3d 58 fc 9e 3c
       -0.10939975 0.05277282 0.11366458 0.019407436
000390 b0 d4 cf 3c 48 cf fb 3d 30 3d 27 3c 60 af 4d 3d
       0.025369972 0.12295395 0.010207459 0.05021608
0003a0 92 c1 f7 bd 1a c2 df bd be e5 8b bd 8c 67 1d bd
       -0.120974675 -0.10925694 -0.06830929 -0.038428828
0003b0 34 33 23 bd 12 bd e4 3d 24 bc 7b bd 30 c5 7e bd
       -0.039843753 0.11168875 -0.06145872 -0.06219977
0003c0 12 75 bb 3d 02 62 bf bd d2 a4 d5 bd a8 b3 ec bc
       0.09153189 -0.093448654 -0.104318276 -0.02889426
0003d0 98 5e bf 3c 52 c0 f8 bd 8a 4e b8 bd e0 af cc bd
       0.023360536 -0.12146057 -0.08999355 -0.09994483
0003e0 52 ca d6 3d 60 6f 19 3c d6 6c 98 bd e0 2d 40 bd
       0.10487808 0.009364933 -0.07442634 -0.04691875
0003f0 80 7e 85 ba 56 9e b0 bd 58 40 94 3d 90 fe 48 3d
       -0.0010184795 -0.0862395 0.07238835 0.049070895
