TreasureFinder/A2C_TreasureFinder/A2Cagent_1.pth (torch, 189611 bytes, 11 tensors)

features.0.weight f4 [128, 3, 3, 3]
00000000: e449 163e e5e3 cabd c643 173e a71c 153d
00000010: 48ec cb3a 1c16 a23c b9ed 5f3e 643f 7bbd
00000020: 1630 783e e113 1dbe 317c 63bb abba a03d
00000030: d1a3 083e 3af8 f03d 9ecb 103e ef21 963e
00000040: d1cd 05be 4972 b63d 70fe 3d3b 47c4 e1bd
00000050: 27bd a93d 8222 ed3d 820d ba3c 783f 153e
00000060: 5121 8dbd 72de 00be 76bf 213e c584 e9bd
00000070: d196 883d d3b3 943d 976b 6c3e 80be 33be
00000080: 348e 1dbe bf41 663e f56a 3c3e 7598 383d
00000090: 9213 63be ac61 fd3c 3c8a 0c3e 61c4 27be
000000a0: fc98 2dbe 7229 a0bd 8175 4ebd 2edf 773d
000000b0: 77dc 953e 164e 26be 1606 243d 5814 13be
000000c0: 5e23 5d3e c705 a03d e046 583c eac0 553e
000000d0: 4b6d 95bc 7856 b6bd 6e6b e33d abe7 293d
000000e0: 255d 2c3e ad0a 24bd 6984 033d 80da f2bd
000000f0: 3a8a ddbe 6542 b23d 5159 49be 0265 11be
00000100: c162 ebbd 2c01 5fbd c001 ecbb 5e85 d93d
00000110: d5b8 073d 1593 85bd 3f97 91ba 498d a23d
00000120: 9daa 843d ecc0 ddbd d894 6dbd 09d0 bebc
00000130: ef6f 8abe 87d4 063e c855 dabd 87f9 8b3d
00000140: e92e cbbe 0ccf bcbc a4af babd 2a2e eb3d
00000150: 0f32 db3d dd2d 163e 2135 133e d3ea fc3d
00000160: 4dd4 333e 5799 293d 25bf 583d ad37 d5bd
00000170: df16 93bd 24be eabd 3868 e63c 5661 803e
00000180: 270d 613e bd7f 7bbd f1a5 1c3e 0898 a0bd
00000190: d890 aa3d 5f4d 31bb 41b7 86be 0535 f73c
000001a0: 1eb8 1abe 8bd9 0bbc 1101 163d 3457 a8be
000001b0: 8dbd d3bd 6513 c7bd bec3 3a3e 501e d43d
000001c0: 3d02 91ba e13d c73d 7967 ea3d 1cc7 ab3e
000001d0: 7d57 403d d23a 69bc 4b68 a63c 3aed 39be
000001e0: a828 c8bd 7699 b2bd 141e 98bd 4e00 563e
000001f0: 232f 3b3d 4aa0 843e a2b1 7c3d 622b 033e
00000200: 9c6b a93d 2244 72be bacf 95bc 923f 8abd
00000210: 615e 38be 2360 85be e4f1 b6be bdb9 f83d
00000220: e5ae 50bd b99f 1a3e 73d6 e2bd 33c0 8e3d
00000230: 8e27 4b3e 7df8 c23d 4511 99bc 27b2 a73d
00000240: a340 4bbe af84 68be 7640 86be 5cc1 31be
00000250: c96e 41be a18d b53c 6997 8fbe f387 3b3e
00000260: 442c bbbe bbe9 30bd 33a4 b63d af5c 263e
00000270: 7310 87bd e167 a6bb 5553 af3c 9e52 1d3e
00000280: 9600 413e 4007 00be d636 22be d16d e73d
00000290: e253 3c3e 9059 5a3e 1f1a 19be f5b4 423e
000002a0: 74c8 0c3e 3cee 20bd 3061 8abe 257d fe39
000002b0: e6ab 4c3d 609c f3bb 5af7 00be c90c d6bd
000002c0: 0517 4d3e 653d f1bc 87e4 e63c b517 ac3e
000002d0: d6b0 48be aeb8 45be c217 e13d f1dc 0d3e
000002e0: 5f17 f9bd 2dd8 3cbe dfb8 a6bd 2dd1 6b3d
000002f0: 2869 83be 9e55 003e 81bf ffbb a98d dabd
00000300: 1b19 03be f914 33be 8efa 77bc fa9b e83d
00000310: 6e61 0f3e 1cbe 173e 0d19 5cba 034a 13be
00000320: ffc7 16bd 3227 06be 963b f3bd 35a2 1bbe
00000330: 4ef3 02be 4121 25be 6403 b1bc 0938 81bc
00000340: dc61 bbbd 89ab fe3d 97bd 273e 0266 4dbd
00000350: 97ab 373e e623 3abd 2283 7abd 95c7 fc3c
00000360: 06dd 453e c44d 88bd 082b 14be 3b4c 393d
00000370: ae22 2bbd 4b2b 213e 4173 0bbe 3138 b53d
00000380: 9a43 eebd 04ac d4bd 0f87 30be 4373 07be
00000390: 335f 2cbe 0b1d 92bd 0216 2f3c 823e 963e
000003a0: 1085 503e 4da3 953e d7df 403d 9d84 11be
000003b0: 6452 f9bd 76cb 4bbd 4575 d1bd c9bd a93d
000003c0: 74d3 f1bd e4da 803c a220 0b3d 91d3 673e
000003d0: 90c6 113e 95f5 853b e9b7 59be 503e be3c
000003e0: 5a71 8bbd d85f 2fbe 03de dbbd a810 92bd
000003f0: 57a8 0ebd a93d 293d 1337 333e d41f 10bd
0.14676625 -0.09906749 0.14771947 0.036404278 0.0015558088 0.019785933 0.21868028 -0.06133975
0.24237093 -0.15339614 -0.0034711475 0.07848104 0.13343741 0.117660955 0.14140174 0.29322764
-0.13066794 0.08908517 0.0028990768 -0.11023765 0.08288031 0.115788475 0.02271152 0.14574993
-0.0689112 -0.12584856 0.15795693 -0.11402277 0.06669391 0.07260861 0.23087917 -0.17553139
-0.15386277 0.22486018 0.18400176 0.04506727 -0.22175434 0.030930363 0.13724607 -0.16383506
-0.1695289 -0.07820405 -0.05040503 0.060515575 0.29269764 -0.16240725 0.040044867 -0.1436323
0.21595523 0.07813602 0.013200492 0.20874372 -0.018240592 -0.08903211 0.11104475 0.0414807
0.16832407 -0.040049244 0.032108698 -0.11858082 -0.4326952 0.0870407 -0.19662978 -0.14198688
-0.11493445 -0.054444477 -0.007202357 0.10621141 0.033135254 -0.06522194 -0.0011107697 0.07937104
0.064778544 -0.108278126 -0.058003277 -0.023292558 -0.27038524 0.1316701 -0.10660893 0.06834703
-0.39684227 -0.023047946 -0.09115532 0.114834145 0.10702907 0.14665933 0.14375736 0.12349477
0.17561455 0.041406002 0.052916665 -0.1041101 -0.07182097 -0.11462048 0.028125867 0.2507426
0.21977673 -0.061401118 0.15297677 -0.07841498 0.08328408 -0.0027054173 -0.26311687 0.030176649
-0.15109298 -0.008535753 0.03662211 -0.3287903 -0.10338888 -0.09720496 0.18238732 0.10357344
-0.0011063289 0.09728599 0.11445517 0.33550346 0.046958435 -0.014235215 0.020313403 -0.18156901
-0.097733796 -0.087206766 -0.07427612 0.20898554 0.04569925 0.2590354 0.06169284 0.12809518
0.08272478 -0.23658803 -0.018287528 -0.06750406 -0.18004753 -0.2604991 -0.35731423 0.12144802
-0.050948042 0.15099992 -0.11076059 0.06970253 0.19839308 0.09520052 -0.018684993 0.08188277
-0.19848876 -0.22706865 -0.26221055 -0.17358917 -0.18889917 0.02216226 -0.28045204 0.1831358
-0.3655721 -0.043191653 0.08918037 0.16246293 -0.06594934 -0.0050783013 0.02140204 0.15363547
0.1884788 -0.12502766 -0.15841231 0.11300243 0.18391374 0.21323228 -0.1495137 0.19014342
0.13748342 -0.039289698 -0.27027273 0.00048539895 0.049968623 -0.007434413 -0.12594357 -0.10451657
0.20028313 -0.02944822 0.028185142 0.33611837 -0.19598708 -0.19308731 0.109908596 0.13853814
-0.12162661 -0.1844184 -0.0814073 0.057572532 -0.25666165 0.1253266 -0.0078048115 -0.10671551
-0.12802546 -0.17488469 -0.0151354205 0.11357875 0.1400201 0.14818615 -0.0008396067 -0.14383702
-0.036811825 -0.1310089 -0.118765995 -0.15198596 -0.12788126 -0.16125967 -0.021608062 -0.01577379
-0.091495246 0.124350615 0.16380917 -0.05014611 0.1793655 -0.04544439 -0.061160214 0.030856887
0.19322595 -0.066554576 -0.1446954 0.045238715 -0.04178112 0.15739171 -0.13618185 0.08848608
-0.11633988 -0.10384372 -0.17239021 -0.13227563 -0.1683319 -0.07134446 0.010686399 0.29344565
0.2036326 0.2922615 0.04708847 -0.14210744 -0.12173918 -0.049754582 -0.102274455 0.08288152
-0.118079096 0.015729375 0.033966668 0.226393 0.14235902 0.0040881136 -0.21261562 0.023223072
-0.068087295 -0.17126405 -0.10735705 -0.07132083 -0.03482851 0.04131857 0.17501478 -0.035186604

features.0.bias f4 [128]
00000000: c6c6 0ebe 10a1 4dbd 4f42 243c 9c5b e2bd
00000010: 32b5 2dbe 652a c7bd cd29 893e f296 973c
00000020: 5e85 883e 1f67 a6bd dd99 193e 6b25 7b3e
00000030: 237e 3e3c 206a ae3d 4f06 603e cca7 24be
00000040: 6631 ba3c afae 623e 779f 423e 9a0b 4a3e
00000050: ecba 9cbd c210 5fbd 46f1 a0bd 4065 183d
00000060: f592 f23d 1459 01bd e4a7 1ebd 0d87 37be
00000070: 5f81 003b 50e2 e53d 8b98 a3bd 23d6 ea3d
00000080: a957 09be 9686 7e3d 96a2 2e3e 92e1 333e
00000090: 8112 8d3e a212 273e 9c69 aebd a153 353e
000000a0: be14 98bb ed58 43bd 4dc1 33be a18d 163e
000000b0: ba62 3b3e ab6c 8a3d 9ade 453e c61f 84bd
000000c0: 7fe3 e6bd c451 29be d553 cd3c 5da0 083e
000000d0: d9fc 623e 490a 41be f82e 213e bf32 913d
000000e0: 8788 6abd d00f 04be 32f1 623e 19a1 963d
000000f0: 516b 003e 815a c13d 35cd 85bc cf96 a7bd
00000100: 5a25 433c 96f9 0d3d 2523 263e ccb4 f13d
00000110: ed15 933d e44a 6b3c 4a40 b8bc 6c0b 743d
00000120: 0011 58bd 04bc 3fbc d6fe cdbd f831 88bd
00000130: f7f2 27be eb22 103e b5bb 2cbd c1fa 953d
00000140: 84c1 963e 6e54 263e d4bb c53d 7bce 113e
00000150: b1bb 533e 41ce 7cbd 103f 15be 9746 84bd
00000160: fa53 43be c236 d43c 2d1b 4d3e f43a 783d
00000170: 654a f1bd 3a41 c6bd 017e 523e 0622 bd3c
00000180: e960 5c3e f05b b5bd 6a68 54be c32b 733e
00000190: c1eb 0f3e 32e0 0fbd c32b 5ebd 0af6 043d
000001a0: aab8 3cbe d98d 2abd 6a8c 0b3d 4331 943d
000001b0: 6604 19be 157a 133e 1887 33be fefa 523e
000001c0: d6b7 03be 035f 423e fe9a d43d 0432 bfbd
000001d0: fba2 da3d d21c 173d 78c3 603d 2c78 663e
000001e0: ff7c 583d e7d7 163e 4cd6 283d 9769 0d3d
000001f0: d46a 17be edb6 d23d ab76 223e 77ce c7bd
-0.13943014 -0.05020243 0.010025575 -0.11052629 -0.16963652 -0.09724883 0.26789704 0.018504594
0.2666425 -0.081251375 0.150001 0.24525993 0.011626753 0.085163355 0.21877407 -0.16079634
0.022728633 0.22136949 0.19006144 0.19730988 -0.0765284 -0.05445934 -0.07858519 0.037205935
0.11844436 -0.031579092 -0.03873433 -0.17922612 0.0019608361 0.11224806 -0.0798808 0.114666246
-0.13412346 0.06214007 0.17054209 0.17566517 0.2755318 0.16315702 -0.08516237 0.17707683
-0.0046411445 -0.047692228 -0.17554207 0.14702465 0.1829938 0.06759008 0.19323197 -0.06451373
-0.1127386 -0.16535097 0.025064388 0.13342424 0.22166766 -0.1885158 0.15740573 0.07089757
-0.05725911 -0.12896657 0.22162321 0.07354946 0.12540938 0.094410904 -0.016333202 -0.08183061
0.011910761 0.03466185 0.16224344 0.118020624 0.071819164 0.014361117 -0.022491593 0.059581205
-0.052750587 -0.011702541 -0.10058372 -0.06650156 -0.16401277 0.1407582 -0.0421712 0.07323218
0.29444516 0.16243145 0.09654966 0.14238922 0.20677067 -0.061720137 -0.14574838 -0.064587764
-0.19075003 0.025905017 0.20029898 0.060603097 -0.11781768 -0.0968041 0.20555879 0.023087513
0.21521343 -0.08855426 -0.20742956 0.23747163 0.14054777 -0.03512592 -0.054240953 0.032461204
-0.18429819 -0.041639183 0.034069456 0.072359584 -0.14943084 0.1440204 -0.17532003 0.20603558
-0.12863097 0.18981557 0.10381125 -0.093357116 0.10675617 0.03689272 0.054873914 0.2250678
0.05285358 0.14730798 0.041219994 0.034524526 -0.14786845 0.102887966 0.1586558 -0.09756177

features.2.weight f4 [64, 128, 1, 1]
00000000: 4f00 ad3d 69fe 15be dfb7 30bd 4dd9 143e
00000010: bae2 05bd d399 5fbc 4d20 083e 0748 a73e
00000020: ec4f 9dbd a732 79bd 66d2 223e c9d4 0e3e
00000030: 04d7 243d 57cd 4a3d 5c4b fcbd de55 ef3d
00000040: b339 7abc af46 1c3b 5cda 1abe f2dd 9a3d
00000050: e82e e5bc b50d 4c3d 883e ea3d 7265 d4bd
00000060: 81be 993c 50c3 923b 3e00 033e b8eb 9dbc
00000070: 636f 5cbe be28 083e 4b6b e93d 232e fa3c
00000080: a63d 3abe 7a2e 623e 9938 85bd 79af 593e
00000090: 733d 0cbd 3592 a33d 852c f63d 3a32 cfbc
000000a0: 1d32 a23e aee9 ca3e 8a64 363d 0093 973d
000000b0: 92be 8c3e d0c6 903d 1372 9cbd fe56 343d
000000c0: 0ca2 f0bc da8f 9abc f628 c73b 758c 2f3d
000000d0: d335 093e 4d29 bb3d 6961 fb3d b5b1 db3b
000000e0: ed63 ae3d 382b 943c d308 54bd 2c53 19bd
000000f0: 9c07 f33b 9051 18bd 0ee6 b9bc 8008 54be
00000100: 526a b9bd fcae b43d 55cd 363e a0d3 0d3f
00000110: 9ae8 893d 27f8 483e 76f7 223e 2095 49bc
00000120: 00ec 4e3d 888f 20bd 900d 51bc 871e 32bd
00000130: 68e2 ca3d b6a5 56be f605 4cbb a5ea bbbd
00000140: 5f22 4cbd ecfa d9bc cff1 3d3d 4aab 233e
00000150: 5bf2 62bd 4682 ad3d 183c f93c c783 d7bd
00000160: 7291 1d3d 83b1 4e3f f9ad 5bbd 37e1 813d
00000170: da19 9dbd 5c62 513e 1125 43bd aa74 5cbe
00000180: 08a7 a6bd b5c7 bf3c 6356 fbbc e415 353e
00000190: 578c a43d 9f94 2abe 4207 e53d 5e08 18be
000001a0: b853 82bd b586 5ebb 74d0 17be 3c31 963d
000001b0: 36fb 5dbd 22da 353e 9ec1 53be 9dfa 393d
000001c0: e00d 123c 4398 373e 486a 24bd 5d17 49bd
000001d0: ad42 41bd f79f 423d 8546 4bbc d27c f13d
000001e0: 4c4d a53d 9b71 813d d24a 193f 195c 29bd
000001f0: 8a46 923d 3e0e 4cb9 58f6 2e3e db80 a23d
00000200: ad4a 043e bb61 bc3d 4c97 ac3d 0ecd 133d
00000210: 0461 143e 93c6 d0bc 8d92 153e 1df9 24bd
00000220: 3db3 333e 06fb 7d3c 92b8 b03d 1206 2bbd
00000230: eca6 acbc 7781 343d 86a7 033e 8211 edbd
00000240: 1f8c 5bbd c478 273e d81e c9bd 7373 aa3d
00000250: 58d6 643c 6d63 c53d 2f88 07be 565e 9b3c
00000260: 7a1b aa3d f0a8 51bd cedd 99bc 5bf7 f13d
00000270: 6d2c 5e3e ff4b 0abd 5021 24be 0633 fe3d
00000280: 2c3d ccbc 0d92 e73d 5578 523d 51e8 863d
00000290: 4dfe 73bd f65c 063d 7d3a 08be 54c9 043e
000002a0: 16fd d43d 57d8 0b3e 4cbd c7bc cbbf dc3c
000002b0: fac8 d4bd 17c5 9a3d 148b 143e a058 0c3d
000002c0: 6c4e 233e d00f d1bd 11d0 8cbd fc64 02bd
000002d0: da26 1b3d 074a 1cbd 6cca 223e f17a 2c3e
000002e0: 7b4f 64be 16be 62bd 8094 ff3d 72d8 2b3d
000002f0: b9f7 debb ba94 893c 8a29 c53d 825f 513e
00000300: 7102 213c e7f8 033e 6c93 853d 92ff 933e
00000310: 43e6 41bd 8e50 5abe 66b4 0d3e 4a7f 493d
00000320: 906c 433d e8fe a03d 50d2 02bc 82e6 d73d
00000330: d803 a7bc a1d1 81bd bf02 bcbd 3bf8 d7bd
00000340: cc12 ad3d 0a00 653c dc0b 13be 665e 5c3c
00000350: 48b9 b13d 4635 8bbd 940c 36bd 65f9 e6bd
00000360: bc53 f3bc dbf8 9c3e 00a4 47bd beb4 11bd
00000370: 0950 b43d 84e9 193e 9e7c b33d 9144 55bd
00000380: 947f 09bd 475c 3b3c cec7 ddbc ebbf 923d
00000390: 3fd0 0f3e fb9d e4bd 695d ec3c 139e 553d
000003a0: 31b4 8d3d 5d66 1fbd 2d5b 813e ec39 853e
000003b0: 75c2 8e3d fef3 6c3e d1c6 c2bd 51c6 583e
000003c0: 2dd0 a0bd ae2c d0bd fa69 f43d 28d2 54be
000003d0: c044 d0bd 6558 3fba 7fb6 f43d c9dc 423d
000003e0: ff60 803e af5c 423d b7ec b93e 0510 18bd
000003f0: d503 70be ddc0 2f3e 6ff8 2c3e 0a71 08be
0.084473245 -0.14647831 -0.043144103 0.14536019 -0.032686926 -0.013647514 0.13293572 0.3267214
-0.076812595 -0.06083932 0.15900573 0.13948359 0.040244117 0.049512234 -0.12319061 0.116863
-0.015272546 0.0023845842 -0.1512236 0.07561864 -0.027976468 0.04981776 0.11437708 -0.10370912
0.018767597 0.0044788495 0.12793061 -0.019277439 -0.21526866 0.13296792 0.11397418 0.030539578
-0.1818758 0.22088042 -0.06504936 0.21258344 -0.03423829 0.07986871 0.1202021 -0.025292505
0.31678858 0.39631408 0.044529475 0.07401085 0.27489144 0.070691705 -0.076389454 0.044028275
-0.029374145 -0.018867422 0.006077881 0.04285856 0.13399439 0.09138737 0.12274439 0.006704534
0.08515153 0.018087015 -0.051766228 -0.037432835 0.0074166786 -0.03718716 -0.022692706 -0.20706367
-0.09053482 0.08822438 0.17851765 0.5540104 0.06733818 0.19625913 0.15914711 -0.012303621
0.050518036 -0.039199382 -0.012759581 -0.043486144 0.09906465 -0.20961651 -0.0031131483 -0.09175614
-0.049837466 -0.026608907 0.046373185 0.1598331 -0.05540691 0.08472113 0.030424163 -0.105231814
0.038468786 0.8073961 -0.05363271 0.063417844 -0.076709464 0.20447677 -0.04764277 -0.21528879
-0.081373274 0.023410657 -0.03068084 0.17684132 0.0803458 -0.16658257 0.11183025 -0.14846942
-0.06363624 -0.0033954803 -0.14825612 0.073336095 -0.05419465 0.17758992 -0.20679328 0.04540502
0.008914441 0.17929177 -0.04014042 -0.049094547 -0.047182728 0.047515836 -0.01240695 0.11791386
0.08071384 0.06320497 0.5987979 -0.041347597 0.071423605 -0.00019460262 0.1708616 0.079347335
0.12919112 0.09198328 0.08427295 0.036084227 0.14490134 -0.025485313 0.14606686 -0.040276635
0.17548843 0.015501743 0.08628954 -0.041753836 -0.021075688 0.04406878 0.12856874 -0.11575605
-0.053600427 0.16354662 -0.09820336 0.083228014 0.013967119 0.096381046 -0.13235544 0.018965881
0.08306022 -0.051186502 -0.018782523 0.118147574 0.21696635 -0.03376388 -0.16028333 0.12412076
-0.024931513 0.11307154 0.05138429 0.065872796 -0.059568692 0.0328035 -0.13303562 0.12967426
0.10399835 0.13656746 -0.024382256 0.026946923 -0.10389896 0.07557123 0.14506179 0.034264207
0.15947884 -0.10208094 -0.06875623 -0.031834587 0.03787885 -0.038156535 0.1589753 0.16843773
-0.22295944 -0.05535706 0.12479496 0.041954465 -0.006804433 0.016794551 0.096270636 0.2044659
0.009827242 0.12887917 0.06522259 0.28905922 -0.047338735 -0.21319792 0.13838348 0.049193658
0.047710955 0.078611195 -0.007984713 0.10542013 -0.020387575 -0.06338812 -0.09180211 -0.10545393
0.08450851 0.01397706 -0.14359993 0.013450241 0.08677918 -0.067972705 -0.04444559 -0.11278037
-0.029703014 0.30658612 -0.048740387 -0.03557276 0.08804328 0.15030485 0.08764003 -0.052067343
-0.033568934 0.011435575 -0.027072813 0.07165512 0.14044283 -0.11162945 0.028853135 0.052152704
0.069191344 -0.03891598 0.25264874 0.26020753 0.069706835 0.2313995 -0.095105775 0.21169402
-0.078522064 -0.10164772 0.11934276 -0.20783293 -0.10169363 -0.00072992436 0.11948871 0.04757384
0.25074002 0.04745167 0.36313412 -0.037124652 -0.23438962 0.17163415 0.16891645 -0.13324371

features.2.bias f4 [64]
00000000: 3beb c93d d28d 043d 8fa0 273c d271 78bd
00000010: 787f 343d 0ab1 cb3d afff e43d f044 8ebd
00000020: a16c d2bc 8a4a 4ebb e396 9bbd 3b01 4d3d
00000030: 9ed2 b63d 0b82 023e 984f 813d ac3d 513d
00000040: 5f63 ee3d dd63 213d d810 e83d e815 24bd
00000050: e526 e03d d88e 143d 92c0 2e3e 61af e53c
00000060: 2845 bb3d 858c 2c3e 8b38 cf3d 6764 1d3d
00000070: 2a65 173e 202a a8bc 7f0c ea3d 90ea 313e
00000080: abce a5bc 1551 07bd 6191 fd3d c5a9 00bd
00000090: 3106 6bbb 1529 1dbb 5892 aabd a0ba d0bb
000000a0: 1f0c a53d 3f48 873d 7cc7 0a3e 0b6e ff3d
000000b0: 6816 c13d cee6 373c 85b6 673d 013c 293d
000000c0: 5b78 e13c abec 363d 4e98 fb3c 2a17 943d
000000d0: c1ca 513d e32a 6d3d 655f e03d b410 4e3d
000000e0: c7e0 a33d 9aa1 9d3d 1387 223e 61ce 823d
000000f0: 92eb 3dbd 6d82 86bb 804c ce3d 1661 ac3d
0.0985932 0.032361813 0.010231151 -0.060655423 0.044066876 0.09945877 0.1118158 -0.069467425
-0.025686564 -0.0031477534 -0.07597139 0.05005 0.08926891 0.1274492 0.063140094 0.051084206
0.11640047 0.039401878 0.11331338 -0.040059954 0.109449185 0.03626904 0.17065647 0.028037729
0.0914405 0.16850479 0.101182066 0.03842583 0.14784685 -0.0205279 0.11428165 0.17374635
-0.020240149 -0.03303631 0.123812445 -0.031411905 -0.0035861845 -0.0023980786 -0.08328694 -0.0063699037
0.080589525 0.06605577 0.1355266 0.12472161 0.09428102 0.011224462 0.05657055 0.04131699
0.02752321 0.044659298 0.030712273 0.07230981 0.05121875 0.057902228 0.10955695 0.050308898
0.08001857 0.07696839 0.15871839 0.0638702 -0.046367235 -0.0041049034 0.10073185 0.08416955

fc1_actor.weight f4 [256, 64]
00000000: ec5b 9fbe 61d4 2dbe 11a2 6abd 1d70 b33d
00000010: 576a 8cbc 6cb1 043e 8d9b 8ebd cdfc ebbd
00000020: e6ef 03be 0f97 bfbd 2018 863c 54bc 343e
00000030: 63e5 633c 3501 7fbd c40e 3c3c 5653 da3d
00000040: 7320 263c 0946 d03d 6d02 453e 9c85 4f3d
00000050: 398c a63d 920f 23bd 22be 183e 065b 0e3c
00000060: cd39 973c 7d0b 03be 60b6 b03b 7805 ccbc
00000070: b88a 0bbd b687 e33d 732a d83c 52ee b1bd
00000080: 8402 5abd 23a0 e1bc 37fb c13b 24f8 ea3c
00000090: 2d00 3d3d 0f30 f0bd b0e9 8dbc b795 1e3e
000000a0: 4543 53bd cb74 ad3d 365b 09bc 8c08 d03d
000000b0: 7002 ab3d 4be0 a7bd 57fa 8bbd b69c 74bd
000000c0: 0adb a23d 8bb1 49ba 1077 00bc 600a c5bd
000000d0: 292a 593d ee0e a03d 8c01 223d fca0 40bd
000000e0: 2b2e 483d 1da1 82bc 0101 203d 6f68 2a3c
000000f0: 07e6 16bd cabb c93d 1e7b 853d 275e 0cbe
00000100: de73 c6bc ca60 11bd de52 f2bb b00a 05bd
00000110: 43bb 1a3e 39c1 7ebd bda0 8e3a 61de ec3c
00000120: 0d3b f9bd 7488 b93d 0044 6839 7cd9 573e
00000130: 7f95 533d b344 a7bc c56f 30bd 0c6a bd3d
00000140: bb19 8f3d 835e 8ebd 20eb 83bd 2176 d5bd
00000150: c4e2 813d 3ee1 babd a57c 913d 748a b7bd
00000160: 007a a5bd 4688 c7bd 62c1 1c3d d39f f3bd
00000170: 2452 70bd 3477 003d 5368 40bc cb4e e03d
00000180: 08bf e63c 8068 cdbd 434a 17be c0be 89bd
00000190: aa41 633d 6de5 d73d c0de 0e3b 35c0 0f3e
000001a0: 0272 a4bd 9465 9c3d b5c7 1a3d 78df 113d
000001b0: 7446 f23d 72ba aebd a496 883c db81 f93c
000001c0: cf20 9abc 7ee9 f43d c744 8fbd 9027 5e3d
000001d0: 9c21 63bd 75dc ee3c 5db9 19bd 20aa e73d
000001e0: 7a6e 00bc bfa9 f9bc cdd7 45bd 7389 91bd
000001f0: 610b 6a3d 5fea e53c 4b03 35bd b460 573d
00000200: 4f38 73bd 9e3e b6bb 4120 cb3c 7c9b abbd
00000210: 721b 03be 87a4 23be 33cb c53c 9e7a bfbd
00000220: cca4 c9bd 0cce 643d 0433 193d 5f49 4bbe
00000230: 9eda 773d c565 3d3d 7e1b c8bd 9ece 95bd
00000240: 935b a4bd e11b 84bd 02ae 0ebe d53c a33d
00000250: ba59 10bd 974c bb3d b261 963d 31a2 f8bd
00000260: 34be 83bb 5ab0 9cbb 418d ebbd 7138 a83d
00000270: a836 30bd 9860 6a3d 16a7 01be 6a6c 04be
00000280: aa8c f73d 73dc fabd 2480 0c3d 2986 28be
00000290: 61a0 813c 8742 04be f023 1bbc c488 0bbe
000002a0: 4357 853b 862f 953d 72de c93c 29f3 dbbd
000002b0: 9be8 e6bd 60dd 8fbd ad0e debd c26d fcbd
000002c0: 7ec4 4d3c ebf3 d9bc 3f44 6d3d 5cd6 663d
000002d0: 0825 c9bd 265a 793d 943d cdbd 165a cb3d
000002e0: 32b4 d5bd 800f 02bd f985 62bd de6f a83d
000002f0: 8d43 8c3d bbf5 d73d f3a8 f7bd 2973 4d3d
00000300: 7f36 dbbd ded1 d9bd a4cf 1d3d 8ee9 9e3d
00000310: 4d06 b73d 2172 973d b960 eebd 7c7b 153d
00000320: b9c3 303d 374f 913d 62de d1bd 8002 8dbd
00000330: 0df4 5c3c d182 e7bd 844d 49bd 5cc9 0fbd
00000340: 7071 b5bd 8a6a 273d fbbb cf3d 82d0 c2bd
00000350: 00bb adbd 5c72 423d 320f ecbb 1ac7 d1bd
00000360: f591 babd 501a d93c 3a50 8fbc fd4c cdbb
00000370: 4102 3c3d a871 a83d 75de ea3c 0759 4dbd
00000380: 2237 acbd 885e b13d 8e80 c2bd c837 c8bc
00000390: 8921 2f3d 6622 b73d d6d4 b03d fc49 bcbc
000003a0: f29c f4bd 3a6f eabc ed2b a8bd 46c8 37bc
000003b0: bc81 e13d 3204 833d 46cc e03d 2cb9 2b3d
000003c0: 8183 1e3d 23fe 82ba 07e4 8dbc 830a ddbd
000003d0: 6a30 f03d d38b 8339 1b54 ae3d 1aab cb3b
000003e0: 7cba 07bd 4bf7 663d 3991 0bbd 1ac1 d0bd
000003f0: 1c16 48bd 0a2c e7bd dd45 353d ee49 283d
-0.31124818 -0.16975547 -0.057283465 0.08761618 -0.01714055 0.12958306 -0.06963263 -0.11522827
-0.12884483 -0.09354984 0.016368926 0.17649966 0.0139096705 -0.06225701 0.01147813 0.10660426
0.010139572 0.10169608 0.19239207 0.05066453 0.08132214 -0.03980977 0.1491628 0.008688694
0.018460179 -0.12797351 0.0053928345 -0.024904951 -0.03406784 0.11109869 0.026387429 -0.08688034
-0.053225055 -0.02754218 0.0059198397 0.028682776 0.046142746 -0.117279164 -0.017323345 0.15486799
-0.051577825 0.08469542 -0.008383563 0.1015788 0.08350074 -0.08197077 -0.06834858 -0.059719764
0.07951935 -0.00076939975 -0.007840887 -0.096211195 0.053018723 0.078153476 0.039552256 -0.047028527
0.048872154 -0.015945965 0.039063457 0.0104008755 -0.036840465 0.09850271 0.06517623 -0.13707791
-0.024225172 -0.035492696 -0.0073951324 -0.032480896 0.15110497 -0.06219599 0.0010881644 0.028914632
-0.12169466 0.090592295 0.00022150576 0.21079057 0.051656242 -0.0204185 -0.04307534 0.092487425
0.069873296 -0.069516204 -0.06441331 -0.10422922 0.0634208 -0.09124993 0.07103852 -0.08961955
-0.0807991 -0.09742789 0.03827036 -0.118957184 -0.058672085 0.03136368 -0.011743623 0.109525286
0.028167263 -0.100296974 -0.14774422 -0.06725836 0.055482544 0.10541806 0.002180025 0.14038165
-0.08029558 0.07636562 0.03778811 0.035613507 0.11829844 -0.08531655 0.016673394 0.030457428
-0.018814472 0.119585976 -0.0699554 0.05423695 -0.055451974 0.029157856 -0.03753029 0.11311746
-0.00783884 -0.030476449 -0.048301507 -0.071062945 0.057139758 0.028065858 -0.044192594 0.052582458
-0.059379872 -0.005561664 0.024795653 -0.08379266 -0.12803438 -0.15980731 0.024144745 -0.09349559
-0.09845886 0.055860564 0.037402168 -0.19852208 0.060511224 0.046239633 -0.09770869 -0.073148
-0.08025279 -0.0645063 -0.13933566 0.07970587 -0.03524182 0.09145468 0.07342853 -0.121403106
-0.0040204767 -0.004781765 -0.115015514 0.0821389 -0.043020874 0.057221025 -0.12661394 -0.12931982
0.120873764 -0.122490786 0.034301892 -0.16457428 0.015823545 -0.12916003 -0.009469017 -0.1362639
0.0040692403 0.07284455 0.024642203 -0.107397385 -0.11274835 -0.07024646 -0.10842643 -0.12325622
0.012559054 -0.026605567 0.057926413 0.056356773 -0.09821516 0.060876988 -0.10021511 0.09929292
-0.1043476 -0.031753063 -0.055303548 0.08224462 0.06848822 0.10544916 -0.120927714 0.050158653
-0.10703754 -0.10635732 0.0385281 0.07759391 0.08936749 0.07394815 -0.11639542 0.036494717
0.043155406 0.07095187 -0.10247494 -0.068852425 0.013485921 -0.11304248 -0.04914619 -0.03510414
-0.08859527 0.040873088 0.10143276 -0.09512426 -0.08482933 0.047472343 -0.00720396 -0.10243054
-0.0910987 0.026501805 -0.01749431 -0.0062652812 0.045900587 0.08224803 0.028670529 -0.05013373
-0.08408953 0.086606085 -0.09497176 -0.024440661 0.04275659 0.08942108 0.08634345 -0.022984497
-0.119439974 -0.02861749 -0.08211503 -0.0112171825 0.11011073 0.063972846 0.10976462 0.04192464
0.03869963 -0.0009993952 -0.017320646 -0.107930206 0.11727984 0.00025090444 0.085121356 0.0062154653
-0.03313683 0.05638818 -0.034074042 -0.10193081 -0.04884921 -0.11287697 0.04425608 0.04108613

fc1_actor.bias f4 [256]
00000000: 777f a73d 5114 e1bc a71c 76bd b23b a8bd
00000010: 5d72 b43d 3670 f9bd 7d3b 3dbd 5713 473d
00000020: bafb e2bb 5fb4 2d3d 6fa0 a43d e9c4 82b9
00000030: dd2b 353c aa67 fd3d 982e 163d ea70 e03d
00000040: 5462 763d 9226 ee3c 779e 6bbd a1f8 aabb
00000050: d1ae bc3c 92c7 b93d 235e 713d e0f2 1cbd
00000060: a69f 523d 12ea 1e3d 7e6d e8bd 1b05 ea3d
00000070: 60a1 3dbd 133f c0bd 10f7 22bd 728e 85bc
00000080: 31ad 14bd 189c 48bd 7170 903d 7d01 20bd
00000090: 249b 4e3d a10d cb3c 03f8 ae3d 5228 3d3d
000000a0: 248d 083c dbd2 41bd 7413 8c3d 7676 d03d
000000b0: cfb3 493c 8b4c a7bd 87be 143e af00 a5bb
000000c0: c4d0 ae3d c123 8b3c 1ee3 8abd 608a 313d
000000d0: 887f f6bd 26ac 853d 02b2 24bd 4530 ea3d
000000e0: 58d2 d53d 875d 453d e39e 323e 4f51 a2bd
000000f0: 8fe2 a63d 2f72 0ebd 66f8 993c 1ea1 8dbd
00000100: 7196 e43d 52b3 b6bd 4eb4 3ebd 3648 5d3d
00000110: 5847 213e dae5 b13d 1f3f c1bd 91ed 52bd
00000120: ef92 8cbd 3707 a53d 8fbb acbd 95d2 123c
00000130: 8b22 223c 6354 443b 9346 e9bd 9cd8 c0bc
00000140: 8006 85bd 3688 783d 699f 033d 06cc 8c3d
00000150: d578 93bd e8cf dfbd 9868 d83d 4beb 24bd
00000160: 701d b53d fc7c cf3d 8770 abbd bbc3 9e3d
00000170: 2365 b0ba 2a16 933d bbe8 2ebd bc44 7f3d
00000180: eacd 07be 17bc 03be 84bf 19bd f423 db3d
00000190: 81d3 e03c 708a ad3c d8c9 ec3c dacd a33d
000001a0: 545d 17bd f85f de3d a7ae 17bd b594 35bd
000001b0: 84da 5cbd 7d6a 1f3e 73b3 103d b82d 5abd
000001c0: ffaa dd3d df78 d63d e8ba 83bc ca2f d5bd
000001d0: 30ee a63d 2ca7 443e 3eb4 ee3d 5c4a 33bd
000001e0: 8426 f43c c26c c63d 3529 e2bd 5450 1fbd
000001f0: 7af0 dcbd e89d 0b3e c636 b7bd 2078 7a3d
00000200: 1ec0 1ebd 8f76 6bbd e249 003b be1d cbbb
00000210: 539b 4c3a fa9d 503d f110 9c3d 8454 96bd
00000220: 3724 933d be09 95bc c626 78bc 5447 123e
00000230: 333f bdbd 1fce 133c d857 b13d f3db b8bc
00000240: 208a f73d 0278 68bd d8d8 f9bd 182e 373c
00000250: 9e08 0e3d 5a63 f13d 023d e7bc 0d1e 1a3d
00000260: 3a01 9bbd c9f1 e7ba 7993 993d ebc2 333d
00000270: 7c51 68bd 7770 86bd 8fc2 b43c a6fb 29bd
00000280: e939 03bd bc87 813c a0d6 e3bc 9864 aabd
00000290: f900 b9bd 58a2 313d e368 343b 67b0 69bd
000002a0: 1217 94bd dc35 9f3d cc93 cbbc 1696 0e3e
000002b0: b9d9 4ebd 7d14 9d3d 9acb fbbd f220 113e
000002c0: acdb 143e 418f 42bc 2efb 9dbd 20ad d53d
000002d0: 7954 8e3d e577 7b3d bcbb 06be 3c79 7c3d
000002e0: b8ae 353d 3c61 3bbd 9630 9dbd a022 cebd
000002f0: 9351 96bd 8c41 163e 5a55 ebbd d822 0bbd
00000300: 784c 903c 2734 9b3c ceff b93d e732 a7bd
00000310: aa65 2a3d 47d4 debd 747e 003e a166 473c
00000320: a98b c2bc b305 a43d 7e8b bd3d 3ce6 55bd
00000330: 5112 ddbb 9965 7c3d 61f5 753d ac76 163e
00000340: 30c5 a43d af8f a0bd 70fd c0bd 1f5a 65bd
00000350: cf89 993d 4227 da3d e512 a03d 68e4 63bd
00000360: acd4 f8bd 46de b43d 6147 ea3a 44a3 33bd
00000370: 04b5 bd3d a4f8 0ebd 3054 5abd 1487 d13d
00000380: 6500 cf3d 78e4 b0bd a804 843d 76f0 173b
00000390: 0721 76bd b915 0bbd 75cb c83d d0bc 5fbd
000003a0: 4864 d8bc 07ec 7f3d 91f7 043c 8988 d23c
000003b0: 2c00 c4bd 717a fabc b632 deba e44d 053e
000003c0: cd13 0cbd 5868 ed3d 9a7b dabc 23da 673d
000003d0: 99e6 67bd 5e71 063e 5dce f2bc 5c8a 073d
000003e0: aa59 7f3c 403c e1bc 24ad 9ebc 5a24 9ebc
000003f0: 84cb 66bd 02a6 5d3d a938 94bd 84b2 a83c
0.08178609 -0.027475508 -0.06008592 -0.08214511 0.088108756 -0.12179606 -0.04619931 0.04860243
-0.006926981 0.042408343 0.08038413 -0.00024942242 0.011057821 0.12373288 0.03666553 0.10959037
0.060152367 0.029071126 -0.05752417 -0.005217627 0.023032578 0.09071268 0.058927666 -0.03831756
0.051421784 0.038797446 -0.11349009 0.11426755 -0.046296477 -0.093870305 -0.0397864 -0.016303275
-0.03629798 -0.048976988 0.070526965 -0.03906392 0.050440922 0.024786772 0.08543398 0.04618103
0.008334432 -0.047320228 0.06839648 0.10178845 0.012310936 -0.08168896 0.14525805 -0.005035482
0.08535913 0.016984822 -0.067816004 0.043344855 -0.120360434 0.06526975 -0.040208824 0.11434988
0.104405105 0.048184898 0.17443423 -0.07925665 0.08148681 -0.034776863 0.018795203 -0.06915496
0.11161507 -0.089209214 -0.04655867 0.054023944 0.15749872 0.08686419 -0.094358675 -0.051496092
-0.06863963 0.08058017 -0.084342115 0.0089613395 0.009895931 0.0029957525 -0.11390414 -0.023540787
-0.064953804 0.060676776 0.032134447 0.06874852 -0.07200781 -0.10928327 0.10566825 -0.040263455
0.088435054 0.10131261 -0.08371072 0.077521764 -0.0013457875 0.07181962 -0.042702418 0.06232141
-0.13262144 -0.1286472 -0.03753616 0.10700217 0.027444603 0.021184176 0.02890484 0.079982474
-0.03695424 0.10858148 -0.037031796 -0.04433127 -0.05391933 0.15567966 0.035327386 -0.053266257
0.108236305 0.10472273 -0.016080335 -0.10409506 0.081508994 0.19204396 0.11655472 -0.043772087
0.029803522 0.09688713 -0.11043016 -0.038894966 -0.10788055 0.13634455 -0.08945994 0.061149716
-0.038757436 -0.057486113 0.0019575288 -0.006198614 0.00078051275 0.05093191 0.07620419 -0.07340339
0.07184642 -0.018193122 -0.015145963 0.14285022 -0.0924057 0.009021311 0.08659333 -0.022565817
0.12086892 -0.056755073 -0.12199563 0.011180423 0.034676187 0.11786528 -0.028227333 0.037626315
-0.07568593 -0.0017695959 0.07498831 0.04388706 -0.056718335 -0.0656442 0.022065429 -0.041499756
-0.03203765 0.015811794 -0.027812302 -0.08319968 -0.09033389 0.043367714 0.0027528338 -0.057052996
-0.07230963 0.07773945 -0.024850748 0.1392444 -0.050500605 0.076699235 -0.12294693 0.14172724
0.14536923 -0.011874975 -0.07713924 0.104334116 0.06949706 0.061393637 -0.13157552 0.061639056
0.044356078 -0.045747027 -0.07675283 -0.10065198 -0.07339778 0.14673442 -0.11490889 -0.033968776
0.017614588 0.018945767 0.09081994 -0.08164006 0.04160086 -0.108803324 0.12548238 0.012170465
-0.023748236 0.080088995 0.09255122 -0.05222152 -0.0067465683 0.06162033 0.060048465 0.14693707
0.08045423 -0.078399055 -0.09423339 -0.05599415 0.07496988 0.10652019 0.07816104 -0.055637747
-0.12149939 0.08831458 0.0017874056 -0.043856874 0.092630416 -0.03490509 -0.053302944 0.10230842
0.10107497 -0.08637327 0.064462006 0.0023184097 -0.06009009 -0.033956263 0.09804431 -0.054623425
-0.026415005 0.062480953 0.008115665 0.02569987 -0.09570345 -0.030575963 -0.0016952369 0.13017994
-0.03419857 0.115921676 -0.026670266 0.056604516 -0.0566164 0.13129184 -0.029639417 0.033090934
0.015585342 -0.02749455 -0.01936967 -0.019304443 -0.05634643 0.054113396 -0.072373696 0.020592935

fc2_actor.weight f4 [4, 256]
00000000: f6c9 aabe 317f 593b 8f98 ec3b c0f6 75bd
00000010: 1b3e fd3d 0df4 02bd 21c3 47bd 614d d43c
00000020: 3b67 5abe 05f0 4ebd af40 25bd c92f ed3d
00000030: c4ae dbbd 230a 13bf fedc 5dbe b56b 783d
00000040: 153b 993d b771 d93d f5ba 57be c047 1ebd
00000050: 2fca 3fbd adde 7e3d a5a1 bf3d af10 f83d
00000060: 308b a53c 689f 2fbe c49e 4cbd 3025 af3d
00000070: eaa2 603d 3fb6 01bd 094c 7bbd 6fba 86bd
00000080: 0b3b 0dbd 0beb 413d ece7 843d 5741 1b3d
00000090: 02fc d1be e99e ddbd 249b 843c c06e 37bd
000000a0: 510b ad3c 42ad 86bd 7f18 963d 1388 e2be
000000b0: 0403 4cbd 41c8 1ebe 529f 28be 182b f7bd
000000c0: 9fc5 b3bb e4c2 a23d c444 ddbc 1962 833d
000000d0: 9612 7e3d 434c 2c3d eef8 8f3d 33da 0f3d
000000e0: 8b05 0abd a613 3dbd 7d39 ffbe a039 e83c
000000f0: 2a58 14be 5071 debe 0ae8 393e 6ae2 aabe
00000100: 5bcc 46be 2d5e d2be f378 cd3c db07 6a3d
00000110: 874c d93d 2c39 253d b3fe 0fbf c12a 4cbd
00000120: af85 813c c289 c23c b9ee 493c e60e 23be
00000130: 1240 9f3d e0ca f3be df88 adbc 6c09 4f3d
00000140: d96d eabe bff3 423d b954 39bd bcf6 f03c
00000150: b7b1 0cbf c6fd f5bd 28e1 65bd ae2d 9a3d
00000160: da06 0fbd 2099 91bd 1db6 82bd b816 fa3b
00000170: 61d7 43be c16c b83b 056a a73b 27b9 ecbe
00000180: 25e9 6b3d c331 1b3d 8233 1fbe 408d 86bd
00000190: 6a7f 723d e01e 913b b8da 1c3d 6208 ec3c
000001a0: f198 c83d 85c9 86bd ba05 34bc 8492 aa3c
000001b0: 6caf b0bb c4f9 53bc f6ed 533d 61aa b2bd
000001c0: 3f59 67be ff64 68bd ec0e 133e 7088 873c
000001d0: 58c8 b8be 7481 29bc 25c7 b1be 10b4 36bd
000001e0: a85f b9be fb7e cabd c3ed 6d3d 3266 0bbf
000001f0: 6565 a5bd a649 10be 6ea0 413c 5ff6 a3bd
00000200: 02aa 52bc 951c 81bd 9f33 83bc d4cf cebc
00000210: d434 4ebd 8c90 943d 9b37 8ebe c8c5 48bd
00000220: de5e fdbe 26ed 4e3d 05ba e03d ffd8 d9be
00000230: 5574 d03a 8834 743b 0a83 33bd c79c 84bc
00000240: 81aa eabe 9770 24be 306f fbbc 390a 63be
00000250: c2ba e13c 3277 67be 90f2 d8be 6be0 c73d
00000260: 1478 cebe 498e 93bc 749f 3bbd 8f1a 813d
00000270: 5cf2 33bc 6ada acbe c6d6 263d ca6c 703d
00000280: 96b5 5abc 39cd 25be 7261 43bd 6046 60bd
00000290: 62c1 d03d 4c00 32bd 0438 603d 6ffd a63d
000002a0: 9d22 7bbe 7fe1 0cbe 562a f9be e275 33be
000002b0: ad92 223d bab1 90bd 4d05 a2bc d6fc 81be
000002c0: 2154 26be aa5a dbbe 07a5 22be 6c63 f5bd
000002d0: f3ba aebe 55bf 24bd 8e08 4d3e 4248 d5be
000002e0: d97d 31bc e297 74bd 78b1 41be 9190 2e3b
000002f0: 9ae4 3abe 0f8a 4cbe 7881 1c3d 9055 0abe
00000300: 2d08 a13b e2cd 073d fe8d ea3d 1909 59be
00000310: 4fed 50be 7132 083e 55af 503d 6671 febe
00000320: 856f 46be 0714 6d3d f7f3 8abd 1862 913d
00000330: c859 013d 1e46 2c3e 22f7 0abf f730 d3be
00000340: f7e7 d0bc 8f85 f73d 7713 7f3d 5992 5e3c
00000350: 7298 e23d 9a3d a43d e834 0f3e f16a d9bd
00000360: 5b3e 0ebd 56d5 8ebd efa2 fbbd 1913 d13d
00000370: 3d48 e0be f4c1 a4bd 56c9 373d cf1a e43c
00000380: 2bbf f2bd 10d6 323d c0fa b9bd 0f9e 34bf
00000390: 4924 f43c 6436 98be 6461 e4bc c625 69bd
000003a0: 0563 f43c 17da 94be ac1d 233d 26ee 033d
000003b0: e62a f13c c416 0a3e 676d f5bb 1b13 a2be
000003c0: d1c8 c3bd 529a c23d 4894 303d 18d2 2bbc
000003d0: c63b 593d 6920 e4be 7fe4 a53d d52f a23b
000003e0: 838b ee3b a097 27bd cc76 27bc 71db 043c
000003f0: d4df fabc 48e8 493d 9a2e cc3b 67e8 043d
-0.3335721 0.0033187384 0.007220335 -0.060049772 0.12365361 -0.031971026 -0.048770074 0.025915803
-0.21328442 -0.05052187 -0.04034489 0.1158138 -0.10726693 -0.5743734 -0.21666333 0.060649592
0.07481972 0.106173925 -0.21067412 -0.038642645 -0.046823677 0.06222408 0.09357003 0.12112557
0.020207971 -0.17150652 -0.0499561 0.08552015 0.054842867 -0.031667944 -0.06135181 -0.06578528
-0.034480136 0.047343295 0.06489548 0.03790411 -0.4101258 -0.10821325 0.016187258 -0.044783354
0.02112356 -0.06576015 0.07328891 -0.4424444 -0.049807563 -0.15506078 -0.16467026 -0.12068766
-0.0054862048 0.07947329 -0.027010329 0.06415195 0.062029444 0.042064916 0.070299014 0.0351202
-0.033696692 -0.046161316 -0.49848548 0.02834779 -0.14486757 -0.43445826 0.18154922 -0.33375865
-0.19413893 -0.41087475 0.025082087 0.057136398 0.106102996 0.040337726 -0.56248015 -0.04984546
0.015810816 0.023747329 0.012324982 -0.15923652 0.07775892 -0.4761572 -0.02118343 0.050546095
-0.45786932 0.047595736 -0.045246813 0.029414527 -0.5495867 -0.12011294 -0.05612293 0.07528244
-0.034918644 -0.071092844 -0.063823916 0.007632103 -0.1912513 0.005628199 0.005109074 -0.4623501
0.05759539 0.037889253 -0.15546992 -0.0656991 0.059203543 0.0044287294 0.038294524 0.028812591
0.09794796 -0.065814056 -0.010987693 0.020821817 -0.0053920057 -0.012937967 0.05174061 -0.087239034
-0.22592638 -0.056736942 0.14361161 0.01654455 -0.3609035 -0.010345805 -0.34722248 -0.044605315
-0.36205792 -0.09887501 0.058088075 -0.5445281 -0.0807598 -0.14090595 0.011818035 -0.08005976
-0.012857916 -0.0630428 -0.016015826 -0.025245585 -0.05034335 0.07254133 -0.277768 -0.049016744
-0.4948644 0.05051913 0.109729804 -0.42548367 0.001590381 0.0037262756 -0.04382614 -0.016188039
-0.4583321 -0.16058575 -0.030692667 -0.22171868 0.027554873 -0.22604063 -0.4237256 0.09759601
-0.40325987 -0.018012183 -0.045806363 0.06303894 -0.010983076 -0.33760387 0.040732168 0.0586975
-0.0133489575 -0.16191567 -0.047700353 -0.054754615 0.10193135 -0.043457314 0.05474092 0.08153807
-0.24524923 -0.13757895 -0.48665112 -0.17525437 0.039690662 -0.07065149 -0.019777918 -0.2538821
-0.1624303 -0.4284261 -0.15883265 -0.11981854 -0.34127006 -0.04022153 0.20022795 -0.4165669
-0.010833227 -0.05971516 -0.18915355 0.0026636461 -0.18251267 -0.1997454 0.03820941 -0.13509202
0.0049143047 0.03315533 0.11452864 -0.21194877 -0.20403026 0.13300492 0.05094846 -0.4969589
-0.19378479 0.057880428 -0.06784814 0.07098788 0.031579763 0.16823623 -0.54283345 -0.41248295
-0.025501234 0.12086021 0.062274422 0.013584697 0.11064233 0.08019562 0.13985026 -0.106161006
-0.034727436 -0.06974284 -0.122869365 0.10208721 -0.43805113 -0.08044806 0.044869743 0.027844815
-0.11852869 0.043661177 -0.0908103 -0.7055368 0.029802458 -0.29728997 -0.02787847 -0.05692079
0.029832372 -0.2907264 0.03982322 0.032209538 0.0294394 0.13485247 -0.0074898484 -0.316552
-0.09559787 0.095020905 0.043110162 -0.010487102 0.05303552 -0.44555977 0.08100223 0.0049495497
0.0072798147 -0.040916085 -0.0102211945 0.0081089595 -0.030624308 0.049293786 0.0062311413 0.0324482

fc2_actor.bias f4 [4]
00000000: ab91 bebd 3073 ae3d ba7b 80bc 2223 a23c
-0.09305128 0.08518064 -0.015683997 0.019792143

fc1_critic.weight f4 [256, 64]
00000000: 724a ec3c 3777 c0bd c0db 00bc 7d98 003c
00000010: 7b1f 0ebc 18f7 c4bd 820c 85bd 9f82 253d
00000020: 492a 10bb 7118 853c 9aae e93d 2081 f23d
00000030: 65ea dcbd 5a17 94bd bed2 e3bd ee55 383d
00000040: 87a9 693c db83 62bd 8984 1b3d b1fb c03d
00000050: 3dd1 453d bb19 d9bd 0bca ba3d abab 15bc
00000060: a6de bdbd ac14 83bb 4760 6dbd 69a5 743d
00000070: 6c1b 87bd 1889 cabc 3b46 42bc 1722 813d
00000080: 292f 653c 09d2 c43d a0f7 653d 73fb 533d
00000090: d11d 97bd 4426 b9bd b0af de3d 0cae 09bd
000000a0: 8ee3 08bd 025f a13d db18 fc3d b411 d03d
000000b0: 26cd 61bd bff0 94bd 6905 cfbd 72d8 65bc
000000c0: 7e47 55bd 2a93 7b3d 0701 cfbd 8f4b 5ebb
000000d0: 0f3c d83d 7f46 9dbd 46a9 df3a ad12 dbbd
000000e0: d169 213d 5e37 f53b 516f 523d bede 33bd
000000f0: 870a e9bd b19f 7abd 90ec d2bd c743 5fbd
00000100: 94f4 acbd 34b6 bb3c 2240 093e 19fa 823d
00000110: 1230 c63d 7954 9dbd d3cc c4bd 40e6 2dbd
00000120: aea9 9dbd 1177 99bd bc81 513d 2e24 f8bd
00000130: b0e7 d7bd 6a5a fd3c ea59 99bc 1cc3 84bd
00000140: 34c9 a1bd e9d8 523d c623 823d 4cfe 53bd
00000150: e1e5 b83d 9664 483d 32ad 263d 70cc e6bd
00000160: f26c d4bd ad0c ddbd 6c9e e0bb 77b4 fe3d
00000170: 4baf 9bbd 4e84 af3d c6c5 f23c 8e3b 0a3d
00000180: 7603 c3bc 4624 a9bd 5fcc 17bd a964 b7bd
00000190: a6f5 a8bd 54f3 b0bd 95b6 853d 3e03 f03d
000001a0: 403e f73d 7cb3 de3c fadc 9b3b 2e3e 8f3c
000001b0: 1547 943d a4a9 06bd b1d6 913d f62e f9bc
000001c0: f8fb b6bd b8a3 eb3d 2961 b439 e6ed de3d
000001d0: a568 cd3d 288c bebc ee4d adbd d0ef c63c
000001e0: fa69 63bc b2f4 45bd 96a0 9e3c e2ac 10bd
000001f0: b489 933d 90c0 19bd 7a81 d93d b275 d3bd
00000200: 2aa7 69bd 759b 6d3e 4290 86bd 2976 283a
00000210: 14e1 363e f7f6 403e 575a 3b3d c4af 28bd
00000220: 3cb3 df3d 80af 88be be8a 813d a7e8 d33d
00000230: 91d0 9c3d cf3f 323e aa49 4c3e d888 f1bb
00000240: fa30 903d 344f e63d 03a9 403e be19 17be
00000250: 8cf4 933d 688a 083e 883a 0c3e 2d6b f33d
00000260: 6e04 843c 8ec4 683e 4e09 cc3d eefa 733c
00000270: 1e87 e8bb b0e1 f8bd 4c02 e33c 1196 a63d
00000280: b011 f43d c447 47be 649f b83c bd8d 45be
00000290: 4818 013e de0b 833d 5486 67bd 1675 31be
000002a0: 7d9c 233e ffbb d33d c1dd d43d cf9c 293e
000002b0: 4b8d 33be 9152 283e 78ea e83d 36ca d23c
000002c0: 2a7e 893b e193 d83d 9569 093e 506d 0a3c
000002d0: a1f4 293d b848 94bc 6dd2 053e 5e97 a63d
000002e0: f128 9c3d 17e1 403e a75a 173e 91ee f43d
000002f0: 9058 fdbd 290a 043e fae3 1b3e 3c06 0d3e
00000300: a612 8cbd 31ec 863e 8f4e e53d f6de eebd
00000310: 5777 9c3d 2d1c 333d 7d7d 5e3e e911 a0bd
00000320: d68d ce3d 1808 98be 0c44 083d f362 453d
00000330: 7bd8 f33d bacc d53d 6578 0c3d 0bb9 95bc
00000340: 57b4 293d 8bcc 323e c74e 333e 5f52 e7bd
00000350: dc38 ba3d 7886 293e 3e5e 453e 8a49 463e
00000360: 4d9f 533c 7fc5 963e 2526 083c a292 2b3d
00000370: d342 1c3e c216 c53d 41bd 4f3e ac0e b63d
00000380: 060e a53d 718b 98be d6cd cf3c e5c9 36be
00000390: 65ea 0d3e ec59 0e3e 9284 a6bd d23f 8dbe
000003a0: 6e29 f73d 93e6 853c 4158 db3d 602f 153e
000003b0: 3722 64be 3fc0 ea3d 1cc1 8d3e 3c2d 1c3e
000003c0: b541 263e 1cd7 1f3e 1c90 903d 7b52 7d3d
000003d0: ff56 e93d d86d 453e cf41 483e 0df4 243c
000003e0: b6ee 9c3d 8447 a73c 4ff6 973d 1e3f 203d
000003f0: 995e 50be 4184 e13d aebe 2c3e fbda c63d
0.028844092 -0.093977384 -0.0078648925 0.007848856 -0.008674498 -0.09617442 -0.06496526 0.040407773
-0.002199786 0.016247006 0.11410256 0.11841035 -0.10786895 -0.072310165 -0.1112418 0.045003824
0.01426161 -0.05530153 0.037968192 0.09423006 0.04829525 -0.10600611 0.09120568 -0.009135167
-0.092709824 -0.004000267 -0.057953145 0.05972806 -0.06597027 -0.024723575 -0.011857565 0.0630533
0.013988295 0.096103735 0.056144357 0.051753473 -0.07378734 -0.09040502 0.108733535 -0.03361325
-0.033420138 0.078794494 0.12309428 0.101596266 -0.055127285 -0.07272481 -0.10108454 -0.014028655
-0.052070133 0.061419643 -0.10107618 -0.0033919548 0.1055833 -0.07679462 0.0017063997 -0.106969215
0.039407555 0.007483407 0.05137569 -0.043913595 -0.11378961 -0.06118745 -0.10299027 -0.054507997
-0.08445087 0.02291403 0.13403371 0.063953586 0.096771374 -0.076821275 -0.096093796 -0.04245591
-0.076983795 -0.07493413 0.051149115 -0.12116276 -0.10542238 0.030926902 -0.018719632 -0.06482527
-0.078997046 0.051476393 0.063544795 -0.05175619 0.09028221 0.04892405 0.040692516 -0.11269462
-0.10372342 -0.10793433 -0.006854823 0.12436765 -0.07601794 0.08570157 0.029635321 0.033748202
-0.023805361 -0.08258872 -0.037060138 -0.08954746 -0.08249979 -0.08640161 0.065289654 0.117193684
0.1207242 0.027185194 0.004756567 0.017485704 0.0724012 -0.032876626 0.07121027 -0.0304179
-0.08934778 0.11505836 0.00034404665 0.10885219 0.10029725 -0.023260191 -0.084621295 0.024284273
-0.013880247 -0.048329063 0.019363683 -0.035321124 0.07203999 -0.037537158 0.10620399 -0.10325183
-0.057044186 0.23203833 -0.06570484 0.00064262986 0.17859298 0.1884421 0.04574045 -0.04118325
0.10922858 -0.26696396 0.06325291 0.10347109 0.076569684 0.17407154 0.19949976 -0.0073710494
0.070405915 0.112455755 0.18814473 -0.14755914 0.07224378 0.13334048 0.13694203 0.118856765
0.016115393 0.2273123 0.09962712 0.014891369 -0.0070961853 -0.121524215 0.027711056 0.08134092
0.11917436 -0.1946097 0.02253694 -0.1929235 0.12606919 0.06398748 -0.05652459 -0.17329821
0.15977664 0.10338592 0.10393859 0.16563724 -0.17534368 0.16437747 0.11372846 0.025731187
0.004195948 0.10575081 0.13419183 0.008448914 0.041493062 -0.018101081 0.13068552 0.0813434
0.076249965 0.18835865 0.14780675 0.119595654 -0.123704076 0.12894501 0.15223685 0.1377191
-0.068394944 0.26352075 0.111966245 -0.1166362 0.0763995 0.043728042 0.21727557 -0.07815916
0.10085647 -0.29693675 0.03326802 0.04819007 0.11906525 0.10439439 0.034294505 -0.018276712
0.04143175 0.1746084 0.1751052 -0.11295008 0.09092876 0.16555202 0.19274232 0.1936399
0.012916398 0.29447553 0.008309876 0.041887887 0.15259866 0.09623481 0.20287038 0.08889517
0.080593154 -0.29793885 0.025366705 -0.17850454 0.13858946 0.1390149 -0.081307545 -0.27587754
0.12068449 0.016345298 0.107101925 0.14568853 -0.22278677 0.11462449 0.27686393 0.1525163
0.16236003 0.15609401 0.07058737 0.061846238 0.11393546 0.19280183 0.19556354 0.010067952
0.07662718 0.020419843 0.074200265 0.039122693 -0.20348586 0.110115536 0.16869614 0.09709736

fc1_critic.bias f4 [256]
00000000: e642 413c 41ca 0d3a 2738 ec3d 7194 003d
00000010: 56fa cfbd 1f84 2a3d fd42 06be d73d a33d
00000020: a14e 993d 4909 debd 1b17 e0bc a8e9 77bd
00000030: bcf7 d7bc 0c9b 8abb d602 43bd 55be 0fbe
00000040: 090b 4d3e 5a46 3d3e 4908 033c 460e 70bb
00000050: fca3 353e 1a9d 64bd a440 5c3d f3e4 c03d
00000060: 1447 aabd cfdf 533c 34f9 5abd ccd0 bc3d
00000070: fda8 9ebd 389e 66bd b0a7 67bd 0c7c 6dbc
00000080: 3551 943d c874 133d 3808 92bd 32b8 a8bd
00000090: 490a 0c3e d5c5 2dbd 3b5d f13d 60e3 fc3d
000000a0: 417e aabb f383 9c3d 3701 e43c b2fa d3bd
000000b0: 63cf e63d ae0b 353e 6b3e b6bc a6c2 003e
000000c0: d2c9 c7bd 4492 8d3c e56d ed3d ab95 5c3d
000000d0: 6040 07bd 7491 b9bb eb81 093d ba4a a63d
000000e0: 708e a63c 8196 bcbd e550 d63b 1cdc 893d
000000f0: 0574 003e b96e 9cbc 0388 95bd 18bf fdbd
00000100: 4869 b13d fc54 0c3d 7130 833d 599d dd3d
00000110: 850a f7bd 393d 7d3d 2f0f 133d d9ed f63d
00000120: 3d70 153d f86e 1cbe 65c8 19bd 7fce 11be
00000130: 788a 293d 2e7d 1e3b df20 4b3e 6b1d 5c3d
00000140: 5e64 52bd 9eb8 553c e08c 553e 6cf7 8abd
00000150: 2dff 193e 8a3e c3bd 6a28 373d 6829 013d
00000160: b4ad 67bd 2e8b d3bd 0304 583d 8313 4a3e
00000170: 8e96 2cbd 79db a63d da9d dbbd 4ab8 ecbd
00000180: 5220 92bd 402a 0a3d 90d8 213e b754 f03d
00000190: fc1c 203d 61de 943d a23e c4bd a0fc 50bd
000001a0: 512b ac3d 51f4 cbbd f9f4 9bbc fb5c 0bbd
000001b0: 08fa ad3c f5bd 02bc 9c8b d43d 838e 54bc
000001c0: 6397 c63d 27f9 1b3c a021 b5bd 0cdc c1bd
000001d0: e4d5 f9bd 22c7 ecbd 4dd8 c23d 7658 333e
000001e0: 36c1 533d e2a0 bdbd 5da1 71bd ee73 e3bd
000001f0: aafc e8bd ed4b 233e 500b cfbc 5623 96bc
00000200: 6e97 543e 473e d4bd 9afd ba3d ff31 023d
00000210: 0f26 ea3c d48d 8bbd 4c0f 90bd 1143 a43c
00000220: 5d0b 033e 0f4e 03bd cd46 183b 544f efbd
00000230: c417 c2bd e35b 9d3d d641 97bd 725e dd3d
00000240: 85f1 1e3d 8de8 493e d975 7e3d 6c18 873c
00000250: d804 53bd 0b35 9c3d 5287 56bb 9428 8a3c
00000260: 665f b3bd 8e2c dcbc fb12 a63d 4d7c 69bd
00000270: aabc fdbd d09a 293e 09d3 07be 3cf4 c53d
00000280: eacb 81bd a5cc 7c3d f302 113b a034 493d
00000290: 0ecc 113e d437 71bc 4d34 023e 0231 afbd
000002a0: 7901 d53c aa00 6e3c 3fec 523d 5826 8e3d
000002b0: 43a2 273c e3df f13d 5d88 643d 74db 89bb
000002c0: 610e 74bd a751 963d 8e28 833d 78ce aa3d
000002d0: de21 acbd b6f1 1b3e 48e2 93bd ae98 e93b
000002e0: 0449 a13d edf8 e3bc 2cae ef3d d860 063b
000002f0: 36ea 143e 4789 a83c 37fe 073d 91aa ce3d
00000300: dca6 483e 2d7a 883d 2ef2 913d c424 f6bd
00000310: 8f92 ec3c ec92 bdbd f415 92bd 076b da3d
00000320: b7a3 033e 0eb6 babd 53f6 2abd 1ab6 223e
00000330: bd61 95bd 5c6e 12bd 0037 9fbd 772e 4e3e
00000340: 4e60 dcbd bb51 b93d cfa8 bb3d 7c72 943d
00000350: 5c5e 0ebe e438 dfbd 6010 193e 2483 84bd
00000360: a3dd b5bd 5d13 cf3d f39e d43c 2b8b 283e
00000370: 57e7 ba3d 74ea ebbc 8ee8 203e a032 9c3c
00000380: 0b54 053d b1ed da3c 16ab 133e 38c7 08bd
00000390: 5b64 3d3e 4037 843d 0d6f a73d cb5a 2f3b
000003a0: 8189 70bd 23e5 2a3d eefa fe3c 8192 683d
000003b0: 37bc 603c 7c36 62bb 01d2 bf3d a07b d53c
000003c0: c0b7 24ba aeaa 51bd b789 bf3d 8c82 dd3c
000003d0: e363 903d 8cf6 9c3d 9868 ebbc 7685 89bd
000003e0: cc43 7c3d 34a5 7a3d 3732 8d3d 9abd 5d3d
000003f0: 0acd 253e 9219 9d3c 5b72 d23d 33aa 0dbd
0.011795735 0.00054088613 0.11534148 0.031391565 -0.1015517 0.041629907 -0.13111492 0.079707794
0.074857004 -0.10841615 -0.027354768 -0.060525566 -0.026363246 -0.004229909 -0.047610126 -0.1403745
0.20023741 0.18483868 0.007997581 -0.0036629601 0.17738336 -0.055813886 0.053772584 0.094186686
-0.08314338 0.012931778 -0.053460315 0.09219512 -0.07747076 -0.056303233 -0.056556404 -0.014494907
0.072420515 0.036000043 -0.07130474 -0.082382575 0.13675798 -0.042424995 0.117853604 0.12348056
-0.005203039 0.07642355 0.02783261 -0.10350551 0.112700246 0.17680237 -0.02224656 0.12574252
-0.09755291 0.017281659 0.11593226 0.053853672 -0.033020377 -0.0056630913 0.033571165 0.08119722
0.020331591 -0.09208394 0.006540405 0.06731436 0.12544258 -0.019095765 -0.07301333 -0.12389964
0.08662659 0.034260735 0.06405724 0.10821027 -0.12062553 0.061825965 0.035903152 0.120570846
0.036483992 -0.15276706 -0.037544627 -0.14238928 0.04139182 0.00241835 0.19836758 0.053738993
-0.05136525 0.013044504 0.20854521 -0.06785473 0.15038748 -0.09533413 0.044716276 0.03153363
-0.05656214 -0.10329281 0.0527382 0.19734006 -0.042135768 0.0814733 -0.10723467 -0.11558588
-0.07135071 0.0337317 0.15805268 0.11734908 0.03909014 0.07268978 -0.09582259 -0.051022172
0.084066994 -0.09958709 -0.01903771 -0.03402422 0.021237388 -0.00797986 0.10378191 -0.012973431
0.096968435 0.009519852 -0.08844304 -0.09465799 -0.121989995 -0.11561419 0.09513912 0.17514214
0.051697932 -0.092592016 -0.05899178 -0.11106096 -0.11376317 0.15946932 -0.025273949 -0.018327396
0.20760891 -0.10363441 0.09130402 0.03178596 0.0285826 -0.06814161 -0.07034168 0.020051511
0.12797303 -0.032056864 0.002323556 -0.116850525 -0.09477189 0.076835416 -0.07385604 0.1080903
0.03880455 0.19717617 0.062124107 0.016491137 -0.05151829 0.07627305 -0.0032734466 0.016865052
-0.0875843 -0.026876714 0.08109089 -0.057003308 -0.123895004 0.16562963 -0.13264097 0.09665725
-0.06337722 0.0617186 0.0022127002 0.049122453 0.14237997 -0.014722783 0.12715264 -0.085542694
0.026001679 0.0145265255 0.051494833 0.06940907 0.010231557 0.11810281 0.05579411 -0.004207069
-0.059584025 0.07339793 0.064042196 0.08340162 -0.08404897 0.15228924 -0.07220894 0.0071287965
0.07875255 -0.027828658 0.117031425 0.00205045 0.1454247 0.020573271 0.033201423 0.10091127
0.19594902 0.06663928 0.0712627 -0.12018731 0.028878478 -0.09256539 -0.071330935 0.10664945
0.12855421 -0.091167554 -0.04173882 0.15889779 -0.07294033 -0.03574978 -0.07774162 0.20134912
-0.10760556 0.09048792 0.09163057 0.07248399 -0.13903183 -0.10899523 0.14947653 -0.064703256
-0.088801645 0.10111115 0.0259547 0.16459338 0.09126156 -0.02879832 0.15713713 0.019067109
0.032550853 0.026724668 0.14420733 -0.033393115 0.18495314 0.064558506 0.08175478 0.0026756998
-0.058724884 0.041722428 0.031125512 0.056780342 0.013716749 -0.0034517338 0.09366227 0.026059926
-0.00062834844 -0.051188163 0.09352439 0.027039789 0.07050302 0.076642126 -0.028736398 -0.06714909
0.061588094 0.061192706 0.06894343 0.054135896 0.16191497 0.019177232 0.10275718 -0.034586143
