TreasureFinder/I2A_TreasureFinder (updated policy head)/Treasure finder 7/env_model.pth (torch, 25447 bytes, 6 tensors)

conv1.weight f4 [32, 14, 3, 3]
-0.007571526 -0.060200132 -0.035793643 0.023067355 0.013368838 0.081034765 0.02561377 0.0106632635
0.03507191 0.020665487 0.020220207 -0.04261648 0.03980454 -0.044361204 -0.016760105 -0.04899903
0.07708716 0.09597139 -0.07387997 -0.0030800567 0.02586241 -0.07766351 0.048352823 -0.08586149
0.025715614 -0.034101274 -0.049145017 -0.04815553 0.06883632 0.023439977 0.059461545 -0.051047795
-0.06657113 0.02660616 -0.06941696 -0.05262958 -0.022136904 0.046029877 0.009276617 0.090106785
0.052081194 -0.011983406 8.618324e-05 -0.05388971 0.061449878 -0.060935397 0.06378102 -0.08825876
0.010857813 0.04453279 0.014217772 0.017966814 -0.020682849 -0.06003513 -0.05533104 -0.01597154
-0.033212103 0.04889162 -0.038652364 0.0028417895 -0.010331955 0.03345409 0.035347033 -0.01099754
-0.051653482 0.0028634048 -0.0021051024 -0.020892419 0.05305214 -0.009090169 0.04562774 -0.027512042
-0.0067089335 -0.06204972 0.04857273 -0.04660069 -0.05609493 0.02733491 0.06485525 0.08375796
-0.031301163 -0.018751325 -0.106579155 0.029363777 -0.026379256 0.020293623 0.004604637 0.004669349
0.04393484 -0.034502506 -0.055759195 0.054562893 0.02704902 -0.049098514 -0.056451216 -0.042069137
0.024563301 0.02901525 0.0033472378 -0.015623022 -0.021759573 0.11094589 -0.0389783 -0.048037626
-0.036310326 -0.014337551 0.045494437 0.026222052 0.030966414 -0.06928692 0.021895654 -0.01893789
-0.040554192 -0.061275247 -0.059834577 0.0403897 0.055738676 -0.045200393 0.031014292 0.009660234
-0.08625912 -0.04408252 0.031939186 0.07756951 -0.044875253 -0.04042553 -0.05307537 -0.048042953
0.018052466 -0.07331687 -0.071021244 -0.023488678 0.053242907 -0.0058887973 -0.017774768 -0.071023434
-0.027866594 -0.04357042 -0.002363598 -0.0028956172 -0.0630383 0.008887479 0.00061521976 -0.08910303
0.07379465 -0.087890424 0.02291695 -0.086899854 -0.027836343 0.031072011 0.01323585 -0.03991968
-0.06943874 -0.08039569 0.014395699 -0.078014314 -0.010387857 -0.061557528 0.071037196 0.046064153
0.048160944 -0.061766855 -0.07458984 0.017846018 -0.01949913 -0.08854894 0.03477753 -0.033616688
0.0048936317 -0.06123383 -0.024050921 0.009532645 -0.023678519 -0.012419142 0.01546783 0.061618432
-0.06711531 0.01274883 -0.026654765 -0.061151918 0.008444393 -0.014004296 -0.036539923 -0.056820184
-0.018015558 -0.012653894 0.05311276 0.06490964 -0.094487205 -0.073400795 -0.0023338473 -0.03155681
-0.019457158 -0.03072239 -0.083432704 0.043738227 0.028901719 -0.04950554 0.036629528 0.023885993
-0.07486477 -0.029604467 -0.03096054 0.06313666 -0.05543663 0.0019955211 -0.04246154 0.017296473
0.023255697 0.031461958 -0.008330034 -0.08703793 0.033611882 0.034116432 -0.018412938 0.044849653
0.03789786 0.01639319 -0.088380866 -0.078546435 0.04373576 0.06506338 -0.072150655 0.05136781
-0.022376357 -0.031183893 0.027818495 0.008721972 -0.08697001 -0.0749887 0.078882195 0.053722832
0.027756497 -0.0771263 0.012864094 -0.0026929562 -0.06817969 -0.022468382 0.0034546766 -0.0006559342
0.0326568 -0.07816189 -0.08255416 -0.095970735 -0.077285536 0.0033132955 0.029864455 -0.028596276
-0.022408025 0.041414544 -0.060019083 -0.07466041 0.003144078 0.061139435 -0.006957583 0.011614665
00000000: 901a f8bb 6a94 76bd 5b9c 12bd c0f7 bc3c
00000010: f808 5b3c 8ef5 a53d f8d3 d13c f8b4 2e3c
00000020: 90a7 0f3d ab4a a93c d9a4 a53c 9e8e 2ebd
00000030: 160a 233d 18b4 35bd 7d4c 89bc 35b3 48bd
00000040: dfdf 9d3d a68c c43d 624e 97bd c7da 49bb
00000050: 68dd d33c 0c0e 9fbd 9c0d 463d 26d8 afbd
00000060: 8da9 d23c c7ad 0bbd 494c 49bd bc3e 45bd
00000070: 0efa 8c3d 3205 c03c f38d 733d 7e17 51bd
00000080: 7256 88bd 29f5 d93c 7b2a 8ebd 1d92 57bd
00000090: 7458 b5bc d389 3c3d f4fc 173c e889 b83d
000000a0: 1753 553d 0c56 44bc 46bd b438 75bb 5cbd
000000b0: deb2 7b3d 6597 79bd a09f 823d 02c1 b4bd
000000c0: f8e4 313c 0468 363d a8f1 683c 242f 933c
000000d0: 146f a9bc 65e7 75bd cda2 62bd bfd6 82bc
000000e0: 6a09 08bd 9442 483d f151 1ebd 513d 3a3b
000000f0: 5c47 29bc 2807 093d 0dc8 103d 072f 34bc
00000100: 9a92 53bd f6a7 3b3b c2f5 09bb 9426 abbc
00000110: 334d 593d efee 14bc 27e4 3a3d ef60 e1bc
00000120: 9dd6 dbbb d927 7ebd 33f4 463d 5de0 3ebd
00000130: ccc3 65bd 76ed df3c d4d2 843d 4b89 ab3d
00000140: a635 00bd 619c 99bc 2c46 dabd 4e8c f03c
00000150: 4f19 d8bc d03e a63c 7fe2 963b 5701 993b
00000160: 05f5 333d 8052 0dbd c163 64bd 577d 5f3d
00000170: e895 dd3c 861b 49bd 6439 67bd b050 2cbd
00000180: fa38 c93c 64b1 ed3c 555d 5b3b b4f7 7fbc
00000190: 2241 b2bc 9937 e33d b6a7 1fbd 1ac3 44bd
000001a0: 23ba 14bd 0ce8 6abc 6058 3a3d a1cf d63c
000001b0: 47ad fd3c 4de6 8dbd 845e b33c a223 9bbc
000001c0: 271c 26bd c1fb 7abd 1a15 75bd ac6f 253d
000001d0: 3d4e 643d 0c24 39bd af11 fe3c f545 1e3c
000001e0: 9fa8 b0bd df8f 34bd aad2 023d c3dc 9e3d
000001f0: 1dcf 37bd 3e95 25bd 8f65 59bd b0c8 44bd
00000200: c4e2 933c 2827 96bd 9673 91bd 546b c0bc
00000210: 3c15 5a3d d0f6 c0bb 649c 91bc bc74 91bd
00000220: 7c48 e4bc e676 32bd 98e6 1abb 65c4 3dbb
00000230: 391a 81bd ca9c 113c b346 213a a67b b6bd
00000240: a621 973d e5ff b3bd 54bc bb3c 8df8 b1bd
00000250: 0b09 e4bc bb8a fe3c 2edb 583c d282 23bd
00000260: e635 8ebd 7fa6 a4bd f0db 6b3c f8c5 9fbd
00000270: d531 2abc bf23 7cbd f37b 913d c4ad 3c3d
00000280: 6944 453d 3eff 7cbd 8fc2 98bd d031 923c
00000290: a4bc 9fbc 2659 b5bd e272 0e3d a7b1 09bd
000002a0: c25a a03b 53d0 7abd 7006 c5bc d02e 1c3c
000002b0: 74f9 c1bc a879 4bbc c86c 7d3c 9c63 7c3d
000002c0: c073 89bd 78e0 503c 185b dabc 6f7a 7abd
000002d0: 5a5a 0a3c 4672 65bc e3aa 15bd 48bc 68bd
000002e0: 5d95 93bc 4752 4fbc c48c 593d 58ef 843d
000002f0: 8282 c1bd 2853 96bd 76f3 18bb b741 01bd
00000300: 9e64 9fbc 86ad fbbc c4de aabd db26 333d
00000310: 4cc3 ec3c 52c6 4abd d808 163d 8fac c33c
00000320: b352 99bd 1185 f2bc f5a0 fdbc cb4d 813d
00000330: 8511 63bd 4ac7 023b 27ec 2dbd 55b1 8d3c
00000340: bb82 be3c 41de 003d b27a 08bc f140 b2bd
00000350: 9dac 093d acbd 0b3d bbd6 96bc 45b4 373d
00000360: c93a 1b3d 034b 863c 0701 b5bd f4dc a0bd
00000370: 4524 333d f33f 853d b9c3 93bd 0e67 523d
00000380: 9f4e b7bc 5d75 ffbc 9de3 e33c 9ae6 0e3c
00000390: 551d b2bd ad93 99bd fd8c a13d 790c 5c3d
000003a0: 9861 e33c 65f4 9dbd ecc3 523c 4f7c 30bb
000003b0: cba1 8bbd 9d0f b8bc db67 623b 00f3 2bba
000003c0: 23c3 053d 5713 a0bd 2812 a9bd 4e8c c4bd
000003d0: e147 9ebd e023 593b 4da6 f43c bd42 eabc
000003e0: 0991 b7bc 4ca2 293d 92d6 75bd 8fe7 98bd
000003f0: e00c 4e3b 586d 7a3d 70fc e3bb 704b 3e3c

conv1.bias f4 [32]
-0.019234324 -0.06037551 -0.03479929 0.079836816 0.05203531 0.01476988 0.046190877 -0.2120074
-0.057505216 0.014201735 -0.13781305 -0.023364764 -0.08910929 -0.14170784 0.052644562 -0.07525654
-0.10166601 -0.105727136 0.040930636 0.032112807 0.031234173 -0.14428686 -0.0659297 0.061519675
-0.08002553 -0.046703808 -0.1284807 -0.048502207 -0.0010254699 -0.041418403 -0.00776513 -0.02475475
00000000: 4d91 9dbc 504c 77bd b389 0ebd 7c81 a33d
00000010: fa22 553d 5efd 713c a532 3d3d 7818 59be
00000020: 978a 6bbd 65ae 683c dd1e 0dbe 7667 bfbc
00000030: ee7e b6bd dc1b 11be d3a1 573d 1a20 9abd
00000040: 4536 d0bd 7887 d8bd e2a6 273d b888 033d
00000050: cfde ff3c efbf 13be 2706 87bd 0efc 7b3d
00000060: 6de4 a3bd 7e4c 3fbd 7290 03be 40aa 46bd
00000070: 0f69 86ba 58a6 29bd a272 febb 79ca cabc

conv2_state1.weight f4 [3, 32, 3, 3]
-0.00010263831 0.008228948 0.0015580219 -0.015079342 0.0015313835 0.0009650501 0.0042321216 -0.0021230571
-0.00017901658 0.0019547176 0.030591255 -0.011717793 -0.032546353 -0.0035266867 -0.045956366 0.053481437
0.008614136 0.02518302 -0.03388028 -1.1961393e-05 -0.0017835919 -0.006799004 0.0023433918 -0.00689664
0.0039165397 -0.0025403681 0.008453184 -0.008742142 0.004424275 0.0039492385 -0.0028224664 -0.010261592
0.019008385 0.0024783511 0.0065928516 -0.01401246 -0.0034321256 0.028202463 0.028169474 -0.032884113
-0.024637181 -0.03680905 0.06031518 -0.047987483 0.01522746 0.015051134 0.0034144274 -0.0020179118
-0.009791638 0.0013149577 -0.0012854622 -0.0016958661 0.0014360725 -0.0008785152 -0.0025840898 0.0012097883
0.005687771 -0.0033402373 0.0028866122 -0.003608514 0.0007263291 -0.0028188878 -0.00412316 -0.0053877863
-0.0060776114 -0.0066016973 -0.005434857 -0.005489913 -0.006600561 0.009549045 0.009550221 0.009548348
0.027163917 0.006369912 -0.06557042 0.002750235 0.0012951768 -0.00282704 -0.002353698 -0.0030536116
0.0048076455 0.014995891 0.0008322032 0.0065050074 -0.0043350696 -0.002383733 -0.00463425 -0.0013049481
-0.005414568 -0.0023788281 -0.009550249 0.012349367 -0.015400125 -0.0026796483 0.0027248038 0.0017901387
-0.0069863293 -0.0024022018 0.0063960585 -0.01325974 -0.00457764 0.008122441 0.0014393809 -0.0028472561
0.03660916 0.02455896 -0.016813204 0.01753119 -0.044701796 -0.038050134 0.019567525 -0.0072519286
0.0029188693 0.0020292697 0.007550259 -0.00077287405 -0.0009939123 0.007287633 0.033535723 -0.1142412
-0.0010474373 0.0022279397 2.5794957e-06 -0.00075154286 -0.000416601 2.5476936e-06 -0.0050566113 0.0025055546
-0.01835399 0.0004991322 -0.0008980439 0.0035320611 -0.052900158 0.0009578947 -0.0039468 0.0031045335
-0.007079124 0.008929492 -0.0014124567 0.022976618 0.0014381502 0.012274897 -0.00081287156 -0.005237438
-0.0013319936 -0.0018068342 -0.0025439416 0.0076527516 -0.0010913128 -0.005040801 0.008216212 -0.0141278235
0.022175305 0.050239712 -0.027515901 -0.015910173 0.0040948535 -0.009808076 -0.024165133 -0.00981464
0.005211365 0.02918575 0.002370081 -0.023168167 0.014520782 0.0075383727 0.010339569 6.212107e-05
-0.0014530151 -0.0018601435 0.0025445826 -0.00864027 0.0011844415 -0.025488533 0.00668497 0.0060677226
-0.014600036 0.005953681 -0.016861744 -0.010524877 0.008111479 -0.012363626 0.007830258 -0.00090096385
6.958617e-05 -0.0055034333 0.013531219 0.016435282 -0.0107973255 -0.030334836 -0.006852902 -0.0060462905
0.0074770763 0.0049328073 -0.010446266 -0.014688235 0.0035433876 0.0019709063 0.012797356 -0.007983682
-0.0051420177 0.0043115895 0.0033029811 -0.004792725 0.011726384 -0.003266924 -0.003231749 0.004961801
0.001558687 -0.010350728 -0.001659905 0.0005829745 -0.006791781 0.002291429 0.007084313 -0.008043744
-0.010190291 0.00570994 -0.0004401846 0.0011857377 -0.0010330479 -0.003226201 0.0025907932 -0.006952411
0.0049051666 0.0062429635 -0.0052292715 0.009771174 -0.0002152731 -0.0004886258 0.005148384 0.0012339042
-0.0026813508 0.013134728 0.0050558536 0.0014116052 -0.0099192485 0.0038084018 -0.0049647763 0.003551719
-0.0012037972 -0.007274625 0.0123740155 -0.010503295 0.0020671715 -0.00021199668 0.005390775 0.0010955097
0.0018488086 0.019977763 -0.012371328 0.011946917 0.005105242 -0.009685154 0.01175654 0.010404627
00000000: 863f d7b8 b6d2 063c 8a36 cc3a 580f 77bc
00000010: b4b8 c83a 6afb 7c3a 9cad 8a3b fd22 0bbb
00000020: 66b6 3bb9 b81a 003b 839a fa3c fcfb 3fbc
00000030: 534f 05bd fc1f 67bb be3c 3cbd 5a0f 5b3d
00000040: 4e22 0d3c 9f4c ce3c 0cc6 0abd cbad 48b7
00000050: 6ac7 e9ba 2eca debb 9793 193b 36fd e1bb
00000060: 5156 803b 4e7c 26bb 397f 0a3c 333b 0fbc
00000070: 82f9 903b 9d68 813b 21f9 38bb 3d20 28bc
00000080: 79b7 9b3c d56b 223b d908 d83b 8494 65bc
00000090: 83ed 60bb da08 e73c abc3 e63c 7eb1 06bd
000000a0: ead3 c9bc 16c5 16bd 0d0d 773d 868e 44bd
000000b0: 997c 793c 0899 763c 96c4 5f3b f13e 04bb
000000c0: 1b6d 20bc a95a ac3a f47c a8ba d347 deba
000000d0: 993a bc3a 284c 66ba d559 29bb c291 9e3a
000000e0: 7b60 ba3b e2e7 5abb 512d 3d3b d27c 6cbb
000000f0: 1f67 3e3a 17bd 38bb 931b 87bb 078c b0bb
00000100: b326 c7bb 0d53 d8bb e316 b2bb bae4 b3bb
00000110: 8549 d8bb 9973 1c3c 8878 1c3c ad70 1c3c
00000120: dd86 de3c b2ba d03b c949 86bd 493d 343b
00000130: ecc2 a93a dc45 39bb 8040 1abb 1a1f 48bb
00000140: 7489 9d3b 53b1 753c 3628 5a3a f527 d53b
00000150: 330d 8ebb 6738 1cbb e8da 97bb cb0a abba
00000160: b06c b1bb 1de6 1bbb a678 1cbc 0055 4a3c
00000170: ce50 7cbc 0a9d 2fbb 9f92 323b 16a3 ea3a
00000180: 94ed e4bb 426e 1dbb 0796 d13b 613f 59bc
00000190: 0700 96bb fd13 053c 9ca9 bc3a 0899 3abb
000001a0: 7df3 153d df2f c93c d8bb 89bc 929d 8f3c
000001b0: 3b19 37bd 75da 1bbd 134c a03c 96a1 edbb
000001c0: 804a 3f3b 7ffd 043b 2a68 f73b b39a 4aba
000001d0: 2a46 82ba 19cd ee3b c15c 093d 4af7 e9bd
000001e0: 2a4a 89ba a002 123b 661b 2d36 3003 45ba
000001f0: 3d6b dab9 0bf9 2a36 eeb1 a5bb 3b34 243b
00000200: 1b5b 96bc 32d8 023a b56a 6bba 277a 673b
00000210: d6ad 58bd 3a1b 7b3a 2854 81bb 6e75 4b3b
00000220: fff7 e7bb 014d 123c 2f22 b9ba 7639 bc3c
00000230: 5080 bc3a a61c 493c e316 55ba d09e abbb
00000240: 4a96 aeba 4cd3 ecba 42b8 26bb efc3 fa3b
00000250: 620a 8fba 4e2d a5bb 4a9d 063c 6378 67bc
00000260: fca8 b53c 28c8 4d3d 0769 e1bc 0d56 82bc
00000270: 1f2e 863b 0db2 20bc f5f5 c5bc 95cd 20bc
00000280: 19c4 aa3b f416 ef3c 5c53 1b3b 2bcb bdbc
00000290: 93e8 6d3c 7404 f73b 4c67 293c ff46 8238
000002a0: 1973 beba 0fd0 f3ba 03c3 263b eb8f 0dbc
000002b0: 433f 9b3a 54cd d0bc 980d db3b bfd3 c63b
000002c0: fd34 6fbc 1917 c33b a421 8abc 8970 2cbc
000002d0: 02e6 043c ce90 4abc 7c4a 003c a92e 6cba
000002e0: caee 9138 2556 b4bb 0cb2 5d3c 49a3 863c
000002f0: 44e7 30bc c380 f8bc 4f8e e0bb f61f c6bb
00000300: 4302 f53b 63a3 a13b d126 2bbc eca6 70bc
00000310: 2e38 683b 522a 013b 00ac 513c fdcd 02bc
00000320: 5f7e a8bb 3c48 8d3b d476 583b 4b0c 9dbb
00000330: 0520 403c e419 56bb c0cb 53bb 9b96 a23b
00000340: db4c cc3a 1a96 29bc 2b91 d9ba c2d2 183a
00000350: 978d debb cd2b 163b 8623 e83b e8c9 03bc
00000360: 2ef5 26bc 731a bb3b 94c8 e6b9 c16a 9b3a
00000370: 5667 87ba ac6e 53bb 4cca 293b 0dd1 e3bb
00000380: 85bb a03b c691 cc3b 4f5a abbb 4617 203c
00000390: efba 61b9 1f17 00ba c6b3 a83b f4ba a13a
000003a0: 9ab9 2fbb 0b33 573c 93ab a53b 9c05 b93a
000003b0: 5884 22bc 6196 793b 90af a2bb f5c3 683b
000003c0: bbc8 9dba fa5f eebb 62bc 4a3c 0316 2cbc
000003d0: 6279 073b 6d4b 5eb9 19a5 b03b 3597 8f3a
000003e0: b953 f23a 68a8 a33c 1cb1 4abc 00bd 433c
000003f0: e049 a73b 7bae 1ebc 819e 403c 2b78 2a3c

conv2_state1.bias f4 [3]
2.7059825e-06 1.308852e-05 -1.4522448e-07
00000000: 6d98 3536 c496 5b37 00ef 1bb4

conv2_state2.weight f4 [3, 32, 3, 3]
0.16479233 0.13626133 0.00912638 -0.019898362 0.0038353212 -0.006406257 -0.011417748 0.0137929
0.019747805 0.05629513 -0.025217569 -0.042421255 0.03627878 0.055894803 -0.003740259 0.040517915
-0.026059018 -0.0036729802 -0.005547865 0.055467177 0.01745433 0.133727 0.05565929 0.06930589
0.021524679 0.0047716536 -0.011769964 0.30232766 0.28007108 0.24154595 0.0013872404 0.008691409
-0.0052981116 0.0040065455 -0.003657286 0.0020149637 -0.0366336 -0.036979415 -0.027500642 -0.012501435
-0.043531727 -0.025236996 -0.0074433107 0.043283593 -0.01640163 0.23904276 0.22503819 0.1680251
0.0062504853 0.040854998 0.053286914 0.0045123305 0.0036270083 -0.0033005595 0.030718414 0.082582615
-0.028486464 0.011246087 0.001563127 -0.013015699 -0.0035558194 -0.0019902452 0.014259831 1.7048726
1.829629 2.3358667 1.3857517 1.4378796 2.2477705 -0.0007529347 -0.0007202225 -0.0008562275
-0.026605409 0.16042429 0.05700004 0.46372595 1.2540195 2.5361388 0.1418036 0.36285874
2.5625901 0.039950572 0.1188713 0.09129009 -0.009392389 -0.0029547778 -0.004119448 -0.00796736
0.0041289246 0.004638336 0.01799627 0.050466087 -0.011932963 -0.0050875475 0.006140938 -0.007394333
0.00491967 0.0037941865 0.018839035 0.09303912 0.06894087 0.015864285 0.0025137435 0.000569728
0.03384531 -0.020934638 0.004998889 -0.008766834 -0.0002684635 0.06897674 0.022797523 0.05407084
0.26714522 0.00010392186 0.024731807 0.09106859 0.014763468 0.14347711 0.04375773 0.047812786
5.061049 5.946872 6.031448 5.012678 5.941207 6.0367103 0.028156236 0.007089014
0.018359 0.0051920433 -0.0014854616 0.08379687 -0.015668621 -0.01183818 0.010984118 0.06984487
0.095872544 0.014060983 0.08449643 0.09680502 0.08327268 0.026152292 -0.0050561125 -0.0055076606
0.006750776 0.053914387 -0.012480962 0.0018253633 0.00081710715 0.0015089208 -0.004622245 0.0021405194
-0.0001660526 -0.00924954 -0.038387522 -0.02131191 0.034003243 -0.014947082 -0.03172411 0.04737694
-0.025996264 0.011518846 0.09748687 0.12510365 0.11541415 0.0020146947 0.02731843 -0.0067322496
-0.0014183241 0.016855592 0.028783605 0.09559832 0.06475415 0.066695906 0.027855525 0.009126122
0.008031124 -0.002236177 0.0057530506 0.0046914867 0.108511195 0.106790274 0.034384526 0.0006795257
-0.0016349101 -0.009800562 0.016219078 -0.021887321 0.0042777928 0.035307065 0.04201979 -0.013569245
0.04097713 3.8223338 0.5114335 0.008641242 4.0314403 0.62733555 0.14626916 0.027997565
0.085332334 -0.000270944 -0.005849137 0.000887368 -0.005958381 -0.0016467739 0.010298264 -0.03357022
0.03893251 -0.025722133 -0.0017732257 0.004316535 0.04863139 0.022457732 0.003621782 0.00038266738
0.08928886 0.07741383 0.06375575 -0.0018573941 -0.00016524615 0.004187028 -0.013677321 -0.0113429995
0.015649097 -0.005602371 0.0010545215 0.04477842 0.16308703 0.23394819 0.08753929 0.0028869116
0.011115239 0.07561184 0.041069202 0.10270141 0.08557994 0.0144086825 -0.009768782 -0.0034554813
0.004033519 0.0020300695 -0.011296494 -0.033912137 -0.034683578 0.06372328 -0.0049195755 -0.0058117686
0.008844216 -0.0050957915 0.004604332 -0.0048808185 0.21016987 0.14119196 0.22802347 -0.025146954
00000000: 52bf 283e 1788 0b3e d086 153c e401 a3bc
00000010: 035a 7b3b 94eb d1bb 8211 3bbc 9efb 613c
00000020: 26c6 a13c b995 663d 1395 cebc e9c1 2dbd
00000030: 0f99 143d f3f1 643d 221f 75bb 1df6 253d
00000040: b979 d5bc 62b6 70bb ddca b5bb 8d31 633d
00000050: 62fc 8e3c bbef 083e fffa 633d 3ff0 8d3d
00000060: 8654 b03c 885b 9c3b cfd6 40bc b1ca 9a3e
00000070: 7a65 8f3e d257 773e 10d4 b53a 6966 0e3c
00000080: c89b adbb 5749 833b 14af 6fbb 7b0d 043b
00000090: 1d0d 16bd ba77 17bd 0749 e1bc d2d2 4cbc
000000a0: 534e 32bd d1bd cebc 04e7 f3bb 234a 313d
000000b0: b65c 86bc a0c7 743e 6970 663e c60e 2c3e
000000c0: dfd0 cc3b 9257 273d 6143 5a3d 2cdc 933b
000000d0: 1ab3 6d3b 334e 58bb 2fa5 fb3c 1321 a93d
000000e0: 725c e9bc 8241 383c d7e1 cc3a cc3f 55bc
000000f0: c008 69bb c66e 02bb 11a2 693c 4439 da3f
00000100: 4831 ea3f d77e 1540 5060 b13f 700c b83f
00000110: 79db 0f40 9860 45ba 50cd 3cba 7474 60ba
00000120: 96f3 d9bc 4446 243e e078 693d 7d6d ed3e
00000130: b683 a03f 1950 2240 f734 113e 9fc8 b93e
00000140: 7a01 2440 36a3 233d cc72 f33d 4cf6 ba3d
00000150: 89e2 19bc f2a4 41bb 6ffc 86bb 8889 02bc
00000160: ee4b 873b 2ffd 973b ea6c 933c 87b5 4e3d
00000170: 7982 43bc 71b5 a6bb ec39 c93b 294c f2bb
00000180: 2f35 a13b e3a7 783b 5254 9a3c 4b8b be3d
00000190: df30 8d3d d1f5 813c 9ebd 243b cd59 153a
000001a0: 61a1 0a3d 1e7f abbc b8cd a33b c4a2 0fbc
000001b0: 90c0 8cb9 ad43 8d3d dfc1 ba3c 6379 5d3d
000001c0: 42c7 883e a0f0 d938 5c9a ca3c 2b82 ba3d
000001d0: 79e2 713c aaeb 123e 4e3b 333d 57d7 433d
000001e0: 1df4 a140 c74c be40 9f01 c140 dc67 a040
000001f0: 5e1e be40 bb2c c140 e8a7 e63c f64a e83b
00000200: 9d65 963c 0422 aa3b d2b3 c2ba b29d ab3d
00000210: 7b5b 80bc edf4 41bc bbf6 333c d40a 8f3d
00000220: d358 c43d 0a60 663c 770c ad3d b641 c63d
00000230: de8a aa3d 553d d63c bfad a5bb 9b79 b4bb
00000240: 9d35 dd3b 55d5 5c3d f37c 4cbc 0741 ef3a
00000250: 2233 563a fbc6 c53a 3476 97bb f547 0c3b
00000260: 681e 2eb9 628b 17bc 3c3c 1dbd 5196 aebc
00000270: fc46 0b3d 9be4 74bc 24f1 01bd 520e 423d
00000280: 1ef6 d4bc 8bb9 3c3c 32a7 c73d 2c1b 003e
00000290: 415e ec3d f808 043b e6ca df3c 349a dcbb
000002a0: 0fe7 b9ba bd14 8a3c 98cb eb3c 0dc9 c33d
000002b0: d39d 843d dd97 883d 4531 e43c bb85 153c
000002c0: fa94 033c d38c 12bb 1684 bc3b 0bbb 993b
000002d0: 1e3b de3d dcb4 da3d cad6 0c3d 3322 323a
000002e0: 7b4a d6ba 8992 20bc dfdd 843c 0a4d b3bc
000002f0: ba2c 8c3b 249e 103d f11c 2c3d 8a51 5ebc
00000300: a3d7 273d 1ea1 7440 4eed 023f ff93 0d3c
00000310: 8f01 8140 1099 203f 95c7 153e 265b e53c
00000320: b8c2 ae3d 7d0d 8eb9 1eaa bfbb 429e 683a
00000330: 863e c3bb 90d8 d7ba 0dba 283c ed80 09bd
00000340: b277 1f3d 39b7 d2bc 956b e8ba b871 8d3b
00000350: b531 473d 47f9 b73c 6b5b 6d3b bfa0 c839
00000360: 14dd b63d 248b 9e3d 6092 823d ce73 f3ba
00000370: ed45 2db9 5633 893b d816 60bc fdd7 39bc
00000380: 8932 803c 1894 b7bb df37 8a3a 9469 373d
00000390: 4900 273e 1d90 6f3e cd47 b33d 5732 3d3b
000003a0: b11c 363c 61da 9a3d 2e38 283d 1e55 d23d
000003b0: 8944 af3d 6512 6c3c 3e0d 20bc 5b75 62bb
000003c0: 9c2b 843b ea0a 053b ee14 39bc 74e7 0abd
000003d0: 5e10 0ebd 5a81 823d 6434 a1bb a670 bebb
000003e0: 55e7 103c 99fa a6bb f0df 963b 46ef 9fbb
000003f0: c536 573e a094 103e fc7e 693e fc00 cebc

conv2_state2.bias f4 [3]
-4.599694e-05 -1.7989729e-05 8.6953565e-05
00000000: d7ec 40b8 a6e8 96b7 d75a b638
