TreasureFinder/MADQN_TreasureFinder/agent_1_model.pth (torch, 535883 bytes, 8 tensors)

conv1.weight f4 [32, 3, 3, 3]
0	0x3bb9ced0	0.005670406
1	0xbd09df7e	-0.033660404
2	0xbdaf682d	-0.08564792
3	0x3db834cc	0.08994445
4	0xbedf0c26	-0.43563956
5	0xbdd9b110	-0.10629475
6	0xbe6d6c55	-0.23185857
7	0xbe92cb4e	-0.28670734
8	0xbe293793	-0.16525106
9	0xbec6ab28	-0.38802457
10	0xbeecc9a4	-0.4624759
11	0xbeb72476	-0.35770005
12	0xbf008917	-0.5020918
13	0x3ec0db17	0.37667152
14	0xbedf13b3	-0.43569717
15	0xbec19a14	-0.37812865
16	0x3e26feb3	0.16308098
17	0x3c6dc09e	0.014511256
18	0x3cf87ecf	0.030333905
19	0x3e318098	0.17334211
20	0x3e0f8971	0.14017273
21	0x3e0eb0cb	0.13934629
22	0x3dd42161	0.10357929
23	0x3b5b72f1	0.0033485258
24	0xbe523223	-0.20526938
25	0xbf075b32	-0.5287353
26	0xbece6aae	-0.40315765
27	0x3e89dd1f	0.26926515
28	0xbd8279d5	-0.06370894
29	0x3c8b8a92	0.017033849
30	0xbde84908	-0.113420546
31	0xbec63561	-0.387126
32	0xbe8bb61f	-0.27287385
33	0x3cee4d96	0.02908973
34	0x3e740756	0.23830923
35	0x3e218104	0.15771872
36	0xbf9aa9b8	-1.2083044
37	0xbf255c80	-0.6459427
38	0xbf629035	-0.8850129
39	0x3e0bcdcf	0.13652728
40	0xbdaba526	-0.08381109
41	0x3ec4e487	0.38455603
42	0x3f4c583d	0.7982214
43	0xbe12da1b	-0.14341013
44	0x3e41cc89	0.1892568
45	0xbe11cfd2	-0.14239433
46	0xbd81b8d3	-0.063340805
47	0xbdd7f534	-0.10544816
48	0x3e1018e0	0.14071989
49	0xbcb1b452	-0.021692429
50	0x3e201c1d	0.15635724
51	0x3e2c0ab0	0.16800952
52	0xbcbc4ebe	-0.022986766
53	0x3df3b949	0.11900575
54	0xbee18e21	-0.44053748
55	0xbf30ceab	-0.6906535
56	0xbe055df1	-0.13024117
57	0xbe0dad22	-0.13835576
58	0x3e3ad813	0.18246488
59	0xbe425a9f	-0.18979882
60	0xbe35cfd0	-0.17755055
61	0xbd9536f8	-0.07285875
62	0xbec4b4db	-0.38419232
63	0xbed879d8	-0.4228046
64	0xbe0807a7	-0.13284169
65	0xbe3651e0	-0.1780467
66	0xbe97cd5f	-0.29648873
67	0xbec2958e	-0.38004726
68	0xbe85b6e5	-0.261161
69	0xbe5d0d29	-0.21587051
70	0xbed70937	-0.41999218
71	0xbd4da1db	-0.050203186
72	0x3e77295d	0.24136873
73	0xbce06a74	-0.02739451
74	0xbe6455c5	-0.22298343
75	0xbd609c60	-0.05483663
76	0xbf6c978c	-0.9241874
77	0xbeb6a0df	-0.3566961
78	0xbe7f2b53	-0.2491887
79	0xbdeb1ebc	-0.114804715
80	0xbb159213	-0.0022822663
81	0xbd87ddc6	-0.06634097
82	0xbe080e18	-0.13286626
83	0xbdec5fe9	-0.11541731
84	0xbc089a5b	-0.008337582
85	0x3e3287f5	0.17434676
86	0xbdd22d84	-0.10262588
87	0xbf112916	-0.5670332
88	0x3e13b20f	0.14423393
89	0xbdb8c1ea	-0.09021361
90	0xbee88326	-0.45412558
91	0xbe397bf6	-0.18113694
92	0xbe3eb4ca	-0.18623653
93	0xbf322645	-0.69589645
94	0xbd57aeb7	-0.052656855
95	0xbdc5b092	-0.09652819
96	0xbf289f08	-0.6586766
97	0x3d98ea1f	0.0746653
98	0xbe44bc9b	-0.19212572
99	0x3dc1023a	0.09424253
100	0xbdb25143	-0.08706906
101	0xbe2dbde5	-0.1696697
102	0xbe31e16a	-0.17371145
103	0xbf8111f3	-1.0083603
104	0xbe8d16ba	-0.27556401
105	0xbf2045e8	-0.6260667
106	0x3e8c60c3	0.27417573
107	0x3e84dfa8	0.25951886
108	0x3cb548a5	0.022129366
109	0xbe44a16f	-0.19202207
110	0x3d3f4682	0.0466981
111	0x3b89fff3	0.0042114197
112	0x3d182eed	0.037154127
113	0x3e662aaa	0.22477213
114	0xbee643a4	-0.4497348
115	0x3de47bd6	0.11156432
116	0xbe82a3c7	-0.25515577
117	0xbe8d166c	-0.2755617
118	0xbe3451a2	-0.17609265
119	0xbdc9e116	-0.09857385
120	0xbeb8de07	-0.36106893
121	0xbbb50874	-0.0055246893
122	0xbf0757e3	-0.5286848
123	0xbde3da4c	-0.11125621
124	0x3d91e690	0.071240544
125	0xbe84d3fb	-0.25942978
126	0xbe4b30f7	-0.19842897
127	0x3d148675	0.03626104
128	0xbdeebf7c	-0.116576165
129	0x3dfa70e2	0.12228562
130	0x3da1a85b	0.078934394
131	0xbd9e7f2c	-0.077391
132	0xbdaee24a	-0.08539255
133	0xbf011f34	-0.5043824
134	0xbef5a7d0	-0.47979593
135	0xbebde448	-0.37088227
136	0x3e1eb040	0.15496922
137	0xbe0ccae8	-0.13749278
138	0xbd8db5f9	-0.06919474
139	0xbed41e6a	-0.41429454
140	0x3e18b0e9	0.14911236
141	0xbe845803	-0.25848398
142	0x3e33e218	0.17566717
143	0x3dc06520	0.09394288
144	0xbe3503b4	-0.17677194
145	0xbd7f6cbc	-0.062359557
146	0xbe8573a2	-0.26064783
147	0xbe925daf	-0.285871
148	0x3deb2564	0.11481741
149	0xbe925ed9	-0.28587988
150	0x3eece846	0.4627096
151	0xbf455622	-0.77084553
152	0xbcf12d88	-0.029440656
153	0xbe1b80b5	-0.15185817
154	0x3ee47045	0.44616905
155	0x3e165b3b	0.14683239
156	0x3da081d9	0.078372665
157	0x3de987cc	0.11402854
158	0x3d4c2a4e	0.049845032
159	0xbe6420c7	-0.22278129
160	0x3eb7ddb9	0.35911348
161	0x3d0d2b10	0.034464896
162	0xbae5f2aa	-0.0017543633
163	0xbdeb7891	-0.114976056
164	0x3e417594	0.18892509
165	0xbe46050b	-0.19337861
166	0x3e0671e2	0.1312938
167	0xbed2fa55	-0.41206613
168	0xbe84c6f1	-0.2593303
169	0x3e850fb7	0.25988552
170	0xbe9c8dbd	-0.30576888
171	0x3c976287	0.018479599
172	0xbc4facdc	-0.01267549
173	0x3d9533db	0.07285281
174	0xbe72cbfb	-0.23710625
175	0x3cf32842	0.029682282
176	0xbe40f9be	-0.18845269
177	0x3e7117ed	0.23544283
178	0xbe8f6051	-0.2800317
179	0x3e0990f8	0.13434207
180	0xbd1ad0c3	-0.037796747
181	0xbecbcbbc	-0.39803874
182	0xbdd5c6c9	-0.10438306
183	0xbe46c49e	-0.19410941
184	0xbe756e85	-0.23967941
185	0xbd90ef43	-0.070768856
186	0x3d8f1098	0.06985587
187	0xbd863be0	-0.06554389
188	0x3e3a4793	0.18191366
189	0x3deeeb91	0.116660245
190	0x3bf1a5ec	0.0073745158
191	0xbd941f98	-0.072325885
192	0xbe43c473	-0.19117908
193	0xbeb717f5	-0.35760465
194	0xbd3e89b5	-0.046518046
195	0xbebaf1aa	-0.365125
196	0x3d2a1c4b	0.04153089
197	0xbd5d6b4e	-0.05405741
198	0xbd6ec1ec	-0.058290407
199	0xbee1473f	-0.4399967
200	0xbec586bf	-0.38579366
201	0xbee7669f	-0.4519548
202	0xbe95fb8c	-0.29293478
203	0xbed9b3f9	-0.4252012
204	0x3e2c1dc2	0.16808227
205	0x3d3fb1fe	0.046800606
206	0x3ebce1ff	0.3689117
207	0x3ca9e809	0.020740526
208	0x3e10184b	0.14071767
209	0x3d727d70	0.059201658
210	0xbe04608f	-0.12927459
211	0xbd9dbf13	-0.0770246
212	0xbdd28621	-0.10279489
213	0x3dbdec3d	0.092735745
214	0xbe9bdedc	-0.30443466
215	0xbdb3e0c8	-0.08783108
216	0xbf2d4c47	-0.67694515
217	0xbf695a09	-0.9115301
218	0xbeb9c080	-0.36279678
219	0xbd706625	-0.058691163
220	0xbe65ca6f	-0.22440504
221	0xbf4a5c1e	-0.7904681
222	0x3ec87f06	0.3915941
223	0x3e98b5cc	0.298262
224	0xbf4df0c0	-0.8044548
225	0xbf1776fb	-0.59165925
226	0xbe5658c7	-0.20932303
227	0xbdc2ae1f	-0.09505867
228	0xbf2a3051	-0.66479975
229	0x3ed2af00	0.4114914
230	0xbd946f15	-0.0724775
231	0xbf39ebc7	-0.7262539
232	0xbf78a5ee	-0.9712819
233	0xbf3288e9	-0.6974016
234	0xbde91162	-0.11380269
235	0x3e352695	0.17690499
236	0x3e899751	0.26873258
237	0xbe4bad16	-0.19890246
238	0xbea972fa	-0.33095533
239	0x3df0149c	0.11722681
240	0x3c5f570e	0.013631595
241	0xbe1cbd62	-0.15306619
242	0xbe611ee9	-0.21984448
243	0xbe16ed3d	-0.14738937
244	0xbe92957e	-0.28629678
245	0xbe9e68ef	-0.30939433
246	0x3e971d7d	0.29514685
247	0x3d3d83f9	0.046268437
248	0xbd33e128	-0.043915898
249	0x3d80dfac	0.06292662
250	0xbc4bbb61	-0.012434811
251	0xbef8e998	-0.48615718
252	0x3e0f609b	0.14001696
253	0xbd01c43c	-0.031681284
254	0x3d674ec6	0.05647161
255	0xbf4c2396	-0.797418

conv1.bias f4 [32]
0	0xbdaa7620	-0.08323312
1	0xbecb8941	-0.39753154
2	0xbdf35dfa	-0.11883159
3	0xbf0971c2	-0.53689206
4	0xbe4455e0	-0.19173384
5	0xbe90c918	-0.28278422
6	0xbea69848	-0.32538056
7	0xbeef2dcd	-0.4671463
8	0x3e6e2653	0.23256807
9	0xbdef75af	-0.11692368
10	0x3e949dd5	0.29026666
11	0xbe6a7ced	-0.22899218
12	0x3db1d67e	0.08683489
13	0xbe20b012	-0.15692165
14	0xbe737c92	-0.23777989
15	0xbe56d234	-0.20978624
16	0xbe8482a8	-0.25880933
17	0xbebb2eab	-0.36559042
18	0xbf06e05e	-0.5268611
19	0xbe1e3d42	-0.15453056
20	0xbec50ee0	-0.3848791
21	0xbe23d9c1	-0.16001035
22	0xbe00d1f8	-0.12580097
23	0x3e0ded1a	0.13859978
24	0xbe8b4033	-0.27197418
25	0xbf0dd3b8	-0.5540118
26	0xbe9d708d	-0.30749932
27	0xbe7aa99d	-0.24478765
28	0x3e25c136	0.16186985
29	0xbec8de66	-0.39232177
30	0x3d6e1d9e	0.058133714
31	0xbf014853	-0.50500983

conv2.weight f4 [64, 32, 3, 3]
0	0x3d28d26d	0.041216303
1	0x3c353178	0.011059158
2	0xbd2025d2	-0.03909857
3	0x3cf453b7	0.029825075
4	0xbd8e78a5	-0.06956605
5	0x3ca1dad7	0.019757671
6	0xbbd162fd	-0.006389974
7	0xbda78f01	-0.08181573
8	0xbcfef2f7	-0.031121714
9	0xbda1959c	-0.07889864
10	0xbd488d76	-0.048963033
11	0xbd533fad	-0.051574398
12	0xbb1b3a8a	-0.0023686015
13	0xbc9c583d	-0.019085044
14	0xbd37130c	-0.0446959
15	0xbd223f09	-0.039610896
16	0xbd9edea0	-0.07757306
17	0x3c057bd9	0.008147203
18	0xbd152d45	-0.036420126
19	0x3d17e5a6	0.037084244
20	0xbd63ae5b	-0.0555862
21	0xbdcc932c	-0.09989008
22	0xbd7e7d21	-0.06213105
23	0xbbae232a	-0.0053142505
24	0xbd135b10	-0.035975516
25	0xbc0cce18	-0.008594058
26	0xbd450c78	-0.048107594
27	0xbc73273c	-0.014840897
28	0xbc8b02a6	-0.016969036
29	0xbd688f34	-0.056777194
30	0xbc6a5dbd	-0.0143045755
31	0xbdba178a	-0.09086521
32	0xbcd2fb4d	-0.025754595
33	0xbbfa0707	-0.0076302323
34	0xbda06b0c	-0.078329176
35	0xbd69d023	-0.05708326
36	0xbd6ce6ff	-0.057837483
37	0xbbfbf500	-0.0076891184
38	0x3c6ee6cc	0.014581393
39	0xbd12d4a5	-0.035847325
40	0xbda39c53	-0.07988801
41	0xbd2ba30e	-0.041903548
42	0xbc83f1d8	-0.016106531
43	0xbd507dc3	-0.050901186
44	0xbd0fb39a	-0.03508339
45	0xbcadc858	-0.021213695
46	0xbd1be0f2	-0.03805632
47	0x3c771a90	0.015082017
48	0x3c11d325	0.008900438
49	0xbd0211a2	-0.031755097
50	0xb9bead55	-0.00036368766
51	0xbd8fb96c	-0.07017788
52	0xbd1312cb	-0.035906594
53	0xbcb8d12a	-0.022560675
54	0x3c575b2c	0.013144296
55	0xbd0963fa	-0.03354261
56	0xbd1a1e2e	-0.037626438
57	0xbc09bb15	-0.00840642
58	0x3bcb3fdf	0.0062026824
59	0xbcda346d	-0.026636327
60	0xbd4f2dc3	-0.05058075
61	0x3c937762	0.018001262
62	0x3cb0cb06	0.021581184
63	0x3d0da5a3	0.03458179
64	0xbd16fee0	-0.03686416
65	0x3a46f11c	0.00075890287
66	0xbb77c1a0	-0.0037804618
67	0xbd847085	-0.06466774
68	0xbd7da4cf	-0.06192475
69	0xbc3197ed	-0.010839445
70	0xbb925c45	-0.004466566
71	0xbd74e087	-0.05978444
72	0xbcf33820	-0.029689848
73	0x3ccd1ecb	0.025039097
74	0xbc9c72f8	-0.01909779
75	0xbcfb42c9	-0.030671494
76	0x3c112e22	0.008861097
77	0xbd80116b	-0.06253322
78	0xbbc85a58	-0.0061142854
79	0xbd39c8bb	-0.045357447
80	0xbcbfd3ef	-0.023416488
81	0xbd28085d	-0.0410236
82	0xbdb4da34	-0.088306814
83	0x3cb7d7b7	0.022441728
84	0xbc04093f	-0.008058845
85	0xbd7f2067	-0.06228676
86	0x3d12ce92	0.035841532
87	0xbc36ee87	-0.011165268
88	0xbd831a27	-0.064014725
89	0xbd75b0a0	-0.059982896
90	0xbd6cd2b0	-0.057818115
91	0xbd3efafd	-0.04662608
92	0x3c8482ae	0.016175594
93	0xbd4cfc9e	-0.050045602
94	0xbcb910ca	-0.022591013
95	0xbc76d9c6	-0.01506657
96	0xbda08303	-0.078374885
97	0xbd4e30ff	-0.050339695
98	0xbcd83b56	-0.026395481
99	0xbc9fc788	-0.019504324
100	0x3ca93aca	0.020657916
101	0x3d468f55	0.048476536
102	0x3d34ce32	0.044141956
103	0xbd71a4d0	-0.058995068
104	0x3c003176	0.007824292
105	0xbd018187	-0.031617668
106	0x3d05b73d	0.032645453
107	0x3c2160aa	0.009849707
108	0x3c7793bc	0.015110906
109	0x3c8c4946	0.017124783
110	0xbd05e212	-0.0326863
111	0xbd75e65e	-0.06003415
112	0xbc47c6c0	-0.012193382
113	0xbd4dadff	-0.050214764
114	0x3c90f769	0.0176961
115	0xbc35fec2	-0.011108102
116	0xbcfece8a	-0.031104345
117	0xbc7b8600	-0.015351772
118	0x3cdf57f6	0.027263623
119	0xbd457142	-0.048203714
120	0xbd00ca67	-0.031443026
121	0xbd162db4	-0.03666468
122	0xbd7e0b68	-0.062022597
123	0xbd2a1446	-0.04152324
124	0xbc9a225c	-0.018815212
125	0xbcbfdc18	-0.023420379
126	0xbcf37b67	-0.029721929
127	0xbc5e9f40	-0.013587773
128	0x3abf3d30	0.0014590379
129	0xbcabf9db	-0.020993164
130	0xbd897bb4	-0.067130476
131	0xbdc9b6b6	-0.098493025
132	0xbd366cb1	-0.04453725
133	0x38e0cc63	0.00010719222
134	0x3bf795b4	0.007555688
135	0x3cfe4cbe	0.031042453
136	0xbd524d4d	-0.05134325
137	0x3d1bb205	0.03801157
138	0xbc7d75af	-0.0154699525
139	0xbd91d468	-0.071205914
140	0xbd098491	-0.03357369
141	0x3cf9592c	0.030438028
142	0x3c438cd1	0.011935429
143	0xbd29e421	-0.041477326
144	0x3d54d603	0.05196191
145	0xbd1b64f9	-0.037938092
146	0xbb40ded8	-0.00294297
147	0x3cbf90a9	0.023384409
148	0xbdb4b7d1	-0.08824123
149	0xbd1858d5	-0.03719409
150	0x3d39bb58	0.04534468
151	0x3b9e22e0	0.004825935
152	0xbd5ee6dc	-0.054419383
153	0xbd0ae5ae	-0.033910446
154	0xbd3bbec8	-0.04583624
155	0xbd580bed	-0.05274575
156	0xbd01c7b9	-0.03168461
157	0xbc437fa4	-0.011932287
158	0xbc947cd0	-0.018125921
159	0x3a400b49	0.00073259004
160	0xbcaea3e9	-0.021318393
161	0x3ca5d73f	0.020244239
162	0xbcbd7328	-0.0231262
163	0xbd2b251e	-0.041783445
164	0xbc9c8ea2	-0.019110981
165	0x3bc03200	0.0058653355
166	0xbda66e8a	-0.081265524
167	0xbd222c77	-0.039593186
168	0xbd0fcb9f	-0.035106298
169	0xbc3db66a	-0.011579135
170	0x3c795bc1	0.01521963
171	0xbd800448	-0.062508166
172	0xbd2f2e59	-0.04276881
173	0x3d2ee3b5	0.042697627
174	0xbc105d17	-0.008811257
175	0xbc9b3837	-0.018947704
176	0xbcb75a56	-0.022381943
177	0xbd93a0ff	-0.07208442
178	0x3d0e2c49	0.034710202
179	0xbd645809	-0.05574802
180	0x3d30eaa3	0.043192517
181	0xbd3c8979	-0.04602954
182	0x3c6690cc	0.014072608
183	0xbc440a56	-0.011965355
184	0xbc9e0bb0	-0.019292682
185	0xbd76459f	-0.06012499
186	0xbd5706db	-0.052496772
187	0x3c0bd9ea	0.0085358415
188	0x3ca01032	0.019538973
189	0xbd5ad9ea	-0.053430475
190	0xbc22d97f	-0.00993955
191	0xbcd59e58	-0.02607648
192	0xbd2c6ced	-0.042096067
193	0x3d70136a	0.058612265
194	0xbca9bf02	-0.020720962
195	0x3cbf79b3	0.02337346
196	0xbccb6574	-0.02482865
197	0xbca99571	-0.020701142
198	0xbd160e5c	-0.036634788
199	0x3d0db933	0.034600448
200	0xbcf792fc	-0.030221455
201	0xbd0919cf	-0.03347188
202	0xbda18918	-0.07887477
203	0xbc6efd24	-0.014586721
204	0xbd6578e4	-0.056023493
205	0xbc4cb97a	-0.012495393
206	0xba498f8e	-0.0007688933
207	0xbd146d0c	-0.036236808
208	0xbd3cad45	-0.04606368
209	0xbd0bc5a6	-0.03412404
210	0xbd66ecef	-0.0563783
211	0x3c34be40	0.011031687
212	0x3ca07507	0.019587053
213	0xbd59d098	-0.053177446
214	0xbc555996	-0.013021847
215	0xbc96dacb	-0.018414875
216	0x3d13df23	0.03610147
217	0xbcf6570c	-0.030070804
218	0xbc25cc10	-0.010119453
219	0xbd6ca86d	-0.05777781
220	0x3d31a58e	0.043370776
221	0x3c82e478	0.015978083
222	0x3c2de6d9	0.01061412
223	0xbbde3c41	-0.006782085
224	0xbd0882ce	-0.03332787
225	0x3d2d44dd	0.042302
226	0xbce21d4b	-0.027601859
227	0xbda839ed	-0.082141735
228	0xbd526a0c	-0.051370665
229	0x3c620924	0.013796125
230	0xbd12dffc	-0.03585814
231	0xbd60d79c	-0.05489312
232	0xbd96e21d	-0.073673464
233	0x3d1d09db	0.038339477
234	0x3cc2dd02	0.023787025
235	0xbd4e5070	-0.05036968
236	0x3cce1265	0.025155256
237	0xbd7fcc44	-0.062450662
238	0xbc9ae081	-0.01890588
239	0xbd0c3d52	-0.034238167
240	0xbd05a776	-0.032630406
241	0x3c821d2a	0.015883047
242	0xbd7a35fe	-0.061086647
243	0x3d0eb40f	0.034839686
244	0xbd3daebd	-0.04630922
245	0xbd418c0e	-0.047252707
246	0xba65649b	-0.0008750648
247	0xbd010115	-0.031495173
248	0x3d042a9b	0.032267194
249	0x3bff8e06	0.007798913
250	0x3d0d96f1	0.034567777
251	0xbc9882a7	-0.018616987
252	0xbd74adae	-0.059735946
253	0x3d014df1	0.03156847
254	0xbcd66af2	-0.026174042
255	0xbc8e1fa9	-0.017349081

conv2.bias f4 [64]
0	0xbe063d67	-0.1310936
1	0x3f45ccbd	0.7726553
2	0x3ecc8a5c	0.3994931
3	0x3e1b3a10	0.15158868
4	0x3ea6cde3	0.32578954
5	0x3eebd70a	0.460625
6	0x3f2a1b2e	0.6644772
7	0x3f643ea9	0.8915811
8	0x3f02df6e	0.51122177
9	0x3f1ea07f	0.6196365
10	0x3dd1aa5d	0.10237572
11	0x3f093d43	0.536091
12	0x3f0b9b8c	0.5453422
13	0x3f4ce21d	0.8003252
14	0x3f67ca07	0.90542644
15	0x3f4cebd8	0.8004737
16	0xbe0a061b	-0.13478892
17	0x3eb501d8	0.3535297
18	0xbdad3574	-0.08457461
19	0x3f41b69b	0.7566926
20	0x3e99294a	0.29914314
21	0x3de189a5	0.11012582
22	0x3e5aa657	0.21352516
23	0x3ede9cf8	0.43479133
24	0x3f0db3df	0.55352587
25	0xbdcec4b7	-0.10096114
26	0x3eb74339	0.35793474
27	0xbe93b835	-0.28851476
28	0x3f4232e1	0.75858885
29	0xbf172ee1	-0.59055907
30	0x3f79c5e9	0.9756761
31	0x3da070d7	0.078340225
32	0x3f8c84ae	1.0977991
33	0x3f105521	0.56379896
34	0x3f5667f8	0.83752394
35	0x3e99bc45	0.3002645
36	0x3c5fd2c1	0.0136610875
37	0x3eb1a39f	0.34695145
38	0xbe067baa	-0.13133112
39	0xbcccc31f	-0.024995385
40	0x3f7c715e	0.98610485
41	0x3f29b9bd	0.6629904
42	0x3f02a58f	0.5103387
43	0x3eb0dcb5	0.34543386
44	0x3f16ec9f	0.58954805
45	0x3f39dbf0	0.72601223
46	0x3e92cf20	0.2867365
47	0x3debf366	0.11521034
48	0xbd9a8eb5	-0.075467505
49	0x3f3c1f90	0.7348566
50	0x3f3c66f2	0.7359458
51	0xbdf984ca	-0.12183531
52	0x3e5ee7fd	0.21768184
53	0x3f01afcc	0.5065887
54	0x3f02ecdf	0.51142687
55	0xbdbf5369	-0.09342081
56	0xbd854d53	-0.06508889
57	0xbdb91636	-0.090374395
58	0x3f320b37	0.6954836
59	0xbc11204f	-0.008857801
60	0x3f29b1eb	0.66287106
61	0x3f6e33da	0.9304787
62	0x3eda8702	0.42681128
63	0xbe75bc9e	-0.23997733

fc1.weight f4 [196, 576]
0	0x3cb84c8e	0.022497442
1	0x3cb3a781	0.021930458
2	0xbc14adff	-0.009074687
3	0xbcb9a9be	-0.022663947
4	0x3d1e4f25	0.038649697
5	0x3c7ddb64	0.015494201
6	0x3ca321b8	0.01991354
7	0x3c2bc570	0.0104840845
8	0x3c588a90	0.01321663
9	0xbc77d4cc	-0.015126418
10	0x3d1100f9	0.03540132
11	0xbc9f35f4	-0.019434907
12	0x3c5ccda4	0.013476763
13	0xbc45cb26	-0.01207236
14	0x3c170d4b	0.009219478
15	0xbd484fb7	-0.048904147
16	0xbd3d4be3	-0.04621495
17	0xbdb94922	-0.09047152
18	0xbc8e1e04	-0.017348297
19	0xbd7d29ec	-0.061807558
20	0x3cbd7a7f	0.0231297
21	0xbcc416ac	-0.023936592
22	0xbba09492	-0.0049005235
23	0xbd9a66ef	-0.07539164
24	0x3d0fca7c	0.035105214
25	0x3d0d804f	0.034546193
26	0xbd8c35a4	-0.06846169
27	0xbcc924ef	-0.024553744
28	0xbc27e8a6	-0.010248339
29	0x3cfcc1af	0.030854074
30	0x3c55813d	0.013031301
31	0x3cc0ef6f	0.02355167
32	0x3dd26681	0.10273457
33	0xbd0bc4dc	-0.034123287
34	0x3c16bcf8	0.009200327
35	0x3cc62653	0.024188196
36	0xbc7fca96	-0.015612265
37	0xbd2637c5	-0.04058053
38	0xbc9909ac	-0.01868137
39	0x3ce3c298	0.02780275
40	0xbc65ad9c	-0.0140184425
41	0x3c6ceafb	0.014460321
42	0xbced7dce	-0.028990652
43	0xba683d3c	-0.0008859222
44	0x3cac777b	0.021053066
45	0xbc79f23d	-0.015255508
46	0xbca657b9	-0.020305501
47	0xbd6547c4	-0.055976644
48	0x3c22d698	0.009938858
49	0xbb8cd49e	-0.004297807
50	0x3c37dfc4	0.0112227835
51	0x3b8a57e5	0.0042219036
52	0x3c39a6e8	0.011331297
53	0xbc06e59c	-0.008233454
54	0xbd8f5995	-0.06999508
55	0xbd0601e6	-0.032716654
56	0x3cf2468c	0.029574655
57	0xbd294f0d	-0.041335154
58	0x3cc02f91	0.023460181
59	0xbd4ff660	-0.05077207
60	0xbb2659d7	-0.0025383139
61	0x3d701225	0.058611054
62	0x3d1c525b	0.038164478
63	0x3c0ad8f4	0.008474577
64	0x3bbd5287	0.0057776603
65	0xbcaf2717	-0.021380944
66	0xbcd123af	-0.02552971
67	0x3cced11d	0.025246197
68	0x3a912f52	0.0011076725
69	0x3c7544ba	0.014969999
70	0xbe390973	-0.18070011
71	0xbd64d5dc	-0.055868015
72	0x3d163245	0.036669035
73	0xbd6c3a5c	-0.057672843
74	0xbdc79f2b	-0.09747156
75	0x3bbf55f8	0.0058391057
76	0xbd0de520	-0.03464234
77	0xbce1415a	-0.027496982
78	0xbc98a3e7	-0.018632842
79	0xbdf1fefd	-0.11816213
80	0xbced8f91	-0.028999122
81	0xbce84909	-0.028355138
82	0xbc74c37b	-0.014939184
83	0x3cd48984	0.025944479
84	0xbbe11bff	-0.0068697925
85	0x3cdd8c14	0.027044334
86	0xbd10b4ae	-0.03532856
87	0xbbf53b4d	-0.007483876
88	0xbda80416	-0.08203904
89	0xbdbd1dd9	-0.092342086
90	0x3ad9f43d	0.0016628575
91	0xbb3507fe	-0.0027623172
92	0xbc8448b8	-0.016147956
93	0xbcbbc529	-0.022921162
94	0xbd3b416a	-0.04571668
95	0xbcf85570	-0.030314177
96	0xbcec5127	-0.02884729
97	0xbd2c0f3e	-0.042006724
98	0x3d39c3e5	0.045352835
99	0xbd96dead	-0.07366691
100	0x3c0461ea	0.008079985
101	0x3c3abf0a	0.011398086
102	0x3d075dcd	0.03304844
103	0xba11d248	-0.00055626454
104	0x3c6178e3	0.013761732
105	0xbcd9e673	-0.026599145
106	0x3c8d50b7	0.017250402
107	0xbd99f895	-0.075181164
108	0xbcc9a8c4	-0.024616607
109	0xbceed646	-0.029154908
110	0xbd977b45	-0.07396559
111	0xbd8b522b	-0.06802782
112	0xbcdda2b8	-0.02705513
113	0x3c167704	0.009183649
114	0xbc396fcf	-0.011318161
115	0xbd684014	-0.056701735
116	0xbd399389	-0.045306716
117	0x3da16cb6	0.07882063
118	0xbda9b055	-0.08285586
119	0xbd3d3d74	-0.046201184
120	0x3d00e58b	0.03146891
121	0xbc4d8786	-0.012544518
122	0xbd52e8e8	-0.051491648
123	0xbb390bbf	-0.002823576
124	0xbc4b8f8d	-0.012424362
125	0x3b24da95	0.00251547
126	0xbbc0b40d	-0.0058808387
127	0xbdfa0b95	-0.1220924
128	0x3bed21fa	0.0072367163
129	0xbb1e296c	-0.0024133576
130	0x3c5eb90c	0.013593923
131	0xbd165c19	-0.036708925
132	0xbd726888	-0.05918172
133	0xbc59fd59	-0.013305032
134	0xbd469dd5	-0.048490364
135	0xbd82970a	-0.06376465
136	0xbda9705f	-0.08273386
137	0xbcc12940	-0.02357924
138	0xbd276413	-0.040866923
139	0xbadd62fb	-0.001689046
140	0xbd183a20	-0.037164807
141	0xbc89f133	-0.016838646
142	0xbcbc501d	-0.02298742
143	0x3c2df5a7	0.01061765
144	0x3d189440	0.037250757
145	0x3c9d6795	0.01921443
146	0xbd3430dc	-0.04399191
147	0xbcbd914a	-0.023140568
148	0xbddceb33	-0.10787048
149	0xbca17ada	-0.0197119
150	0x3c56c1fc	0.013107773
151	0xbc8f1e3c	-0.017470472
152	0xbc9bf428	-0.019037321
153	0x3d0b1cf7	0.03396317
154	0x3cc886a0	0.024478257
155	0xbbc8f755	-0.006133
156	0x3c173a4f	0.00923021
157	0xbd917668	-0.07102662
158	0xbbe9edae	-0.0071389293
159	0x3cf423fd	0.029802317
160	0x3cb3397c	0.021877997
161	0xbcb52622	-0.02211291
162	0x3b9ba16c	0.0047494676
163	0x3bf4b092	0.007467338
164	0xbb505e10	-0.0031794347
165	0x3c9f2517	0.019426866
166	0x3cd0d8b2	0.025493953
167	0x3cac019f	0.020996867
168	0x3ae8ecc4	0.0017770757
169	0x3bf61e6b	0.0075109503
170	0x3c0277d4	0.00796314
171	0xbc00df20	-0.007865697
172	0xbd98188e	-0.074265584
173	0x3ae4a683	0.0017444644
174	0xbcbfe452	-0.023424301
175	0x3d9e35bd	0.077250935
176	0x3d2803c7	0.041019227
177	0xbd504e7d	-0.050856102
178	0x3ca976f5	0.020686606
179	0xbd5d51e5	-0.05403318
180	0xbd821b43	-0.06352856
181	0xbd9763d1	-0.07392085
182	0xbda4fdeb	-0.080562435
183	0xbd399c04	-0.045314804
184	0xbd39d51d	-0.045369256
185	0xbcb564f6	-0.022142868
186	0xbd02e8d1	-0.031960312
187	0x3c416b4e	0.011805369
188	0xbd1b7869	-0.03795663
189	0xbcebd24e	-0.028786805
190	0xb94e8d0a	-0.00019698232
191	0xbc999d78	-0.018751845
192	0xbd652ecd	-0.055952836
193	0xbba9675e	-0.005169793
194	0x3d100a63	0.035166156
195	0x3cecf95c	0.028927498
196	0x3c571e91	0.013129846
197	0xbd008731	-0.03137893
198	0xbca6c1eb	-0.02035614
199	0x3c860104	0.016357906
200	0xbd844efb	-0.06460377
201	0xbc271330	-0.010197446
202	0x3c5a6867	0.0133305555
203	0x3c99145d	0.018686468
204	0xbd0a6ce7	-0.033795264
205	0xbd58b462	-0.0529064
206	0xbc963ebd	-0.018340463
207	0xbce5fac8	-0.028073683
208	0x3bfa63e0	0.0076413006
209	0xbd3f346f	-0.046680864
210	0xbd896d61	-0.067103155
211	0xbd78e5a7	-0.06076589
212	0x3b883f51	0.0041579385
213	0xbd077fb2	-0.033080764
214	0x3c04894c	0.008089375
215	0xbd06ad98	-0.032880396
216	0x3b0db663	0.0021623604
217	0xbd3ea13f	-0.046540495
218	0x3d14e3d6	0.036350094
219	0x3c58393b	0.013197239
220	0xbc43edd4	-0.011958558
221	0xbd9e28aa	-0.077226
222	0xbccc6137	-0.0249487
223	0xbcc44009	-0.023956316
224	0xbc1271f3	-0.0089383
225	0xbc10901c	-0.008823421
226	0x3b7e3fb0	0.0038795285
227	0xbc4db4fe	-0.012555359
228	0xbd114f0e	-0.035475783
229	0x3bf3b638	0.0074374937
230	0xbd096d0b	-0.033551257
231	0x3cb21c14	0.021741904
232	0x3d0146c9	0.031561647
233	0x3cb36f46	0.021903645
234	0xbd158d51	-0.036511723
235	0x3bcaf4bb	0.006193725
236	0x3cca5e7d	0.024703259
237	0x3c8f80c5	0.017517457
238	0x3caf3156	0.02138583
239	0xbd5d9f92	-0.054107256
240	0xbc866e0b	-0.016409894
241	0x3ca30a5a	0.019902397
242	0x3cd7e1d5	0.026352802
243	0xbdedeb74	-0.11617175
244	0x3cb59f23	0.022170609
245	0x3cc32b38	0.02382432
246	0xbd11b102	-0.0355692
247	0xbd35df61	-0.044402484
248	0xbc575d7f	-0.01314485
249	0x3d1a25a5	0.037633557
250	0x3cbb3351	0.022851618
251	0xbc4bec2d	-0.012446445
252	0xbc82dc75	-0.015974263
253	0x3ca5405b	0.020172289
254	0x3e79d887	0.24399005
255	0xbccafdce	-0.024779227

fc1.bias f4 [196]
0	0xbd150cd8	-0.036389202
1	0x3ee29e67	0.44261476
2	0x3f7f7308	0.997849
3	0xbca2b4bf	-0.019861577
4	0xbd1948c8	-0.037422925
5	0xbdbe4ab3	-0.092915915
6	0xbdea6e83	-0.1144686
7	0x3e9c15da	0.3048542
8	0x3e8cbb69	0.27486733
9	0x3fbea367	1.4893616
10	0xbda81722	-0.08207537
11	0x3d81c794	0.06336895
12	0xbd959766	-0.073042676
13	0x3f40242c	0.75055194
14	0xbd4e31a2	-0.050340302
15	0xbc7bb7d2	-0.01536365
16	0xbd5b5df9	-0.053556416
17	0x3e131ab2	0.14365652
18	0xba9980ce	-0.001171136
19	0xbd1c201f	-0.03811657
20	0x3e0655f7	0.1311873
21	0xbd688d09	-0.056775127
22	0x40078bcb	2.1179073
23	0xbcfd2348	-0.030900612
24	0xbd2d2a1a	-0.04227648
25	0xbd5a8c92	-0.053356715
26	0xbd631a5d	-0.055445064
27	0x3f70fad2	0.9413272
28	0x3f5700d5	0.83985645
29	0xbcad429f	-0.021149931
30	0xbd9801b4	-0.074222
31	0xbdb61cc1	-0.08892203
32	0x3f2bc679	0.6709972
33	0xbd82db53	-0.06389489
34	0x3e85e30d	0.26149788
35	0xbd617bca	-0.055049695
36	0xbd0526c3	-0.03250767
37	0xbc274322	-0.010208877
38	0xbcfa10dd	-0.03052562
39	0x3e80406b	0.25049147
40	0xbc63e328	-0.013909139
41	0xbd775506	-0.06038382
42	0xbdff0cef	-0.12453639
43	0x3ed4e4cf	0.41580817
44	0xbd89eda5	-0.0673478
45	0xbd129480	-0.035786152
46	0x3e1d5b08	0.15366757
47	0x3efd3e11	0.49461415
48	0xbd6fc3b6	-0.058536254
49	0xbe29102e	-0.16510078
50	0x3f44cc4b	0.76874226
51	0xbcc0adf0	-0.02352044
52	0x3f20461e	0.6260699
53	0x3f22fe57	0.6366934
54	0xbd6ac84d	-0.057319928
55	0xbd0a1c5e	-0.03371846
56	0xbd29f688	-0.041494876
57	0x3f2ca084	0.6743243
58	0x3e98198c	0.2970699
59	0x3ba45991	0.00501556
60	0xbd7084f9	-0.058720563
61	0xbdade5a9	-0.0849107
62	0xbcf7794f	-0.030209212
63	0x3ed3c1b5	0.41358724
64	0x3f733452	0.9500171
65	0x3bafff88	0.005371038
66	0x3f4f1a1a	0.808992
67	0xbe3152aa	-0.1731669
68	0xbd08e218	-0.033418745
69	0xbd57a572	-0.052648015
70	0x3da2ef2e	0.07955776
71	0x3ee76add	0.45198718
72	0x3f21ad8b	0.6315543
73	0xbd7fa303	-0.06241132
74	0xbdda4f16	-0.10659616
75	0xbd835b51	-0.064139016
76	0x3e5d8403	0.2163239
77	0xbd905d26	-0.07049017
78	0x3f415335	0.7551759
79	0xbda8ea79	-0.08247847
80	0xbd9765c3	-0.073924564
81	0x3f404234	0.7510102
82	0xbd07b816	-0.033134542
83	0xbc99bf72	-0.018768046
84	0xbdaa514a	-0.08316286
85	0xbd91017d	-0.07080362
86	0x3f9c713b	1.2222055
87	0x3eabd986	0.33564395
88	0x3f702595	0.93807346
89	0xbcf27298	-0.029595658
90	0x3cb44224	0.022004195
91	0x3c2cf680	0.010556817
92	0x3b8dc3c4	0.0043263156
93	0x3f52c9b0	0.82339
94	0x3de20fed	0.11038194
95	0x3f613819	0.87976223
96	0xbd335298	-0.04377994
97	0xbd60a61f	-0.054845925
98	0x3e1ba8d6	0.15201125
99	0xbe1e9033	-0.15484695
100	0xbc6e8c21	-0.0145597765
101	0xbcc7efc0	-0.024406314
102	0xba719294	-0.0009215262
103	0xbd259546	-0.04042556
104	0xbd81de71	-0.063412555
105	0xbd17f49c	-0.037098512
106	0xbd1e0f10	-0.038588583
107	0x3c8c080f	0.017093686
108	0xbd96ea98	-0.07368964
109	0xbd3da3ee	-0.046298914
110	0xbe09e9a5	-0.13468035
111	0x3f22afc8	0.6354947
112	0x3e8c4d81	0.2740288
113	0xbd4b95b0	-0.0497033
114	0xbd5f41f6	-0.054506265
115	0x3e21bdc7	0.1579505
116	0xbd93f561	-0.07224537
117	0x3f5ec715	0.87022525
118	0x3f00c4a5	0.50300056
119	0xbd97e89f	-0.07417416
120	0xbd5ee9a4	-0.054422036
121	0x3d5519a4	0.052026406
122	0xbcaf9cf7	-0.021437151
123	0xbd70c6d4	-0.058783367
124	0xbd8b2fa2	-0.067961946
125	0xbcbb8d32	-0.022894476
126	0xbd06ea91	-0.032938544
127	0xbd751630	-0.059835613
128	0x3f00deb0	0.50339794
129	0xbdd08cbf	-0.10183095
130	0xbe62ce07	-0.22148906
131	0xbd8f4a33	-0.06996574
132	0xbd22e199	-0.039765928
133	0xbb2eaf89	-0.002665492
134	0xbd872129	-0.06598122
135	0x3d64ab3d	0.055827368
136	0xbc87b2bb	-0.016564718
137	0xbcc236a6	-0.023707699
138	0x3ee9ca61	0.45662215
139	0xbdad9cb2	-0.08477153
140	0x3eee0e7c	0.46495426
141	0xbb42511e	-0.00296504
142	0xbd8b1d38	-0.067926824
143	0x3dd6e8d0	0.10493624
144	0xbd095561	-0.03352869
145	0x3e84daf8	0.2594831
146	0x4024c305	2.574403
147	0x3ea6ed8f	0.32603118
148	0x3f94bb94	1.1619744
149	0xbd3d8e1e	-0.04627811
150	0xbd4298b9	-0.04750893
151	0xbd64a12b	-0.055817764
152	0xbd413180	-0.047166348
153	0xbd9c61c2	-0.07635833
154	0xbd8954d9	-0.067056365
155	0x3d00fb18	0.03148946
156	0xbd3ca661	-0.04605711
157	0xbe48341c	-0.19551128
158	0x3eb2b068	0.34900212
159	0x3f3a5777	0.7278971
160	0xbde8b615	-0.113628544
161	0x3f18c41e	0.5967425
162	0x3fa2fe57	1.2733868
163	0x3ece47ef	0.40289256
164	0xbd121258	-0.035662025
165	0xbd8af14f	-0.06784307
166	0x3f5ff203	0.87478656
167	0x3eddfb27	0.43355677
168	0x3d06daa0	0.03292334
169	0xbd90ac01	-0.07064057
170	0xbd2af575	-0.041737992
171	0xbd256dfd	-0.040388096
172	0xbd79324d	-0.060838986
173	0xbd7bc3d0	-0.06146604
174	0x3bc9b904	0.006156089
175	0x3db4e51c	0.08832762
176	0x3f1b143a	0.6057774
177	0x3e3942d7	0.18091904
178	0x3dbcea43	0.092243694
179	0x3f0e782f	0.55652136
180	0x3e13b6a0	0.14425135
181	0xbc568f1f	-0.013095646
182	0xbd85e3b6	-0.06537573
183	0xbdd4cdf6	-0.103908464
184	0x3f81d69a	1.0143616
185	0xbd98565f	-0.07438349
186	0xbd1090a4	-0.03529419
187	0xbcb9e6ed	-0.022693122
188	0x3e97567e	0.29558176
189	0xbd58bfcd	-0.05291729
190	0x3eb56291	0.35426763
191	0xbd6fe8e5	-0.058571715
192	0x3f42945d	0.76007634
193	0xbc5e8c1e	-0.013583211
194	0xbcdad2f7	-0.026711924
195	0xbd422dc7	-0.047406938

fc2.weight f4 [4, 196]
0	0xbd274c12	-0.04084403
1	0x3c22a48e	0.009926928
2	0x3e9a4eb4	0.3013817
3	0x3cccdda5	0.025008032
4	0x3c18eabb	0.009333308
5	0xbd053a92	-0.03252656
6	0x3d0cbb56	0.034358345
7	0xbe7564ab	-0.23964183
8	0x3d4716a7	0.048605587
9	0x3ea22e5d	0.31675997
10	0x3b00e4c3	0.0019667603
11	0x3df70754	0.120619446
12	0x3e0f5cfa	0.14000311
13	0x3f3cb7aa	0.7371775
14	0x3d3d52e4	0.04622163
15	0x3d45f643	0.048330557
16	0xbd6ea442	-0.058262117
17	0xbc830c7c	-0.015997164
18	0xbbf85040	-0.007577926
19	0xbbe5ffeb	-0.007019033
20	0x3cce47a1	0.02518064
21	0x3cb3a97d	0.021931404
22	0x3f11b7be	0.56920993
23	0x3d28c43f	0.04120278
24	0xbd563e05	-0.05230524
25	0x3ca7ea3f	0.02049744
26	0xbd485424	-0.048908368
27	0x3e6f394a	0.23361698
28	0x3e8547f8	0.2603147
29	0x3c57d0db	0.013172354
30	0x3b99fabd	0.00469908
31	0x3bd725c3	0.006565781
32	0x3ef5148c	0.4786724
33	0x3cc0dc10	0.023542434
34	0x3d1549fc	0.03644751
35	0xbbc96fa4	-0.006147342
36	0x3d980313	0.07422461
37	0x3c66370d	0.014051211
38	0x3c0311e7	0.007999874
39	0x3b6287b5	0.003456575
40	0x3d61e30a	0.055148162
41	0x3d2d893a	0.042367198
42	0xbc42ada7	-0.011882222
43	0x3ed1588f	0.40887877
44	0xbcf1e16f	-0.02952644
45	0xbd6d48eb	-0.057930868
46	0x3d2afa0f	0.04174238
47	0x3e8a657b	0.27030548
48	0x3acc7174	0.0015597777
49	0x3c92b326	0.01790769
50	0x3e779021	0.24176075
51	0x3bd30778	0.0064400993
52	0x3c030f00	0.007999182
53	0x3e0a5837	0.13510214
54	0xbd778632	-0.060430713
55	0x3d4cca05	0.04999735
56	0x3d53d766	0.05171909
57	0xbe9c9546	-0.30582637
58	0xbe233bb0	-0.15940738
59	0x3d405a9f	0.046961423
60	0x3d6fd679	0.058554146
61	0xbc1b2aa9	-0.00947062
62	0xbd1b6782	-0.03794051
63	0xbbdd6985	-0.0067569637
64	0x3edd4da8	0.4322331
65	0x382c1f04	4.103688e-05
66	0x3b9f9f60	0.004871294
67	0x3c9cd427	0.01914413
68	0x3d82e04a	0.06390436
69	0xbd7eb383	-0.062182914
70	0x3e9637f6	0.2933957
71	0x3d45c28c	0.048281237
72	0x3d95ecf8	0.07320589
73	0xbc28c7dd	-0.010301557
74	0xbd132ce7	-0.035931494
75	0xbd72b653	-0.05925591
76	0x3d39d9c1	0.045373682
77	0xbcd17b41	-0.025571467
78	0x3e849b50	0.25899744
79	0x3b96848f	0.004593439
80	0xbd51d7bd	-0.051231135
81	0x3e13d58d	0.14436932
82	0x3d07d9e2	0.033166774
83	0x3d305915	0.043053705
84	0xbc452955	-0.01203378
85	0xbc9c97b6	-0.01911531
86	0x3e81812a	0.25293857
87	0x3ceaa206	0.028641712
88	0x3e9647c4	0.29351628
89	0x3d7dbed2	0.06194956
90	0x3a53ee0f	0.0008084485
91	0x3d821453	0.06351533
92	0x3c987455	0.018610159
93	0x3eff7767	0.49895784
94	0x3d45bdcd	0.04827671
95	0x3ea3d40a	0.3199771
96	0xbc568d08	-0.013095148
97	0x3d56cca7	0.052441265
98	0xbe1325dd	-0.14369912
99	0x3c758e05	0.014987473
100	0xbc73d860	-0.014883131
101	0xbd2ae3c1	-0.04172111
102	0x3d04d108	0.03242591
103	0x3d0e2132	0.034699626
104	0x3da4d484	0.08048347
105	0x3c435ec6	0.011924451
106	0x3c92f84a	0.01794066
107	0x3cd15643	0.025553828
108	0x3bf85ad6	0.007579188
109	0x3bc5fac1	0.006041855
110	0xbb9cf751	-0.0047902246
111	0x3e253208	0.16132367
112	0x3cd4f84f	0.025997309
113	0xbc830eeb	-0.015998324
114	0x3d41ce08	0.047315627
115	0x3dac0505	0.08399395
116	0xbcffede6	-0.031241369
117	0x3e80d697	0.2516372
118	0x3bd39f2e	0.0064581847
119	0xbc9d52c0	-0.019204497
120	0x3d7a913e	0.06117367
121	0xbdc0d72b	-0.0941604
122	0x3b85ed4c	0.004087126
123	0x3d0ea007	0.034820583
124	0x3d68956c	0.056783125
125	0x3ce724f2	0.02821586
126	0x3bfded91	0.0077492674
127	0xbd2d5b37	-0.042323317
128	0x3d1ba13d	0.037995566
129	0x3efc3834	0.4926163
130	0x3d9609f0	0.07326114
131	0x3d1fc638	0.039007396
132	0xbd01e97a	-0.0317168
133	0x3dcb2199	0.099185176
134	0x390f8445	0.00013686817
135	0xbd6e35f4	-0.058156922
136	0x3c70affb	0.0146903945
137	0x3d07fab1	0.033198062
138	0x3d1bd632	0.03804607
139	0xbd10e6c9	-0.035376344
140	0x3e9acbc7	0.30233595
141	0xba8fd4d7	-0.0010973465
142	0x3b691f3c	0.0035571596
143	0x3cb70c27	0.022344662
144	0x3b40d8f2	0.0029426184
145	0x3d195079	0.03743026
146	0x3f25ba6b	0.64737576
147	0xbe63fb3e	-0.2226381
148	0x3e830fc1	0.25597957
149	0xbd382fc8	-0.044967443
150	0xbd5b41b7	-0.053529467
151	0xbb2c0c40	-0.0026252419
152	0x3d965752	0.07340874
153	0x3d8e2c7c	0.069420785
154	0x3bbc3d91	0.005744644
155	0x3d56ead2	0.052470036
156	0x3ca99cf9	0.020704733
157	0xbe08c202	-0.13355258
158	0x3da4c864	0.08046034
159	0x3e5dc6fd	0.2165794
160	0xbc8b51d5	-0.017006794
161	0x3f0919cf	0.53555006
162	0x3ecd2747	0.4006903
163	0x3d3cccc0	0.046093702
164	0xbd3f97d8	-0.04677567
165	0x3c378aa8	0.011202492
166	0x3ed17613	0.40910396
167	0x3b8eff83	0.0043639555
168	0x3d4d396e	0.050103597
169	0x3cc51b08	0.024060741
170	0x3ccd4e7d	0.02506184
171	0x3c866741	0.016406657
172	0xba70d49a	-0.00091869535
173	0xbcd14f1c	-0.025550418
174	0x3c94db57	0.018170996
175	0xbcd726b0	-0.026263565
176	0x3e3ddae2	0.18540528
177	0xbc27f1aa	-0.010250488
178	0x3d419ccd	0.047268678
179	0x3dc3d676	0.095623896
180	0x3a90ba7e	0.0011041907
181	0x3d3c9d3b	0.046048384
182	0x3bf8e98a	0.0075961994
183	0x3e05abd5	0.1305383
184	0x3df617e9	0.12016279
185	0xbbad56d4	-0.0052898917
186	0xbc0025fa	-0.007821554
187	0x3d5ac76c	0.05341284
188	0x3d537408	0.051624328
189	0xbbb16a1b	-0.00541426
190	0x3e022434	0.12709123
191	0x3b1ebd7f	0.0024221835
192	0x3e8d3404	0.27578747
193	0x3d910fbc	0.07083079
194	0x3bccd3f0	0.006250851
195	0x3c9a0b10	0.018804103
196	0xbda6ca71	-0.081440814
197	0xbd24773c	-0.040152773
198	0x3f0ce7bb	0.5504109
199	0xbbca48ab	-0.0061732135
200	0xbd012ee6	-0.031538866
201	0xbcd9ee7a	-0.026602972
202	0x3df76f5a	0.120817855
203	0xbe940228	-0.28907895
204	0x3c3deea8	0.011592545
205	0x3f09406c	0.53613925
206	0x3c3b3898	0.011427067
207	0xbd45154c	-0.048116013
208	0xba787e3b	-0.0009479259
209	0xbdf910f0	-0.12161434
210	0x3d71ebbd	0.05906271
211	0x3c286c51	0.010279731
212	0x3cad6612	0.021166835
213	0xbd027a8f	-0.031855162
214	0xbd94380d	-0.07237253
215	0x3cf4adb3	0.029867982
216	0xbbb0018f	-0.0053712795
217	0xbd3497bc	-0.044090018
218	0x3ef1a88b	0.471989
219	0xbc5d6117	-0.013511918
220	0xbce93820	-0.028469145
221	0xbc06737f	-0.008206247
222	0xbdc4739c	-0.09592363
223	0x3ed73325	0.42031208
224	0x3f0cdfb0	0.5502882
225	0x399130f7	0.00027693037
226	0x3c9927c1	0.018695714
227	0xbca1bf80	-0.019744635
228	0x3f33c3fd	0.7022093
229	0x3ce5153a	0.027964223
230	0x3d4dba49	0.050226483
231	0x3ce77740	0.028255105
232	0x3c162c20	0.009165794
233	0xbd84d7fb	-0.064865075
234	0x3cfa95c5	0.030588994
235	0xbe07c4a1	-0.13258602
236	0x3c81eeb3	0.015860891
237	0xbd471a39	-0.048608992
238	0xbcf37705	-0.029719839
239	0x3e8241d3	0.25440845
240	0x3c4d162b	0.012517492
241	0x3d9645db	0.073375426
242	0x394445fc	0.00018718088
243	0x3e093293	0.13398199
244	0x3c6c29a0	0.014414221
245	0xbd98a751	-0.07453788
246	0x3e655871	0.22397019
247	0xbd3854ce	-0.04500275
248	0x3d1e2210	0.038606703
249	0x3e9bdc60	0.3044157
250	0xbba32ac4	-0.0049794633
251	0x3bd39a51	0.006457605
252	0x3c4e0915	0.0125754075
253	0x3d5df119	0.054185007
254	0x3e0c2511	0.13686015
255	0x3bac92ab	0.0052665076

fc2.bias f4 [4]
0	0x3ff6660f	1.9249896
1	0x402579db	2.5855625
2	0x4040c4b5	3.012006
3	0x401c6918	2.4439144
