TreasureFinder/MADQN_TreasureFinder/agent_0_model.pth (torch, 535883 bytes, 8 tensors)

conv1.weight f4 [32, 3, 3, 3]
000000 b2 44 bc be b1 2f 51 bc 9d 4d 19 be af ab 36 be
       -0.3677116 -0.012767718 -0.14971013 -0.1783893
000010 dc c1 a3 bf 99 3b 90 bf b8 53 90 3e 7e 96 16 bd
       -1.2793536 -1.1268188 0.28188872 -0.036764614
000020 3f a8 7a 3c 39 ce 60 3e 83 b4 02 3e c2 60 48 be
       0.015298902 0.21953668 0.12764172 -0.1956816
000030 36 ee af 3e 17 05 c0 3e 1d 4d c1 3e 70 a7 e9 be
       0.34361428 0.37503883 0.37754145 -0.45635557
000040 02 c2 12 3f a6 72 4d be f7 54 95 3e b7 a5 88 bd
       0.5732728 -0.20063266 0.29166386 -0.066722326
000050 d2 9f c9 be 39 e6 0d bf 92 22 cc be 44 4e 81 3e
       -0.39379746 -0.55429417 -0.39870125 0.25255024
000060 60 eb 04 3e 26 a0 32 3c 45 23 b8 3e 23 fa f9 be
       0.12980413 0.01090244 0.3596441 -0.48823652
000070 3a 34 25 bf bc a2 aa bd 35 56 4a be 37 6c 80 bd
       -0.64532816 -0.0833182 -0.19759448 -0.0627064
000080 65 9d a7 be f0 6e 84 3d 66 b1 17 be 09 a9 67 3e
       -0.3273727 0.06466472 -0.14813766 0.22623076
000090 24 18 7d 3e b7 d9 69 ba 45 eb 56 be 8a b4 9b bd
       0.2471624 -0.00089206867 -0.20988186 -0.076027945
0000a0 66 c5 c2 bf e7 10 1f bf 4e 14 0e 3e e0 9a d5 3e
       -1.5216491 -0.62135166 0.13874933 0.41719723
0000b0 ab 0e f8 3e db 6e 3f bd f7 e7 0e 3e 1f 1d 33 bf
       0.4844869 -0.04673658 0.13955675 -0.6996631
0000c0 2e c2 71 3e b7 8c d0 3e 47 93 1d 3e e3 83 29 be
       0.2360923 0.40732357 0.15388213 -0.16554217
0000d0 21 a7 20 bf 9f 91 9c bd 49 c4 8b 3e c0 09 30 3e
       -0.6275502 -0.076449625 0.2729819 0.1719122
0000e0 ab 97 13 bf e3 8a f2 be 35 fd f9 be 75 5e 18 bd
       -0.576533 -0.47371587 -0.48825994 -0.037199456
0000f0 4e 9d c4 ba 00 76 80 3d 8d c8 0d bf 17 d4 41 be
       -0.0015000494 0.06272507 -0.5538414 -0.18928562
000100 cb 5b c9 3e 72 ac cc 3d e8 40 05 bf e7 5a f2 bb
       0.39327845 0.09993829 -0.52052164 -0.0073960903
000110 93 f2 26 3e e4 cc b4 be c4 19 ba be d4 e0 2c 3e
       0.16303472 -0.3531257 -0.36347783 0.1688264
000120 3b 1d 94 be 74 0b 12 bf 70 54 08 bf 4c eb 62 3e
       -0.2892855 -0.57048726 -0.5325384 0.22160071
000130 e2 9a 12 3e 95 14 8a 3d 1a c0 2e 3e 99 5b 24 3e
       0.14316896 0.06742207 0.17065468 0.16050567
000140 d8 6c 86 be 74 68 3a be ad a9 b7 bd 08 df de be
       -0.26254916 -0.18203908 -0.0896791 -0.43529534
000150 a2 00 a8 be c3 4e be be ec 8e c6 be ab 20 1d bf
       -0.32812983 -0.37169465 -0.38780916 -0.6137797
000160 27 91 11 be 2d 06 ea 3d 9d d8 0b bd 4f 4a 3d be
       -0.14215527 0.11426959 -0.034142125 -0.18485378
000170 56 26 24 be 9a 6f 28 be 15 98 fc be 31 fc 47 bc
       -0.16030249 -0.16448823 -0.4933478 -0.012206123
000180 e0 fa f4 3e bd 93 20 be 5c 9a 7a 3e cf 6c b0 3c
       0.47847652 -0.15681358 0.24472946 0.021536259
000190 3b 07 c4 3c 58 a7 b6 bd af a3 3c bf 1f 4b 5c 3d
       0.023929229 -0.08918637 -0.7368726 0.05378258
0001a0 0a d5 71 be ce e4 34 be 72 b4 49 3d dc 9c 88 bf
       -0.23616424 -0.17665407 0.04924435 -1.067287
0001b0 75 f7 e3 3d b9 e0 84 3e 7e fb 8e be 2c da f2 3e
       0.11131183 0.259527 -0.27926248 0.47432077
0001c0 84 31 89 3d bd 95 b8 be 3c e6 5b be dd fb 22 bd
       0.066988975 -0.3605174 -0.21474546 -0.039790977
0001d0 59 76 8b be 55 c3 d4 bd 2e fe ea be 19 ec 0c bd
       -0.2723873 -0.10388819 -0.4589705 -0.034404848
0001e0 c3 8c e7 be fa 3e 94 3e 74 19 02 be 49 14 48 be
       -0.4522458 0.28954297 -0.12705022 -0.19538988
0001f0 a4 26 48 bf 24 d1 99 bd c7 85 d4 3d b5 7e ca 3d
       -0.7818396 -0.075105935 0.103770785 0.09887449
000200 a3 a6 66 3e 95 b4 3d 3e e1 98 b3 3d a8 bd 6e 3e
       0.22524504 0.18525918 0.08769394 0.23314536
000210 c2 29 c1 bf b9 2e e2 be dd 58 d4 be 85 0b fa bc
       -1.5090868 -0.44176272 -0.41474047 -0.030523071
000220 7a 60 b3 be c1 ae 03 3e 48 24 20 bd 1b 5d d4 bd
       -0.35034543 0.12859632 -0.0390971 -0.10369321
000230 6e 15 2c 3b a7 9e 2c 3e aa e7 24 bf f9 18 7a 3e
       0.002625789 0.16857396 -0.6441599 0.24423589
000240 63 96 85 3e b4 6f 0f be b1 da dc bd 92 ca 5a bd
       0.26091298 -0.14007455 -0.107838996 -0.053415842
000250 2d 2d 0f 3e 31 b6 9b 3e c6 25 af 3d a8 aa e1 be
       0.13982077 0.3041244 0.085521266 -0.44075513
000260 e8 dd df 3d 32 e8 b7 be ff 07 bb 3d fc ca a5 3e
       0.10930997 -0.35919338 0.091323845 0.32381427
000270 97 37 8f bd a0 05 98 3c 7c c4 b1 bf f1 3f 32 bf
       -0.06993025 0.01855737 -1.3888087 -0.69628817
000280 b9 18 23 3e 2e 55 2d bf f7 f4 6d be 8a 36 12 bf
       0.159274 -0.677081 -0.23237978 -0.5711447
000290 95 97 49 bf 3e 46 f6 bd d1 6e d9 be 7e 8d eb bd
       -0.7874692 -0.120251164 -0.4246736 -0.11501597
0002a0 9f a2 21 bd 41 5e 9d bf fd 73 d6 3d 08 09 3d 3e
       -0.03946173 -1.2294389 0.10471342 0.18460476
0002b0 e9 f2 7a bc 10 df 14 3e ae 43 04 bf ad 4c 02 3e
       -0.015316703 0.14538217 -0.5166577 0.12724562
0002c0 1d 2b 06 bf 78 ba de be 18 3a 16 3f 87 46 68 3e
       -0.52409536 -0.4350164 0.58682394 0.22683154
0002d0 ea 5d ba bd 65 37 91 3d 2a f6 ac be 77 0f c7 be
       -0.09099944 0.07090644 -0.33781558 -0.38878986
0002e0 f6 fc fe be de c4 ee bd e6 b3 07 bf 2a dc ed be
       -0.4980237 -0.11658643 -0.5300888 -0.46457034
0002f0 20 ce 3b be 14 d9 9d be 0a 4d 0c 3d e6 32 b3 bb
       -0.18340349 -0.3082968 0.034253158 -0.005468714
000300 f6 72 07 3c ed d7 c7 be a9 ab 6b be 8d 39 bf bd
       0.008267155 -0.39031926 -0.23014702 -0.09337149
000310 d0 93 a9 3e 94 9e b4 3e 80 bf 35 be 22 9b e0 3e
       0.33120584 0.35277236 -0.17748833 0.43868357
000320 88 a9 ef 3e 82 b0 c2 be 94 8f 90 3d b7 2b c6 39
       0.4680903 -0.3802529 0.07058635 0.00037798073
000330 ed cb 10 bf 35 00 10 bf 31 e3 b9 be 77 bc f6 bd
       -0.56561166 -0.56250316 -0.36306146 -0.120476656
000340 3e 29 1a bf 57 7b 03 bf bc 8a e9 be a3 16 c2 bc
       -0.6021918 -0.51360077 -0.45613658 -0.023692435
000350 fd 45 46 3e b1 ff 11 3b 22 45 d2 3d 8a e2 7c 3e
       0.19362636 0.0022277648 0.10267092 0.24695793
000360 1a 0c 8d 3d 24 4d 23 be a9 ac 6c be e0 69 84 3d
       0.06887074 -0.15947396 -0.2311274 0.064655066
000370 0d 6b d7 bd 15 62 81 be 66 7c 38 be 75 c0 14 be
       -0.10518465 -0.25270143 -0.18016204 -0.14526542
000380 e2 d2 7d 3e a7 49 bc bd 33 4a 2f bd cf 45 0f bf
       0.24787477 -0.091937356 -0.04279537 -0.55965894
000390 d5 09 13 bf 07 16 41 bf 1e b8 54 be 3b 2d 51 bd
       -0.5743688 -0.75424236 -0.2077336 -0.051068526
0003a0 31 d1 45 bf 83 4f d7 be 1a 05 fb bd 35 84 5a be
       -0.77272326 -0.4205285 -0.122568324 -0.21339495
0003b0 0c 6f b3 be f1 e9 91 be 95 6f 1c 3e ab d4 66 3e
       -0.3504566 -0.28498796 0.1527694 0.22542064
0003c0 ae 05 14 bf 22 8e a7 bd cb bc f1 bd af a8 3b 3e
       -0.57821167 -0.081814066 -0.118035875 0.18326066
0003d0 8d 15 c5 3d c0 c0 4c be 8c e0 a3 3e 2f 62 c7 be
       0.09623251 -0.19995403 0.32007253 -0.38942096
0003e0 6c 62 48 3e 94 ed c1 3e 01 27 69 bf 0b c5 2f 3e
       0.19568795 0.3787657 -0.9107514 0.1716501
0003f0 4a cf 35 3e 6b 32 73 bd 09 17 32 be 76 f4 9b be
       0.17754856 -0.059374254 -0.173916 -0.30459946

conv1.bias f4 [32]
000000 7f 45 df 3d ca c5 37 3c fd 5e c6 be 98 6a a8 be
       0.10901927 0.01121659 -0.38744345 -0.32893825
000010 1e 89 97 bd 67 02 97 bc 8a e9 e2 3d 8a 8c 80 be
       -0.073992 -0.018433763 0.110797 -0.25107223
000020 e0 88 55 be 4f 3a 25 3e 1d 22 8a 3e 85 2e f9 be
       -0.20852995 0.16135524 0.2697915 -0.48668304
000030 8a 97 b2 bd c4 96 87 be 35 f6 5a 3c e1 e0 b0 bd
       -0.0872031 -0.26482213 0.013364364 -0.08636642
000040 05 53 d3 be 54 56 d6 be 56 43 e9 be 0b 60 a9 be
       -0.41274276 -0.41862738 -0.45559186 -0.33081087
000050 12 42 27 bc 68 42 77 bd 4e 43 37 be 8b e2 29 be
       -0.0102086235 -0.060366064 -0.17896768 -0.16590326
000060 d2 94 c1 be 21 83 87 be b2 65 18 3e be 41 66 be
       -0.37808853 -0.2646723 0.14882544 -0.22486016
000070 07 29 63 be 6a 29 11 be 77 94 01 bf 18 1d 45 3e
       -0.2218362 -0.14175954 -0.50617164 0.1924938

conv2.weight f4 [64, 32, 3, 3]
000000 64 b2 b7 bd fb dd b4 be bd 68 82 bd d3 c9 a9 be
       -0.08969572 -0.35325608 -0.063676335 -0.33161792
000010 b8 61 f4 be 6b 11 35 be 80 0c 28 be 60 b6 58 3e
       -0.47730803 -0.17682426 -0.16411018 0.2116332
000020 4c 5b 14 be e9 19 fc bd 82 f9 1d bf 9e 8f 8b 3e
       -0.14487952 -0.123096295 -0.61708844 0.2725801
000030 9e 4b 85 be ac d3 90 be 0b b2 d5 3d 21 fb 3d 3c
       -0.26034254 -0.28286493 0.104343496 0.011595518
000040 8c ee 82 3d cc 1c c1 bf 0a da 80 bd e7 bd d9 3d
       0.063931555 -1.5086913 -0.06291588 0.10631924
000050 57 b9 e0 3d 7a cd ad 3d ab 61 be be c8 18 35 bf
       0.10972851 0.08486457 -0.3718389 -0.7074094
000060 8b f0 e7 bb 26 70 fa be a2 5e 87 be 6b 7a a0 be
       -0.0070782355 -0.48913687 -0.26439387 -0.31343397
000070 56 38 89 3e 42 bd 21 bf 96 35 10 be 20 da 03 be
       0.26800793 -0.6317941 -0.14082941 -0.12876177
000080 49 19 23 bf d2 3f 82 be 88 d1 e9 bd 4b 44 9a bf
       -0.6371046 -0.25439316 -0.11416918 -1.2052091
000090 ca b3 fb 3e 00 b0 e4 3d 7c 38 54 bf dd 7c a1 bc
       0.49160606 0.11166382 -0.8289869 -0.01971286
0000a0 7b 31 3b bd 8a d6 f6 bd 88 13 d8 bd 4c fa 56 be
       -0.045701485 -0.12052639 -0.105506 -0.20993918
0000b0 3e 39 60 bb b6 2d a2 bd d6 83 f8 be 29 77 04 bf
       -0.0034213807 -0.07918875 -0.48538083 -0.51744324
0000c0 c5 42 30 be ba d2 52 bd 9a 9d 98 3e e2 48 2a bf
       -0.1721297 -0.051470496 0.2980774 -0.6651746
0000d0 ae 08 4f 3d 03 b8 c0 bd ad e2 13 bf 52 64 6f 3d
       0.050545387 -0.094100975 -0.57767755 0.058445282
0000e0 11 7c 82 be 84 c6 f5 bb e3 a5 41 bf c8 2e 4e be
       -0.2548528 -0.0075004715 -0.7564375 -0.20135033
0000f0 f0 3f 04 3e 50 db 55 bf 26 f3 ee bd 2d a7 bd bd
       0.12915015 -0.8353777 -0.11667471 -0.09260402
000100 d2 ea 12 bc ed 50 8e 3d 34 09 69 be af df 9f be
       -0.008967118 0.06949029 -0.22757417 -0.31225345
000110 3d 7d 7c 3c cd 7d 5b bf 1f f6 6a be 5b 39 68 be
       0.0154107185 -0.8573883 -0.2294545 -0.2267813
000120 e4 5d 7a bb ae 79 e5 bb 8c 4f fa be 16 6e 11 be
       -0.0038202936 -0.0070030307 -0.48888814 -0.1420215
000130 96 d8 0c bd df 5c 57 bf b4 07 51 3e 81 58 17 bf
       -0.03438624 -0.84126085 0.20413095 -0.5911942
000140 d8 e8 00 bf 8d a7 bb be 09 63 ab be 53 18 da bc
       -0.5035529 -0.3665127 -0.33473995 -0.026622927
000150 13 1c 73 bd 7a b4 e5 be ab 24 13 3d c2 83 02 3c
       -0.059352946 -0.44864255 0.03592364 0.007965984
000160 e7 fb 03 bf a4 f7 f6 3d 62 b7 90 bc 03 ef 66 be
       -0.5155625 0.120589525 -0.017665569 -0.22552113
000170 62 84 1b bd 24 7c 0b bf a6 29 b5 be b0 be f7 3b
       -0.037968047 -0.544863 -0.35383338 0.0075605735
000180 8b 02 50 bd 79 f8 3f be 7a 83 f0 3d 99 39 28 bd
       -0.050783675 -0.18747129 0.11743827 -0.041070554
000190 e0 fa 22 3c dc 45 21 bf 86 bf 2c bd ff f9 18 be
       0.009947509 -0.6299722 -0.04217484 -0.14939116
0001a0 13 2b 47 be e6 26 88 bd ce 1f b6 bd a8 68 cb bc
       -0.19450025 -0.06648044 -0.08892785 -0.024830177
0001b0 ea d6 2e 3e 90 93 d2 bd a1 73 26 be 8b 5e b6 bd
       0.1707417 -0.102820516 -0.16255046 -0.089047514
0001c0 87 6f 93 be 2b 49 0b be 8b f2 05 be d0 08 fe bd
       -0.28796026 -0.1360213 -0.13080804 -0.124040246
0001d0 ba cb 10 bf 0e 2a 32 bf 8d ab e6 3e 74 be 89 be
       -0.5656086 -0.6959542 0.45052758 -0.26903117
0001e0 e9 a7 1e bf 25 c4 14 3f 90 36 39 3f 8e 5a 9f bd
       -0.6197496 0.5811179 0.7234888 -0.07780944
0001f0 87 d4 50 be 8a 2b be 3c 58 19 9c 3d 80 8c ef bd
       -0.20393573 0.02321412 0.076220214 -0.1169672
000200 67 22 dd be 21 8e ea bc b2 e5 a6 3d d5 33 a0 be
       -0.4319031 -0.028632225 0.0814928 -0.31289545
000210 f7 fa fa bd 5d 09 d3 bd d8 b3 82 bf bd 2f 3b be
       -0.12254899 -0.1030452 -1.0211134 -0.1827993
000220 b4 61 8e be 33 ca a6 bf 80 df fd be 67 90 ae be
       -0.27808917 -1.3030456 -0.4958458 -0.34094545
000230 9a 1e ec be e5 08 c4 bd 28 4b da be 55 82 d5 bc
       -0.46117097 -0.09572009 -0.42635465 -0.026063124
000240 f5 ca 57 be f5 17 8d be 9a 55 bd bd 84 03 0d 3d
       -0.21073516 -0.2755734 -0.09244843 0.03442718
000250 3d 2b 00 bf 19 db 40 3b e1 fb 8c be 22 fc 2b bf
       -0.50065976 0.0029427467 -0.27535918 -0.671816
000260 3f 0f 53 be dc 7d 81 3e 8f 4a 2e bf e5 ee 92 be
       -0.20611285 0.25291336 -0.6808252 -0.28697887
000270 1b da cf 3c 42 e3 0c 3f bf 7d 54 3e 36 ae 3d bd
       0.025372555 0.5503427 0.20751093 -0.04630872
000280 b9 2c a4 3e 00 ba 08 3e 6b 4c c4 3d 25 6e 9c 3d
       0.3206537 0.13352203 0.09584888 0.07638196
000290 95 5b 6f be 92 76 4a be 47 1f ea be 35 98 85 be
       -0.2337478 -0.19771793 -0.45726988 -0.26092687
0002a0 da 94 75 bd 9b 08 16 be 84 eb 17 be 6d d7 99 bf
       -0.05995641 -0.1465172 -0.14835936 -1.2018868
0002b0 ec 81 ad be fc 1a 0a 3f 42 a3 f0 bd fd 47 72 be
       -0.33888185 0.53947425 -0.11749889 -0.23660274
0002c0 b3 79 a8 be d3 79 3b be 9f 98 96 be 52 39 0a bd
       -0.3290535 -0.18308191 -0.29413316 -0.03374607
0002d0 4c 2d 55 3d 58 38 e8 be b4 50 db be 51 fd b2 3d
       0.05204515 -0.45355487 -0.4283501 0.087397225
0002e0 df 99 7c be 54 b1 ad bd 71 ea 07 be 6d 81 b8 bf
       -0.24668072 -0.08481088 -0.13273026 -1.4414498
0002f0 f7 73 06 3d 7f 02 7e bd cc 04 d8 be 0a b3 1e be
       0.032825436 -0.0620141 -0.4219116 -0.15497985
000300 97 57 41 be b1 ec a8 bf 98 57 eb bd 75 6d a4 bd
       -0.18881069 -1.3197232 -0.114913166 -0.0802869
000310 46 2c 52 be 34 d2 6e be 6f 6d 13 bf 1a c0 9c be
       -0.20524701 -0.23322374 -0.5758886 -0.30615312
000320 5b b3 11 be d0 07 c7 be ea 3d 7f be 7e 2b eb be
       -0.14228575 -0.38873148 -0.24925962 -0.4593162
000330 b2 11 cb be b3 71 63 3c 20 d3 2b bf a5 86 63 bf
       -0.39661938 0.0138820885 -0.67119026 -0.88877326
000340 3c c4 3f bf 51 d3 0a 3d a9 b1 58 bd 9a f2 a4 be
       -0.74908805 0.033892933 -0.052903805 -0.3221634
000350 0d 8a 0f 3d 16 81 42 3e 4d dc e0 be 5b 30 c4 be
       0.035043765 0.18994555 -0.43918076 -0.38318142
000360 e8 2d 0a 3e d6 c5 03 be fa 33 89 bd de 5b 88 be
       0.13494074 -0.12868437 -0.06699367 -0.2663259
000370 29 da 5a be b7 eb 9e be 45 de 57 bf 44 22 ba be
       -0.21372284 -0.3103921 -0.8432353 -0.36354268
000380 34 50 00 3d 33 9a 31 be 7f 28 03 be 75 41 5b bf
       0.031326488 -0.17343979 -0.12808417 -0.85646755
000390 ce bd ac 3a b2 d2 ab be 0d 6c dd bd bc 63 8e bd
       0.0013179125 -0.33559185 -0.10811625 -0.069526166
0003a0 b7 39 02 bf 9b 09 d0 3d 43 d6 51 bd 07 74 0a 3e
       -0.50869316 0.10158082 -0.051229727 0.13520823
0003b0 4f af b3 be 35 08 96 be 5f 6d 98 3c 4a cd 85 bf
       -0.35094687 -0.29303136 0.01860684 -1.0453274
0003c0 4c a4 82 be e7 8f 9d bd 3f d4 99 bf 08 37 8e 3d
       -0.25515974 -0.07693463 -1.2017897 0.0694409
0003d0 98 7e 13 3e 63 b9 08 bf f0 6a 7c be 0b f0 39 be
       0.1440376 -0.5340788 -0.24650168 -0.18157975
0003e0 b4 3f 68 bf e1 88 97 be d9 9f 43 bf 06 d5 4a bf
       -0.90722203 -0.29596618 -0.76415783 -0.792313
0003f0 a9 b7 3e be a6 1f 20 be b8 4a ea 3d 6a 06 2d bf
       -0.18624748 -0.15637073 0.11440033 -0.6758791

conv2.bias f4 [64]
000000 66 08 89 bd 65 28 06 3f 6b f3 a5 3e b1 4e b2 3e
       -0.06691055 0.5240539 0.32412276 0.34825662
000010 1a 22 10 3f 9a 0e 4a 3f fe 80 a0 be 55 a4 00 3f
       0.56302035 0.7892853 -0.31348413 0.5025075
000020 0d ab 7c 3d ba b2 24 3e be 40 df 3e e5 f2 2b 3e
       0.061686564 0.16083804 0.43604082 0.16791876
000030 89 7e b3 3d f9 9a b0 3e 53 b9 2c 3f 94 23 d2 bd
       0.08764369 0.34493235 0.6747028 -0.10260692
000040 7e 61 27 3f 66 ef f9 3e c8 a0 11 3e 6f 74 96 3e
       0.65383136 0.4881546 0.1422149 0.29385707
000050 ee 49 39 3d 86 20 bf 3e af fa 8b 3e 0c 84 5c 3e
       0.04523652 0.373295 0.27339694 0.21534747
000060 99 14 f5 3e f0 c1 41 3e fe 95 08 3f 71 6b 28 3f
       0.47867277 0.18921638 0.5335387 0.6578894
000070 ac 06 04 3f d0 50 2a be 4f 66 94 3e 40 9f 10 3f
       0.5157268 -0.1663239 0.28984305 0.56492996
000080 31 1e c0 3e 3f d7 a5 bd 56 1d 00 3f d0 7c 14 3f
       0.37523034 -0.080976956 0.50044763 0.5800295
000090 2a 13 9f 3e 27 ac f7 3e 62 c0 ba 3d 24 90 f5 3d
       0.3106931 0.4837353 0.09118725 0.11990383
0000a0 f2 87 93 3e 32 35 36 3f b1 47 98 3e 7c 5d a1 3e
       0.28814656 0.7117492 0.29742196 0.31516635
0000b0 5f c6 3c 3d d4 09 1b 3f b2 d6 bf 3e f6 e5 97 3e
       0.04608762 0.6056187 0.37468487 0.29667634
0000c0 e9 14 34 3d c1 01 40 3f 30 db 93 3e 14 02 e7 3e
       0.043965254 0.75002676 0.28878164 0.45118773
0000d0 6c 64 14 3f cb bf 15 3f 91 6a cc 3e d5 ad 17 3f
       0.5796573 0.5849578 0.39925054 0.5924962
0000e0 ef b4 df 3e 25 b4 4e 3f 2b 8a c7 bd 6e 77 a3 3e
       0.4369273 0.8074363 -0.0974315 0.31927055
0000f0 b2 90 da 3e e2 96 12 3f 6c 63 1f 3f 36 5d 08 3f
       0.4268852 0.5726148 0.6226108 0.5326723

fc1.weight f4 [196, 576]
000000 00 21 c8 3b 49 27 7c ba 94 9c 2c 3c 9b cb 32 3d
       0.0061074495 -0.0009618891 0.010535378 0.043651205
000010 a2 af 7c bd 26 f5 cf bc bc 59 03 3c 8c 65 0a 3c
       -0.061690934 -0.02538545 0.008017 0.008447062
000020 06 25 58 bc 49 6e bd bb 96 9c a6 bc af 1b a3 bb
       -0.013192421 -0.0057809693 -0.020338338 -0.0049776654
000030 15 09 24 bd d8 7c fd bc 4b 8e a8 bd 1e a8 40 bd
       -0.040047724 -0.03094332 -0.08230265 -0.04703533
000040 f6 89 e8 3c 3a fb be 3b de 65 ac bd 8e fd 8c bd
       0.028386097 0.0058282884 -0.08417867 -0.06884299
000050 04 81 ef ba f8 f8 6a bc 93 e4 bd 3c c8 87 c8 3b
       -0.0018272703 -0.014341585 0.023180282 0.006119702
000060 45 55 4c bd 25 bb d5 bc 2e 71 dd bc 55 f2 b9 3b
       -0.049886007 -0.026090214 -0.027031507 0.00567464
000070 b0 1e 46 bd d3 ea 11 3b ad 51 50 bd 59 f9 6f bc
       -0.04836911 0.002226521 -0.050859142 -0.014646851
000080 f3 34 eb 3b 5e 7a 8f bc 0c 7c 0f 3d 72 9d 83 3d
       0.007177943 -0.017514404 0.03503041 0.06426515
000090 de 4d 59 bd a9 23 9b bb 44 de 27 bc 9e cf 86 bc
       -0.053052776 -0.0047344756 -0.010245863 -0.016456421
0000a0 83 e9 5c bd 89 35 d4 bb 69 7a 07 bd e8 19 79 bd
       -0.05393363 -0.0064761085 -0.033075724 -0.06081572
0000b0 43 98 0b 3c 4a 41 90 3c 1e c3 07 bc 24 93 82 bd
       0.008520189 0.017609257 -0.008286266 -0.06375721
0000c0 59 a7 8d 3b ae 8a 04 bd 18 b6 69 bd d8 f3 6d bc
       0.004322928 -0.032358818 -0.057058424 -0.014523469
0000d0 ff 2f 8a bc e3 51 df bc 4b 71 74 3d 18 b0 fc bc
       -0.01686859 -0.027260726 0.059678357 -0.030845687
0000e0 91 63 a0 bc fa d8 4d bd 7e d1 0d bd 30 91 9c 3b
       -0.019578727 -0.050255753 -0.034623615 0.00477805
0000f0 69 aa 29 3d 20 12 1d bc d0 74 8b 3c 4a e5 00 3d
       0.04142228 -0.009586841 0.017023474 0.031468667
000100 7b c8 81 bb 43 50 3b bd 4e c5 ab bc 34 37 7d bc
       -0.0039606667 -0.04573084 -0.020968106 -0.015455056
000110 de 16 61 bc 61 aa 33 bc 7b be b7 3a af 50 f1 3c
       -0.013738362 -0.010965914 0.001401856 0.029457418
000120 2f 5e 3f bc ae c4 5f bd d7 8d 5e 3d f2 15 ba bc
       -0.01168017 -0.054630928 0.054334488 -0.022715542
000130 60 a6 53 3c 18 97 a7 3c be f2 a5 3c 8e ad ff bc
       0.012918085 0.02045779 0.02025735 -0.031210687
000140 2e 4f f6 bc 0d 99 04 bd ab 2e c9 38 df 2d 29 bd
       -0.030067053 -0.032372523 9.5931195e-05 -0.04130351
000150 ec f7 12 bd 0b dc a3 bd 8f 6a 48 bd df 25 59 bc
       -0.035880968 -0.08000954 -0.048929747 -0.013253658
000160 c7 34 0f bd e2 bf 14 bd 88 d6 f9 bc 36 f9 0a 3c
       -0.03496244 -0.036315806 -0.030497804 0.008482268
000170 75 14 4f 3c 05 ef 8b bb 1f 62 87 b9 ce 9f 14 bd
       0.012639155 -0.0042704367 -0.00025822312 -0.036285214
000180 79 d2 39 3c 11 dd 8b bc 84 98 07 bd fe 0c 87 bb
       0.0113416845 -0.017073186 -0.033104435 -0.004121422
000190 0c 3f 10 bc 26 0d 30 bd 0d 57 de 3c a5 57 cc 3c
       -0.008804094 -0.04298129 0.027141118 0.024944136
0001a0 cc a5 de 3c 73 b9 3a bd a9 29 4c bd d7 63 1a bc
       0.027178667 -0.045587014 -0.049844418 -0.009423218
0001b0 68 1d 20 bc a4 e6 ee ba b6 92 11 bc 3c 6f 68 bc
       -0.009772636 -0.0018226695 -0.008885076 -0.014186677
0001c0 ad f4 f9 bc c9 c5 bf bc b4 d8 c7 3c c2 11 3b 3d
       -0.030512178 -0.023409741 0.024395324 0.045671232
0001d0 67 5d e8 3c 65 46 73 bd 90 3e 85 bd cf aa 02 bd
       0.02836485 -0.059393305 -0.065060735 -0.031901177
0001e0 a0 fa b0 bc 04 9e 2b bd 63 55 75 bc e2 56 75 ba
       -0.021603882 -0.041898742 -0.014973971 -0.0009358955
0001f0 15 af 90 bd 0e c9 85 bc 39 31 1d bd bb 60 ff bc
       -0.07064644 -0.016331222 -0.03837702 -0.031174054
000200 da 3f d4 3c 6d a4 e0 b9 7c 57 11 3d 27 e6 6a 3c
       0.025909353 -0.00042847116 0.035483822 0.014337099
000210 cb 6a 44 bd bf 6d e1 3c af 16 25 3d a1 bd 8b 3c
       -0.04795341 0.027518151 0.040304836 0.017058196
000220 be 48 2f bb 75 3d 43 3d 7b 45 5c 3b ca 5d 8e 39
       -0.0026746239 0.047666032 0.003361075 0.0002715423
000230 64 76 89 bc 60 67 28 bc 19 31 a4 bc 55 c8 82 3c
       -0.016780086 -0.010278553 -0.020042943 0.015964666
000240 d7 29 92 3c cb 05 e1 bc db 8f c1 bc c6 1d 46 bd
       0.017842216 -0.027468583 -0.023628166 -0.048368238
000250 1d 5d d8 3c e9 39 4d 3c 30 25 8d bd ae da 7d bd
       0.026411587 0.012526014 -0.068918586 -0.061976127
000260 f0 bc 8b 3c b5 ee 55 bd c2 61 03 3c 96 f8 0e bd
       0.017057866 -0.052229602 0.008018913 -0.03490504
000270 1a 4b 39 bd 00 1e 48 bd 1b 60 95 bb 5e c6 8b bc
       -0.045237638 -0.048856735 -0.004558576 -0.017062362
000280 07 2f 8b bd fb b1 17 bd 09 04 1d bb b9 a8 a7 bc
       -0.06796079 -0.03703497 -0.0023958704 -0.020466195
000290 a4 46 17 bd b6 ae d1 3b 4f fc c2 bc c1 a3 80 bd
       -0.036932603 0.006399001 -0.02380195 -0.062812336
0002a0 1d e2 80 ba b0 0d a6 bc b2 91 f9 bc 6f 69 01 3d
       -0.0009833012 -0.020270199 -0.03046498 0.03159469
0002b0 c4 2c 78 3d 0d 63 47 bd 4e a2 20 3d 71 6a 11 bc
       0.060589567 -0.048678447 0.039217286 -0.008875475
0002c0 a7 1f 5c bd 3d a6 7d bc 0c b7 30 bd 9e fd eb bc
       -0.053741124 -0.015481529 -0.043143317 -0.028807458
0002d0 38 31 d3 bc dd 09 4f 3c bc 05 30 bc ea a5 e6 ba
       -0.025780305 0.012636629 -0.010743555 -0.0017597054
0002e0 61 ea be 3c b2 e8 7f bc 53 3a f8 bc 66 16 e8 3b
       0.02330512 -0.015619444 -0.030301249 0.007082748
0002f0 54 79 b4 bc f0 64 a1 bc 45 c1 4c bd 1d 1d d1 bc
       -0.02203051 -0.019701451 -0.049989004 -0.025526578
000300 e8 94 7d bd 6c e6 a0 bb ba c1 2a bc fe 3d 9b bd
       -0.061909586 -0.004910281 -0.010422165 -0.075801834
000310 aa 4f 8e bd 94 67 29 bd fa b8 e4 3c 77 02 d4 bc
       -0.069487885 -0.041358545 0.027920235 -0.025880082
000320 e3 96 ff bc 12 f4 b5 bc 00 6f ac bc c1 72 33 bd
       -0.031199878 -0.022211108 -0.021049023 -0.04381061
000330 38 e8 93 bd f6 0f 01 bd cd 8b 91 bc 9d b5 00 bd
       -0.072220266 -0.031509362 -0.017766858 -0.0314232
000340 a6 b4 eb bc a4 10 af 3c 74 b5 60 bd 49 cf 99 bd
       -0.028772663 0.02137024 -0.054860547 -0.0751024
000350 42 89 60 bd cc 7a 36 3d da 2c 38 3d 97 de 2c 3c
       -0.0548184 0.044550702 0.04496465 0.010551116
000360 8a 80 5a bb 01 0c 13 3b 73 4b 11 bd 74 ab b7 bc
       -0.0033340775 0.0022437575 -0.035472345 -0.022420622
000370 63 65 0b bc 72 35 59 bd 7e df 38 bc e2 85 c5 bc
       -0.008508059 -0.053029485 -0.011283753 -0.024111692
000380 c7 ca f9 bc 34 27 ce bc b8 6b 8b bc ea ce 24 bd
       -0.0304922 -0.025165178 -0.017019138 -0.04023639
000390 63 0c aa bc be c8 52 bd 0f f1 60 bd 19 b9 59 bd
       -0.02075786 -0.051460974 -0.05491739 -0.05315504
0003a0 16 52 f4 bc 19 e7 7e bd 06 d9 18 3a 0d a9 82 3d
       -0.029824298 -0.06223211 0.0005830679 0.063799
0003b0 13 6b a5 bd 7c f3 da bc 9e db 66 3d 46 26 20 bd
       -0.080770634 -0.02672743 0.056361787 -0.039099
0003c0 c8 fb 6b 3c 75 30 9e bc 9a 8d 3a bd b8 63 1b ba
       0.014403291 -0.019310215 -0.045545198 -0.000592764
0003d0 59 a3 70 bd 2e 95 17 bc b7 1d a8 bd 29 62 93 bd
       -0.05874953 -0.009251876 -0.08208793 -0.07196457
0003e0 90 22 0d bd f4 89 65 bb 8b ae 91 3b 87 5f b3 bc
       -0.03445679 -0.0035024853 0.004445856 -0.021896137
0003f0 59 a5 b5 ba fc 3d d3 3b 8f db 21 3c 05 de c1 bc
       -0.0013858482 0.006446598 0.009879007 -0.023665437

fc1.bias f4 [196]
000000 cd 50 19 bd b1 d7 ca 3c af 12 25 3a ae a5 83 bc
       -0.037430573 0.024761053 0.00062970346 -0.016070213
000010 66 a5 20 bd d6 83 44 be f1 e5 8a bd 07 b6 d3 3f
       -0.039220236 -0.19190916 -0.06782139 1.6539925
000020 b9 99 86 bc a7 bc 74 bb d5 97 7c bd 9d 10 19 be
       -0.016430723 -0.003734389 -0.061668236 -0.14947744
000030 21 49 17 3f b8 3a 02 bd d4 b7 8d 3e 7c 29 6f be
       0.5909596 -0.03179428 0.27679312 -0.23355669
000040 b4 cf 09 3f 07 4f eb bc 37 5e 87 bd 6c 3e 60 bd
       0.53832555 -0.028724207 -0.06609767 -0.05474703
000050 42 e5 61 bd 9c 82 d2 bc 2d c5 a7 3e 9e 27 87 bd
       -0.055150278 -0.025697045 0.3276762 -0.06599353
000060 a8 68 5e bd b6 ed f5 bd 5d 71 de 3c 12 ff a9 bc
       -0.054299027 -0.120082304 0.027153665 -0.02075151
000070 40 e2 e4 bc 47 42 73 bc 7f f3 75 bd 64 fe 67 3c
       -0.027939916 -0.014847345 -0.06004667 0.014159773
000080 52 e8 1a be 64 04 b3 bd 97 2c be bc b5 54 10 bd
       -0.15127686 -0.08741072 -0.023214621 -0.035237033
000090 a2 f9 73 be 98 6c e2 3e 32 04 63 bd 45 76 97 bd
       -0.23825696 0.44223475 -0.055423923 -0.07395605
0000a0 12 ba 8d bd 22 aa a4 bd 08 1e 1f 3c ec 75 c5 bd
       -0.06920256 -0.08040263 0.00971175 -0.096416324
0000b0 b4 1b 84 bc 39 5c a0 3e d8 6f f2 bc c6 dd a3 3e
       -0.016126491 0.3132036 -0.029594347 0.32005137
0000c0 14 a9 3c bd e6 7a 37 3e 92 6c 93 bd 57 20 2f 3c
       -0.046059683 0.17917976 -0.071984425 0.010688863
0000d0 19 e8 57 bb d5 c3 c7 bc e1 8f e9 3e 66 3a 4c be
       -0.0032944737 -0.024385372 0.45617583 -0.19944152
0000e0 86 c1 2c bd 4d d6 90 bd 47 a5 58 bd 6d 81 20 bc
       -0.042176746 -0.07072125 -0.052891996 -0.0097964825
0000f0 a4 49 03 be ca 7e 91 3e 1e 5d 34 be 6c 74 22 bd
       -0.1282106 0.28417045 -0.17613646 -0.03966181
000100 40 59 00 3f 1e e5 6b bb e9 a2 0b 3c 24 fe 06 bd
       0.50136185 -0.0035994719 0.0085227275 -0.03295721
000110 b6 06 a5 bd 3f 40 1e bd 7d 60 90 bd c1 b7 ad bd
       -0.08057921 -0.03863549 -0.07049654 -0.08482314
000120 36 23 26 3d 29 29 ca bd 20 26 61 bd 7f bd e5 bc
       0.040560924 -0.09871132 -0.054968 -0.02804446
000130 f9 ab 8a 3c 0c a2 66 bd 31 68 b1 3f a6 12 80 bd
       0.016927706 -0.056306884 1.3859922 -0.06253557
000140 20 67 83 bd 83 13 4e 3e 3b a7 80 3d 9c fc 90 3e
       -0.06416154 0.2012463 0.06281897 0.28317726
000150 21 7c 98 bc 3f 9e c1 3d 72 e5 37 3e 8f a8 7b bd
       -0.018613877 0.09454011 0.1795862 -0.061440047
000160 b5 9d 56 bd 8a aa 24 3e 7e 1b e2 3e ae 1d 4f 3e
       -0.052396495 0.1608068 0.441616 0.20226166
000170 81 59 a1 bd ac b4 d3 bd 4c ac 3c 3e b7 09 48 ba
       -0.078784 -0.10337195 0.18425101 -0.0007630842
000180 6b 3e 15 bb 2a f3 3f bd 22 a8 23 3c fc 6a 9b 3e
       -0.00227728 -0.04686276 0.009988816 0.3035506
000190 50 ed fd 3b 44 33 cd 3e dd 8f 96 bc 07 bf 93 3e
       0.007749237 0.40078175 -0.018379146 0.2885668
0001a0 3d 9a 0f bd ec 4c 69 bd ec 80 89 3d f8 b0 c3 3d
       -0.035059202 -0.056958124 0.06714043 0.095552385
0001b0 b0 cf cc bd 8e a6 86 bd 81 67 9b bd 54 29 b3 bd
       -0.10000551 -0.065747365 -0.07588101 -0.08748117
0001c0 5c 46 50 bd 77 34 73 bc c0 ca 83 bc bc 79 b3 bd
       -0.05084835 -0.014844052 -0.01608789 -0.08763453
0001d0 07 22 6e bd 26 db 61 b9 2c bb 9e bd 90 f1 06 40
       -0.05813792 -0.00021539311 -0.07750544 2.1084938
0001e0 7e 29 2d bd 81 e5 29 3f 85 e8 ed 3e bb bb 8d 3e
       -0.0422759 0.6636582 0.4646646 0.2768229
0001f0 cd e9 30 bd 5b b9 73 bc ac 8f e3 bc f0 30 e9 bc
       -0.04319172 -0.014875735 -0.027778469 -0.028465718
000200 06 d2 4c 3f 30 ec 51 3f d0 4f 72 3d d9 00 d1 3e
       0.8000797 0.8200102 0.059158146 0.4082096
000210 d8 90 d7 bc 40 f6 6e 3c 01 f4 14 3f 26 31 8e 3e
       -0.026314184 0.014585078 0.5818482 0.27771872
000220 d7 a3 06 bc c5 c7 52 bd fd c5 a2 bd 05 23 52 bd
       -0.008217773 -0.051460046 -0.079479195 -0.05130293
000230 41 d8 8e bd 26 d8 8b bd 71 35 dc 3e f6 74 01 be
       -0.06974841 -0.068283364 0.43009523 -0.12642273
000240 c8 e8 58 bd f8 18 a7 3d fa 90 a3 3b ed 62 58 bc
       -0.052956372 0.08159059 0.004991648 -0.0132071795
000250 6f 68 38 bd a6 78 cd bc 9d f6 67 bd d6 d1 88 bd
       -0.04502147 -0.025081944 -0.056631673 -0.06680648
000260 f3 4f 41 bc 2c 78 a7 3d 4e 5c 4f bd 7e ad 87 bd
       -0.011798847 0.08177218 -0.050625138 -0.06624888
000270 7f d9 48 3c 08 01 49 bd 87 0d a6 3b cd 63 1c 3e
       0.012258886 -0.04907325 0.0050675306 0.15272446
000280 83 6c 8c be 50 ea 99 bd 80 eb 7b 3d 5a 31 c5 bc
       -0.27426538 -0.07515395 0.061503887 -0.024071384
000290 d8 af 28 bd 2d dc 65 bd a4 ea 2e bd 92 0c 9a bd
       -0.041183323 -0.05611818 -0.04270424 -0.07521929
0002a0 ec a2 83 3c 4d d3 1b bd 08 26 34 bd d8 26 8e 3f
       0.016068898 -0.03804331 -0.043981582 1.1105604
0002b0 bc 3d 18 bd ac a0 8f be 8a 80 5a ba 46 58 41 bd
       -0.03716825 -0.2805227 -0.0008335194 -0.047203325
0002c0 f0 ed 92 bc b1 27 50 bd f6 23 3f bd b5 92 81 bd
       -0.017935723 -0.050819103 -0.046665154 -0.0632681
0002d0 5f 21 02 bd a9 69 8a bd 14 43 e8 3f e7 e2 30 ba
       -0.031770106 -0.06758434 1.8145471 -0.0006747678
0002e0 01 84 2e bb 17 90 10 3f 86 c0 a8 bd 4d 1c 1b bc
       -0.0026628973 0.56469864 -0.08239846 -0.009467197
0002f0 fa 19 db 3e d5 c7 cd bd dd f9 85 3f 27 07 34 bd
       0.42793256 -0.100478806 1.0466877 -0.043952134
000300 6b 6a a4 bd 95 0f a2 bd e8 98 4a bd 8b e9 8e 3f
       -0.0802811 -0.07913128 -0.04946223 1.1165022

fc2.weight f4 [4, 196]
000000 65 d2 1c bd e4 db 6c 3c 20 0a 7c 3d af f8 37 bc
       -0.038286585 0.014456723 0.061533093 -0.011228724
000010 20 4f 93 bc 62 32 70 3e 30 71 d0 3c 25 17 eb 3e
       -0.017982066 0.2345672 0.025444597 0.45916095
000020 d1 56 4c bd 7e f6 ad bd 86 39 08 3d ec f1 a5 bc
       -0.049887482 -0.0849428 0.033257984 -0.020256959
000030 0f e3 b5 3e 3a 60 21 bd 21 48 81 3c b2 1b ba 3c
       0.35524794 -0.03939841 0.015781464 0.022718284
000040 8f 47 2a bb 1a f5 e3 bc fd ec f2 bc 74 5d 38 3b
       -0.0025982594 -0.027826834 -0.02965402 0.0028131874
000050 d2 36 3d bd b4 d8 c5 bc d5 14 9c 3d 66 8b ec 3c
       -0.04619486 -0.024151184 0.07621161 0.028875064
000060 8a 45 4e 3d 3f 8e 15 3d b9 5e 28 3d 69 f9 a6 bb
       0.050359286 0.03651261 0.04110596 -0.00509565
000070 6f 9c 8f bd 95 10 9d 3c 48 97 aa bd d9 49 3b bb
       -0.07012259 0.019172946 -0.08329636 -0.0028577952
000080 bd 33 b1 bc 5c 5c e5 bd 11 b1 e9 bc 1a c1 2a bc
       -0.021631116 -0.11199257 -0.028526815 -0.010422016
000090 0f bd e0 3d 22 bd 4f 3f 2c b5 dc bb b1 f8 80 3c
       0.1097356 0.8114797 -0.0067354646 0.015743585
0000a0 9c bd 4e bd 4b fe 9d bb 64 ff 97 3b 44 00 95 3c
       -0.050473794 -0.004821574 0.004638599 0.018188603
0000b0 b0 c3 73 3d 56 7d 2f 3e 19 89 52 3b 8e 38 94 3a
       0.059512794 0.17137656 0.0032125174 0.0011308359
0000c0 56 dc 34 3d f5 43 87 bc ce c0 df 3b 10 0f 51 3d
       0.04415544 -0.016511897 0.006828404 0.051039755
0000d0 ad 76 90 3d 75 5e df bc 60 e1 d4 3e 67 8c b2 bd
       0.070538856 -0.02726672 0.41578197 -0.08718186
0000e0 3d e1 8d bc 57 10 2f 3d 55 d5 fd bc c4 32 17 3b
       -0.017319316 0.042740192 -0.030985514 0.002307103
0000f0 4e cd 34 bd 8c 57 6d 39 60 10 cc bd ca c4 cd bc
       -0.044141106 0.00022634695 -0.09964061 -0.02511825
000100 a3 f5 90 bc 2f 3c 8e 3b 58 94 f8 bd bb 37 13 3d
       -0.017695254 0.0043406705 -0.12137669 0.03594182
000110 1d d8 10 3d dd 48 48 bd fb 3e 3f 3c e4 a6 12 3d
       0.03536235 -0.048897613 0.011672731 0.03580369
000120 6d 3e 17 bd 90 15 2c bc f3 c9 c3 bb 08 ff 11 bd
       -0.03692477 -0.010503188 -0.005975002 -0.035643607
000130 86 9b 3f 3c 02 35 10 bd ae bf 3a 3e 0e 50 34 3d
       0.0116947945 -0.035206802 0.18237182 0.04402166
000140 48 18 35 3d fa 5d 41 3e 49 cc ad 3c 58 8a 01 bb
       0.04421261 0.18883505 0.021215575 -0.0019766297
000150 f2 0f 1c bd 10 af c4 bc 85 63 9c be f3 ac ba 3c
       -0.038101144 -0.024009258 -0.30544677 0.022787547
000160 1c e6 ba 3d 30 8e 3b 3d 68 61 96 3e d8 19 86 3e
       0.09125921 0.045789897 0.2937119 0.26191592
000170 1a 95 15 bd 96 e5 65 bd d3 01 5d 3c 6d 2c 64 bd
       -0.036519147 -0.056127153 0.013489204 -0.05570643
000180 92 04 e1 bc 43 b4 88 3c ae ef 26 3b b9 03 7a 3c
       -0.027468 0.016687518 0.002547245 0.015259677
000190 a9 37 70 3c 6d 19 08 3f 6d 32 f5 3c 38 ec a1 3e
       0.014661708 0.53163797 0.029931271 0.31625533
0001a0 76 3a 15 bd 0b da 60 3c 0a 85 a0 3d 33 57 ae bc
       -0.036432706 0.0137238605 0.07837875 -0.021281814
0001b0 5c 53 32 3d 59 ee 0a bc 0f 70 bc bc 94 e7 8d bc
       0.04353653 -0.008479678 -0.023002652 -0.01732234
0001c0 ea ce 4c 3d 50 68 cc 3c 1b 8b 17 bd 6e e2 9d bd
       0.050002016 0.024952084 -0.036997896 -0.07709204
0001d0 e5 10 50 bd d1 1e 61 ba 88 7e 5d 3d b6 92 8d 3e
       -0.050797362 -0.0008587661 0.054075748 0.27650994
0001e0 f1 79 7e 3d ee 1c 4c 3e 75 13 d4 3e d5 39 18 3d
       0.06212801 0.19932911 0.41421095 0.037164528
0001f0 e0 56 ed 3c b8 b1 0e 3c 65 6e 7b 3d db 01 b1 bc
       0.02897209 0.008709364 0.061384577 -0.02160733
000200 0a 31 64 3d ba df 47 3e 60 53 b2 bd 08 e2 c8 3c
       0.05571083 0.19518939 -0.08707309 0.024521843
000210 33 01 3d bd 7c 4d 88 3c 83 32 1c 3e d2 87 8f 3a
       -0.04614372 0.01663851 0.15253644 0.0010950512
000220 38 eb 48 3d ba ac bf 3c 3f 11 30 bd 0f a6 bc 3c
       0.049052447 0.023397792 -0.042985197 0.023028402
000230 e1 ea dc bb d9 5b 26 bc e5 d5 f9 3e 57 cd 21 3c
       -0.006741867 -0.010153734 0.48796 0.009875617
000240 d0 71 11 bd 38 2c 92 bc 18 4e 3f bd 7a 7b f1 bd
       -0.03550893 -0.01784335 -0.046705335 -0.117911294
000250 a5 7f a9 bd a6 67 0f bc f9 ee 82 3d 58 bd 81 3d
       -0.082762994 -0.008752739 0.06393237 0.063349426
000260 ca 13 86 3c cd d3 fc bc a2 27 64 bd a4 25 0b 3d
       0.016366858 -0.030862713 -0.05570186 0.033971444
000270 70 c8 0b bd 96 22 7f 3d 0d 18 79 3e 37 7c 14 3e
       -0.0341267 0.062288843 0.24325581 0.14500509
000280 4d a9 c2 3d 3f 62 16 3d 56 58 71 3c f4 9b 9d 3d
       0.09504948 0.03671479 0.014730534 0.07695761
000290 49 22 c3 3c 55 9e a0 bd 43 db ce 3b 52 57 04 bd
       0.02382006 -0.078426994 0.006312759 -0.032309838
0002a0 05 fc c3 3c 65 3c 55 3d 89 fa 64 3d 11 d4 3b 3e
       0.023923883 0.05205955 0.05590299 0.18342616
0002b0 8c c4 82 3d db 35 0b bc 24 e3 6a 3d c8 93 26 3d
       0.063851446 -0.008496727 0.057345524 0.04066828
0002c0 69 d6 bd bc f2 8b 32 3d 50 30 52 3b f5 be f8 bc
       -0.023173528 0.043590494 0.0032072254 -0.030364493
0002d0 f7 64 48 bd 8c 9e 4e 3d 5b 2a 31 3f 08 65 18 3d
       -0.048924413 0.05044417 0.69205254 0.037205726
0002e0 c1 64 5e bd 01 60 23 3b 24 51 35 3c 29 5c b3 bc
       -0.054295305 0.002492905 0.011066709 -0.021894531
0002f0 91 cc de 3e 0b a5 79 bd 07 76 13 3e 2f 0a c1 bc
       0.43515447 -0.060948413 0.14400493 -0.023564426
000300 15 ca 8e bb ee d4 34 3d 37 49 f8 3c 97 ed 10 be
       -0.004357586 0.044148378 0.030308349 -0.14153133
000310 b2 eb 00 3d ef bc d5 3c 76 23 1d bb 39 da 6d 3d
       0.031474777 0.026091067 -0.0023977435 0.05806944
000320 e5 55 45 3d 8c 56 19 bf 16 55 b2 3c ca 62 1d 3f
       0.04817762 -0.59897685 0.021769088 0.61478865
000330 f6 cd 9f 3c b0 04 d7 bb f4 90 29 3c 53 79 1e be
       0.01950739 -0.006561838 0.010349501 -0.15475969
000340 70 f8 41 3e 22 86 90 3c 5f 6c bb bc 46 db 1c be
       0.18942428 0.017642085 -0.022878824 -0.15318021
000350 2e e1 1f 3e 45 d5 a4 bc f3 5c 45 3c 97 76 b6 bc
       0.15613243 -0.020121226 0.012046087 -0.022273345
000360 fd bc 0e 3e 4b b4 5f 3c 4d 7a 5a 3d 0a d0 3b 3b
       0.13939281 0.013653825 0.05333929 0.0028657936
000370 f8 9f 0e 3d ae b7 e2 bc 43 0b 82 3d d3 21 15 3d
       0.034820527 -0.027675476 0.06349804 0.03640921
000380 d6 9c 7d bd 19 d0 3a bb ae d5 4d 3c 39 70 14 3c
       -0.06191715 -0.0028505384 0.012563152 0.009059959
000390 37 e1 04 bd f3 71 cf 3c ea a9 13 3d 6b a8 bc bd
       -0.032441344 0.02532289 0.036050715 -0.09211811
0003a0 2b 41 52 bd b3 d8 89 3d 42 4d 37 bd 5f e6 7a 3d
       -0.05133168 0.06730785 -0.044751413 0.061254855
0003b0 71 d1 97 bc e5 ec 4c bd 1f ce 1d 3a 73 1d 37 bd
       -0.018532487 -0.050030608 0.0006019789 -0.04470582
0003c0 4e 42 0c bd 39 22 76 3f 51 d9 72 3d 18 07 04 bc
       -0.03424292 0.9614597 0.05928928 -0.008058332
0003d0 a2 3c dd b8 ba 8d 00 3e ba de 48 bd 3f 8d 2b bd
       -0.00010549395 0.12554064 -0.049040534 -0.04188275
0003e0 08 79 3b bc 67 85 6e 3d 4d 48 f5 3e 73 8f 97 3d
       -0.01144243 0.05823269 0.47906724 0.07400408
0003f0 c3 f7 30 bc 8a f2 68 3d 9a 46 f8 3b 69 83 17 3d
       -0.0108012585 0.05687193 0.0075767757 0.036990557

fc2.bias f4 [4]
000000 93 10 ef 3f eb 03 06 40 7b 81 fd 3f 73 b0 9e 3f
       1.8676933 2.0939891 1.9805139 1.2397598
