TreasureFinder/I2A_TreasureFinder (updated policy head)/Treasure finder 9/I2A-a2c-T9/agent_1_distilledp.pth (torch, 775851 bytes, 13 tensors)

features.0.weight f4 [500, 3, 3, 3]
0	0x3df33614	0.11875549
1	0xbde5b608	-0.1121636
2	0xbe03c229	-0.12867035
3	0x3dd2af03	0.10287287
4	0x3d99417b	0.074831925
5	0x3df8759b	0.121318065
6	0x3c3d9b28	0.011572637
7	0x3dca2410	0.098701596
8	0xbda149ec	-0.078754276
9	0x3e251064	0.16119534
10	0x3e3c9002	0.1841431
11	0x3e24664e	0.16054651
12	0x3baf4896	0.005349229
13	0x3e352cab	0.1769282
14	0xbda65c0d	-0.08123026
15	0x3e02e2eb	0.12781875
16	0x3d039b38	0.03213045
17	0xbe5bafa7	-0.21453725
18	0xbe29fc70	-0.16600204
19	0xbe198c8e	-0.14995024
20	0xbe031e1c	-0.12804455
21	0x3e2ab069	0.16668858
22	0x3ded5bef	0.115898006
23	0xbc78bda3	-0.015181932
24	0xbd93d22a	-0.0721782
25	0x3e0ba1a7	0.13635884
26	0xbe9490a6	-0.29016608
27	0x3e032ebe	0.128108
28	0xbc1f6e4a	-0.009730885
29	0xbdf22b2a	-0.11824639
30	0xbe261ea3	-0.16222624
31	0xbd3ac2ba	-0.045595862
32	0x3dcd3062	0.10018994
33	0xbdfb40f7	-0.122682504
34	0xbda2ee88	-0.079556525
35	0x3d55d8ba	0.05220864
36	0x3dd2e3a6	0.10297327
37	0x3dba3268	0.090916455
38	0xbdef0bd0	-0.11672175
39	0xbcb68d03	-0.022284037
40	0x3e1f399b	0.15549318
41	0x3dcf2826	0.101150796
42	0x3d8b9a88	0.06816584
43	0xbda0219d	-0.07818911
44	0xbe5f639c	-0.21815342
45	0x3d6dd270	0.058062017
46	0x3e0bc637	0.13649832
47	0xbe157fcd	-0.14599533
48	0x3deed918	0.11662501
49	0x3de958bc	0.11393878
50	0xbe0faedc	-0.14031547
51	0xbe78006d	-0.24218912
52	0xbe0b42a7	-0.13599645
53	0x3dfb04cb	0.122567736
54	0x3d30c7c8	0.043159276
55	0x3e0aa725	0.13540323
56	0x3e1cc5ba	0.15309802
57	0x3d61a1dd	0.055086005
58	0x3d8e2beb	0.069419704
59	0xbe5a0700	-0.21291733
60	0x3cd90cfc	0.02649545
61	0xbe30bb92	-0.17259052
62	0x3d271a41	0.040796522
63	0x3e653a03	0.22385411
64	0x3a08430e	0.000519798
65	0x3e328046	0.17431745
66	0x3dcaf16e	0.0990933
67	0x3d2d5048	0.04231289
68	0xbe236d5b	-0.15959685
69	0xbe09acec	-0.1344487
70	0x3d923d5c	0.071406096
71	0x3da4e6c2	0.08051826
72	0x3d99ebc1	0.075156696
73	0xbcb2d3e6	-0.021829557
74	0x3d7038f8	0.05864808
75	0xbdedcf70	-0.11611831
76	0xbc263e7f	-0.010146736
77	0x3e2610a5	0.16217287
78	0xbda52ab0	-0.080647826
79	0xbd589ba5	-0.05288281
80	0x3e2b509e	0.16729972
81	0xbd120f28	-0.035658985
82	0x3dd9293e	0.106035694
83	0x3d4ec198	0.050477594
84	0x3d49c84c	0.049263284
85	0x3defe93e	0.11714409
86	0xbe1cb552	-0.15303543
87	0xbde19165	-0.1101406
88	0xbd2748c4	-0.04084088
89	0xbda6ec54	-0.08150545
90	0xbdef3e4b	-0.11681803
91	0xbcc8e788	-0.024524465
92	0xbd028e80	-0.03187418
93	0xbe1cf1d6	-0.15326628
94	0xbda2ef8c	-0.07955846
95	0xbd314fa8	-0.043288857
96	0xbc0201a0	-0.007934958
97	0xbd12a170	-0.03579849
98	0xbd989e38	-0.07452053
99	0xbd82641c	-0.063667506
100	0xbe12d56c	-0.14339226
101	0x3de8066a	0.113293484
102	0x3c4a78c0	0.012357891
103	0x3d33fd50	0.04394275
104	0xbce09740	-0.027415872
105	0xbdfd3e09	-0.12365348
106	0x3e2d700b	0.16937272
107	0x3d05d21c	0.03267108
108	0xbe483984	-0.1955319
109	0x3ca9d5dd	0.02073186
110	0xbe39c609	-0.1814195
111	0xbcba05b6	-0.022707801
112	0x3d9a52bc	0.075353116
113	0x3dd27342	0.1027589
114	0xbdfa2da5	-0.12215737
115	0x3e3bff10	0.18359017
116	0xbc97ccc8	-0.018530264
117	0x3d2f3066	0.042770766
118	0x3cd6f221	0.026238503
119	0xbe0a7c13	-0.13523893
120	0x3dbb99aa	0.091601685
121	0x3d16caf0	0.03681463
122	0x3dd22dae	0.10262619
123	0xbd4c0e2d	-0.049818207
124	0x3cfe91d6	0.0310754
125	0xbe1169c9	-0.1420051
126	0x3a527046	0.00080275943
127	0x3da81b16	0.08208291
128	0xbe1492e9	-0.14509167
129	0x3e21e510	0.15810037
130	0xbd4bef1b	-0.049788576
131	0x3e06c2db	0.13160269
132	0xbe3aa43a	-0.1822671
133	0xbe336392	-0.17518452
134	0x3d3dff09	0.0463858
135	0x3d81a686	0.0633059
136	0x3d760547	0.060063627
137	0x3d163d17	0.036679354
138	0xbe11e749	-0.14248385
139	0x3dc592f7	0.09647172
140	0xbe0a1ec4	-0.13488299
141	0x3decda83	0.11565115
142	0xbdd57dfd	-0.10424421
143	0xbdbc7949	-0.09202821
144	0x3d4eebc7	0.050517824
145	0x3db5c1ae	0.08874832
146	0xbd6d8af5	-0.057993848
147	0xbe1821e9	-0.14856686
148	0xbdbef508	-0.0932408
149	0x3e0f514d	0.13995858
150	0x3df813cf	0.12113153
151	0x3c5e92b3	0.0135847805
152	0x3c4803b3	0.012207913
153	0xbc9ad819	-0.018901872
154	0xbdf93b4f	-0.12169515
155	0x3ca2b770	0.01986286
156	0x3e3ccff7	0.18438707
157	0xbe139070	-0.14410567
158	0xbd4b6619	-0.049657915
159	0xbdc57c44	-0.096428424
160	0x3cffa278	0.0312054
161	0xbe198159	-0.14990748
162	0x3d8c441f	0.068489306
163	0xbc338f45	-0.010959451
164	0x3da100a1	0.07861448
165	0x3e3204a1	0.17384578
166	0xbe3eb611	-0.1862414
167	0x3dd4b2b0	0.103856444
168	0x3db3fa71	0.08788002
169	0xbe830e95	-0.25597063
170	0xbe3b606e	-0.18298504
171	0xbe34c1ec	-0.176521
172	0xbc4a3758	-0.012342297
173	0xbd6a82ac	-0.057253525
174	0x3d43d5cb	0.04781131
175	0xbe1bd10f	-0.15216468
176	0xbe1e0916	-0.15433154
177	0x3e1c031f	0.15235566
178	0xbd93b237	-0.07211726
179	0x3cac9811	0.021068605
180	0x3bcde62e	0.006283543
181	0xbd559d43	-0.05215193
182	0xbcdc186b	-0.026867112
183	0xbc7891bb	-0.015171464
184	0x3e1fd141	0.15607168
185	0x3e278eda	0.16363087
186	0x3d0787d7	0.03308853
187	0x3de02743	0.109449886
188	0xbe127471	-0.14302231
189	0x3da1174c	0.07865772
190	0x3e560257	0.2089933
191	0xbd2ba3d6	-0.041904293
192	0x3e3bfa89	0.1835729
193	0xbde23186	-0.11044602
194	0x3e8d3f22	0.2758723
195	0x3e599180	0.2124691
196	0xbdc6ec1d	-0.09713004
197	0xbc8adc04	-0.016950615
198	0x3dd19de0	0.102351904
199	0x3ca5599d	0.020184333
200	0xbcbffc29	-0.023435669
201	0xbca7c385	-0.020478973
202	0x3e34ac39	0.17643823
203	0x3e2229e1	0.15836288
204	0xbe3b31e2	-0.18280748
205	0xbe0d345a	-0.13789502
206	0xbe298112	-0.16553143
207	0xbdd73093	-0.10507312
208	0xbe1b8773	-0.15188389
209	0xbe107845	-0.14108379
210	0x3bf63446	0.0075135557
211	0x3ddd68dd	0.10811017
212	0x3de05083	0.109528564
213	0x3e0ae550	0.13564038
214	0xbdb72e9b	-0.08944436
215	0x3e205ff9	0.1566161
216	0x3e14a833	0.14517288
217	0x3d85642b	0.06513246
218	0xbe2200e2	-0.1582065
219	0x3e27d5c9	0.16390146
220	0xbe56ac15	-0.20964082
221	0x3da18d22	0.07888247
222	0xbdddf06a	-0.10836871
223	0x3dcf6d5c	0.101282805
224	0xbd017f83	-0.031615745
225	0xbdd2c94d	-0.10292301
226	0x3db4a4e5	0.08820514
227	0xbe3a3f08	-0.18188107
228	0xbdf772ef	-0.12082469
229	0xbe154615	-0.14577515
230	0xbcd36730	-0.02580604
231	0x3b0d8cf1	0.00215989
232	0xbe4c2def	-0.19939397
233	0x3bb26d4a	0.005445157
234	0x3e2eb398	0.17060697
235	0x3d1d10f5	0.03834625
236	0x3e1c10d6	0.15240797
237	0xbde72d2c	-0.11287913
238	0x3e17b263	0.14814143
239	0x3d3d0455	0.04614671
240	0xbcee0e28	-0.029059485
241	0x3a209a5f	0.0006126519
242	0x3d573173	0.052537393
243	0xbdcfb1ec	-0.10141358
244	0x3e0e02bd	0.13868232
245	0xbdc4f9aa	-0.09617932
246	0x3d3f50fd	0.046708096
247	0x3e3dea6f	0.1854646
248	0xbd81a89e	-0.06330989
249	0xbe2d7588	-0.16939366
250	0x3ccec33f	0.025239585
251	0xbe3a8332	-0.1821411
252	0x3e21c33b	0.15797131
253	0x3e45cbb7	0.19315992
254	0xbd9c49ce	-0.076312646
255	0xbd863385	-0.06552795

features.0.bias f4 [500]
0	0xbe251290	-0.16120362
1	0xbe00246a	-0.12513891
2	0x3caa68db	0.020801952
3	0xbc99f4a0	-0.018793404
4	0x3dead226	0.11465864
5	0xbdac3338	-0.08408207
6	0xbce6daf4	-0.028180577
7	0xbcfd4fe5	-0.030921886
8	0xbe2ad647	-0.16683303
9	0x3e7b5e36	0.24547657
10	0xbe112840	-0.1417551
11	0xbe165caa	-0.14683786
12	0x3d3d78ce	0.046257786
13	0x3d7abc88	0.061214954
14	0x3defba65	0.11705474
15	0x3daeced4	0.08535543
16	0x3e203cb4	0.15648156
17	0x3d909934	0.07060471
18	0xbd4c17d6	-0.04982742
19	0xbd8dd16d	-0.069247104
20	0xbe3b5470	-0.18293929
21	0xbdf4f683	-0.11961081
22	0x3e1ac75f	0.15115117
23	0xbe0912bf	-0.13386057
24	0xbdd38334	-0.103277594
25	0xbe02e40a	-0.12782302
26	0x3e19063b	0.14943783
27	0xbdcdf9d7	-0.10057419
28	0x3babfba3	0.0052485033
29	0xbde60682	-0.1123171
30	0xbe303ea6	-0.17211398
31	0x3e3f4db0	0.18681979
32	0xbcbee6a9	-0.023303347
33	0xbdb5e2d3	-0.08881154
34	0xbdba1ef2	-0.090879336
35	0xbda993fd	-0.0828018
36	0x3dc05d8d	0.093928434
37	0xbdf0c8ce	-0.117570505
38	0xbe39ba76	-0.18137535
39	0xbe0c18ca	-0.13681331
40	0xbdbe0620	-0.09278512
41	0x3d167d08	0.036740333
42	0xbdce612f	-0.1007713
43	0x3d1df817	0.038566675
44	0x3df4de4f	0.119564645
45	0x3e4a9ca4	0.19786316
46	0xbda94781	-0.082655914
47	0x3d9d9ec9	0.076963015
48	0xbdaeef80	-0.08541775
49	0xbd0b2673	-0.033972215
50	0xbe01d324	-0.126782
51	0x3dd879a2	0.105700746
52	0xbd893c80	-0.067009926
53	0x3e184598	0.14870298
54	0x3c848162	0.016174976
55	0xbd58df57	-0.05294737
56	0xbe09e1ef	-0.13465093
57	0xbcc01ccc	-0.023451231
58	0xbcf90ece	-0.030402567
59	0x3e30491c	0.17215389
60	0x3d980356	0.07422511
61	0xbd951f47	-0.07281356
62	0x3e77cf6d	0.2420022
63	0x3b189ea8	0.0023287926
64	0x3ce5174f	0.027965216
65	0x3e664af9	0.22489537
66	0xbd88a5ea	-0.066722706
67	0x3d945190	0.07242119
68	0xbc6739cb	-0.0141129
69	0xbe3addef	-0.18248723
70	0x3e3fc163	0.18726115
71	0x3d8196a6	0.06327562
72	0xbdddaefc	-0.10824391
73	0xbd3ab9e8	-0.04558745
74	0xbd9ddd3e	-0.07708214
75	0x3d4e5b95	0.05038031
76	0x3e657786	0.22408876
77	0x3e02018e	0.12695906
78	0x3de27167	0.11056786
79	0x3e286b76	0.16447243
80	0xbd823aaf	-0.06358849
81	0xbd0527c8	-0.03250864
82	0x3e6af0f2	0.22943476
83	0xbe069bc5	-0.13145359
84	0x3e6542dc	0.22388786
85	0x3e31d1d7	0.17365204
86	0xbd8a971a	-0.067671016
87	0x3c9a5247	0.018838061
88	0xbe3be161	-0.18347694
89	0xbdd84be6	-0.105613515
90	0x3e2a840a	0.16651931
91	0xbde7f3f4	-0.11325827
92	0xbdba84e5	-0.09107379
93	0x3e723704	0.236538
94	0xbd4c4411	-0.0498696
95	0x3db8d51a	0.09025021
96	0x3d6c2b51	0.057658497
97	0x3e23af34	0.15984803
98	0x3e3c0aea	0.18363538
99	0xbe1bca41	-0.15213872
100	0xbe183d54	-0.14867145
101	0xbda049e4	-0.078265935
102	0x3e34d16c	0.17658013
103	0x3c9664dd	0.018358642
104	0xbe0f41a4	-0.13989884
105	0xbe4fb9d6	-0.20285735
106	0xbe3120b0	-0.17297626
107	0x3deec4f8	0.116586626
108	0x3e13884a	0.14407459
109	0x3dbe85c2	0.09302856
110	0xbdb4f1ce	-0.08835183
111	0x3cb84b84	0.022496946
112	0x3ca3ed37	0.020010574
113	0xbe21d945	-0.15805538
114	0xbd90d9f8	-0.07072824
115	0x3dd095e1	0.10184837
116	0x3de4f727	0.11179953
117	0x3c102755	0.00879844
118	0xbd9d8deb	-0.07693084
119	0xbde3c266	-0.11121063
120	0xbe1d0aa3	-0.15336089
121	0xbd6b3ef1	-0.057433072
122	0x3d96cb4d	0.07362995
123	0x3e22720b	0.15863816
124	0xbdf48e28	-0.11941177
125	0xbde6f753	-0.11277642
126	0xbad4d897	-0.0016238865
127	0xbcfc5c1f	-0.030805646
128	0xbdd7b46c	-0.105324596
129	0xbe061623	-0.13094382
130	0x3c196bf9	0.009364122
131	0x3d2e9228	0.042619854
132	0xbc86d9e5	-0.016461322
133	0x3e2cf008	0.1688844
134	0x3e17bf98	0.14819181
135	0x3b390ad4	0.0028235214
136	0xbcd44fb8	-0.02591692
137	0xbcac2ef8	-0.02101849
138	0x3d858350	0.065191865
139	0xbd88396c	-0.06651577
140	0xbc6eb3d5	-0.0145692425
141	0x3df48612	0.119396344
142	0xbe2c9929	-0.16855301
143	0x3c357ccd	0.011077118
144	0xbd2a90b2	-0.0416419
145	0xbe1ac9ff	-0.15116118
146	0xbdb48a9c	-0.088155
147	0xbc983ef0	-0.018584698
148	0xbdb10079	-0.08642668
149	0x3e88cba9	0.2671788
150	0xbdaa76c1	-0.08323432
151	0xbd8c89ab	-0.068621956
152	0xbb4ea564	-0.0031531686
153	0x3dafbc35	0.085808195
154	0x3dc4250e	0.0957738
155	0xbcd88dca	-0.026434798
156	0xbe020d80	-0.12700462
157	0x3e687ad1	0.227031
158	0xbc9c4084	-0.019073732
159	0xbd9dba1a	-0.07701512
160	0x3e55265a	0.20815411
161	0x3e57a306	0.21058282
162	0x3de85a2b	0.11345323
163	0xbe35e415	-0.17762788
164	0xbcfbf923	-0.030758446
165	0x3de96c93	0.11397662
166	0xbd89ddda	-0.06731768
167	0x3dd882e0	0.105718374
168	0x3e1d2ce8	0.15349162
169	0x3dc93970	0.098254085
170	0xba65dfbf	-0.00087689975
171	0xbd5fe7aa	-0.05466429
172	0xbe0074b5	-0.1254452
173	0x3e43da43	0.19126229
174	0x3df90b11	0.12160314
175	0x3e32fc1a	0.17478982
176	0xbd3a44aa	-0.04547564
177	0x3d2f9957	0.042870846
178	0x3e5a9b82	0.21348384
179	0xbe6cd375	-0.2312754
180	0x3e2ad983	0.16684537
181	0xbcc8c914	-0.024509944
182	0x3c19477b	0.009355421
183	0x3d7b6d1f	0.061383363
184	0x3e7a1df4	0.24425489
185	0x3e36f989	0.17868628
186	0xbdecf4d1	-0.115701325
187	0x3c324f70	0.010883197
188	0x3dee50f5	0.11636535
189	0x3d95c38d	0.07312689
190	0x3e25c0f4	0.16186887
191	0xbd3f331d	-0.046679605
192	0x3e23bc49	0.15989794
193	0x3e2f6d05	0.17131431
194	0x3e1fd6f3	0.1560934
195	0x3e4d3a47	0.20041762
196	0xbdd4b755	-0.1038653
197	0xbddbb8c9	-0.10728604
198	0x3d4d4539	0.050114844
199	0xbe2195a5	-0.15779741
200	0x3d9b40b7	0.07580703
201	0x3e5a6712	0.2132838
202	0x3d9432ce	0.07236253
203	0x3e3d69bc	0.18497366
204	0x3cc7fda2	0.024412934
205	0x3e21c74c	0.15798682
206	0x3de778a9	0.11302311
207	0xbdd2d585	-0.10294632
208	0x3d85d3bc	0.06534526
209	0xbba43b84	-0.0050119776
210	0x3d04d858	0.032432884
211	0xbc03d5f4	-0.008046616
212	0x3d01ff4c	0.03173761
213	0xbda97ba8	-0.08275539
214	0xbe0b841c	-0.13624614
215	0x3d9a0be4	0.07521799
216	0x3e1d316a	0.15350881
217	0x3c498497	0.012299678
218	0x3ccebe45	0.025237212
219	0x3e8191b2	0.2530647
220	0xbdeebf68	-0.116576016
221	0xbb8049a4	-0.0039150286
222	0x3cef9ecc	0.029250525
223	0x3e1c401a	0.15258828
224	0xbd394cef	-0.045239385
225	0xbe12f6dd	-0.14351983
226	0x3e1b01cc	0.15137404
227	0x3d1b0fa1	0.0378567
228	0xb9e9232e	-0.00044467434
229	0xbd814ccb	-0.06313475
230	0xbc5b0bb5	-0.01336949
231	0x3e1d2a6a	0.15348211
232	0x3cb62bc0	0.022237659
233	0x3dc81d2b	0.09771188
234	0x3e20c458	0.15699899
235	0x3d43049b	0.047611814
236	0x3e4458dd	0.19174524
237	0xbcd65b4c	-0.02616658
238	0x3e4a900b	0.1978151
239	0x3cd49557	0.025950117
240	0xbe3c6804	-0.18399054
241	0x3dc587bc	0.0964503
242	0xbe484242	-0.19556525
243	0x3dc72812	0.0972444
244	0xbdf54100	-0.119752884
245	0x3dd48e06	0.10378651
246	0x3e6785b2	0.22609594
247	0x3e70cc1c	0.23515362
248	0xbddc7ce6	-0.1076601
249	0x3e150104	0.14551169
250	0x3db3f06b	0.087860905
251	0xbdb10828	-0.08644134
252	0xbdeca339	-0.1155457
253	0xbcaa93b9	-0.020822393
254	0xbc98aa6c	-0.018635951
255	0xbdf26d26	-0.11837225

features.2.weight f4 [250, 500, 1, 1]
0	0x3d09f56e	0.033681326
1	0xbd23e6af	-0.04001492
2	0x3c802132	0.015640829
3	0x3cc3db8a	0.023908395
4	0x3cdc91ea	0.026925046
5	0x3cf3547e	0.029703375
6	0xbc0f1b4d	-0.008734536
7	0xbd381645	-0.044943113
8	0x3c911625	0.017710755
9	0xbc885dd4	-0.016646303
10	0xbd2bcbfc	-0.04194258
11	0xbc6f8f74	-0.014621604
12	0xbd020713	-0.031745028
13	0xbb6fa650	-0.0036567636
14	0x3c8652f0	0.01639697
15	0xbd2f0a4f	-0.04273444
16	0x3c87250a	0.016497154
17	0xbcbf2110	-0.023331195
18	0x3d2b3537	0.041798797
19	0x3c9627d8	0.018329546
20	0x3c82ec8c	0.015981935
21	0x3cfa205a	0.030533005
22	0xbc77d6f5	-0.015126933
23	0x3caba0f1	0.020950766
24	0xbceecbfd	-0.029150004
25	0xbccbaab9	-0.02486168
26	0x3d1af102	0.0378275
27	0xbc4cdecf	-0.012504294
28	0xbbc74ead	-0.006082377
29	0xbc075f4c	-0.008262467
30	0x3d2b7f31	0.041869346
31	0xbcadd070	-0.021217555
32	0x3cf2356f	0.029566495
33	0xbce5c6b6	-0.028048854
34	0x3c8635b5	0.016383031
35	0xbc0d7170	-0.008633003
36	0x38a97db2	8.0819606e-05
37	0x3cb0bd1b	0.021574548
38	0xbcffe2c7	-0.031236066
39	0x3d293e59	0.041319225
40	0x3b5cd330	0.0033695213
41	0x3a08280a	0.00051939546
42	0xbc81e312	-0.015855346
43	0x3c8649ac	0.016392551
44	0xbcf6699e	-0.03007966
45	0xbba9d95d	-0.0051833824
46	0x3d07832c	0.03308408
47	0xbc8338eb	-0.016018352
48	0xbce019ca	-0.027356047
49	0x3d17738c	0.03697543
50	0xbc244eac	-0.010028522
51	0xbc2c84af	-0.010529681
52	0x3c8bfce2	0.017088357
53	0xbcc95a76	-0.024579268
54	0x3b74abf0	0.0037333928
55	0x3d24728f	0.040148314
56	0x3cfcd7fe	0.030864712
57	0xbcf7a4b5	-0.030229906
58	0xbd141f2c	-0.03616254
59	0xbc5e58f7	-0.013571016
60	0xbc1496b2	-0.009069132
61	0xbcc625db	-0.024187973
62	0xbbac8414	-0.0052647684
63	0xbc4e3e13	-0.012588042
64	0x3d140243	0.03613497
65	0x3bc8c248	0.0061266758
66	0xbafbb900	-0.0019204915
67	0xbc8a3833	-0.016872501
68	0x3be24f6e	0.0069064414
69	0xbc124150	-0.0089267045
70	0x3d01db76	0.031703435
71	0x3b351420	0.0027630404
72	0x3d040cd7	0.032238808
73	0x3bf77248	0.007551465
74	0xbcd507e5	-0.026004741
75	0xbd2c814b	-0.04211549
76	0xbcd1579a	-0.025554467
77	0x3c853e94	0.016265191
78	0xbb7f85f1	-0.0038989747
79	0x3ce9a7c6	0.028522383
80	0xbd0342a0	-0.03204596
81	0xbd168fa4	-0.03675808
82	0xbd03af8e	-0.032149844
83	0xbc18bd69	-0.009322503
84	0x3d09f303	0.03367902
85	0xbb530e9c	-0.0032204753
86	0x3d18c297	0.03729495
87	0xbd08a5bb	-0.033361178
88	0x3d144407	0.03619769
89	0x3d1fa78f	0.038978156
90	0x3d2b0139	0.041749213
91	0x3cc32570	0.023821563
92	0x3d263d49	0.04058579
93	0xbc4fb43b	-0.012677248
94	0x3cc4632e	0.023973074
95	0xbcee3c49	-0.02908148
96	0x3cd1809e	0.025574025
97	0xbb1d1743	-0.0023970164
98	0xbc140e7c	-0.0090366565
99	0xbc98e3d3	-0.018663323
100	0x3cd8733e	0.02642214
101	0xbcf34bd0	-0.029699236
102	0xbc1c3d20	-0.009536058
103	0xbd40c80e	-0.047065787
104	0xbc5d63ab	-0.013512532
105	0x3cef50a0	0.02921325
106	0xbcaec58e	-0.021334436
107	0x3cee13f4	0.029062249
108	0x3d2b580d	0.04183202
109	0x3c9f1215	0.019417802
110	0xbd205629	-0.03914467
111	0xbceb5ada	-0.028729845
112	0xbd261073	-0.04054303
113	0xbd3761ef	-0.04477113
114	0x3d28b906	0.041192077
115	0xbcd3fe45	-0.025878081
116	0xbd3652de	-0.044512622
117	0xbc3b86b3	-0.011445689
118	0x3d0c850b	0.034306567
119	0xbcacc59e	-0.021090325
120	0x3cadd567	0.021219922
121	0xbd3622b2	-0.04446668
122	0x3ccfb3d2	0.0253543
123	0x3c03cfad	0.008045119
124	0x3c0970d4	0.008388717
125	0x3c8543d1	0.016267689
126	0xbcecb470	-0.028894633
127	0x3cfadf86	0.030624162
128	0x3b2c8d09	0.002632918
129	0xbcfede99	-0.031112002
130	0x3ce7a742	0.028277997
131	0xbd333306	-0.04374983
132	0xbcba3bf2	-0.022733662
133	0xbc4a76fc	-0.01235747
134	0xbb4dfa76	-0.0031429804
135	0xbd1cb1bd	-0.038255442
136	0xbba11a68	-0.004916478
137	0x3d0f02ef	0.034914907
138	0x3bc7a948	0.006093178
139	0xbd404b21	-0.04694665
140	0xbcdbc286	-0.026826154
141	0xbcdd8170	-0.02703926
142	0xbb2a7c8d	-0.002601418
143	0xbce73d66	-0.02822752
144	0x3ccd42f6	0.025056344
145	0x3cd5601a	0.026046801
146	0xbc66df70	-0.014091358
147	0x3cf49522	0.029856268
148	0x3b0053ce	0.0019581201
149	0xbc0679b5	-0.008207728
150	0x3d1d3c5f	0.038387652
151	0xbcfad083	-0.030617004
152	0xbc3400f4	-0.010986555
153	0x3cc0b043	0.023521548
154	0xbd23acfb	-0.03995989
155	0xbc7c622e	-0.015404267
156	0xbd2b289c	-0.041786775
157	0x3cd1eba2	0.025625054
158	0xbc3492bc	-0.011021312
159	0xbc4692ae	-0.012119932
160	0x3c87c22f	0.016572086
161	0xbc6ba949	-0.014383622
162	0xbd25aa40	-0.040445566
163	0x3cbe31f6	0.023217183
164	0x3d06a4b9	0.032871936
165	0xbd026c6d	-0.031841684
166	0xbc8fc992	-0.01755217
167	0x3d26886f	0.040657457
168	0x3cddaf4e	0.02706113
169	0x3d13825b	0.03601299
170	0xbd0f5ca8	-0.035000473
171	0x3cf8cf4e	0.030372288
172	0xbb55812c	-0.0032578213
173	0x3b9c6651	0.0047729393
174	0x3d285b3f	0.041102644
175	0x3c02b2bf	0.007977187
176	0xbd3cc5be	-0.04608702
177	0xbcc1b929	-0.023647862
178	0xbd392b4b	-0.045207303
179	0x3c50e828	0.012750663
180	0x3bb1b6ad	0.005423388
181	0xbd107c3d	-0.035274733
182	0xbcce4b06	-0.025182258
183	0x3ca342ea	0.019929368
184	0xbcc15eb2	-0.023604725
185	0x3d03ef16	0.032210432
186	0xbd12dff8	-0.035858124
187	0x3cc31a2a	0.023816187
188	0xbcb2828e	-0.021790769
189	0xbcfa04b2	-0.030519817
190	0x3cfabae8	0.030606702
191	0xbc1271fd	-0.00893831
192	0x3bbcfb02	0.005767227
193	0x3c417d3a	0.0118096415
194	0xbc250f1c	-0.010074403
195	0xbb683f36	-0.0035438067
196	0xbd291a11	-0.041284624
197	0xbb05aa30	-0.002039563
198	0xbc5ee193	-0.013603586
199	0xbba96681	-0.00516969
200	0xbcb7d077	-0.022438271
201	0x3ccae321	0.024766507
202	0xbce3bb9e	-0.027799424
203	0x3ce6bfed	0.02816769
204	0x3ae62e80	0.0017561466
205	0xbc0ebba7	-0.008711732
206	0xbcdaec20	-0.026723921
207	0x3d1de0bb	0.038544398
208	0x3cff7399	0.031183051
209	0xbba6fefc	-0.0050963145
210	0xbd2b5828	-0.04183212
211	0x3cf5a86a	0.029987533
212	0xbc0fc748	-0.00877554
213	0xbcda9c46	-0.026685845
214	0xbd029562	-0.031880744
215	0x3caeebe2	0.021352712
216	0x3bd103c8	0.0063786246
217	0x3cb54d0b	0.022131464
218	0x3cf340dd	0.029694015
219	0xbc8e631a	-0.01738124
220	0xbcb4612a	-0.022018988
221	0x3a533268	0.00080565223
222	0xbd3c67ff	-0.045997616
223	0x3cc881da	0.02447598
224	0x3ca8e82a	0.020618517
225	0xbcce00d1	-0.025146874
226	0xbcad808d	-0.021179462
227	0x3ce9ff94	0.028564252
228	0xbd05a243	-0.032625448
229	0xbcf6c9f5	-0.030125597
230	0xbc6d2cfe	-0.014476059
231	0x3c1f6ee9	0.009731033
232	0xbd3324e9	-0.043736372
233	0x3c9437e6	0.01809306
234	0xbb66f7fc	-0.0035243025
235	0x3caaf5c9	0.020869153
236	0xbd0bfd94	-0.034177378
237	0xbc987e38	-0.018614873
238	0x3b509a0b	0.0031830098
239	0xbc84c365	-0.016206453
240	0x3c651968	0.013983108
241	0xbc2ad504	-0.010426763
242	0x3c126c43	0.008936944
243	0xbc5fe921	-0.013666422
244	0xbd18a764	-0.03726901
245	0xbb1c5c10	-0.0023858584
246	0xbce5eb9b	-0.028066447
247	0xbca7d688	-0.020488039
248	0xbce74a74	-0.028233744
249	0xbc9a177f	-0.018810032
250	0xbc8680b3	-0.01641879
251	0xbc1518dc	-0.009100165
252	0x3bafef4a	0.0053691017
253	0x3d01a13c	0.031647906
254	0x3cf77b76	0.030210238
255	0xbc3aa7ac	-0.011392515

features.2.bias f4 [250]
0	0xbd3bf0f5	-0.04588409
1	0xbd93184b	-0.07182368
2	0xbd7f4046	-0.062317155
3	0x3cc05d35	0.023481945
4	0x3d8dd999	0.06926269
5	0xbd27e3b1	-0.040988628
6	0x3d9fe7f5	0.07807914
7	0x3c3ab26d	0.011395079
8	0x3c97e8df	0.018543659
9	0x3dae68c6	0.08516078
10	0xbd050fa1	-0.032485608
11	0x3b89d73b	0.0042065657
12	0x3caece37	0.021338565
13	0xbd5034e8	-0.050831705
14	0x3c2bfa8b	0.010496746
15	0xbb8ac635	-0.004235054
16	0x3d38713c	0.045029864
17	0xbd25a37f	-0.040439125
18	0x3d87e0d7	0.06634682
19	0xbd6b7810	-0.057487547
20	0xbcef11bc	-0.029183261
21	0xbd8dc58a	-0.06922443
22	0xbc16ab4f	-0.009196117
23	0x3cbc0f18	0.022956416
24	0xbd73eb2f	-0.05955046
25	0x3d3558c1	0.044274095
26	0xbc3dc5fe	-0.01158285
27	0xbd1a8f0b	-0.037734073
28	0x3d9eac29	0.07747681
29	0xbc98e3a4	-0.018663235
30	0xbcbc4c0e	-0.022985484
31	0xbd28862d	-0.041143585
32	0xbbf68c20	-0.0075240284
33	0xbc024a1d	-0.00795224
34	0xbd10cbb4	-0.035350516
35	0xbc8a6da7	-0.01689799
36	0x3d3ea41c	0.046543226
37	0x3d8ed1aa	0.06973584
38	0x3dd31aa6	0.10307817
39	0xbd7b94a3	-0.061421048
40	0xbd66bc05	-0.056331653
41	0xbaeb33e1	-0.0017944538
42	0xbcca8d38	-0.024725541
43	0xbc52d26a	-0.012867549
44	0xbc0591fd	-0.008152482
45	0x3d0c4f4c	0.03425531
46	0xbc71f0d7	-0.014766893
47	0x3dde3554	0.10850015
48	0x3d55c5af	0.05219048
49	0xbcfe6d33	-0.03105793
50	0x3e1118aa	0.14169565
51	0xbd92607a	-0.07147308
52	0xba7604f6	-0.00093848945
53	0x3d98817e	0.07446574
54	0x3c82235c	0.015886001
55	0xbd23d6b5	-0.039999682
56	0xbbfc6164	-0.0077020396
57	0xbd20e640	-0.039282084
58	0x3c2cf7bc	0.010557111
59	0xbbbbb107	-0.0057278904
60	0xbce15eba	-0.02751099
61	0xbd87749f	-0.066140406
62	0x3d921ae2	0.07134034
63	0x3cce1d38	0.025160417
64	0xbcfbc64d	-0.030734206
65	0xbd3a9e7e	-0.045561306
66	0xbd1bc40b	-0.038028758
67	0x3dbdbfbc	0.09265086
68	0x3cf5b2a9	0.029992418
69	0xbc6b36f3	-0.014356363
70	0xbd14f6d2	-0.0363682
71	0xbd3a739e	-0.045520417
72	0x3d061012	0.03273017
73	0x3c145792	0.0090540815
74	0xbd44f6fd	-0.04808711
75	0xbd64fb16	-0.055903517
76	0x3db05ec2	0.086118236
77	0xbcf6d011	-0.03012851
78	0xbce37ce9	-0.027769523
79	0x3df90ec8	0.121610224
80	0x3dcea667	0.100903325
81	0xbb8e083e	-0.0043344786
82	0x3bc08ec1	0.0058763926
83	0x3da2c80b	0.079483114
84	0xbce6d3dc	-0.028177194
85	0x3bb13a6c	0.0054085758
86	0xbcf48d2e	-0.029852476
87	0xbd19bbf8	-0.037532777
88	0x3d99e8fb	0.075151406
89	0xbcbccced	-0.023046935
90	0x3c53eb54	0.012934525
91	0x3d089f27	0.033354905
92	0x3c236e30	0.009975001
93	0xbb17e504	-0.0023177275
94	0x3907d621	0.00012954373
95	0xbd379bfe	-0.0448265
96	0xbd748ab4	-0.05970259
97	0x3db4e2e0	0.088323355
98	0x3dc736a7	0.09727221
99	0x3dd29767	0.10282784
100	0xbd67503d	-0.056473006
101	0xbd26686f	-0.04062694
102	0x3d98bf77	0.07458394
103	0xba8f80d2	-0.0010948426
104	0xbd1e2a3a	-0.03861449
105	0xbc163bf2	-0.0091695655
106	0x3d078b30	0.033091724
107	0x3d10e696	0.035376154
108	0xbd553516	-0.05205258
109	0xbd2e62b1	-0.04257459
110	0xbcbfca65	-0.023411939
111	0x3cac6e52	0.021048699
112	0xbbe72343	-0.007053764
113	0x3b3cf8a9	0.0028834736
114	0x3d28f094	0.04124506
115	0xbbe4aa62	-0.006978319
116	0x3b5be217	0.0033551508
117	0x3e213f16	0.15746722
118	0x3ce93fc5	0.02847279
119	0xbd5df0c7	-0.0541847
120	0xbd4afdfa	-0.049558617
121	0x3b9fbad6	0.0048745675
122	0x3d3ebd8f	0.046567496
123	0x3a17b53a	0.0005787198
124	0xbcd5500f	-0.026039151
125	0x3caafad1	0.020871552
126	0xbcec2b0f	-0.028829126
127	0x3d05b031	0.032638732
128	0xbce6d378	-0.028177008
129	0xbd7b95c8	-0.06142214
130	0xbb484ee0	-0.0030564591
131	0xbd0d43b1	-0.034488384
132	0x3d0cf0e5	0.034409422
133	0x3c03546e	0.008015735
134	0x3e1649bf	0.1467657
135	0xbcb54cb0	-0.022131294
136	0x3e04639b	0.12928621
137	0xbd07ff7e	-0.03320264
138	0xbc771382	-0.015080335
139	0x3d68f6f6	0.056876145
140	0x3dab7890	0.08372605
141	0xbc863154	-0.016380943
142	0xbd493341	-0.049121145
143	0x3d24770f	0.040152606
144	0xbd526389	-0.051364455
145	0xbabd4e5a	-0.0014442906
146	0xbcb03764	-0.021510787
147	0xbcf9653d	-0.030443782
148	0xbcb53ca8	-0.02212365
149	0x3ccf8b99	0.02533512
150	0xbd4c0423	-0.049808633
151	0xbc4e4898	-0.01259055
152	0x3c5ffe92	0.013671534
153	0x3d0ec505	0.03485586
154	0x3d156861	0.036476497
155	0xbcd4b1db	-0.025963714
156	0x3cb3aa25	0.021931717
157	0xbc5b5861	-0.01338777
158	0xbd9596db	-0.07304164
159	0x3d923df5	0.071407236
160	0x3da2469a	0.079236224
161	0xba050977	-0.0005074958
162	0xbcc67471	-0.024225445
163	0x3d66c2ba	0.05633805
164	0x3d073c1b	0.033016305
165	0x3c596c84	0.013270501
166	0xbd3bdd49	-0.04586533
167	0xbc343f0d	-0.011001361
168	0xbc94eef2	-0.018180344
169	0x3ce94fd9	0.028480457
170	0x3d894472	0.06702508
171	0x3d5dc2b1	0.05414075
172	0xbd2dd5aa	-0.042440094
173	0xbcccdd4f	-0.025007872
174	0xbc4a652d	-0.012353224
175	0x3caec578	0.021334395
176	0x3d19af07	0.037520435
177	0xba820fd0	-0.0009922925
178	0x3db8f8dc	0.09031841
179	0x3d2bbfdd	0.041931022
180	0x3d4dc745	0.050238866
181	0x3d2af515	0.041737635
182	0x3d4f8596	0.050664507
183	0xbd898766	-0.06715278
184	0x3cf0a608	0.029376045
185	0x3d34cf0f	0.04414278
186	0x3c5c4982	0.01344526
187	0x3c71434f	0.01472552
188	0x3c127d15	0.008940955
189	0xbcf8c1f4	-0.030365922
190	0x3c51d023	0.012805971
191	0xbd00b539	-0.031422827
192	0x3d4b832f	0.049685653
193	0x3bf02860	0.007329032
194	0xba9e5d37	-0.0012082224
195	0x3d36d3a6	0.044635437
196	0xba8066b3	-0.0009796232
197	0x3bf79822	0.0075559774
198	0xbce0ad37	-0.027426345
199	0xbd00defa	-0.031462647
200	0x3cf783f7	0.030214293
201	0xbce3955d	-0.027781183
202	0x3e239064	0.1597305
203	0x3e080113	0.1328166
204	0x3caaa6fa	0.020831574
205	0xbc49455e	-0.012284605
206	0xbd1297b7	-0.035789218
207	0x3c861dc6	0.016371619
208	0x3d13ee58	0.036115974
209	0xbb40a7f3	-0.002939698
210	0xbc533909	-0.012892016
211	0x3cf1b647	0.029505862
212	0xbc9ee8d9	-0.01939814
213	0xbaf0dee9	-0.0018376979
214	0x3d34a914	0.044106558
215	0xbd28fe41	-0.0412581
216	0x3ddb113f	0.10696649
217	0xbd8d0642	-0.06885959
218	0xbd2e2556	-0.042516075
219	0xbd7ef4f4	-0.062245324
220	0xbda8d5d6	-0.08243911
221	0x3d9e0a2e	0.07716785
222	0xbd29d406	-0.041461967
223	0x3b51fe4f	0.003204245
224	0x39e3353d	0.0004333648
225	0xbd39ad86	-0.0453315
226	0xbc4da87c	-0.012552377
227	0xba1183af	-0.00055509334
228	0xbae7181b	-0.0017631085
229	0xbd086574	-0.03329988
230	0xbd8c6384	-0.068549186
231	0xbc1ccb11	-0.009569899
232	0x3d03ebaf	0.032207187
233	0xbd232109	-0.039826427
234	0xbcd3c16c	-0.025849067
235	0xbc1d6390	-0.009606257
236	0x3b75efde	0.0037527005
237	0x3ba3d933	0.0050002574
238	0x3cd9a896	0.026569646
239	0x3c262eb7	0.010142974
240	0xbcb9b49e	-0.022669133
241	0xbcb67618	-0.022273108
242	0xbca44821	-0.020053925
243	0xbc330fed	-0.01092909
244	0x3de0e4d6	0.10981147
245	0x3c1e4a2b	0.009661238
246	0x3d478f12	0.048720427
247	0xbb54cdbc	-0.003247126
248	0x3bfee9bc	0.007779328
249	0x3c7196c1	0.014745415

fc1_actor.weight f4 [100, 250]
0	0xbd450629	-0.048101578
1	0xbd1198cf	-0.03554612
2	0x3c26bf9b	0.010177518
3	0xbd645d4d	-0.05575304
4	0xbca28605	-0.019839296
5	0xbcf40f10	-0.029792339
6	0x3cab2584	0.020891912
7	0x3c4d3fda	0.01252743
8	0x3b5342b5	0.0032235805
9	0xbd6ac3c4	-0.057315603
10	0x3c2b8b8f	0.010470285
11	0xbce8b70c	-0.028407596
12	0xbcc5d92f	-0.024151413
13	0xbd77d0ee	-0.060501985
14	0xbc4d7350	-0.0125397
15	0x3d3a5cee	0.04549878
16	0xbd5e6ab4	-0.05430098
17	0x3d58b2f2	0.05290503
18	0x3d251a66	0.04030838
19	0xbd2214a6	-0.039570473
20	0xbd6b763e	-0.05748581
21	0xbd08e61a	-0.033422567
22	0x3b27359a	0.0025514127
23	0x3d24226b	0.040071886
24	0xbbcadf42	-0.006191165
25	0xbd14175d	-0.036155093
26	0xbc5f0c74	-0.013613809
27	0x3d721090	0.059097826
28	0xbd5cd937	-0.05391809
29	0x3d4797c7	0.04872873
30	0x3d5db4e7	0.0541276
31	0x3d554744	0.052069917
32	0xbd563fee	-0.05230706
33	0x3d2b16dd	0.04176985
34	0x3b5a0842	0.0033269082
35	0xbd393e9c	-0.045225725
36	0xbd1056db	-0.03523908
37	0x3d1f2c74	0.038860753
38	0xbd36ed47	-0.04465988
39	0xbc9b8d70	-0.018988341
40	0x3cf7df89	0.030257957
41	0xbbd7223f	-0.0065653617
42	0xb8c82f66	-9.545572e-05
43	0xbd7ac7dd	-0.06122576
44	0xbc6d4bf1	-0.014483438
45	0x3d1acfaa	0.0377957
46	0xbd01f25b	-0.03172527
47	0xbd03c0f9	-0.032166455
48	0xbcaf7a79	-0.021420704
49	0x3d1745fe	0.036931984
50	0xbc121d42	-0.008918108
51	0x3d621ef8	0.055205315
52	0x3c23f0c8	0.010006137
53	0xbc7cfdbf	-0.015441357
54	0xbc12d32d	-0.008961481
55	0xbd81143c	-0.063026875
56	0x3cd58034	0.026062109
57	0x3bb12b11	0.0054067452
58	0xbd72e52b	-0.059300583
59	0x3ae91387	0.0017782309
60	0xbd247126	-0.04014697
61	0xbcf1b124	-0.029503413
62	0xbd479017	-0.0487214
63	0x3d293f36	0.04132005
64	0xbc274b30	-0.010210797
65	0xbd7d86d8	-0.061896175
66	0xbca3f0cf	-0.020012287
67	0x3d6102fd	0.05493449
68	0xbd804b72	-0.0626439
69	0x3bdc81f8	0.0067293607
70	0xbbe4d18a	-0.006982987
71	0xbd5b2ed2	-0.05351145
72	0x3d4c6230	0.049898326
73	0x38b6e32b	8.7207496e-05
74	0x3d6c9cd0	0.057766736
75	0xbd6c876f	-0.057746347
76	0x3b8dde80	0.0043295026
77	0x3c770fe5	0.015079473
78	0xbd651e7d	-0.05593728
79	0xbcf1777c	-0.02947592
80	0x3d0d4400	0.034488678
81	0x3d3c3df5	0.045957524
82	0xbc89637c	-0.01677107
83	0x3be78a40	0.007066041
84	0x3ccea016	0.02522282
85	0x3c5e1e52	0.013557034
86	0xbd617356	-0.055041634
87	0x3c733730	0.014844701
88	0xbd5d414b	-0.054017346
89	0x3b27efa0	0.0025625005
90	0xbc310908	-0.010805376
91	0x3d595e52	0.053068466
92	0x3d066989	0.03281549
93	0xbd28686c	-0.04111521
94	0xbd017ef2	-0.031615205
95	0xbb3cf1aa	-0.0028830566
96	0x3c3e65d4	0.011620957
97	0x3d30d005	0.043167133
98	0x3cd7f2fa	0.026360977
99	0x3d16bbee	0.036800317
100	0x3d629583	0.055318367
101	0xbc4f10c6	-0.012638276
102	0xbc4815c2	-0.012212219
103	0x3cd97834	0.026546575
104	0x3b9b8c20	0.004746929
105	0x3d2ae8cd	0.041725922
106	0xbd1882a6	-0.03723397
107	0xbd39f3de	-0.045398585
108	0x3c49fbb1	0.012328074
109	0x3d5da73c	0.054114565
110	0x3d451e78	0.04812476
111	0x3d84bbb4	0.06481114
112	0xbc8faca8	-0.017538384
113	0x3cc81001	0.024421694
114	0xbd1b1bfd	-0.03786849
115	0xbbd92d69	-0.0066277278
116	0x3d690744	0.056891695
117	0xbd14b206	-0.03630259
118	0xbd16ef2a	-0.03684918
119	0x3c85b5c1	0.016322019
120	0xbc1f69fe	-0.00972986
121	0xbcabf2fc	-0.020989887
122	0x3c540ce9	0.012942531
123	0x3d446a7e	0.04795312
124	0x3ceb964c	0.02875819
125	0x3c4fe0ac	0.012687843
126	0x3cc352ff	0.023843287
127	0x3c83fa14	0.016110457
128	0xbc821f8e	-0.015884187
129	0x3d29001b	0.041259866
130	0x3ca4a68c	0.020098947
131	0xbd47d1d1	-0.04878408
132	0x3d57f757	0.052726116
133	0x391511e1	0.00014216408
134	0x3d190dca	0.037366666
135	0xbcb523bc	-0.022111766
136	0xbccaa412	-0.024736438
137	0x3d40dce4	0.047085658
138	0xbb9a590c	-0.0047103222
139	0x39eba1b8	0.00044943183
140	0xbcb15e2b	-0.021651348
141	0x3b17559f	0.0023091806
142	0x3d3b69fb	0.045755368
143	0xbc07be84	-0.008285169
144	0xbc934098	-0.017975137
145	0xbd0981fe	-0.033571236
146	0xbd19e541	-0.03757215
147	0x3d7582df	0.05993926
148	0xbd536db1	-0.05161828
149	0x3cca69ce	0.024708655
150	0x3d681ee8	0.0566701
151	0x3d5234db	0.05131994
152	0x3cc18500	0.02362299
153	0xbc3e89f5	-0.011629571
154	0x3b67ec3d	0.0035388612
155	0xbd08e5e1	-0.033422355
156	0x3d808a88	0.06276423
157	0xbd67cc03	-0.056591045
158	0x3d01787e	0.03160905
159	0x3c999a68	0.018750384
160	0xbc4773d7	-0.012173614
161	0x3b64c6b1	0.0034908468
162	0x3d3bcfb1	0.045852367
163	0x3bfeeb73	0.0077795326
164	0x3d7053c8	0.05867365
165	0x3c0897a4	0.008336935
166	0xbd5a4cfc	-0.053296074
167	0xbc8446c2	-0.016147021
168	0xbd42200a	-0.047393836
169	0x3d30c7e1	0.04315937
170	0xbcc96443	-0.024583941
171	0xbd7d6b1b	-0.06186972
172	0x3d60254b	0.054723065
173	0x3d326fba	0.043563582
174	0xbc0c0bbc	-0.00854772
175	0xbd1336a7	-0.035940792
176	0x3ce3d7d3	0.027812874
177	0xbcbfc564	-0.023409553
178	0xbd3504d4	-0.044194058
179	0x3c285b51	0.010275678
180	0x3b54bf8d	0.0032462806
181	0x3d766b76	0.060161076
182	0xbd14a7a9	-0.036292706
183	0xbd43df63	-0.04782046
184	0xbcad38be	-0.02114522
185	0xbb48b4b6	-0.003062529
186	0xbd00d718	-0.03145513
187	0x3cacf3e4	0.02111239
188	0xbd3d5494	-0.046223238
189	0x3d7202a8	0.059084564
190	0x3c89732f	0.016778557
191	0xbd64443e	-0.055729143
192	0x3d457798	0.048209757
193	0x3d4d7c8d	0.05016761
194	0xba0e68f3	-0.0005432509
195	0xbba58c47	-0.0050521228
196	0x3c4dae07	0.012553698
197	0xbb7be4a4	-0.003843584
198	0x3bfbbe50	0.007682599
199	0x3d329c72	0.04360623
200	0xbd5bab51	-0.053630177
201	0x3d35e278	0.04440543
202	0x3abfa780	0.0014622062
203	0xbcdffbae	-0.02734169
204	0x3d576c5a	0.052593566
205	0x3d43fa5e	0.04784619
206	0xbd44afbf	-0.048019167
207	0x3ad08872	0.0015909804
208	0xbb174f12	-0.00230879
209	0x3d57a14c	0.05264406
210	0x3a70b488	0.00091821747
211	0xbb912e15	-0.0044305422
212	0x3c6ae781	0.014337421
213	0xbcdec0a9	-0.027191477
214	0xbd3a13e6	-0.045429133
215	0xbc705ca5	-0.014670526
216	0xbb39cc28	-0.0028350446
217	0x3d2baa82	0.041910656
218	0xbd36b720	-0.044608235
219	0x3d054f92	0.032546587
220	0xbcc43610	-0.02395156
221	0x3d3b39fd	0.0457096
222	0xbd684ed4	-0.0567158
223	0x3d3f2f80	0.04667616
224	0xbd801909	-0.06254775
225	0xbc966bd8	-0.01836197
226	0x3ca8fde0	0.02062887
227	0x3cf2a44a	0.029619355
228	0x3d766d72	0.06016297
229	0xbd50ad85	-0.05094673
230	0xbd652e4d	-0.05595236
231	0x3d14645c	0.036228523
232	0x3ba522f1	0.0050395657
233	0x3d5b40de	0.05352866
234	0xbd02c813	-0.031929087
235	0x3cbc08c0	0.022953391
236	0xbd607453	-0.054798435
237	0xbd48cb22	-0.049021848
238	0x3c7355ce	0.014852
239	0xbd54ef2c	-0.051985905
240	0x3ce5fb4e	0.028073933
241	0xbd28ab14	-0.041178778
242	0xbd7ccde8	-0.061719805
243	0xbc1cf017	-0.009578726
244	0xbd24c497	-0.040226545
245	0x3d315e60	0.043302894
246	0x3c7e7728	0.015531339
247	0xbd62220d	-0.055208255
248	0x3d1d0dda	0.038343288
249	0x3d515f92	0.051116534
250	0xbba712d6	-0.005098681
251	0x3d4b403d	0.04962181
252	0xbdc624d0	-0.0967499
253	0x3c7e437a	0.015519017
254	0x3da1b8fe	0.078966126
255	0x3c66a30e	0.014076961

fc1_actor.bias f4 [100]
0	0x3c1cd88b	0.009573112
1	0x3db06f1a	0.08614941
2	0x3c1fca42	0.009752812
3	0x3d79c7ed	0.06098168
4	0xbb83cdf8	-0.004022356
5	0x3c8d44ce	0.017244723
6	0xbc1b14b8	-0.009465389
7	0xbd5e4fd9	-0.054275367
8	0x3c983ad4	0.018582739
9	0xbd80216a	-0.06256373
10	0x3d8099ff	0.062793724
11	0x3d665ee3	0.056242835
12	0xbc8c6f40	-0.017142892
13	0xbcb165f2	-0.021655057
14	0xbd2b9eeb	-0.041899603
15	0xbc8a36c0	-0.01687181
16	0x3c3927b9	0.0113009745
17	0x3d3c2b34	0.04593964
18	0x3da2903e	0.07937668
19	0x3d6b14cf	0.05739289
20	0x3ba1a086	0.004932466
21	0xbbf95a72	-0.007609659
22	0xbd55c692	-0.052191325
23	0x3caa968e	0.020823743
24	0x3d6977a6	0.05699887
25	0x3ccdfd09	0.02514507
26	0x3d3c7aad	0.04601543
27	0xbd80a6e7	-0.06281834
28	0x3d1e5929	0.03865925
29	0x3cbc2edc	0.022971563
30	0xbc410b14	-0.011782426
31	0x3aae478d	0.001329647
32	0x3d84f280	0.06491566
33	0x3b47113c	0.0030375263
34	0x3d1e6abb	0.038676005
35	0x3d7f7b68	0.06237355
36	0x3c7d1963	0.015447947
37	0x3d7afe8c	0.06127791
38	0x3b83ff8e	0.004028267
39	0xbcfb75f9	-0.030695902
40	0x3cb09f4c	0.021560334
41	0x3cf7ca92	0.03024796
42	0xbc4abcbe	-0.012374101
43	0x3cb4c89e	0.022068318
44	0xbc699b94	-0.014258284
45	0xbbd74aae	-0.006570182
46	0xbd98ff49	-0.07470567
47	0x3ca4f77b	0.02013754
48	0x3d621db8	0.055204123
49	0xbb9715d3	-0.004610756
50	0xbbfecbc4	-0.0077757556
51	0x3c9f9e27	0.019484593
52	0xbb6177a0	-0.0034403577
53	0x3c02b093	0.007976669
54	0xbbfc631d	-0.007702245
55	0xbc0fca28	-0.008776225
56	0xbd50cebd	-0.05097841
57	0xbce32708	-0.027728572
58	0x3ad8a1cd	0.0016527713
59	0x3d343470	0.04399532
60	0x3d8c7d75	0.068598665
61	0x3c0896b6	0.008336714
62	0x3d190aa0	0.03736365
63	0x3c439ee5	0.011939739
64	0xbc5a35e9	-0.013318517
65	0x3c929591	0.017893584
66	0x3d294f50	0.041335404
67	0xbc9434e2	-0.018091623
68	0x3da2069c	0.07911417
69	0x3d507181	0.050889496
70	0x3c52961f	0.0128531745
71	0x3d8f1f4a	0.0698839
72	0x3db6db1c	0.089285105
73	0xbd60d1fb	-0.054887753
74	0x3d412e9c	0.04716359
75	0x3d8ffcc4	0.07030633
76	0xbc500e36	-0.012698701
77	0xbcf91698	-0.030406281
78	0x3dbf6f09	0.0934735
79	0x3c0b578f	0.008504762
80	0x3d4341c7	0.047670152
81	0x3cabf5d9	0.020991253
82	0x3cb86f86	0.022514116
83	0xbb4a8e59	-0.00309076
84	0x3c0b2064	0.008491609
85	0x3c116ff9	0.008876794
86	0xbd80a188	-0.0628081
87	0x3d2fd9b5	0.04293223
88	0x3d7cb831	0.061699096
89	0x3d790c33	0.06080265
90	0xbce48fb4	-0.027900554
91	0xbd2e121b	-0.042497735
92	0xbd78c69c	-0.060736284
93	0x3c3b531d	0.01143339
94	0x3c1432af	0.009045287
95	0xbd0e9323	-0.03480829
96	0x3c4a7b71	0.012358532
97	0x3c7d7e03	0.015471938
98	0x3d5edbdf	0.054408904
99	0x3b9e5fdc	0.0048332047

fc2_actor.weight f4 [4, 100]
0	0xbd4ddfd8	-0.050262302
1	0x3d83a020	0.06427026
2	0xbd15025f	-0.036379214
3	0xbdd1fb5e	-0.102530226
4	0x3d146ffc	0.03623961
5	0x3bf2cc4e	0.007409609
6	0x3d6a49b2	0.057199188
7	0x3d47817a	0.048707463
8	0xbbb4913b	-0.005510477
9	0xbd562c54	-0.05228837
10	0xbd7f1a5e	-0.062281005
11	0x3c9207d1	0.017825993
12	0xbda4db9b	-0.08049699
13	0x3c843fec	0.016143762
14	0xbd46e178	-0.048554868
15	0xbe0e1787	-0.13876162
16	0xbdedf750	-0.11619437
17	0xbdc23eb5	-0.09484617
18	0xbd8a63ae	-0.06757294
19	0xbe338558	-0.17531335
20	0xbe35876d	-0.17727442
21	0xbdccfcd1	-0.100091584
22	0xbdae32c7	-0.08505779
23	0xbe06186f	-0.13095258
24	0xbd557237	-0.052110877
25	0x3dc97ae4	0.09837893
26	0xbe00ed35	-0.12590487
27	0xbcd311c4	-0.025765307
28	0xbdd67080	-0.104706764
29	0xbdfd0233	-0.12353935
30	0x3d2d1548	0.042256624
31	0x3d1b62f7	0.037936177
32	0xbce7aa9f	-0.0282796
33	0xbdb3cc4d	-0.08779202
34	0xbe1dc58f	-0.15407394
35	0xbda2b896	-0.07945363
36	0xbd768f00	-0.06019497
37	0xbd11378b	-0.03545336
38	0x3d12e11d	0.035859216
39	0xbe22a911	-0.15884806
40	0x3d908533	0.07056656
41	0xbd99a313	-0.07501807
42	0x3d8fac10	0.0701524
43	0x3c304fb6	0.010761192
44	0x3b99cb95	0.0046934583
45	0xbb93f8a1	-0.004515723
46	0xbdb56a60	-0.0885818
47	0xbe14ebaf	-0.14543031
48	0x3d61b8bf	0.05510783
49	0xbe0a7abc	-0.13523382
50	0xbe3bcce2	-0.18339875
51	0xbb82d206	-0.003992322
52	0xbe339460	-0.1753707
53	0x3bc61c19	0.00604583
54	0xbde9b73b	-0.114119016
55	0xbd96d425	-0.07364682
56	0xbd11a13c	-0.035554156
57	0x3bd2cf2c	0.006433388
58	0x3ce6e0fc	0.028183453
59	0xbd4d7815	-0.050163347
60	0xbd30714f	-0.04307681
61	0xbc4f68f1	-0.012659297
62	0xbe140111	-0.14453532
63	0x3d651964	0.055932418
64	0x3c269103	0.010166409
65	0x3d9f3073	0.07772913
66	0xbd35fb80	-0.044429302
67	0xbc45c04e	-0.012069775
68	0xbcd122e6	-0.025529336
69	0x3c8bf64f	0.017085223
70	0x3bbf14f7	0.0058313566
71	0xbd4246fc	-0.047430977
72	0x3ca5dad1	0.020245941
73	0x3cdd2203	0.026993757
74	0xbdf4f665	-0.119610585
75	0xbcb56fd2	-0.022148047
76	0x3c7f5b87	0.015585787
77	0xba7736f4	-0.0009430491
78	0xbe31ed61	-0.17375709
79	0xbd996342	-0.07489635
80	0xbdcbc49f	-0.09949612
81	0xbe4d1625	-0.20027979
82	0xbd8ce35f	-0.06879305
83	0x3d256ec3	0.040388834
84	0xbc7befe9	-0.015377023
85	0x3b7f6e25	0.0038975563
86	0xbe2c640f	-0.16835044
87	0xbe2b53c8	-0.16731179
88	0xbdd4ac15	-0.103843845
89	0xbcfc2518	-0.030779406
90	0xbe134ae9	-0.14384045
91	0xbdf4750e	-0.11936389
92	0xbdbf7433	-0.09348335
93	0x3daa6368	0.083197415
94	0xbe09aa3b	-0.13443844
95	0xbcb1b405	-0.021692285
96	0xbd67afd6	-0.056564175
97	0x3db6d8fb	0.089281045
98	0xbda6f795	-0.08152691
99	0xbddd8f07	-0.10818296
100	0xbd760bdb	-0.0600699
101	0xbdfcc327	-0.1234191
102	0x3cd3c3c0	0.025850177
103	0x3cdbdcef	0.026838748
104	0xbd1b2f2c	-0.037886783
105	0x3dd68aa4	0.10475662
106	0xbd10707c	-0.035263523
107	0xbd1f3980	-0.038873196
108	0xbe2da195	-0.1695617
109	0x3ce6648f	0.028124122
110	0xbdc2c992	-0.09511103
111	0xbdf91a4d	-0.121632196
112	0xbdf52e46	-0.119717166
113	0xbda33524	-0.0796912
114	0xbd85b25e	-0.065281615
115	0x3d024a0f	0.03180891
116	0x3d877364	0.06613806
117	0xbe174990	-0.14774156
118	0xbd93c29b	-0.072148524
119	0x3d9a9d78	0.07549566
120	0xbd4bd0de	-0.04975974
121	0xbe00184b	-0.12509267
122	0xbe49b79c	-0.19698948
123	0x3c458ce1	0.012057514
124	0xbe072e13	-0.1320117
125	0xbcfde0e7	-0.03099103
126	0x3cf9e0db	0.030502727
127	0x3b79527e	0.0038043554
128	0xbe41088d	-0.18850918
129	0xbdbce803	-0.0922394
130	0xbc06eb03	-0.008234742
131	0x3c07790d	0.008268607
132	0xbdcdc314	-0.10046974
133	0xbd965f74	-0.07342425
134	0xbd0eff60	-0.034911513
135	0x3d8c4dd3	0.06850781
136	0x3db9ca48	0.09071785
137	0x3d113fec	0.03546135
138	0x3cc72c41	0.024313094
139	0x3d6fad90	0.05851513
140	0xbd8e9159	-0.069613166
141	0xbe04b62c	-0.12960118
142	0x3dc04f16	0.093900844
143	0xbce3801c	-0.027771048
144	0x3e2983ad	0.16554137
145	0xbca6c587	-0.02035786
146	0x3d9859df	0.074390166
147	0xbd88051c	-0.066415995
148	0x3d826bc5	0.06368212
149	0x3e0e140f	0.13874839
150	0x3df96441	0.12177325
151	0x3e0b75bd	0.13619132
152	0xbe2d1062	-0.16900781
153	0xbc0d0a71	-0.008608446
154	0xbe5f570b	-0.21810548
155	0xbe166285	-0.1468602
156	0x3d695189	0.056962524
157	0x3df83a5a	0.12120505
158	0xbd85bf50	-0.065306306
159	0x3d884041	0.066528805
160	0xbdff82c5	-0.12476114
161	0x3bd936fa	0.006628868
162	0xbe201f30	-0.15636897
163	0xbd80748e	-0.06272231
164	0xbd76b57e	-0.06023168
165	0xbd85f803	-0.06541445
166	0xbe06335c	-0.1310553
167	0x3d72692f	0.059182342
168	0xbe1d79ed	-0.15378542
169	0xbe15a341	-0.14613058
170	0xbdcbec48	-0.099571764
171	0xbe14cfa2	-0.1453233
172	0x3dbdeecf	0.09274065
173	0x3c8a5c9c	0.016889863
174	0xbe581178	-0.21100414
175	0x3d9a9ba8	0.0754922
176	0xbd944de1	-0.07241417
177	0x3d3223a2	0.043491013
178	0x3d35b566	0.04436245
179	0x3a80950d	0.0009810046
180	0xbe49bdae	-0.19701263
181	0xbddc0448	-0.10743004
182	0x3db092db	0.086217605
183	0x3e04557c	0.12923235
184	0xbd53805d	-0.05163609
185	0x3c7731d0	0.01508756
186	0x3e0cd146	0.13751706
187	0xbe04fdbf	-0.12987421
188	0xbc6d3fdd	-0.014480558
189	0xbe143c27	-0.14476071
190	0xbe085ff5	-0.13317855
191	0x3d62a3ba	0.055331923
192	0x3da08987	0.07838731
193	0xbd6aac95	-0.057293493
194	0xbd8662dd	-0.065618254
195	0x3d3be49e	0.045872323
196	0xbddba1f4	-0.107242495
197	0xbd7d0a22	-0.06177724
198	0x3d8dc1a2	0.06921698
199	0xbdc94804	-0.09828189
200	0x3b20a924	0.0024514878
201	0xbbe982bd	-0.007126181
202	0x3d7d52fd	0.061846722
203	0xbe252cad	-0.16130324
204	0xbd5ed345	-0.0544007
205	0xbe2e4513	-0.17018537
206	0xbc52c030	-0.012863204
207	0xbd1b03a0	-0.037845254
208	0xbe4b9828	-0.19882262
209	0xbcc2e8a8	-0.02379258
210	0xbe58abd4	-0.21159297
211	0xbe2166ff	-0.15761946
212	0xbe5202ac	-0.20508832
213	0x39c7fab8	0.00038143038
214	0xbd22cbf6	-0.039745294
215	0xbd10ca95	-0.035349447
216	0xbd94b675	-0.072613634
217	0xbd5dcd6d	-0.054150987
218	0xbdd40011	-0.10351575
219	0xbd065615	-0.032796938
220	0xbdbcddb1	-0.09221972
221	0xbd07f879	-0.033195946
222	0xbdfef7d0	-0.1244961
223	0xbe22a839	-0.15884484
224	0xbe28a105	-0.16467674
225	0xbd86f99a	-0.065905765
226	0xbd7368b1	-0.059426013
227	0xbd27b18b	-0.040940803
228	0xbcffc0b1	-0.031219812
229	0xbdbb7cae	-0.0915464
230	0xbcaa7e16	-0.020812076
231	0x3cd8f57a	0.02648424
232	0x3bb970ae	0.0056591844
233	0xbe2f2b71	-0.17106415
234	0xbe34b359	-0.1764654
235	0x3cf0e8e4	0.029407926
236	0x3b86e6d4	0.0041168723
237	0xbe612a36	-0.21988758
238	0xbdb7ab79	-0.08968253
239	0xbe403423	-0.18769889
240	0x3d911be4	0.07085398
241	0xbdac47eb	-0.08412155
242	0x3c8196d9	0.015819
243	0xb84753bd	-4.7523285e-05
244	0xbcedaafc	-0.029012196
245	0xbd463fc5	-0.04840066
246	0xbd0eb756	-0.03484281
247	0xbe196c37	-0.14982687
248	0x3d9ae588	0.07563311
249	0xbdd1780d	-0.10227976
250	0x3b919951	0.0044433256
251	0xbcba4e86	-0.022742521
252	0xbde314f8	-0.11087984
253	0x3cd33926	0.025784086
254	0xbda9285e	-0.082596526
255	0xbd9fa0ba	-0.07794328

fc2_actor.bias f4 [4]
0	0xbcc2046e	-0.023683753
1	0xbdc79ae0	-0.09746337
2	0xbe4a07f2	-0.19729593
3	0xbd07496b	-0.033029
