TreasureFinder/I2A_TreasureFinder (updated policy head)/Treasure finder 9/I2A-a2c-T9/agent_2_distilledp.pth (torch, 776107 bytes, 13 tensors)

features.0.weight f4 [500, 3, 3, 3]
0	0xbd9c9299	-0.07645149
1	0x3de65753	0.112471245
2	0x3e3b014a	0.1826221
3	0xbd8e0532	-0.06934585
4	0x3c81dec0	0.015853286
5	0x3ca0759e	0.019587334
6	0xbc843cf3	-0.016142344
7	0x3e312663	0.172998
8	0x3d274d5d	0.040845264
9	0x3daa1b0e	0.083059415
10	0xbd1a8602	-0.037725456
11	0xbd881582	-0.06644727
12	0x3e182b09	0.14860167
13	0xbdb84bf5	-0.08998863
14	0x3dc8dafd	0.09807394
15	0xbe4fd061	-0.20294334
16	0x3e4695a9	0.19393028
17	0xbda912f5	-0.08255569
18	0x3e68ff60	0.22753668
19	0x3deb1d6a	0.1148022
20	0xbda4b59a	-0.0804245
21	0x3ca7e8c1	0.020496728
22	0xbd67e01d	-0.056610215
23	0x3e18b714	0.14913589
24	0x3e17b020	0.1481328
25	0xbe07495f	-0.13211583
26	0x3e567c75	0.20945914
27	0x3d0a0bae	0.033702545
28	0x3da72389	0.08161075
29	0x3dbff699	0.09373207
30	0xbac2e2ec	-0.0014868653
31	0x3e6920c2	0.22766402
32	0xbb0aadbd	-0.0021160685
33	0x3dc4f050	0.096161485
34	0x3e56f03e	0.20990083
35	0x3df8c82a	0.12147553
36	0x3e40ebec	0.18839997
37	0x3e3ff1c2	0.18744567
38	0xbd42d1aa	-0.047563232
39	0x3df21d06	0.11821942
40	0xbd2dcd5c	-0.042432174
41	0xbd58a506	-0.052891754
42	0x3e153c41	0.14573766
43	0x3e4132f4	0.18867093
44	0x3e4ee896	0.20205912
45	0xbe189ffe	-0.14904782
46	0x3d7402ce	0.059572987
47	0xba035ffa	-0.0005011555
48	0xbe35f9cb	-0.1777107
49	0xbdc54e4b	-0.09634074
50	0xbdd6bc69	-0.10485155
51	0x3d63cdd5	0.05561622
52	0xbe2a5882	-0.16635326
53	0xbe1eb0e4	-0.15497166
54	0xbd38639d	-0.045016874
55	0x3db9b25c	0.090672225
56	0x3cb55104	0.022133358
57	0xbbab035f	-0.0052189077
58	0x3d8897ee	0.06669603
59	0xbd305818	-0.043052763
60	0x3c7c00fe	0.015381096
61	0x3c92a253	0.017899668
62	0x3d3169d3	0.043313812
63	0xbd992d43	-0.07479336
64	0xbd05cc88	-0.03266576
65	0xbdc57147	-0.096407466
66	0x3d00937c	0.031390652
67	0x3d27a7a0	0.040931344
68	0x3e39e7aa	0.18154779
69	0xbdcf7196	-0.10129087
70	0x3d8e7c50	0.069573045
71	0x3e2347b3	0.1594532
72	0x3df1e94c	0.11812076
73	0x3de1e0e2	0.11029221
74	0xbddf8e54	-0.10915819
75	0xbda58bf5	-0.08083335
76	0x3cd8d8a6	0.026470494
77	0x3e59a1a8	0.21253073
78	0xbd7e7963	-0.062127482
79	0xbe47ca6e	-0.19510815
80	0xbe61836a	-0.22022787
81	0xbda926f0	-0.0825938
82	0x3e328bf3	0.17436199
83	0x3cffbcfb	0.031218043
84	0xbce3c807	-0.027805341
85	0x3e35bd09	0.17747892
86	0x3e28a19b	0.16467898
87	0xbd9a3013	-0.07528701
88	0x3e4a1de3	0.19737963
89	0x3e101332	0.14069822
90	0xbd0c5e13	-0.034269404
91	0xbe3a1d17	-0.1817516
92	0x3dda7b49	0.10668046
93	0x3e25dc39	0.1619729
94	0x382c7000	4.1112304e-05
95	0xbdd8b2f8	-0.105810106
96	0x3e02f79b	0.12789766
97	0xbc2d7e89	-0.01058925
98	0xbe081cad	-0.13292189
99	0x3d3c0ad3	0.04590876
100	0xbdc18403	-0.09449007
101	0xbcf85678	-0.030314669
102	0x3e37d6f1	0.17953087
103	0xbd522f6d	-0.05131476
104	0x3e1c242f	0.15248178
105	0x3d563723	0.052298676
106	0xbe237121	-0.15961124
107	0xbd535fdc	-0.05160509
108	0xbd267cbb	-0.040646296
109	0x3e33dec7	0.17565452
110	0xbdfcfc40	-0.123528
111	0x3e6f66dd	0.23379083
112	0xbe57706f	-0.21038984
113	0x3e34fa57	0.17673622
114	0x3d56cf10	0.052443564
115	0x3d898037	0.06713908
116	0xbdf6a1e9	-0.12042601
117	0x3d8fdbfb	0.0702438
118	0xbe0afd57	-0.13573204
119	0xbe13774d	-0.14400978
120	0x3e34cbc9	0.17655863
121	0xbdb24329	-0.08704216
122	0x3c81ae43	0.015830165
123	0x3e4ba3cf	0.19886707
124	0xbe045843	-0.12924294
125	0x3d3b38d4	0.045708492
126	0x3da836cc	0.08213577
127	0x3d6dea4e	0.05808478
128	0xbe4eccbf	-0.20195292
129	0x3ddc4677	0.107556276
130	0x3db4953d	0.088175274
131	0x3df2ac7f	0.11849307
132	0xbe26db98	-0.16294706
133	0xbdcb1e36	-0.09917872
134	0x3d2a5f5c	0.041594848
135	0xbdb2d6df	-0.0873239
136	0xbe589e74	-0.21154195
137	0xbe7129b0	-0.23551059
138	0xbd35cf94	-0.044387415
139	0xbd6387c8	-0.055549413
140	0xbde69985	-0.1125975
141	0xbe0fae4a	-0.1403133
142	0x3c885249	0.0166408
143	0xbe5b8236	-0.2143639
144	0x3dd7590f	0.105150335
145	0x3c9a9e5d	0.018874342
146	0x3dfed663	0.12443235
147	0xbe076dc4	-0.13225466
148	0x3d77f9ac	0.06054084
149	0xbda3e13f	-0.08001947
150	0xbd837f2c	-0.064207405
151	0xbe0a36c2	-0.13497451
152	0x3e37dbc8	0.17954934
153	0x3dc35f17	0.09539621
154	0x3e6597e5	0.22421224
155	0x3dcb846d	0.099373676
156	0x3d4106ea	0.047125734
157	0x3d0e8c92	0.034802027
158	0xbde910a3	-0.11380126
159	0x3c17adf5	0.009257783
160	0xbd130f97	-0.03590354
161	0xbb8d818a	-0.004318421
162	0x3da9fe36	0.0830044
163	0x3dcdc391	0.10047067
164	0x3e21739c	0.15766758
165	0x3d771ff4	0.060333207
166	0x3e5b602f	0.2142341
167	0xbe2ca7ff	-0.1686096
168	0xbe657308	-0.22407162
169	0x3e4c07d3	0.1992486
170	0xbe76d903	-0.24106221
171	0x3d221d86	0.039578937
172	0x3e1efacd	0.1552536
173	0xbd1234ae	-0.03569477
174	0x3c58a180	0.013222098
175	0xbda248f9	-0.07924075
176	0x3c07d4f2	0.008290516
177	0xbdbfe107	-0.093690924
178	0x3d8cfeaa	0.06884511
179	0xbe4c3805	-0.19943245
180	0x3bf34789	0.007424299
181	0x3e175be7	0.14781152
182	0x3c49e400	0.012322426
183	0x3e620824	0.22073418
184	0xbda1f354	-0.07907739
185	0x3e57cf16	0.21075091
186	0x3e1094fa	0.1411933
187	0xbb85221b	-0.0040629036
188	0xbe1819bd	-0.14853568
189	0xbda0d35e	-0.07852815
190	0xbe27407c	-0.16333193
191	0x3df68e27	0.12038832
192	0x3cb860ef	0.022507159
193	0xbdd13463	-0.1021507
194	0x3bed52f4	0.007242555
195	0x3dd8bf22	0.10583331
196	0xbe03ab34	-0.12858278
197	0xbe1e02e6	-0.15430793
198	0xbdafe77c	-0.08589074
199	0x3e1de2b5	0.15418513
200	0x3d945032	0.072418585
201	0x3b6d88c0	0.003624484
202	0xbdbaa6ea	-0.091138676
203	0x3e3ecaa9	0.18631996
204	0xbcd604fa	-0.02612542
205	0x3de917c7	0.11381488
206	0x3e51a6e8	0.20473826
207	0x3e4feacc	0.20304412
208	0xbc2a58e8	-0.010397173
209	0x3d7383ea	0.059451975
210	0x3d1fa27a	0.03897331
211	0xbe0bf2f7	-0.13666902
212	0xbe6558e7	-0.22397195
213	0xbe04aa74	-0.12955648
214	0xbe3b70e3	-0.18304782
215	0xbda35455	-0.079750694
216	0xbd6824a1	-0.056675557
217	0xbdc555cb	-0.09635504
218	0x3db1e149	0.08685548
219	0xbe3c868c	-0.184107
220	0xbe34dfc9	-0.17663492
221	0xbe45c657	-0.19313942
222	0xbd1da6ae	-0.038489036
223	0x3d7a935c	0.06117569
224	0x3e05d2fe	0.13068768
225	0xbc9ce0fa	-0.019150246
226	0x3e23721f	0.15961502
227	0x3e064253	0.13111238
228	0x3e3b427b	0.18287079
229	0x3e0e3aff	0.13889693
230	0xbde09546	-0.10965972
231	0x3d93f674	0.072247416
232	0x3e2b0c77	0.16703974
233	0x3dbfd866	0.093674466
234	0x3d559974	0.052148297
235	0x3d8b536b	0.0680302
236	0x3dfb7ce3	0.122796796
237	0x3d493adf	0.04912841
238	0x3dcd4d71	0.100245364
239	0x3e1a9e90	0.1509955
240	0xbe6e2d4b	-0.23259465
241	0xbd68e4fa	-0.056858994
242	0xbe2e7a9b	-0.17038958
243	0x3e36afc1	0.17840482
244	0xbe534609	-0.20632185
245	0xbd9ab82e	-0.07554661
246	0x3dae9756	0.08524959
247	0x3cd09f01	0.025466444
248	0xbe2f93dc	-0.17146248
249	0x3d3a2d1e	0.045453183
250	0x3dd2a13c	0.10284659
251	0xbcbafbf4	-0.022825219
252	0x3db12499	0.086495586
253	0xbdc61059	-0.09671087
254	0x3c1be1f6	0.0095143225
255	0xbdd8d163	-0.10586812

features.0.bias f4 [500]
0	0xbddf8b79	-0.10915274
1	0x3cb4586c	0.02201482
2	0x3d1223fb	0.035678845
3	0x3e3a0366	0.18165359
4	0xbe4c096c	-0.19925469
5	0x3cb2ee9f	0.021842299
6	0x3e448c1a	0.1919407
7	0xbe056fe1	-0.1303096
8	0xbd24ef09	-0.040267024
9	0xbdda41ee	-0.10657106
10	0x3dc6156a	0.09672053
11	0xbe15dd04	-0.14635092
12	0x3cce3638	0.025172338
13	0xbe4baf3f	-0.1989107
14	0x3e09b1c8	0.13446724
15	0xbd58a804	-0.052894607
16	0x3e64045a	0.22267285
17	0xbd46cc51	-0.048534695
18	0x3de44d3a	0.11147542
19	0xbdda0f9c	-0.106475085
20	0xbacf099b	-0.0015795709
21	0x3d62459d	0.05524217
22	0xbd8f07e1	-0.06983925
23	0x3e4cce5c	0.20000595
24	0x3d1dbd1e	0.038510434
25	0x3e3373bc	0.17524618
26	0xbe27615e	-0.16345736
27	0xbc90df31	-0.017684551
28	0xbda90cdb	-0.08254405
29	0x3e5dfdb2	0.21678808
30	0x3b63e1ed	0.0034772113
31	0x3de0311e	0.10946868
32	0x3d7df3d8	0.062000126
33	0x3db18e63	0.08669736
34	0x3da54d2b	0.08071359
35	0x3de83a4d	0.11339245
36	0x3e401c0e	0.18760702
37	0x3c275346	0.010212725
38	0xbe04b783	-0.12960629
39	0xbdbe322e	-0.09286915
40	0x3ca586b9	0.020205842
41	0xbdcf2c56	-0.10115878
42	0x3c036bf3	0.008021343
43	0x3e3003a3	0.17188887
44	0x3dea71a8	0.114474595
45	0x3e10f844	0.14157206
46	0xbde5fc91	-0.11229814
47	0x3df0efbf	0.11764478
48	0x3dc5de77	0.096615724
49	0xbe2db3f5	-0.1696318
50	0xbe109ced	-0.14122362
51	0x3e1329eb	0.14371459
52	0x3da29545	0.07938627
53	0x3d6ff693	0.05858476
54	0xbd4daa7c	-0.050211415
55	0xbc58c277	-0.013229958
56	0x3cc7300f	0.024314908
57	0x3e034d96	0.12822565
58	0x3e411455	0.18855412
59	0x3db4430c	0.08801851
60	0x3dc93c96	0.09826009
61	0x3e6c5497	0.23079143
62	0xbdbfcb13	-0.09364905
63	0x3d8d03d6	0.06885497
64	0x3afbc381	0.0019208045
65	0x3e047fe6	0.12939414
66	0x3cd62d95	0.026144782
67	0xbd883746	-0.066511676
68	0xbe19e2b8	-0.15027893
69	0x3e4b7b10	0.19871163
70	0x3cb2fd49	0.021849291
71	0x3d511e85	0.051054496
72	0xbe15804d	-0.14599724
73	0x3b1a9f2f	0.0023593416
74	0x3de4828a	0.11157711
75	0x3d9c49a6	0.07631235
76	0xbe2cbd70	-0.1686914
77	0x3df641f1	0.12024296
78	0x3d62f10e	0.05540567
79	0x3e37315b	0.17889921
80	0x3e4e2bfc	0.20133966
81	0x3c996fcf	0.018730072
82	0x3dc76316	0.09735696
83	0x3d7440d1	0.059632126
84	0xbd95a778	-0.07307333
85	0xbda88c9a	-0.082299426
86	0x3e602dac	0.21892422
87	0x3e231e67	0.15929566
88	0x3e055a49	0.13022722
89	0xbda8a92e	-0.082353935
90	0x3e5a70df	0.2133212
91	0xbb6af504	-0.0035851607
92	0x3e79b028	0.24383605
93	0x3d497c21	0.049190644
94	0xbe484b0a	-0.19559875
95	0x3e305242	0.17218879
96	0x3ccfbcd7	0.0253586
97	0xbe1f1566	-0.15535507
98	0x3e120727	0.14260541
99	0xbdab0746	-0.08350997
100	0x3e341ccf	0.17589115
101	0xbdb21221	-0.08694864
102	0xbc7775e9	-0.015103796
103	0x3d494874	0.049141362
104	0x3e308348	0.1723758
105	0x3d1f6e91	0.038923804
106	0x3e40cf0b	0.1882898
107	0x3d7a651a	0.061131574
108	0x3da68d32	0.081323996
109	0xbda42157	-0.080141716
110	0x3dd657aa	0.10465939
111	0xbb4d0680	-0.0031284392
112	0x3e839ae7	0.2570412
113	0x3da5cbf6	0.08095543
114	0xbddec28a	-0.10876949
115	0x3ddc2985	0.10750107
116	0x3df3801a	0.11889668
117	0x3d937df2	0.072017565
118	0x3e3c005f	0.18359517
119	0xbd9c68db	-0.07637187
120	0x3cfb9e62	0.030715171
121	0xbe352e22	-0.1769338
122	0xbe07fde4	-0.13280445
123	0xbe0f6a3f	-0.14005373
124	0x3cd43c08	0.025907531
125	0x3d7b1008	0.061294585
126	0x3d7bad5a	0.061444618
127	0x3e4f4437	0.20240866
128	0x3c836cd1	0.016043099
129	0x3d70fe11	0.058836047
130	0x3d8b2ccc	0.06795654
131	0x3dca5dab	0.09881147
132	0x3e17485b	0.14773695
133	0x3ba1e576	0.004940684
134	0x3d4009e0	0.046884418
135	0xbdb0427b	-0.0860643
136	0xbc1a2b00	-0.009409666
137	0xbe1b5dcf	-0.15172504
138	0xbdfb1dad	-0.122615196
139	0x3defe172	0.11712922
140	0xbc291198	-0.010319136
141	0xbc3c0ec8	-0.0114781335
142	0xbe4f9581	-0.20271875
143	0x3da07fa5	0.07836846
144	0xbd82764c	-0.063702196
145	0x3d83f5b0	0.064433455
146	0xbd8af066	-0.067841336
147	0xbe0f0280	-0.13965797
148	0x3d91a9ea	0.07112487
149	0xbddb3741	-0.10703898
150	0x3d84bd6d	0.064814426
151	0x3daa4ac4	0.08315042
152	0xbcfb3eea	-0.030669648
153	0xbdd09056	-0.1018378
154	0x3e819245	0.25306907
155	0x3d0acdc2	0.033887632
156	0x3e72e73a	0.23721018
157	0x3d0e7b39	0.034785483
158	0x3e4e123b	0.20124142
159	0xbdd04d64	-0.10171011
160	0x3e397350	0.18110394
161	0x3e7056ec	0.23470658
162	0xbdb2c9a4	-0.08729866
163	0x3e51e2c3	0.20496659
164	0xbe272b0b	-0.16325013
165	0xbd8b0179	-0.0678739
166	0xbd42429c	-0.047426805
167	0xbe107417	-0.14106785
168	0x3e44d948	0.19223511
169	0x3da28c21	0.07936884
170	0xbd55bc0a	-0.05218128
171	0x3e106ad7	0.14103256
172	0xbd826cf1	-0.06368435
173	0xbd659354	-0.056048706
174	0xbaafdf8d	-0.0013418064
175	0xbe7d043d	-0.24708648
176	0x3da0dcd7	0.07854622
177	0x3c9d97b3	0.019237375
178	0x3e342662	0.17592767
179	0xbde6960e	-0.112590894
180	0x3c0f1cb8	0.008734874
181	0xbdc61fc2	-0.09674026
182	0xbe0b28f7	-0.13589846
183	0xbe0e47df	-0.13894604
184	0xbce4bd72	-0.027922366
185	0x3e60a5c7	0.21938239
186	0xbdb8aa5f	-0.09016871
187	0x3e135c0a	0.14390579
188	0xbd985eea	-0.074399784
189	0x3dab8e9c	0.0837681
190	0xbc4ace3d	-0.012378273
191	0x3e82a439	0.25515917
192	0xbe18be31	-0.14916302
193	0x3e1102a2	0.1416116
194	0x3df8e3d7	0.12152832
195	0xbd8ff13a	-0.07028432
196	0xbc0fcbde	-0.008776633
197	0x3c9937f4	0.018703438
198	0x3b909273	0.0044119894
199	0xbdc6925b	-0.09695884
200	0x3e0337fe	0.12814328
201	0xbd8c00fc	-0.06836125
202	0x3cbdbac6	0.02316035
203	0x3e10952e	0.14119408
204	0x3e04f0f5	0.12982543
205	0x3e5b0990	0.21390367
206	0x3d281ec2	0.041044958
207	0x3d9b7afb	0.07591816
208	0xbd9370c4	-0.07199243
209	0xbe0f0c84	-0.13969618
210	0xbe03a90a	-0.12857452
211	0x3df8dc05	0.121513404
212	0x395ab18c	0.00020856241
213	0xbcaac0d3	-0.020843899
214	0x3e5cc67c	0.21560091
215	0x3e0fe771	0.14053132
216	0xbe468830	-0.19387889
217	0x3d9d0b00	0.07668114
218	0xbdb3da92	-0.08781923
219	0xbcbd8153	-0.023132956
220	0x3e15c76e	0.14626858
221	0x3e2dc7e2	0.1697078
222	0x3da4d6d2	0.08048786
223	0x3de7d7c6	0.113204524
224	0x3d6656b5	0.056235034
225	0x3dddd000	0.108306885
226	0xbd0ad4b5	-0.03389426
227	0xbd26fd97	-0.040769186
228	0xbd8c1181	-0.06839276
229	0xbdb798e8	-0.089647114
230	0x3e1b3951	0.15158583
231	0x3dc13151	0.094332345
232	0x3cef3e61	0.02920455
233	0xbd9385c6	-0.0720325
234	0x3e6cf774	0.23141271
235	0x3e38574f	0.18002056
236	0xbe0d838f	-0.13819717
237	0x3c736c0b	0.014857302
238	0xbde53e0f	-0.11193477
239	0x3e4098bf	0.18808268
240	0x3e2bb024	0.16766411
241	0x3e27a3e0	0.16371107
242	0xbe1851fe	-0.14875028
243	0xbda1b872	-0.07896508
244	0x3e836534	0.2566315
245	0xbe0c03fa	-0.13673392
246	0x3ddf0a5d	0.108906485
247	0xbdf7fe5f	-0.12109064
248	0x3d8d5363	0.069006704
249	0x3de1a28e	0.11017333
250	0x3c6e7948	0.014555283
251	0x3e646542	0.22304252
252	0x3d52aa80	0.051432133
253	0x3d3a7450	0.04552108
254	0x3c1b7de8	0.009490468
255	0xbc4d5c81	-0.012534262

features.2.weight f4 [250, 500, 1, 1]
0	0xbb586b3f	-0.0033022908
1	0xbce916a3	-0.028453177
2	0xbbac8897	-0.005265306
3	0xbb9fbe28	-0.0048749633
4	0x3c8bbeb3	0.017058706
5	0x3d1a7039	0.03770468
6	0x3cb3aa14	0.021931686
7	0x3cc53db2	0.02407727
8	0x3a3af599	0.0007131934
9	0xbb3a1c12	-0.002839808
10	0x3ac5d913	0.00150946
11	0x3cab458c	0.020907186
12	0xbce1cf81	-0.027564766
13	0xbcaefb39	-0.021360027
14	0xbd2861b4	-0.041108802
15	0x3d144a0d	0.036203433
16	0x3ba21c88	0.004947249
17	0x3cd915aa	0.026499588
18	0x3c5cdfe9	0.013481119
19	0x3d1dbafb	0.038508397
20	0xbd17850c	-0.036992118
21	0x3d217752	0.039420433
22	0xbd2b7b9f	-0.04186594
23	0xbc20d6c4	-0.009816829
24	0x3d26d237	0.04072782
25	0x3cb4738e	0.022027757
26	0xbc19fc78	-0.009398572
27	0xbc6afabd	-0.014342007
28	0xbc805724	-0.015666552
29	0xbc7cd606	-0.015431887
30	0x3cadcbd6	0.02121536
31	0xbd1333c0	-0.035938025
32	0x3c88d850	0.016704708
33	0xbd269243	-0.04066683
34	0x3c600ef4	0.01367544
35	0xbb89def3	-0.004207486
36	0xbca45cf4	-0.020063855
37	0x3ca805ee	0.02051064
38	0xbc999541	-0.018747928
39	0xbcddf970	-0.02709648
40	0xbca37e6b	-0.019957742
41	0x3d05498d	0.032540847
42	0xbd370b92	-0.04468877
43	0xbd391fee	-0.045196466
44	0x3d15a447	0.03653362
45	0x3cdf47ed	0.027255977
46	0x3d244cc6	0.04011228
47	0x3d20d26b	0.03926317
48	0xbca4dfd1	-0.020126255
49	0xbcc701a0	-0.024292767
50	0xbd0b2944	-0.0339749
51	0xbc701d45	-0.014655416
52	0x3cef816b	0.029236516
53	0xbd3be7ed	-0.04587548
54	0x3d2536bc	0.040335402
55	0x394a2100	0.00019276515
56	0xbcca39b4	-0.024685718
57	0xbc4acd82	-0.012378098
58	0x3cf50b3e	0.029912587
59	0x3a560a8d	0.00081650243
60	0xbb734a70	-0.0037123226
61	0xbbf15947	-0.007365379
62	0x3cb6cee1	0.022315444
63	0xbbfec790	-0.0077752545
64	0x3d0a82d9	0.033816192
65	0xbbb0ea70	-0.005399041
66	0x3d1283b9	0.03577015
67	0xbc91a972	-0.017780993
68	0xbcb1c95b	-0.02170246
69	0xbd13719c	-0.03599702
70	0x3cc475e3	0.023981994
71	0xbcad1502	-0.021128181
72	0x3bc0c9d0	0.005883433
73	0xbb567815	-0.0032725383
74	0x3b8e94d0	0.004351236
75	0x3b8dc882	0.004326881
76	0xbbfce20b	-0.007717376
77	0xbd43587a	-0.0476918
78	0x3b8e6431	0.00434544
79	0xbcfcc2a7	-0.030854536
80	0x3d023053	0.031784367
81	0xbd0ae768	-0.033912092
82	0x3d07c619	0.033147905
83	0xbd3717c5	-0.044700403
84	0x3b07f230	0.002074372
85	0xbc1e5425	-0.009663616
86	0xbca734d3	-0.02041093
87	0x3d1eaf65	0.038741488
88	0x3d02ab0d	0.031901408
89	0xbce02239	-0.027360069
90	0x3ce46f91	0.02788523
91	0x3acf0c0c	0.0015796437
92	0x3d0a9de6	0.03384199
93	0xbc29f8c3	-0.010374251
94	0xbcacfa21	-0.021115365
95	0x3cf044cf	0.029329685
96	0xbb728440	-0.0037005097
97	0x3cac78f2	0.021053765
98	0x3d12f792	0.035880633
99	0xbcbb94f6	-0.022898179
100	0xbd0d7c55	-0.0345424
101	0xbd262368	-0.04056111
102	0xbd296e87	-0.041365173
103	0x3c74d79f	0.014943986
104	0x3cade966	0.021229457
105	0xbc3c8d31	-0.011508272
106	0xbcab69a3	-0.020924395
107	0xbd2a46d9	-0.04157147
108	0x3c6ae57e	0.014336942
109	0xbc9dc30e	-0.019258048
110	0xbd337226	-0.043810032
111	0x3ba57010	0.0050487593
112	0xbd26bf6c	-0.040709898
113	0x3d195498	0.03743419
114	0x3c62284b	0.013803552
115	0x3bdc75e0	0.006727919
116	0x3d12efdb	0.035873275
117	0xbc90f939	-0.017696964
118	0xbc95dde6	-0.018294286
119	0x3b335f1f	0.002736993
120	0xbcb6761d	-0.022273118
121	0xbd2764d2	-0.040867634
122	0xbccb28d9	-0.024799751
123	0x3b2106d7	0.0024570727
124	0xba81c6a0	-0.0009901114
125	0xbd1cb049	-0.038254056
126	0x3d182dc5	0.037153024
127	0x3bd30aa9	0.00644048
128	0x3c5b21bf	0.013374745
129	0xbc568bb8	-0.013094835
130	0x3d04e86a	0.03244821
131	0x3d099a51	0.033594433
132	0x3bbbe9bc	0.0057346504
133	0x3cd64e42	0.026160363
134	0x3cf3529a	0.029702473
135	0xbcd20504	-0.025637157
136	0xbcec652e	-0.02885684
137	0x39749678	0.00023325707
138	0x3cf209f5	0.029545764
139	0xbd126cde	-0.035748355
140	0xbc1c1502	-0.009526493
141	0x3cd50f79	0.026008354
142	0x3cf4b8e6	0.029873323
143	0xbd20f798	-0.039298624
144	0x3c81a2ce	0.015824702
145	0xbc70d141	-0.0146983275
146	0xbb6b1fd0	-0.0035877116
147	0xbca7167c	-0.020396464
148	0x3c423cdf	0.011855333
149	0xbca910fd	-0.020637983
150	0xbd241062	-0.040054686
151	0x3b2f2750	0.0026726313
152	0xba9099a8	-0.0011032121
153	0x3bda5ea8	0.006664116
154	0xbd0f3c1b	-0.03496943
155	0x3d3155c5	0.043294687
156	0xbaf045bb	-0.0018331328
157	0xbc320259	-0.010864818
158	0xbcff66c6	-0.031176936
159	0xbd0ecb24	-0.0348617
160	0x3cbb279a	0.022846032
161	0xbd03c21c	-0.03216754
162	0xbd20b935	-0.039239127
163	0x3a91dddb	0.001112874
164	0xbcdb6eb0	-0.026786178
165	0xbd14aba4	-0.0362965
166	0x3c69044c	0.014222216
167	0x3cc6596c	0.024212562
168	0xbb7ac24e	-0.0038262787
169	0xbd101d47	-0.03518417
170	0xbce8186c	-0.028331958
171	0xbc0a4154	-0.008438427
172	0xbd0cf9e5	-0.034418005
173	0x3ba32240	0.004978448
174	0x3afc0c37	0.0019229715
175	0x3cfda49c	0.03096228
176	0xbd00819c	-0.031373605
177	0xbbe54dce	-0.0069978004
178	0xbb1b90a6	-0.002373734
179	0x3cbd0273	0.023072457
180	0xbd2bdf97	-0.04196128
181	0xbc79023f	-0.015198289
182	0x3c40f953	0.0117781935
183	0x3d11afd0	0.03556806
184	0x3c3848fc	0.01124787
185	0x3c826da2	0.015921418
186	0x3cdccb8b	0.026952526
187	0x3c80ceeb	0.015723666
188	0xbd2cf38b	-0.04222445
189	0xbbf5a158	-0.0074960403
190	0x3cea458e	0.02859762
191	0xbccb8725	-0.024844715
192	0x3c9f93c3	0.019479638
193	0xba7468f2	-0.00093234994
194	0xbca5fe1d	-0.020262772
195	0xbd273faf	-0.040832218
196	0x3c5bc078	0.013412587
197	0x398d0216	0.0002689517
198	0xbd45b6b5	-0.048269946
199	0xbd1de3d4	-0.038547352
200	0x3ca7268e	0.020404126
201	0xbb8cda42	-0.0042984793
202	0x3cff8c48	0.031194821
203	0xbcf28e58	-0.02960889
204	0x3cf57a41	0.029965522
205	0xbc186cc2	-0.009303274
206	0xbd022c05	-0.03178026
207	0xbd241331	-0.040057365
208	0xbc2dcef4	-0.0106084235
209	0x3c6e5719	0.014547133
210	0x3d19566e	0.03743594
211	0x3bcf36c8	0.006323669
212	0xbd2d7e8a	-0.042357005
213	0x3cbc4bf9	0.022985445
214	0xbd0c181d	-0.034202684
215	0xbd1412c8	-0.036150724
216	0x3c4c6cac	0.012477081
217	0x3c85fdd5	0.016356388
218	0xbcafee0e	-0.021475818
219	0xbc6536f5	-0.013990154
220	0xbbab791a	-0.0052329423
221	0x3d2aa000	0.041656494
222	0x3d0ca630	0.034338176
223	0xbc6607c4	-0.014039937
224	0x3cd4731f	0.0259338
225	0xbca42541	-0.020037295
226	0xbd10b16e	-0.03532546
227	0x3cefb5fe	0.029261585
228	0xbc5a7d4c	-0.013335537
229	0xbc232810	-0.009958282
230	0xbbff4739	-0.007790473
231	0xbd3ab52f	-0.045582946
232	0xbc703796	-0.01466169
233	0xbd1d5e7d	-0.03842019
234	0xbd38e318	-0.04513845
235	0x3ca37c53	0.019956743
236	0x3c2b454a	0.0104535315
237	0x3cdfd912	0.027325187
238	0x3b8cb7b0	0.004294358
239	0xbd282954	-0.04105504
240	0xbca311fa	-0.019906033
241	0x3d1e27b3	0.03861208
242	0xbc3c6270	-0.011498079
243	0xbd282014	-0.041046217
244	0xbc757dbc	-0.014983591
245	0xbd33d745	-0.04390647
246	0x3d18efef	0.037338194
247	0x3be5277f	0.0069932337
248	0xbb2fa910	-0.002680365
249	0x3cc73272	0.024316046
250	0x3d0a8afd	0.033823956
251	0xbc33cc8d	-0.010974062
252	0xbc1d0694	-0.009584088
253	0xbb9f6874	-0.0048647467
254	0xbc1f7736	-0.009733012
255	0xbd3bba72	-0.045832105

features.2.bias f4 [250]
0	0xbc47cedb	-0.012195314
1	0xbc992aff	-0.01869726
2	0xbda0d4e3	-0.07853105
3	0xbd191096	-0.037369333
4	0xbd41b0df	-0.047287818
5	0x3d2bdac2	0.04195667
6	0x3cee98d5	0.02912561
7	0xbbb97844	-0.0056600887
8	0x3b839036	0.004014994
9	0xbb69dea1	-0.0035685676
10	0x3c3e945d	0.011632052
11	0xbb507cc0	-0.0031812638
12	0x3d8f8495	0.0700771
13	0xbba7de42	-0.0051229307
14	0xbc14caed	-0.009081584
15	0xbc45435b	-0.012039985
16	0x3bceb487	0.0063081416
17	0x3c5811f0	0.01318787
18	0xbb23ab56	-0.002497395
19	0x3bec6af4	0.0072148982
20	0x3b5d9660	0.0033811554
21	0x3b5b9d71	0.003351059
22	0xbb219f48	-0.002466159
23	0x3cd4f06b	0.025993546
24	0xbc5b0ee8	-0.013370253
25	0x3cbba95c	0.022907905
26	0xbd251a8e	-0.040308528
27	0x3d5160e4	0.051117793
28	0x3d0b74cb	0.03404693
29	0xbd8c8bbf	-0.06862592
30	0xbcb8aac6	-0.022542369
31	0xbd085083	-0.033279907
32	0x3d0f0392	0.034915514
33	0xbd2618d2	-0.040551014
34	0x3d437d80	0.047727108
35	0xbd2a41fe	-0.04156684
36	0x3de16e17	0.11007326
37	0x3b8e8814	0.004349718
38	0xbd1772e2	-0.036974795
39	0x3d64741f	0.055774804
40	0x3dafbb89	0.08580691
41	0x3c963360	0.018335044
42	0xbc57f438	-0.013180785
43	0xbd04600a	-0.032318152
44	0xbc989f43	-0.01863063
45	0xbd11542f	-0.035480674
46	0x3d304a9c	0.043039903
47	0xbc7c03f9	-0.0153818065
48	0xbb7a6aaf	-0.003821056
49	0x3d842375	0.064520754
50	0xbd7c2587	-0.061559226
51	0x3c8f02dd	0.01745742
52	0xbd0b5bbc	-0.03402303
53	0xbcea3fb2	-0.028594825
54	0xbd501028	-0.050796658
55	0x3c09c42d	0.008408588
56	0x3c346b90	0.011011973
57	0x3c811b44	0.015760072
58	0x3dbe48b6	0.09291212
59	0x3d18ea30	0.037332714
60	0x3b921bdb	0.004458887
61	0xbb857982	-0.0040733228
62	0xbdb2f8b3	-0.08738842
63	0x3ced393d	0.028957957
64	0x3bf39fc8	0.007434819
65	0xbd389249	-0.045061383
66	0x3c6a1370	0.014286861
67	0x3da37ff2	0.07983388
68	0x3cb8bf7a	0.02255224
69	0x3bddf336	0.006773378
70	0xbd8b936c	-0.06815228
71	0x3d4ed951	0.050500218
72	0xbc946744	-0.018115647
73	0x3d4f8424	0.05066313
74	0xbc033114	-0.008007307
75	0xbcf6050f	-0.030031709
76	0x3d4f10ca	0.05055312
77	0x3bd40073	0.00646978
78	0x3dfd7360	0.12375522
79	0x3c8bb151	0.017052324
80	0xbd33594e	-0.04378634
81	0x3d94cd8d	0.07265768
82	0x3ca18164	0.019715019
83	0xbd7da4e9	-0.06192485
84	0x3c460e23	0.012088331
85	0xbd406933	-0.046975326
86	0x3b90224d	0.00439862
87	0xbc83f8e2	-0.016109888
88	0x3ce86deb	0.028372725
89	0x3de6c6a6	0.11268358
90	0xbbd4e447	-0.0064969393
91	0x3cc9660a	0.024584789
92	0x3c1d0a90	0.009585038
93	0xbd1551d5	-0.036454994
94	0x3b6565ce	0.0035003307
95	0x3d4d36c9	0.050101075
96	0xbadf0f24	-0.0017018062
97	0xbcd66243	-0.026169902
98	0x3d4251df	0.04744136
99	0x3bd21359	0.006410998
100	0x3d530b52	0.051524468
101	0xbd59972f	-0.053122696
102	0xbba079c9	-0.0048973304
103	0x3c09226b	0.008370022
104	0xb8f58ca6	-0.00011708708
105	0xbcc5add8	-0.024130747
106	0x3b6b61ec	0.003591652
107	0xbc5719d6	-0.013128718
108	0x3dc1c90c	0.09462175
109	0x3c99c9ed	0.018773044
110	0x3d9e327c	0.07724473
111	0x3bb64097	0.005561899
112	0xbd5fac71	-0.054607812
113	0xbc8c34bd	-0.017114991
114	0x3d977f20	0.07397294
115	0x3c2079d2	0.009794669
116	0xbd1a6138	-0.03769037
117	0xbcf03b26	-0.02932508
118	0x3d2817b9	0.04103825
119	0x3ca030a9	0.019554453
120	0x3c9ddce0	0.01927036
121	0xbd07c03f	-0.033142325
122	0x3d03b76d	0.03215735
123	0xbcea2709	-0.028583067
124	0xbd4b81d4	-0.04968436
125	0xbd512f12	-0.05107028
126	0x3c0473e4	0.008084271
127	0x3df9aaa8	0.12190753
128	0x3d0c1e8d	0.034208823
129	0xbc7639cb	-0.015028427
130	0xbd2ebc87	-0.042660262
131	0xb6bfc755	-5.715449e-06
132	0xbdbaa328	-0.09113151
133	0xbd405511	-0.046956126
134	0x3dc3ce93	0.09560885
135	0x3cbf87d1	0.023380192
136	0xbd8ae863	-0.067826055
137	0xbd435ef8	-0.04769799
138	0x3c3f1587	0.011662847
139	0xbdd0e992	-0.102008
140	0x3dbc7ad5	0.09203116
141	0x3c7e28f7	0.0155126965
142	0xbab7a657	-0.0014011365
143	0xbd20e75d	-0.039283145
144	0xbdb7d476	-0.089760706
145	0x3d2b7108	0.041855842
146	0x3bd2bd74	0.006431276
147	0xbd22c5be	-0.039739363
148	0xbb9f0782	-0.00485319
149	0x3d06e163	0.03292979
150	0xbda40556	-0.0800883
151	0x3dc5c0fc	0.096559495
152	0xbc9be4c9	-0.019029992
153	0x3cbfe0d5	0.023422638
154	0xbbc584ea	-0.0060278075
155	0xbb51378f	-0.0031923985
156	0xbd295fb7	-0.041351046
157	0xbc7cc73c	-0.015428361
158	0x3c17d9a5	0.009268199
159	0x3dab6ff2	0.08370961
160	0xbcf3541e	-0.029703196
161	0x3d539d21	0.05166352
162	0xbd6fee65	-0.05857696
163	0xbaed8a2c	-0.0018122843
164	0xbbd5547f	-0.006510317
165	0x3bd2cee8	0.0064333566
166	0xbd9c6273	-0.07635965
167	0x3c709474	0.0146838315
168	0x3daa56c5	0.08317331
169	0xbd704c16	-0.05866631
170	0x3d0e2e20	0.034711957
171	0xbbc388e3	-0.005967246
172	0xbd0e25ef	-0.034704145
173	0xbc9d9808	-0.019237533
174	0x3c0bf8c8	0.008543201
175	0xbd7b74b9	-0.061390612
176	0x3bbd1415	0.005770216
177	0x3d07d953	0.03316624
178	0x3d79598a	0.060876407
179	0xbc98d336	-0.0186554
180	0x3cc4aa3e	0.024006959
181	0xbca1eccd	-0.019766236
182	0x3d12da5a	0.035852768
183	0x3c5e7f73	0.013580191
184	0xbd03128e	-0.032000117
185	0x3d025714	0.031821325
186	0xbcb6ae19	-0.022299813
187	0xbd13cff9	-0.03608701
188	0x3c507f61	0.012725682
189	0x3df8e79c	0.12153551
190	0x3d4dd46f	0.05025142
191	0x3da2c79a	0.07948227
192	0xbc742403	-0.014901164
193	0xbd922937	-0.07136767
194	0x3cb71a48	0.022351399
195	0x3d11ea4b	0.03562383
196	0x3c8e9311	0.017404111
197	0x3cabeaf1	0.020986052
198	0xbc6c48f8	-0.014421694
199	0xbd26d0c3	-0.040726434
200	0xbd13deb3	-0.036101054
201	0x3d183e77	0.037168946
202	0xbbc0d802	-0.005885125
203	0x3cfe5cda	0.031050134
204	0x3c0cde00	0.008597851
205	0xbcaa9142	-0.020821217
206	0x3be8539f	0.0070900465
207	0x3c52febe	0.012878118
208	0xbd39e20b	-0.045381587
209	0xbd2d4f3a	-0.042311884
210	0x3bd09dac	0.006366452
211	0xbd286b8c	-0.04111819
212	0xbcb948e5	-0.022617767
213	0x3d17d268	0.037065893
214	0xbc011ff4	-0.007881153
215	0x3ba58ab7	0.0050519365
216	0x3cd4a2bc	0.025956504
217	0xbcb646d5	-0.022250572
218	0xbc2d1b82	-0.01056564
219	0x3c7028b3	0.014658141
220	0x3bd68a66	0.00654726
221	0x3cc773d1	0.024347218
222	0xbc7f8130	-0.015594766
223	0x3d890f8e	0.0669242
224	0xbc2544f4	-0.0100872405
225	0x3dab999d	0.08378909
226	0x397653fb	0.00023491673
227	0xbd0e66fb	-0.03476618
228	0xbb4f9d84	-0.003167958
229	0x3ccac0b2	0.024750087
230	0x3d8382ed	0.064214565
231	0x3cd821c1	0.026383283
232	0x3a8c37bb	0.0010697761
233	0xbd17d219	-0.0370656
234	0x3c3eeb3c	0.011652764
235	0x3cbbc6c7	0.022921933
236	0x3c2f0d42	0.010684313
237	0x3d845291	0.06461061
238	0x3ca73a9b	0.020413687
239	0xbd17be28	-0.03704658
240	0xbcccea30	-0.025014013
241	0x3e0bb72b	0.13644092
242	0x3c57343f	0.013135015
243	0xbd8963db	-0.06708499
244	0xba5bf4ad	-0.00083906465
245	0xbd0af280	-0.033922672
246	0xbb9beb1a	-0.004758251
247	0xbcb1adee	-0.021689381
248	0x3d5d13b4	0.05397387
249	0x3d6f32b2	0.058397956

fc1_actor.weight f4 [100, 250]
0	0x3d502f32	0.05082626
1	0x3d4ba065	0.04971351
2	0xbc9202f9	-0.017823683
3	0xbd19c5ad	-0.037542034
4	0x3d216b02	0.03940869
5	0xbe02a4ef	-0.1275823
6	0xbd7afed4	-0.06127818
7	0xbd91fdc5	-0.07128481
8	0x3dc7d823	0.09758022
9	0xbd15912d	-0.036515404
10	0xbc017d14	-0.007903356
11	0x3e79a495	0.2437919
12	0x3d715f1e	0.0589286
13	0xbde32318	-0.11090678
14	0x3d9864fe	0.07441138
15	0xbd0f351e	-0.034962766
16	0x3ca6c9d4	0.020359911
17	0xbd781c19	-0.06057367
18	0x3d816c74	0.06319514
19	0xbc06c490	-0.008225575
20	0x3cbd2cc5	0.023092637
21	0x3d7deb38	0.0619919
22	0xbd61e8db	-0.05515371
23	0x3d9ce691	0.076611646
24	0xbdc037c4	-0.093856364
25	0x3d6caee6	0.057783984
26	0x3d9f4356	0.07776515
27	0xbd6b8af3	-0.05750556
28	0xbbfccf70	-0.007715158
29	0xbda0fb2d	-0.07860408
30	0xb7974000	-1.8030405e-05
31	0x3d176732	0.03696365
32	0xbcf51853	-0.029918825
33	0x3d9e5fc0	0.077331066
34	0x3e09de9a	0.13463822
35	0x3db8fb8e	0.09032355
36	0xbd516a4f	-0.051126774
37	0xbda0b0e0	-0.07846236
38	0xbc7f9fe3	-0.015602085
39	0x3d78ee4f	0.060774144
40	0x3d1372ec	0.03599827
41	0xbe50d54a	-0.20393863
42	0x3d1bc9f8	0.03803441
43	0xbc368933	-0.011141109
44	0x3daebc7b	0.085320435
45	0xbd599719	-0.053122614
46	0xbd315056	-0.043289505
47	0x3d453e74	0.048155263
48	0x3d65a823	0.05606855
49	0x3de80222	0.11328532
50	0x3d2b42cf	0.04181176
51	0xbb2b8041	-0.0026168975
52	0x3c89d18a	0.016823549
53	0x3d1a675f	0.03769624
54	0x3da8031c	0.08203718
55	0x3e12a133	0.14319305
56	0x3de2337e	0.110449776
57	0xbc42fe75	-0.011901488
58	0xbca7ddc6	-0.020491492
59	0xbde0b868	-0.10972673
60	0xbd81254b	-0.06305941
61	0x3d0621c6	0.032747053
62	0x3d8e5f02	0.06951715
63	0x3d1beb46	0.03806617
64	0x3ce3a5f0	0.027789086
65	0x3cae8e94	0.02130822
66	0x3dd78be0	0.10524726
67	0x3e3baed3	0.18328409
68	0x3d760801	0.060066227
69	0x3c210e5e	0.009830086
70	0xbd80234b	-0.062567316
71	0x3c92d1ae	0.017922249
72	0xbd26eabd	-0.040751208
73	0x3b723761	0.0036959278
74	0x3cb05a8b	0.02152755
75	0x3d871d51	0.065973885
76	0xbd550b74	-0.052012876
77	0x3d671c58	0.056423515
78	0xbd240407	-0.040042903
79	0x3dd959fe	0.10612868
80	0x3d521c96	0.051296793
81	0x3d9a67fe	0.07539366
82	0x3e578236	0.21045765
83	0x3ce6fb61	0.028196039
84	0x3d8019a8	0.062548935
85	0x3d646b35	0.055766303
86	0xbccd2848	-0.025043622
87	0x3c37adf0	0.0112109035
88	0x3cbeb2e7	0.023278667
89	0x3cd3cbc9	0.025854008
90	0x3cd6b938	0.026211366
91	0x3d449bf8	0.048000306
92	0xbcd25f2c	-0.025680147
93	0xbcab43ca	-0.020906348
94	0xbda504eb	-0.08057579
95	0x3e385452	0.18000916
96	0x3c66f021	0.014095337
97	0xbdcea7f7	-0.100906305
98	0x3a68142c	0.00088531035
99	0x3bd16a9d	0.006390883
100	0x3deed989	0.11662585
101	0x3d4a4cba	0.04938958
102	0xbe7273de	-0.23677012
103	0x3c95ef06	0.018302452
104	0x3c92cdc6	0.017920386
105	0xbd253d74	-0.04034181
106	0xbd7a5807	-0.061119106
107	0x3d866657	0.065624885
108	0x3d704ba3	0.058665883
109	0x3d6cf645	0.05785205
110	0xbdaff806	-0.085922286
111	0xbc595d8f	-0.013266935
112	0x3d972bf5	0.07381431
113	0xbcb6eedd	-0.022330696
114	0xbdc25276	-0.094883844
115	0x3d6c8441	0.057743315
116	0xbccc6360	-0.02494973
117	0x3d24d7d6	0.0402449
118	0xbc9fd542	-0.019510869
119	0xbd2c81ba	-0.042115904
120	0xbdf1c989	-0.11806018
121	0x3de200d9	0.11035318
122	0x3ccb5d6e	0.024824824
123	0xbd20df48	-0.039275438
124	0x3d35eb31	0.04441375
125	0x3a2fe609	0.0006709998
126	0xbd0856e9	-0.03328601
127	0xbdb43c15	-0.08800522
128	0xbcdb1c7e	-0.026746985
129	0xbdbc3157	-0.09189098
130	0x3cb66b3d	0.022267932
131	0x3dcc33ba	0.099708036
132	0xbd268802	-0.04065705
133	0xbbcc1d91	-0.0062291105
134	0xbd573c34	-0.05254765
135	0x3d04e303	0.032443058
136	0x3d13c018	0.036071867
137	0xbd8acdde	-0.06777547
138	0x3c716e6e	0.014735801
139	0xbd4e2e5b	-0.050337177
140	0x3b48ab62	0.003061973
141	0x3d993618	0.07481021
142	0x3d5bdfec	0.053680345
143	0x3cc5c32a	0.024140913
144	0xbd0cf0ce	-0.034409337
145	0xbd877103	-0.06613352
146	0x3d5fe674	0.054663137
147	0x3d094904	0.0335169
148	0xbd307e19	-0.043089006
149	0xbbd54e59	-0.006509584
150	0x3d1e9e1a	0.038724996
151	0xbc0a25ac	-0.008431833
152	0xbd41cea0	-0.047316194
153	0xbd6934d4	-0.056935146
154	0x3d554d05	0.052075405
155	0xbd987811	-0.07444776
156	0xbdad4d20	-0.08461976
157	0x3c6b1f21	0.014350683
158	0xbb982872	-0.0046434933
159	0xbe0604ca	-0.13087764
160	0x3bffed09	0.007810239
161	0xbc2bd701	-0.010488273
162	0xbe00e467	-0.12587129
163	0x3db46f0b	0.08810242
164	0xbd05438a	-0.032535113
165	0x3d3d5452	0.046222992
166	0xbe0ea2e1	-0.13929321
167	0x3e638cd3	0.22221689
168	0xbce7d25f	-0.028298555
169	0x3d4b34e8	0.049611002
170	0x3ceb593c	0.028729074
171	0xbd6f5dcd	-0.058439065
172	0xbba4a297	-0.005024265
173	0xbd208f57	-0.0391992
174	0xbc886056	-0.016647499
175	0x3b01c581	0.001980156
176	0xbd2ac305	-0.04168989
177	0x3d6e41fd	0.0581684
178	0xbd8616ef	-0.06547343
179	0x3db63bc3	0.088981174
180	0x3d009589	0.031392608
181	0xba5f811e	-0.0008526015
182	0x3e7dd1c7	0.24787055
183	0xbd29ba50	-0.041437447
184	0xbd2a6b23	-0.04160608
185	0x3ce12e7b	0.027487984
186	0x3d578942	0.052621134
187	0xbd14055e	-0.03613793
188	0x3caf83eb	0.021425208
189	0x3da37ee4	0.07983187
190	0xbd51c956	-0.0512174
191	0x3dea793d	0.114489056
192	0xbc365b55	-0.011130174
193	0x3d196d7a	0.03745792
194	0xbc91c363	-0.017793363
195	0xbc9ab034	-0.018882848
196	0xbbf596f8	-0.0074948035
197	0xbe280397	-0.1640762
198	0xbd395acb	-0.045252603
199	0xbc99e134	-0.018784143
200	0x3dd29984	0.10283187
201	0xbdd1a6b6	-0.10236876
202	0xbb7d6f66	-0.0038671135
203	0x3e1a8d79	0.1509303
204	0x3b906631	0.0044067134
205	0x3d043a87	0.03228238
206	0x3db96571	0.090525515
207	0xbdc5ed31	-0.09664381
208	0x3d811822	0.06303431
209	0x3da78a5a	0.08180685
210	0x3dc29d1d	0.09502623
211	0x3daa5d38	0.08318561
212	0xbdbcf535	-0.09226457
213	0x3d2dbdc2	0.042417295
214	0x3d579e54	0.052641228
215	0x3aa333c6	0.0012451343
216	0xbc380324	-0.0112312175
217	0x3c3cae17	0.011516116
218	0x3cdb6733	0.026782608
219	0x3dd2ea45	0.102985896
220	0xbd32c851	-0.043648068
221	0x3cae44ce	0.021273043
222	0xbce4d4d6	-0.02793352
223	0xbd4e78db	-0.050408226
224	0xbc906596	-0.017626565
225	0x3e203803	0.15646367
226	0x3cd00b5f	0.025396047
227	0x3d31ed0c	0.043438956
228	0x3cd50b9b	0.02600651
229	0x3d1ee254	0.038790062
230	0x3d0cc3a3	0.03436626
231	0x3c306638	0.010766558
232	0xba87f2c0	-0.0010372028
233	0x3d7e5817	0.062095728
234	0x3c8c731d	0.017144734
235	0x3c1a7690	0.009427682
236	0x3d1a238c	0.037631556
237	0x3c6cb487	0.014447338
238	0x3c95ae61	0.018271627
239	0xbdf7d114	-0.12100425
240	0x3d7d0fec	0.061782762
241	0x3d2a404e	0.041565232
242	0xbd4f7a47	-0.050653722
243	0xbe386f10	-0.18011117
244	0x3e25d0aa	0.1619288
245	0x3d13e234	0.036104396
246	0x3cf2ef6f	0.029655186
247	0xbddda27c	-0.10822007
248	0x3d6ff67c	0.058584675
249	0xbd7dab18	-0.061930746
250	0xbd2d277b	-0.04227398
251	0xbca3f0d2	-0.020012293
252	0x3d29e1e8	0.041475207
253	0x3d25875b	0.04041229
254	0x3d62767f	0.055288788
255	0x3d468e97	0.048475828

fc1_actor.bias f4 [100]
0	0x3c8083ff	0.01568794
1	0x3d1fc684	0.03900768
2	0xbc9aab8b	-0.018880626
3	0x3d952820	0.07283044
4	0xbb060432	-0.0020449278
5	0x3bd1e248	0.0064051487
6	0xbd9ae38f	-0.075629346
7	0x3d3819ce	0.044946484
8	0xbd7c10e2	-0.06153954
9	0x3d65c56f	0.05609649
10	0xbd228e8d	-0.03968673
11	0xbd23d628	-0.039999157
12	0x3bca3691	0.0061710556
13	0x3c2f89fb	0.010714049
14	0xbbc63603	-0.006048919
15	0xbd8beed5	-0.06832663
16	0xba5248dd	-0.0008021722
17	0xbbaf14e2	-0.0053430656
18	0x3d14b2cd	0.03630333
19	0x3c03bb2a	0.008040229
20	0xbd73a2a5	-0.05948128
21	0x3c607fd5	0.0137023525
22	0x3d0a989d	0.03383695
23	0x3c901b57	0.017591162
24	0xbc44d24d	-0.01201303
25	0xbcc9d92e	-0.024639692
26	0xbd735981	-0.05941153
27	0x3ce1c29d	0.02755862
28	0xbd7d1f84	-0.061797634
29	0xba30e2c4	-0.0006747658
30	0xbd386f69	-0.045028124
31	0xbd8043df	-0.062629454
32	0xbc14dd0f	-0.009085908
33	0xbd08b483	-0.033375274
34	0xbd4de5ab	-0.050267857
35	0x3ad2b702	0.0016076269
36	0x3c1efe4e	0.009704186
37	0xbc6ee32c	-0.014580529
38	0x3cec30d0	0.02883187
39	0xbb7e968a	-0.0038847052
40	0x3d374bb6	0.044749938
41	0x3d760f50	0.060073197
42	0x3da5e3d4	0.081000954
43	0x3c90f523	0.017695015
44	0xbcd4a1c7	-0.025956048
45	0x3d8c2535	0.06843034
46	0xbc08afb6	-0.008342674
47	0xbc496975	-0.012293209
48	0xbcf8e105	-0.030380735
49	0x3d44d91e	0.04805862
50	0xbd51ca5b	-0.05121837
51	0x3c63e808	0.013910301
52	0xbd44a4a1	-0.048008565
53	0x3cb42a5f	0.02199286
54	0xbc23670b	-0.009973298
55	0x3c82e9d6	0.015980642
56	0xbcfa2421	-0.030534806
57	0xbc126e46	-0.008937424
58	0x3bd9f599	0.006651592
59	0xbd26f9a2	-0.040765412
60	0xbd487d8d	-0.04894786
61	0xbd50a94f	-0.050942715
62	0x3d698608	0.057012588
63	0x3c12a05a	0.008949364
64	0xbcb7df9a	-0.022445489
65	0x3c4d7b2d	0.012541574
66	0x3d1d6ce1	0.038433913
67	0xbd6f1329	-0.058367882
68	0x3aa9783c	0.0012929509
69	0xbc2a04dc	-0.010377135
70	0x3d688e3d	0.056776274
71	0xbcc503ae	-0.024049606
72	0x3d6daa7a	0.058023907
73	0x3c0ce64f	0.008599832
74	0xbbd2f433	-0.006437802
75	0x3c2124b3	0.00983541
76	0x3d9bfeaa	0.07616933
77	0xba7419a6	-0.0009311683
78	0x3c815373	0.015786862
79	0x3d1b5eee	0.03793233
80	0xbcdd7a28	-0.027035788
81	0x3c46a092	0.012123244
82	0x3d85de51	0.06536544
83	0xbc193e1e	-0.009353189
84	0xbd59543e	-0.053058855
85	0x3c5e3e54	0.013564665
86	0xbd85d36d	-0.06534467
87	0x3c09967a	0.008397693
88	0x3d77ca0f	0.060495432
89	0x3c34db6b	0.011038641
90	0xbda1a12e	-0.07892071
91	0xbd4e2ef9	-0.050337765
92	0xbc8f54b7	-0.01749645
93	0x3cb318e0	0.021862447
94	0x3d7a52b1	0.061114017
95	0x3d26f6d3	0.040762734
96	0x3cc5b1fc	0.024132721
97	0x3da0adb7	0.078456335
98	0xba5212a7	-0.00080136437
99	0xbd6fa3c9	-0.058505807

fc2_actor.weight f4 [4, 100]
0	0xbe4c3dd4	-0.1994546
1	0x3d0cb021	0.034347657
2	0xbcea6dfc	-0.028616898
3	0x3da1ba10	0.07896817
4	0xbdad8326	-0.0847228
5	0x3dbd4114	0.09240928
6	0x3db831a6	0.08993845
7	0xbe8429c4	-0.25813115
8	0x3d1b278e	0.03787952
9	0x3e1b50ac	0.15167493
10	0xbbba77c5	-0.005690547
11	0xbcb26238	-0.02177535
12	0x3bf8e97a	0.007596192
13	0xbdeec75d	-0.11659119
14	0x3de59b42	0.11211254
15	0xbce7a213	-0.028275525
16	0xbd8d1414	-0.06888595
17	0x3b606426	0.003423938
18	0xbdefca96	-0.11708562
19	0x3cd3453d	0.025789851
20	0xbdded66a	-0.1088074
21	0x3c841b7e	0.01612639
22	0x3ca1347b	0.019678345
23	0xbd1c1cd6	-0.038113438
24	0x3cab3070	0.02089712
25	0xbda990ae	-0.082795486
26	0x3c129a23	0.008947882
27	0xbc2beb7d	-0.0104931565
28	0xbda9b8c3	-0.082871936
29	0xbcd177e7	-0.02556987
30	0xbe4a95c8	-0.197837
31	0x3bf72938	0.0075427555
32	0xbe6f3c1d	-0.23362775
33	0xbe6fb3ee	-0.23408481
34	0xbc9eeb17	-0.019399209
35	0x3b6b3563	0.0035889975
36	0x3c844287	0.016145004
37	0xbb2ef001	-0.0026693346
38	0xbe8b8c19	-0.27255324
39	0xbd964f23	-0.07339313
40	0x3d2297c1	0.039695505
41	0x3dc4838b	0.09595402
42	0x3cc9438a	0.024568338
43	0x3d069224	0.032854214
44	0xbdcf0f86	-0.10110383
45	0x3d8f8545	0.07007841
46	0xbdc60dac	-0.096705765
47	0xbd8ec104	-0.069704086
48	0x3df8fbc3	0.12157395
49	0xbd3671c9	-0.044542108
50	0x3db6cc33	0.08925667
51	0xbd8e353f	-0.0694375
52	0xbb25f330	-0.0025321953
53	0x3c9d096f	0.019169537
54	0x3d9f953d	0.07792137
55	0xbe698d6e	-0.22807857
56	0x3b5b9505	0.003350557
57	0xbe3fd23d	-0.18732543
58	0x3d7268ce	0.05918198
59	0x3da6fe5d	0.08153985
60	0x3d0ae3fd	0.033908833
61	0xbc9b8f5f	-0.018989263
62	0x3ccb0ceb	0.024786433
63	0x3d84e902	0.06489755
64	0xbe2cbcc2	-0.1686888
65	0x3da3cab6	0.079976484
66	0xbe40e847	-0.18838607
67	0xbd75a1b4	-0.059968665
68	0x3da2838e	0.07935248
69	0x3cacdb18	0.021100566
70	0xbe0f53d9	-0.13996829
71	0x3d693ff6	0.056945764
72	0x3e315829	0.17318787
73	0xbe50428a	-0.20337883
74	0x3d3a71f0	0.045518816
75	0xbd3dedc9	-0.046369348
76	0xbcd3cfa5	-0.025855849
77	0xbcf9b846	-0.030483376
78	0x3d9e3cff	0.07726478
79	0xbd9e6d37	-0.07735675
80	0xbe284f10	-0.1643641
81	0xbc3d5631	-0.011556194
82	0xbe4c257a	-0.19936171
83	0x3dbecac7	0.093160205
84	0xbd6b6d0f	-0.057477053
85	0xbc201a58	-0.009771906
86	0x3cb0bae7	0.021573497
87	0x3974af11	0.0002333487
88	0xbd62f136	-0.055405818
89	0x3e0afef6	0.13573822
90	0xbdea3fd0	-0.114379525
91	0xbd9a8a39	-0.07545895
92	0xbde1b262	-0.11020352
93	0x3ccbb829	0.024868088
94	0xbe033e99	-0.12816848
95	0x3e0af770	0.13570952
96	0x3d83a968	0.06428796
97	0xbe8028ff	-0.25031278
98	0xbd56e44f	-0.052463826
99	0xbc0766d6	-0.008264264
100	0xbe035fc1	-0.12829496
101	0x3d67f966	0.05663433
102	0xbd1e204a	-0.038605012
103	0x3cf0ff70	0.029418677
104	0x3cc4f62a	0.024043161
105	0x3da2591b	0.07927152
106	0xbd5482b1	-0.05188245
107	0x3db1f648	0.086895525
108	0x3dbe948e	0.09305678
109	0xbe358277	-0.1772555
110	0xbdbd11fe	-0.09231947
111	0xbd2ba6ff	-0.041907307
112	0x3d8c8c34	0.06862679
113	0xbce16c13	-0.027517354
114	0xbde8f69b	-0.11375161
115	0x3ddc98e1	0.10771347
116	0xbd297e4c	-0.04138021
117	0xbe2d3ef2	-0.16918543
118	0xbd91ce05	-0.07119373
119	0xbe4fb7a6	-0.202849
120	0x3de462ee	0.11151682
121	0x3d2b98ae	0.041893654
122	0xbe3c575a	-0.18392697
123	0x3dc11a47	0.0942884
124	0x3cc6edf8	0.024283394
125	0x3d339ab8	0.043848723
126	0x3ce6d866	0.028179359
127	0xbdb7700b	-0.089569174
128	0xbdac19fb	-0.08403393
129	0xbe27405c	-0.16333145
130	0x3cee42a7	0.029084517
131	0xbdbb9986	-0.09160142
132	0xbded8b0f	-0.11598789
133	0xbe1cb997	-0.15305172
134	0xbda2f04a	-0.07955988
135	0x3dabde94	0.08392063
136	0xbd89d916	-0.06730859
137	0xbdddd480	-0.10831547
138	0x3d90f1be	0.07077359
139	0x3d9f8be6	0.077903554
140	0xbe4e65ea	-0.20156065
141	0xbd8c5d04	-0.06853679
142	0xbe4929ae	-0.19644806
143	0xbe5cec2e	-0.2157447
144	0xbc506a07	-0.012720591
145	0x3c86c164	0.016449638
146	0xbc26a075	-0.010170092
147	0xbe114643	-0.14186959
148	0x3d0ab500	0.03386402
149	0x3b9dd4f3	0.0048166453
150	0x3d0c7e95	0.034300406
151	0x3cf187b8	0.029483661
152	0xbdb4ff26	-0.08837728
153	0xbd44c8cf	-0.04804307
154	0xbd83b1ef	-0.064304225
155	0x3db1fec0	0.08691168
156	0xbd80cf97	-0.062895946
157	0xbda23c3c	-0.07921645
158	0x3d5017fc	0.050804123
159	0xbd98a8b3	-0.07454052
160	0x3da774a3	0.081765436
161	0x3dde1296	0.10843389
162	0xbe30c0b8	-0.17261016
163	0x3d9f1f07	0.0776959
164	0xbdba68be	-0.09102009
165	0xbd6e2df1	-0.058149282
166	0xbdc25b4b	-0.09490069
167	0xbca63153	-0.020287191
168	0xbe5c89cb	-0.21536939
169	0xbda856c2	-0.08219673
170	0xbe4319bf	-0.1905279
171	0x3d91c0df	0.07116865
172	0xbe3b16ae	-0.1827037
173	0xbd11ec83	-0.035625946
174	0xbd90fe2d	-0.0707973
175	0xbccfaeb0	-0.025351852
176	0xbdea7b7e	-0.114493355
177	0xbd414213	-0.047182154
178	0x3cd969a9	0.02653964
179	0xbc12f43b	-0.008969362
180	0x3a012317	0.0004926188
181	0x3dd266a5	0.10273484
182	0xbd217e68	-0.03942719
183	0xbdb5163b	-0.08842131
184	0xbd8a4bf2	-0.06752767
185	0xbdb93d94	-0.09044948
186	0xbd0b3209	-0.033983264
187	0x3d8e7953	0.069567345
188	0xbe3aa932	-0.18228605
189	0xbcde5caf	-0.027143804
190	0x3b478951	0.0030446837
191	0xbdc9d1f0	-0.098544955
192	0x3da0c809	0.07850654
193	0xbdd586f6	-0.104261324
194	0xbac2ef27	-0.0014872298
195	0x3da3ff47	0.08007675
196	0x3d8a3a4f	0.06749403
197	0x3d6f3fbb	0.058410387
198	0xbc7bb673	-0.0153633235
199	0x3c8c3747	0.017116202
200	0xbcdf475f	-0.027255712
201	0x3c58e4fd	0.013238189
202	0x3dd4fba2	0.10399558
203	0x3d8bef75	0.06832782
204	0xbe3a3de2	-0.18187669
205	0x3e1615fb	0.14656822
206	0x3da10d1c	0.078638285
207	0x3d9d0812	0.07667555
208	0xbd5f245c	-0.054478034
209	0xbc140ef7	-0.009036771
210	0xbe3c962f	-0.18416665
211	0x3d58eebc	0.05296205
212	0xbcf10aa0	-0.029424012
213	0xbe2ac92c	-0.16678303
214	0xbdb0752f	-0.08616101
215	0xbc160c95	-0.009158273
216	0xbbdfcbd3	-0.0068297177
217	0x3d91113f	0.070833676
218	0xbe0f877d	-0.14016528
219	0x3dcf11df	0.101108305
220	0xbdf21d41	-0.11821986
221	0xbdaa1ed9	-0.08306665
222	0x3cf3db38	0.029767618
223	0x3d4d1112	0.050065108
224	0xbd090713	-0.033454012
225	0xbdbea897	-0.093095
226	0x3d539580	0.051656246
227	0x3dfc07e7	0.12306195
228	0x3db0f641	0.08640719
229	0xbd0067a6	-0.031348847
230	0x3e01b0e4	0.12665135
231	0x3d4f7efb	0.050658207
232	0xbd400995	-0.046884138
233	0x3d7df111	0.061997477
234	0xbe4ca682	-0.19985393
235	0x3d230a2d	0.039804626
236	0xbdd4b261	-0.103855856
237	0xbe0376b6	-0.12838253
238	0x3e22f749	0.15914644
239	0x3d23ea60	0.04001844
240	0x3ce944a9	0.028475123
241	0x3cac25d9	0.02101414
242	0x3db5dbd0	0.088798165
243	0xbdeb18bb	-0.11479326
244	0x3b340314	0.0027467655
245	0x3da8d3e9	0.08243544
246	0x3db32507	0.08747297
247	0xbe54aa87	-0.20768176
248	0xbe2471ce	-0.16059038
249	0x3d6c17c3	0.05763985
250	0xbde514dd	-0.1118562
251	0x3c0b8102	0.008514645
252	0x3bf1fa7b	0.007384596
253	0x3dccca0a	0.099994734
254	0x3d717201	0.058946613
255	0x3e2659a2	0.1624513

fc2_actor.bias f4 [4]
0	0x3bde174c	0.0067776795
1	0xbc179d77	-0.009253851
2	0x3ddd2240	0.10797548
3	0x3cfbd012	0.030738864
