TreasureFinder/I2A_TreasureFinder (updated policy head)/Treasure finder 9/I2A-a2c-T9/env_model.pth (torch, 25447 bytes, 6 tensors)

conv1.weight f4 [32, 14, 3, 3]
0.013539068 0.021396011 0.02782169 0.07861976 0.06746045 0.016103772 -0.024866687 0.015417191
0.0045369966 -0.06771298 -0.04592902 -0.01315131 -0.061391205 -0.08146894 0.076454535 0.060675073
-0.04982434 0.051763076 0.05316457 0.08244252 0.06522386 -0.07281814 0.050176933 -0.08450963
0.0040008747 0.030852165 0.060956262 0.021014795 -0.040456165 0.031879954 -0.04626113 -0.031996485
0.055338014 0.033259526 0.032215122 0.07837439 -0.04379414 0.041721404 0.0775042 -0.049188044
0.047376882 -0.052399382 0.07483051 -0.026557315 0.0015379679 0.050346076 0.051592156 0.031256594
-0.038959447 0.01078824 0.017744482 -0.06967416 -0.06982431 0.03954351 0.033130668 0.03332337
-0.0881353 0.060706068 -0.083100334 -0.061789803 0.029195486 0.03174688 0.0033563979 -0.0058765453
0.003870005 -0.027129361 -0.049893487 0.01471363 0.062154535 -0.023009835 -0.049682196 -0.04392376
-0.0062721954 0.055771563 0.00722227 0.067149386 -0.07143835 -0.026983935 0.055750716 0.03902863
0.026970794 0.05312705 -0.050602518 0.03943851 -0.05617462 -0.028665317 0.025930036 0.07144685
-0.029673552 -0.021482794 -0.03896621 -0.034742586 -0.071914874 -0.036739666 -0.04670203 -0.047378752
-0.058649324 0.0444038 -0.0054203887 0.06871356 -0.08703762 -0.07782513 -0.053315323 -0.0044197175
-0.08933935 0.048362058 0.03192798 0.071063936 0.038210407 -0.054915484 -0.0002203009 -0.0859898
0.05239872 0.063023694 0.04711166 -0.09614434 0.08246323 0.06443718 -0.06539999 0.018397747
-0.037185512 0.07828072 0.023969531 0.02966078 -0.09009234 -0.040187985 -0.05690488 -0.021289203
-0.06252315 -0.0072680726 -0.04782823 0.030002536 -0.027122062 0.057324197 -0.020075189 -0.00598819
-0.090550825 -0.001403965 -0.049728934 -0.0063716127 -0.029979177 0.07450472 -0.09149385 -0.06182695
0.091847576 0.07282009 0.018435312 0.07538146 -0.016905524 -0.03475751 0.04132764 -0.097241044
-0.0543134 -0.05214946 0.03988627 0.12739722 -0.0063709887 -0.08223233 -0.04932888 -0.08437117
0.052798864 0.024376335 0.03297043 -0.0025654808 0.06517354 -0.07143939 -0.043405335 0.006679524
0.05565347 0.037901673 0.00969477 0.031714655 -0.028818954 -0.07152448 0.047541603 0.07755308
0.0621787 -0.06465929 -0.04136543 -0.0033631772 0.062299207 -0.006124196 -0.041903414 -0.028255116
-0.0028612374 -0.055583764 -0.074866235 -0.09827239 -0.040756445 0.0458517 0.04099634 -0.00014317031
-0.09200986 0.06517742 -0.086985596 -0.014753731 0.0115821585 -0.088111304 -0.05738754 -0.067926176
-0.07488007 -0.028158266 0.02178993 -0.10102149 0.04684587 0.016542757 -0.09947745 -0.0403832
0.054854028 -0.031093389 0.06834713 0.039105717 -0.017978894 0.058290433 -0.06676625 0.024134368
-0.06495561 -0.0070684766 0.04549684 -0.030330308 -0.09606818 0.022667427 0.010580771 -0.03339253
-0.026477156 0.046230208 0.025665367 -0.0064727347 -0.06256038 0.03537481 -0.02946343 0.0010418743
-0.0042637195 0.007026999 -0.07587162 0.01443168 0.05294929 -0.01203406 0.014402294 -0.02916607
-0.056284398 0.05982723 -0.09329193 0.044976905 -0.08285504 0.064734586 0.003840511 -0.01614655
0.0034891332 -0.089457616 -0.02541735 0.003981106 0.10743473 -0.056454122 0.020227855 -0.08294656
00000000: f8d2 5d3c b046 af3c 50ea e33c 6603 a13d
00000010: b428 8a3d 0fec 833c 39b5 cbbc 6398 7c3c
00000020: 16ab 943b 1aad 8abd 1120 3cbd 9878 57bc
00000030: 5875 7bbd 30d9 a6bd 3294 9c3d 6d86 783d
00000040: 9b14 4cbd 8505 543d 18c3 593d a0d7 a83d
00000050: 1694 853d ad21 95bd 5486 4d3d 6313 adbd
00000060: c519 833b aebd fc3c 46ad 793d 3827 ac3c
00000070: 5db5 25bd 8e94 023d 507c 3dbd bf0e 03bd
00000080: 1daa 623d 243b 083d 01f4 033d c182 a03d
00000090: 7c61 33bd 10e4 2a3d 86ba 9e3d 6779 49bd
000000a0: 430e 423d bca0 56bd bd40 993d ba8e d9bc
000000b0: a495 c93a b037 4e3d 4c52 533d ea06 003d
000000c0: f193 1fbd 28c1 303c e05c 913c 53b1 8ebd
000000d0: 0c00 8fbd 60f8 213d 06b4 073d 167e 083d
000000e0: 4880 b4bd eda6 783d 8230 aabd 4e17 7dbd
000000f0: 5f2b ef3c 0409 023d 03f7 5b3b 0990 c0bb
00000100: e99f 7d3b 653e debc 1d5d 4cbd 7011 713c
00000110: c195 7e3d 1f7f bcbc 8f7f 4bbd 67e9 33bd
00000120: fd86 cdbb b970 643d cba8 ec3b 9e85 893d
00000130: 454e 92bd 6a0d ddbc dd5a 643d 7cdc 1f3d
00000140: dbf1 dc3c c09b 593d 9644 4fbd 468a 213d
00000150: 5c17 66bd 87d3 eabc 3a6b d43c ba52 923d
00000160: f315 f3bc affc afbc 089b 1fbd 3e4e 0ebd
00000170: 1b48 93bd 557c 16bd a14a 3fbd 3910 42bd
00000180: 463a 70bd c2e0 353d 849d b1bb b2b9 8c3d
00000190: c840 b2bd c862 9fbd 2b61 5abd 47d3 90bb
000001a0: 8df7 b6bd 4b17 463d eac6 023d f889 913d
000001b0: 8482 1c3d 0fef 60bd 9300 67b9 6c1b b0bd
000001c0: 0aa0 563d 9112 813d 28f8 403d 53e7 c4bd
000001d0: 7be2 a83d a4f7 833d 6ef0 85bd dfb6 963c
000001e0: d64f 18bd a451 a03d c05b c43c 2afb f23c
000001f0: 5582 b8bd 289c 24bd 1715 69bd b266 aebc
00000200: 230c 80bd 0329 eebb 89e7 43bd e1c7 f53c
00000210: 162f debc c7cc 6a3d b974 a4bc 9438 c4bb
00000220: b672 b9bd 4005 b8ba 91b0 4bbd f6c8 d0bb
00000230: e496 f5bc ee95 983d 2161 bbbd 423e 7dbd
00000240: 951a bc3d b322 953d a705 973c 9861 9a3d
00000250: 747d 8abc e45d 0ebd 2c47 293d 5026 c7bd
00000260: ba77 5ebd ac9a 55bd c95f 233d 6b74 023e
00000270: bac3 d0bb 6d69 a8bd 140d 4abd cbca acbd
00000280: 9f43 583d e1b0 c73c 000c 073d a021 28bb
00000290: b479 853d d14e 92bd cbc9 31bd e9df da3b
000002a0: e5f4 633d c93e 1b3d d0d6 1e3c 3ae7 013d
000002b0: ba15 ecbc 6d7b 92bd fcba 423d 26d4 9e3d
000002c0: 18af 7e3d 176c 84bd cc6e 29bd c068 5cbb
000002d0: 742d 7f3d 7bad c8bb eaa2 2bbd 4677 e7bc
000002e0: 9983 3bbb cdab 63bd 7853 99bd 0943 c9bd
000002f0: 3bf0 26bd fece 3b3d c7eb 273d fd1f 16b9
00000300: aa6f bcbd bd7b 853d 8125 b2bd a2b9 71bc
00000310: 18c3 3d3c b373 b4bd 320f 6bbd e11c 8bbd
00000320: b95a 99bd 2aac e6bc cc80 b23c 5be4 cebd
00000330: 74e1 3f3d ad84 873c d5ba cbbd db68 25bd
00000340: 9eae 603d 90b7 febc 95f9 8b3d 512d 203d
00000350: 7948 93bc f3c1 6e3d bebc 88bd 70b5 c53c
00000360: 7207 85bd ae9e e7bb e55a 3a3d 4477 f8bc
00000370: 65bf c4bd 0ab1 b93c f85a 2d3c 9bc6 08bd
00000380: 9fe6 d8bc e35b 3d3d 2d40 d23c 3c19 d4bb
00000390: a81f 80bd 2de5 103d 4b5d f1bc 808f 883a
000003a0: acb6 8bbb bd42 e63b 9462 9bbd da72 6c3c
000003b0: 5be1 583d 822a 45bc 99f7 6b3c afed eebc
000003c0: 788a 66bd 660d 753d d70f bfbd b439 383d
000003d0: e7af a9bd 9193 843d 15b1 7b3b c545 84bc
000003e0: f1a9 643b 8e35 b7bd 0c38 d0bc f073 823b
000003f0: bd06 dc3d 703c 67bd e3b4 a53c e3df a9bd

conv1.bias f4 [32]
-0.0130584845 -0.09881296 0.038208637 -0.034708083 -0.023107234 -0.00872514 -0.0035827984 0.067410424
0.043406736 -0.040519293 0.07208084 -0.09768911 0.065932766 -0.014297197 -0.07202674 -0.026268316
-0.055619836 -0.06839955 -0.010669915 -0.029819647 0.04813344 -0.0003577463 -0.105727114 -0.089738585
0.05420256 0.041031823 0.021284502 0.014175768 -0.04818903 0.021955675 -0.050532795 0.07368809
00000000: 41f3 55bc 735e cabd a980 1c3d 102a 0ebd
00000010: 624b bdbc e4f3 0ebc 62cd 6abb 7a0e 8a3d
00000020: 43cb 313d 8ff7 25bd 1f9f 933d 3a11 c8bd
00000030: c207 873d ca3e 6abc c182 93bd a730 d7bc
00000040: a0d1 63bd 1015 8cbd ded0 2ebc 5548 f4bc
00000050: 9227 453d e58f bbb9 7587 d8bd ddc8 b7bd
00000060: 8103 5e3d fc10 283d d65c ae3c 7b41 683c
00000070: dc61 45bd 63dc b33c 7afb 4ebd c8e9 963d

conv2_state1.weight f4 [3, 32, 3, 3]
-0.022286918 -0.04401686 -0.02193258 -0.066788435 0.011875967 0.014132209 0.037004925 0.036552608
-0.006575591 0.026010176 -0.01624499 0.04458643 -0.04828896 0.014778459 0.0020785946 0.025596404
-0.025764616 -0.044663135 0.030451152 0.016335066 0.05913319 0.0066786935 0.04935671 -0.0011815972
-0.02802003 -0.034054123 0.055429462 0.043289557 -0.03261833 0.0340485 -0.019286366 -0.024835784
0.0030943488 0.0458857 -0.01835901 -0.012384702 -0.02389153 -0.0049839406 0.16423026 -0.057523917
-0.0047517545 -0.031182589 0.055040155 0.038069095 0.064462565 -0.03468944 -0.03891611 0.038850773
0.0050705047 0.06251999 0.093203895 0.018059537 0.08537914 0.1403491 0.008734563 -0.0048786416
-0.0045043426 -0.045323037 0.043892357 0.030457787 -0.01301717 0.0138035985 0.043336663 -0.022745144
0.07931635 0.0261123 -0.051967967 -0.040104657 0.024626 -0.003325993 0.05284759 0.035496175
-0.022861863 0.02825338 0.01455861 -0.03905843 0.019823216 0.008290188 -0.044756778 0.04361675
-0.026761424 -0.0051580984 0.02593487 0.013457327 0.053715147 -0.009620353 0.016359467 0.015439876
0.04462346 0.015150149 -0.041659098 0.034469824 0.065358445 -0.04378767 0.02839413 0.040153902
-0.025228128 0.048713572 0.02864465 -0.03994744 0.00867535 0.06425202 -0.020149432 -0.020919029
-0.031175042 0.03443574 0.011748006 -0.015139984 -0.017446773 0.03892369 0.023256993 0.051164474
0.010930784 -0.014548363 -0.025590617 -0.05246028 -0.0045044557 0.03002907 -0.037341326 0.02631321
-0.0019568205 -0.05001496 0.016967863 0.022687538 -0.028122278 0.0001391707 0.0046436614 0.05069491
-0.020179441 -0.037847515 -0.01248879 0.029677335 -0.02615148 -0.057166122 0.024978956 0.042198244
-0.033373363 0.034476142 0.094787546 0.017814199 0.04117928 -0.028608834 0.016878292 0.025626302
0.037382435 0.14088278 0.021892756 0.40508828 0.3852569 0.40444794 0.37260056 0.37059298
0.40203235 -0.0586884 0.039612584 0.047558565 -0.032428663 0.057506148 -0.016861856 0.031058107
-0.014871262 0.026110785 0.012610187 0.040387962 -0.013865356 0.037923776 -0.00449629 -0.02250892
-0.010952536 0.038725406 -0.016611071 -0.052858736 -0.027762696 -0.041490633 0.009178063 -0.037615307
-0.055572473 -0.015608275 -0.03438769 -0.030112918 0.0075837187 -0.035771552 0.016999764 0.040639337
-0.036373664 -0.009026322 0.04185688 0.017519487 0.044620384 -0.015727308 -0.032368913 -0.018176915
-0.0023425263 0.041019507 0.05157774 0.051865753 0.4126544 -0.03821533 -0.013812061 0.018125668
-0.048594188 -0.019494444 -0.03212258 -0.007988054 -0.012711385 -0.004456124 -0.023753524 0.034930523
-0.0098588 0.017054055 0.03755662 0.040924624 0.010910674 -0.001713263 0.0625968 0.016391646
0.04206879 0.027767062 -0.018244712 0.05491452 0.005726128 0.04621767 0.048293445 0.0022483508
0.04005581 0.02591015 -0.010804956 -0.012586612 -0.0438663 -0.0005700638 -0.056667585 -0.04160796
0.04781518 -0.019515362 0.054076966 0.04762739 -0.0056042783 -0.04157732 0.024284555 -0.001133105
-0.049534492 0.050853364 -0.021084955 -0.03841678 -0.023734985 0.034119096 0.007670325 -0.0010840006
0.012094614 -0.06319717 -0.050095797 0.033235762 0.0081399735 -0.013575626 0.047853988 -0.020289779
00000000: 0e93 b6bc 064b 34bd f4ab b3bc 60c8 88bd
00000010: 6a93 423c c88a 673c 7a92 173d 30b8 153d
00000020: 0e78 d7bb 4b13 d53c 3714 85bc 43a0 363d
00000030: a5ca 45bd 5a21 723c 0839 083b 8daf d13c
00000040: 5110 d3bc b1f0 36bd b274 f93c 1ed1 853c
00000050: a535 723d f1d8 da3b 432a 4a3d d3df 9aba
00000060: 438a e5bc 567c 0bbd 010a 633d 6450 313d
00000070: cc9a 05bd 7176 0b3d 71fe 9dbc 6a74 cbbc
00000080: 8fca 4a3b a5f2 3b3d a265 96bc 35e9 4abc
00000090: 2cb8 c3bc 5350 a3bb fa2b 283e 339e 6bbd
000000a0: 9bb4 9bbb a172 ffbc c971 613d 57ee 1b3d
000000b0: f304 843d 8416 0ebd 8066 1fbd fd21 1f3d
000000c0: 7a26 a63b 7b0a 803d afe1 be3d 98f1 933c
000000d0: 42db ae3d adb7 0f3e 6a1b 0f3c 03dd 9fbb
000000e0: 2a99 93bb a6a4 39bd 79c8 333d 9c82 f93c
000000f0: f845 55bc 7d28 623c c981 313d 0654 babc
00000100: 9c70 a23d 76e9 d53c 5ddc 54bd c844 24bd
00000110: 77bc c93c e7f8 59bb b776 583d 7064 113d
00000120: cd48 bbbc a273 e73c 3c87 6e3c bbfb 1fbd
00000130: 4c64 a23c 92d3 073c e252 37bd 7aa7 323d
00000140: c63a dbbc 4405 a9bb 5d75 d43c 1f7c 5c3c
00000150: 6a04 5c3d af9e 1dbc 4a04 863c 89f7 7c3c
00000160: 17c7 363d 5538 783c bba2 2abd 3b30 0d3d
00000170: a6da 853d b35a 33bd ce9a e83c 6b78 243d
00000180: 38ab cebc e287 473d 2fa8 ea3c ed9f 23bd
00000190: 0e23 0e3c 9096 833d 6c10 a5bc 625e abbc
000001a0: cd62 ffbc 7e0c 0d3d b57a 403c b20d 78bc
000001b0: 89ec 8ebc 726e 1f3d 7385 be3c d791 513d
000001c0: 0817 333c 425c 6ebc 6aa3 d1bc 97e0 56bd
000001d0: 1d9a 93bb 86ff f53c 38f3 18bd cd8e d73c
000001e0: 003e 00bb 7ddc 4cbd 3000 8b3c 37db b93c
000001f0: b160 e6bc 5aee 1139 db29 983b 77a5 4f3d
00000200: 5b4f a5bc ff05 1bbd c89d 4cbc e21d f33c
00000210: a13b d6bc 0627 6abd aba0 cc3c 11d8 2c3d
00000220: 82b2 08bd db36 0d3d f91f c23d 15ef 913c
00000230: 9bab 283d 135d eabc 5844 8a3c 40ee d13c
00000240: 531e 193d 9343 103e 7058 b33c bb67 cf3e
00000250: 6440 c53e cd13 cf3e 80c5 be3e 5dbe bd3e
00000260: 2fd7 cd3e 3f63 70bd ce40 223d c5cc 423d
00000270: ebd3 04bd 918b 6b3d e021 8abc 926d fe3c
00000280: 98a6 73bc 49e6 d53c f59a 4e3c d96d 253d
00000290: 852b 63bc f655 1b3d 9d55 93bb a064 b8bc
000002a0: 4472 33bc 889e 1e3d f113 88bc 6782 58bd
000002b0: 986e e3bc 15f2 29bd 965f 163c 8212 1abd
000002c0: f69f 63bd dab9 7fbc 1bda 0cbd 5eaf f6bc
000002d0: d880 f83b 3185 12bd 1743 8b3c 6f75 263d
000002e0: 8dfc 14bd 23e3 13bc 1f72 2b3d 0785 8f3c
000002f0: ddc3 363d 8ed6 80bc 4495 04bd c1e7 94bc
00000300: 1285 19bb 1204 283d 2e43 533d 2f71 543d
00000310: 7047 d33e ae87 1cbd fc4b 62bc 487c 943c
00000320: b30a 47bd d0b2 9fbc f792 03bd 54e0 02bc
00000330: 6a43 50bc ad04 92bb c096 c2bc 4f13 0f3d
00000340: ce86 21bc f2b4 8b3c f8d4 193d 94a0 273d
00000350: afc2 323c 918f e0ba c032 803d c647 863c
00000360: 5350 2c3d c077 e33c ef75 95bc 0cee 603d
00000370: 3ea2 bb3b bd4e 3d3d 59cf 453d 1159 133b
00000380: 9011 243d 8641 d43c 4507 31bc 1438 4ebc
00000390: 26ad 33bd 5670 15ba 451c 68bd 1c6d 2abd
000003a0: dad9 433d aede 9fbc cf7f 5d3d f014 433d
000003b0: 18a4 b7bb fb4c 2abd 67f0 c63c b284 94ba
000003c0: aee4 4abd 9e4b 503d 5bba acbc ea5a 1dbd
000003d0: df6f c2bc 77c0 0b3d 5a57 fb3b 0615 8eba
000003e0: 7d28 463c 856d 81bd 4031 4dbd 3922 083d
000003f0: 865d 053c 4d6c 5ebc 8b02 443d c036 a6bc

conv2_state1.bias f4 [3]
1.5219168e-05 8.532818e-06 3.8819606e-05
00000000: d455 7f37 2d28 0f37 3cd2 2238

conv2_state2.weight f4 [3, 32, 3, 3]
0.05918486 0.0075289966 0.027579451 -0.015770845 0.018265225 -0.020442775 -0.021964677 0.026333664
-0.011452466 0.01955785 -0.014422907 0.041773062 0.061407473 -0.038092934 0.045707025 -0.0062724333
-0.012885143 -0.029842922 0.0054443916 0.07421799 0.101588726 -0.028456198 0.0861112 0.0836788
-0.08978254 -0.053823333 0.075066395 -0.039253753 0.015572677 0.05499215 0.0006188286 -0.0071402444
-0.026922941 0.013887508 -0.05498988 -0.04493214 -0.011467084 0.06620392 0.07099447 -0.018915627
0.00647327 -0.28743783 -0.020468544 -0.016366733 -0.015663065 -0.0073018936 0.03544004 -0.068254925
-0.022359384 0.05577129 0.16184244 -0.020423705 -0.008989316 -0.039254703 0.021344151 0.029635407
0.030612744 -0.018496128 -0.012204345 -0.04672969 -0.04428568 -0.002288114 0.059776366 0.045312293
-0.0044408976 0.008260774 -0.049101613 -0.010155337 0.018577892 -0.037008513 0.0013990275 -0.058139924
0.058776878 0.007350173 -0.009562522 -0.03241461 0.038766656 0.03964806 -0.016012194 -0.017590493
-0.0071447976 0.035099212 0.0029342482 0.062218856 0.028275605 0.013958425 0.07156373 -0.0008910246
-0.029312605 0.0554703 -0.019254757 0.019702338 0.09783606 -0.06500537 -0.008794997 -0.0021914768
-0.02991407 -0.00083346944 -0.038564995 0.007497354 0.021177338 0.022053333 -0.058786243 -0.031812895
0.007292965 0.049334876 0.021260776 0.027114566 -0.02194785 -0.044216365 -0.023667471 -0.039157517
-0.06629577 -0.079721674 -0.005288068 -0.017744632 -0.009844628 -0.0027639605 0.004974786 0.028392378
0.005523946 -0.03497451 0.02209094 -0.015316572 0.011019162 -0.052024662 0.0053814617 0.046859972
-0.04364446 0.028648725 -0.030145952 -0.038667817 -0.011048002 0.013480247 -0.034318637 0.03904019
-0.0024871007 -0.006196726 0.055008043 -0.013414416 0.016975347 -0.009975113 0.020483868 0.020499218
-0.03842225 0.13382679 -0.03833595 0.39259216 0.35932973 0.4036913 -2.0071579e-07 4.0448933e-07
0.2418146 0.012915578 -0.023658244 -0.009575002 0.010919299 0.013578995 -0.009817189 -0.046914607
-0.03659812 0.004249915 0.030112527 0.021737887 0.03127809 0.057816442 -0.028574051 -0.016976861
-0.011620481 0.01672923 0.09637896 0.010489233 -0.05358873 -0.024206601 0.02801255 -0.051914997
0.0014147602 -0.018364897 -0.012835499 -0.04649082 -0.042201526 0.046878032 0.04554239 0.0033244528
-0.00061349623 -0.05395062 0.02464072 -0.009234968 0.055323526 -0.024954831 0.0012878812 0.058818605
-0.05506671 0.065071665 -0.020326076 -0.0043389047 -0.0072209975 0.006383243 0.002758264 0.017012432
0.014865293 0.0005859027 0.0040771975 0.05623028 -0.045676783 -0.024516808 0.043150388 -0.023065932
-0.013202859 0.018974897 -0.025511235 -0.02623222 0.07324257 -0.0013081512 0.043156367 0.0500023
-0.022298582 0.005192421 0.005554437 0.016372787 0.049462847 0.03937513 -0.0010682807 -0.066438995
0.062533036 0.023162672 0.057006117 0.05124812 -0.040753715 -0.02189274 -0.11861789 -0.0534909
-0.059146106 -0.18811807 0.005810997 0.0057091233 -0.033409826 -0.024495976 -0.0024518967 0.0066314307
-0.0036042763 0.04622671 0.053467084 -0.022293903 0.014033863 0.020534577 0.024408415 0.026772631
-0.048145607 -0.0156163275 0.035520222 -0.032121625 0.023279801 0.044838034 0.0047777505 0.016683387
00000000: d36b 723d cdb5 f63b 4dee e13c dc31 81bc
00000010: f4a0 953c 9b77 a7bc 44ef b3bc b2b9 d73c
00000020: 20a3 3bbc c937 a03c 0e4e 6cbc 3b1a 2b3d
00000030: 6786 7b3d 5607 1cbd 4a37 3b3d fc88 cdbb
00000040: 351c 53bc 2579 f4bc de66 b23b 9aff 973d
00000050: c00d d03d f91c e9bc 125b b03d ca5f ab3d
00000060: e9df b7bd db75 5cbd 69bc 993d 8bc8 20bd
00000070: 8b24 7f3c 733f 613d e238 223a b6f8 e9bb
00000080: 808d dcbc 6e88 633c 123d 61bd c30a 38bd
00000090: 70e0 3bbc ec95 873d 8c65 913d f2f4 9abc
000000a0: b91d d43b 0d2b 93be a6ad a7bc 8713 86bc
000000b0: d44f 80bc b944 efbb 9329 113d 3dc9 8bbd
000000c0: 072b b7bc 7070 643d 06ba 253e 9d4f a7bc
000000d0: ed47 13bc 8ac9 20bd eed9 ae3c f4c5 f23c
000000e0: 94c7 fa3c 3185 97bc bcf4 47bc a267 3fbd
000000f0: e764 35bd 2ff4 15bb 10d8 743d 6299 393d
00000100: f384 91bb 3358 073c c61e 49bd 9262 26bc
00000110: aa30 983c 3d96 17bd 935f b73a 2124 6ebd
00000120: 06c0 703d b8d9 f03b 20ac 1cbc 2fc5 04bd
00000130: c9c9 1e3d 0166 223d 012c 83bc f019 90bc
00000140: e81e eabb 31c4 0f3d 844c 403b 33d9 7e3d
00000150: 3ea2 e73c e1b1 643c 0190 923d a693 69ba
00000160: fd20 f0bc d334 633d 27bc 9dbc cc66 a13c
00000170: 465e c83d 8921 85bd e418 10bc e19e 0fbb
00000180: 5a0e f5bc 307d 5aba 54f6 1dbd 5dac f53b
00000190: 197c ad3c 31a9 b43c d8c9 70bd 3d4e 02bd
000001a0: d3f9 ee3b 5e13 4a3d 142b ae3c 5e1f de3c
000001b0: facb b3bc 381c 35bd 49e2 c1bc a263 20bd
000001c0: 14c6 87bd 1e45 a3bd 8847 adbb 315d 91bc
000001d0: 5d4b 21bc 9023 35bb 8803 a33b 2297 e83c
000001e0: 3802 b53b 6f41 0fbd 0ff8 b43c 5cf2 7abc
000001f0: b789 343c d017 55bd f956 b03b 3ef0 3f3d
00000200: 89c4 32bd bbb0 ea3c a5f4 f6bc 2562 1ebd
00000210: ae02 35bc 41dc 5c3c b391 0cbd 9be8 1f3d
00000220: a0fe 22bb e80d cbbb 1d50 613d 24c8 5bbc
00000230: e20f 8b3c a86e 23bc c9cd a73c faed a73c
00000240: a660 1dbd e409 093e 2806 1dbd d701 c93e
00000250: 11fa b73e a0b0 ce3e 5684 57b4 9728 d934
00000260: 3f9e 773e dc9b 533c efce c1bc 78e0 1cbc
00000270: dce6 323c 6f7a 5e3c 46d8 20bc 8829 40bd
00000280: e9e7 15bd df42 8b3b 8cae f63c a713 b23c
00000290: 741d 003d efd0 6c3d 2114 eabc 0f13 8bbc
000002a0: d463 3ebc bd0b 893c 5562 c53d 08db 2b3c
000002b0: db7f 5bbd ec4c c6bc 937a e53c d2a4 54bd
000002c0: 7a6f b93a fb71 96bc fc4b 52bc 286d 3ebd
000002d0: 82db 2cbd 2e03 403d a88a 3a3d 10df 593b
000002e0: 09d3 20ba 53fb 5cbd 56db c93c 434e 17bc
000002f0: ec9a 623d 136e ccbc 1fce a83a c7eb 703d
00000300: a18d 61bd 4b44 853d df82 a6bc 5f2d 8ebb
00000310: 1e9e ecbb 862a d13b fec3 343b a85d 8b3c
00000320: 8f8d 733c 4497 193a 039a 853b b951 663d
00000330: 9417 3bbd 79d7 c8bc 76be 303d c4f4 bcbc
00000340: ce50 58bc 3e71 9b3c f0fc d0bc f4e4 d6bc
00000350: 3300 963d 4576 abba bbc4 303d 36cf 4c3d
00000360: 84ab b6bc 2f25 aa3b ff01 b63b 3920 863c
00000370: 8e99 4a3d d147 213d 8d05 8cba 2b11 88bd
00000380: 5211 803d a5bf bd3c 3f7f 693d 8ce9 513d
00000390: 5eed 26bd 6758 b3bc f0ed f2bd 4619 5bbd
000003a0: 3043 72bd 06a2 40be 2d6a be3b 9913 bb3b
000003b0: bed8 08bd c9ab c8bc 00b0 20bb 794c d93b
000003c0: b935 6cbb 3858 3d3d 4d00 5b3d b4a1 b6bc
000003d0: 4aee 653c 2138 a83c 28f4 c73c 4752 db3c
000003e0: 5434 45bd a0db 7fbc a77d 113d f791 03bd
000003f0: 48b5 be3c 16a8 373d ad8e 9c3b 99ab 883c

conv2_state2.bias f4 [3]
1.599018e-05 2.5897507e-05 -2.2637757e-08
00000000: a622 8637 793e d937 f474 c2b2
